<?xml version="1.0"?>
<net name="torch-jit-export" version="11">
	<layers>
		<layer id="0" name="image" type="Parameter" version="opset1">
			<data shape="1,3,320,320" element_type="f32" />
			<rt_info>
				<attribute name="old_api_map_element_type" version="0" value="f16" />
			</rt_info>
			<output>
				<port id="0" precision="FP32" names="image">
					<dim>1</dim>
					<dim>3</dim>
					<dim>320</dim>
					<dim>320</dim>
					<rt_info>
						<attribute name="layout" version="0" layout="[N,C,H,W]" />
					</rt_info>
				</port>
			</output>
		</layer>
		<layer id="1" name="1260_compressed" type="Const" version="opset1">
			<data element_type="f16" shape="1600, 2" offset="0" size="6400" />
			<output>
				<port id="0" precision="FP16">
					<dim>1600</dim>
					<dim>2</dim>
				</port>
			</output>
		</layer>
		<layer id="2" name="1260" type="Convert" version="opset1">
			<data destination_type="f32" />
			<rt_info>
				<attribute name="decompression" version="0" />
			</rt_info>
			<input>
				<port id="0" precision="FP16">
					<dim>1600</dim>
					<dim>2</dim>
				</port>
			</input>
			<output>
				<port id="1" precision="FP32" names="1260">
					<dim>1600</dim>
					<dim>2</dim>
				</port>
			</output>
		</layer>
		<layer id="3" name="Gather_28979_compressed" type="Const" version="opset1">
			<data element_type="f16" shape="1, 3, 1, 1" offset="6400" size="6" />
			<rt_info>
				<attribute name="preprocessing" version="0" />
			</rt_info>
			<output>
				<port id="0" precision="FP16">
					<dim>1</dim>
					<dim>3</dim>
					<dim>1</dim>
					<dim>1</dim>
				</port>
			</output>
		</layer>
		<layer id="4" name="Gather_28979" type="Convert" version="opset1">
			<data destination_type="f32" />
			<rt_info>
				<attribute name="decompression" version="0" />
				<attribute name="preprocessing" version="0" />
			</rt_info>
			<input>
				<port id="0" precision="FP16">
					<dim>1</dim>
					<dim>3</dim>
					<dim>1</dim>
					<dim>1</dim>
				</port>
			</input>
			<output>
				<port id="1" precision="FP32">
					<dim>1</dim>
					<dim>3</dim>
					<dim>1</dim>
					<dim>1</dim>
				</port>
			</output>
		</layer>
		<layer id="5" name="Subtract_5515" type="Subtract" version="opset1">
			<data auto_broadcast="numpy" />
			<rt_info>
				<attribute name="preprocessing" version="0" />
			</rt_info>
			<input>
				<port id="0" precision="FP32">
					<dim>1</dim>
					<dim>3</dim>
					<dim>320</dim>
					<dim>320</dim>
				</port>
				<port id="1" precision="FP32">
					<dim>1</dim>
					<dim>3</dim>
					<dim>1</dim>
					<dim>1</dim>
				</port>
			</input>
			<output>
				<port id="2" precision="FP32">
					<dim>1</dim>
					<dim>3</dim>
					<dim>320</dim>
					<dim>320</dim>
				</port>
			</output>
		</layer>
		<layer id="6" name="Gather_28982_compressed" type="Const" version="opset1">
			<data element_type="f16" shape="24, 3, 3, 3" offset="6406" size="1296" />
			<rt_info>
				<attribute name="preprocessing" version="0" />
			</rt_info>
			<output>
				<port id="0" precision="FP16">
					<dim>24</dim>
					<dim>3</dim>
					<dim>3</dim>
					<dim>3</dim>
				</port>
			</output>
		</layer>
		<layer id="7" name="Gather_28982" type="Convert" version="opset1">
			<data destination_type="f32" />
			<rt_info>
				<attribute name="decompression" version="0" />
				<attribute name="preprocessing" version="0" />
			</rt_info>
			<input>
				<port id="0" precision="FP16">
					<dim>24</dim>
					<dim>3</dim>
					<dim>3</dim>
					<dim>3</dim>
				</port>
			</input>
			<output>
				<port id="1" precision="FP32">
					<dim>24</dim>
					<dim>3</dim>
					<dim>3</dim>
					<dim>3</dim>
				</port>
			</output>
		</layer>
		<layer id="8" name="Multiply_27423" type="Convolution" version="opset1">
			<data strides="2, 2" dilations="1, 1" pads_begin="1, 1" pads_end="1, 1" auto_pad="explicit" />
			<rt_info>
				<attribute name="preprocessing" version="0" />
			</rt_info>
			<input>
				<port id="0" precision="FP32">
					<dim>1</dim>
					<dim>3</dim>
					<dim>320</dim>
					<dim>320</dim>
				</port>
				<port id="1" precision="FP32">
					<dim>24</dim>
					<dim>3</dim>
					<dim>3</dim>
					<dim>3</dim>
				</port>
			</input>
			<output>
				<port id="2" precision="FP32">
					<dim>1</dim>
					<dim>24</dim>
					<dim>160</dim>
					<dim>160</dim>
				</port>
			</output>
		</layer>
		<layer id="9" name="Constant_27428_compressed" type="Const" version="opset1">
			<data element_type="f16" shape="1, 24, 1, 1" offset="7702" size="48" />
			<output>
				<port id="0" precision="FP16">
					<dim>1</dim>
					<dim>24</dim>
					<dim>1</dim>
					<dim>1</dim>
				</port>
			</output>
		</layer>
		<layer id="10" name="Constant_27428" type="Convert" version="opset1">
			<data destination_type="f32" />
			<rt_info>
				<attribute name="decompression" version="0" />
			</rt_info>
			<input>
				<port id="0" precision="FP16">
					<dim>1</dim>
					<dim>24</dim>
					<dim>1</dim>
					<dim>1</dim>
				</port>
			</input>
			<output>
				<port id="1" precision="FP32">
					<dim>1</dim>
					<dim>24</dim>
					<dim>1</dim>
					<dim>1</dim>
				</port>
			</output>
		</layer>
		<layer id="11" name="391" type="Add" version="opset1">
			<data auto_broadcast="numpy" />
			<input>
				<port id="0" precision="FP32">
					<dim>1</dim>
					<dim>24</dim>
					<dim>160</dim>
					<dim>160</dim>
				</port>
				<port id="1" precision="FP32">
					<dim>1</dim>
					<dim>24</dim>
					<dim>1</dim>
					<dim>1</dim>
				</port>
			</input>
			<output>
				<port id="2" precision="FP32" names="391">
					<dim>1</dim>
					<dim>24</dim>
					<dim>160</dim>
					<dim>160</dim>
				</port>
			</output>
		</layer>
		<layer id="12" name="392" type="ReLU" version="opset1">
			<input>
				<port id="0" precision="FP32">
					<dim>1</dim>
					<dim>24</dim>
					<dim>160</dim>
					<dim>160</dim>
				</port>
			</input>
			<output>
				<port id="1" precision="FP32" names="392">
					<dim>1</dim>
					<dim>24</dim>
					<dim>160</dim>
					<dim>160</dim>
				</port>
			</output>
		</layer>
		<layer id="13" name="393" type="MaxPool" version="opset8">
			<data strides="2, 2" dilations="1, 1" pads_begin="0, 0" pads_end="0, 0" kernel="3, 3" rounding_type="ceil" auto_pad="explicit" index_element_type="i64" axis="0" />
			<input>
				<port id="0" precision="FP32">
					<dim>1</dim>
					<dim>24</dim>
					<dim>160</dim>
					<dim>160</dim>
				</port>
			</input>
			<output>
				<port id="1" precision="FP32" names="393">
					<dim>1</dim>
					<dim>24</dim>
					<dim>80</dim>
					<dim>80</dim>
				</port>
				<port id="2" precision="I64">
					<dim>1</dim>
					<dim>24</dim>
					<dim>80</dim>
					<dim>80</dim>
				</port>
			</output>
		</layer>
		<layer id="14" name="Multiply_27841_compressed" type="Const" version="opset1">
			<data element_type="f16" shape="24, 1, 1, 3, 3" offset="7750" size="432" />
			<output>
				<port id="0" precision="FP16">
					<dim>24</dim>
					<dim>1</dim>
					<dim>1</dim>
					<dim>3</dim>
					<dim>3</dim>
				</port>
			</output>
		</layer>
		<layer id="15" name="Multiply_27841" type="Convert" version="opset1">
			<data destination_type="f32" />
			<rt_info>
				<attribute name="decompression" version="0" />
			</rt_info>
			<input>
				<port id="0" precision="FP16">
					<dim>24</dim>
					<dim>1</dim>
					<dim>1</dim>
					<dim>3</dim>
					<dim>3</dim>
				</port>
			</input>
			<output>
				<port id="1" precision="FP32">
					<dim>24</dim>
					<dim>1</dim>
					<dim>1</dim>
					<dim>3</dim>
					<dim>3</dim>
				</port>
			</output>
		</layer>
		<layer id="16" name="Multiply_27430" type="GroupConvolution" version="opset1">
			<data strides="2, 2" pads_begin="1, 1" pads_end="1, 1" dilations="1, 1" auto_pad="explicit" />
			<input>
				<port id="0" precision="FP32">
					<dim>1</dim>
					<dim>24</dim>
					<dim>80</dim>
					<dim>80</dim>
				</port>
				<port id="1" precision="FP32">
					<dim>24</dim>
					<dim>1</dim>
					<dim>1</dim>
					<dim>3</dim>
					<dim>3</dim>
				</port>
			</input>
			<output>
				<port id="2" precision="FP32" names="394">
					<dim>1</dim>
					<dim>24</dim>
					<dim>40</dim>
					<dim>40</dim>
				</port>
			</output>
		</layer>
		<layer id="17" name="Constant_27435_compressed" type="Const" version="opset1">
			<data element_type="f16" shape="1, 24, 1, 1" offset="8182" size="48" />
			<output>
				<port id="0" precision="FP16">
					<dim>1</dim>
					<dim>24</dim>
					<dim>1</dim>
					<dim>1</dim>
				</port>
			</output>
		</layer>
		<layer id="18" name="Constant_27435" type="Convert" version="opset1">
			<data destination_type="f32" />
			<rt_info>
				<attribute name="decompression" version="0" />
			</rt_info>
			<input>
				<port id="0" precision="FP16">
					<dim>1</dim>
					<dim>24</dim>
					<dim>1</dim>
					<dim>1</dim>
				</port>
			</input>
			<output>
				<port id="1" precision="FP32">
					<dim>1</dim>
					<dim>24</dim>
					<dim>1</dim>
					<dim>1</dim>
				</port>
			</output>
		</layer>
		<layer id="19" name="395" type="Add" version="opset1">
			<data auto_broadcast="numpy" />
			<input>
				<port id="0" precision="FP32">
					<dim>1</dim>
					<dim>24</dim>
					<dim>40</dim>
					<dim>40</dim>
				</port>
				<port id="1" precision="FP32">
					<dim>1</dim>
					<dim>24</dim>
					<dim>1</dim>
					<dim>1</dim>
				</port>
			</input>
			<output>
				<port id="2" precision="FP32" names="395">
					<dim>1</dim>
					<dim>24</dim>
					<dim>40</dim>
					<dim>40</dim>
				</port>
			</output>
		</layer>
		<layer id="20" name="Multiply_27846_compressed" type="Const" version="opset1">
			<data element_type="f16" shape="58, 24, 1, 1" offset="8230" size="2784" />
			<output>
				<port id="0" precision="FP16">
					<dim>58</dim>
					<dim>24</dim>
					<dim>1</dim>
					<dim>1</dim>
				</port>
			</output>
		</layer>
		<layer id="21" name="Multiply_27846" type="Convert" version="opset1">
			<data destination_type="f32" />
			<rt_info>
				<attribute name="decompression" version="0" />
			</rt_info>
			<input>
				<port id="0" precision="FP16">
					<dim>58</dim>
					<dim>24</dim>
					<dim>1</dim>
					<dim>1</dim>
				</port>
			</input>
			<output>
				<port id="1" precision="FP32">
					<dim>58</dim>
					<dim>24</dim>
					<dim>1</dim>
					<dim>1</dim>
				</port>
			</output>
		</layer>
		<layer id="22" name="Multiply_27437" type="Convolution" version="opset1">
			<data strides="1, 1" dilations="1, 1" pads_begin="0, 0" pads_end="0, 0" auto_pad="explicit" />
			<input>
				<port id="0" precision="FP32">
					<dim>1</dim>
					<dim>24</dim>
					<dim>40</dim>
					<dim>40</dim>
				</port>
				<port id="1" precision="FP32">
					<dim>58</dim>
					<dim>24</dim>
					<dim>1</dim>
					<dim>1</dim>
				</port>
			</input>
			<output>
				<port id="2" precision="FP32">
					<dim>1</dim>
					<dim>58</dim>
					<dim>40</dim>
					<dim>40</dim>
				</port>
			</output>
		</layer>
		<layer id="23" name="Constant_27442_compressed" type="Const" version="opset1">
			<data element_type="f16" shape="1, 58, 1, 1" offset="11014" size="116" />
			<output>
				<port id="0" precision="FP16">
					<dim>1</dim>
					<dim>58</dim>
					<dim>1</dim>
					<dim>1</dim>
				</port>
			</output>
		</layer>
		<layer id="24" name="Constant_27442" type="Convert" version="opset1">
			<data destination_type="f32" />
			<rt_info>
				<attribute name="decompression" version="0" />
			</rt_info>
			<input>
				<port id="0" precision="FP16">
					<dim>1</dim>
					<dim>58</dim>
					<dim>1</dim>
					<dim>1</dim>
				</port>
			</input>
			<output>
				<port id="1" precision="FP32">
					<dim>1</dim>
					<dim>58</dim>
					<dim>1</dim>
					<dim>1</dim>
				</port>
			</output>
		</layer>
		<layer id="25" name="397" type="Add" version="opset1">
			<data auto_broadcast="numpy" />
			<input>
				<port id="0" precision="FP32">
					<dim>1</dim>
					<dim>58</dim>
					<dim>40</dim>
					<dim>40</dim>
				</port>
				<port id="1" precision="FP32">
					<dim>1</dim>
					<dim>58</dim>
					<dim>1</dim>
					<dim>1</dim>
				</port>
			</input>
			<output>
				<port id="2" precision="FP32" names="397">
					<dim>1</dim>
					<dim>58</dim>
					<dim>40</dim>
					<dim>40</dim>
				</port>
			</output>
		</layer>
		<layer id="26" name="398" type="ReLU" version="opset1">
			<input>
				<port id="0" precision="FP32">
					<dim>1</dim>
					<dim>58</dim>
					<dim>40</dim>
					<dim>40</dim>
				</port>
			</input>
			<output>
				<port id="1" precision="FP32" names="398">
					<dim>1</dim>
					<dim>58</dim>
					<dim>40</dim>
					<dim>40</dim>
				</port>
			</output>
		</layer>
		<layer id="27" name="Multiply_27852_compressed" type="Const" version="opset1">
			<data element_type="f16" shape="58, 24, 1, 1" offset="11130" size="2784" />
			<output>
				<port id="0" precision="FP16">
					<dim>58</dim>
					<dim>24</dim>
					<dim>1</dim>
					<dim>1</dim>
				</port>
			</output>
		</layer>
		<layer id="28" name="Multiply_27852" type="Convert" version="opset1">
			<data destination_type="f32" />
			<rt_info>
				<attribute name="decompression" version="0" />
			</rt_info>
			<input>
				<port id="0" precision="FP16">
					<dim>58</dim>
					<dim>24</dim>
					<dim>1</dim>
					<dim>1</dim>
				</port>
			</input>
			<output>
				<port id="1" precision="FP32">
					<dim>58</dim>
					<dim>24</dim>
					<dim>1</dim>
					<dim>1</dim>
				</port>
			</output>
		</layer>
		<layer id="29" name="Multiply_27444" type="Convolution" version="opset1">
			<data strides="1, 1" dilations="1, 1" pads_begin="0, 0" pads_end="0, 0" auto_pad="explicit" />
			<input>
				<port id="0" precision="FP32">
					<dim>1</dim>
					<dim>24</dim>
					<dim>80</dim>
					<dim>80</dim>
				</port>
				<port id="1" precision="FP32">
					<dim>58</dim>
					<dim>24</dim>
					<dim>1</dim>
					<dim>1</dim>
				</port>
			</input>
			<output>
				<port id="2" precision="FP32">
					<dim>1</dim>
					<dim>58</dim>
					<dim>80</dim>
					<dim>80</dim>
				</port>
			</output>
		</layer>
		<layer id="30" name="Constant_27449_compressed" type="Const" version="opset1">
			<data element_type="f16" shape="1, 58, 1, 1" offset="13914" size="116" />
			<output>
				<port id="0" precision="FP16">
					<dim>1</dim>
					<dim>58</dim>
					<dim>1</dim>
					<dim>1</dim>
				</port>
			</output>
		</layer>
		<layer id="31" name="Constant_27449" type="Convert" version="opset1">
			<data destination_type="f32" />
			<rt_info>
				<attribute name="decompression" version="0" />
			</rt_info>
			<input>
				<port id="0" precision="FP16">
					<dim>1</dim>
					<dim>58</dim>
					<dim>1</dim>
					<dim>1</dim>
				</port>
			</input>
			<output>
				<port id="1" precision="FP32">
					<dim>1</dim>
					<dim>58</dim>
					<dim>1</dim>
					<dim>1</dim>
				</port>
			</output>
		</layer>
		<layer id="32" name="400" type="Add" version="opset1">
			<data auto_broadcast="numpy" />
			<input>
				<port id="0" precision="FP32">
					<dim>1</dim>
					<dim>58</dim>
					<dim>80</dim>
					<dim>80</dim>
				</port>
				<port id="1" precision="FP32">
					<dim>1</dim>
					<dim>58</dim>
					<dim>1</dim>
					<dim>1</dim>
				</port>
			</input>
			<output>
				<port id="2" precision="FP32" names="400">
					<dim>1</dim>
					<dim>58</dim>
					<dim>80</dim>
					<dim>80</dim>
				</port>
			</output>
		</layer>
		<layer id="33" name="401" type="ReLU" version="opset1">
			<input>
				<port id="0" precision="FP32">
					<dim>1</dim>
					<dim>58</dim>
					<dim>80</dim>
					<dim>80</dim>
				</port>
			</input>
			<output>
				<port id="1" precision="FP32" names="401">
					<dim>1</dim>
					<dim>58</dim>
					<dim>80</dim>
					<dim>80</dim>
				</port>
			</output>
		</layer>
		<layer id="34" name="Multiply_27858_compressed" type="Const" version="opset1">
			<data element_type="f16" shape="58, 1, 1, 3, 3" offset="14030" size="1044" />
			<output>
				<port id="0" precision="FP16">
					<dim>58</dim>
					<dim>1</dim>
					<dim>1</dim>
					<dim>3</dim>
					<dim>3</dim>
				</port>
			</output>
		</layer>
		<layer id="35" name="Multiply_27858" type="Convert" version="opset1">
			<data destination_type="f32" />
			<rt_info>
				<attribute name="decompression" version="0" />
			</rt_info>
			<input>
				<port id="0" precision="FP16">
					<dim>58</dim>
					<dim>1</dim>
					<dim>1</dim>
					<dim>3</dim>
					<dim>3</dim>
				</port>
			</input>
			<output>
				<port id="1" precision="FP32">
					<dim>58</dim>
					<dim>1</dim>
					<dim>1</dim>
					<dim>3</dim>
					<dim>3</dim>
				</port>
			</output>
		</layer>
		<layer id="36" name="Multiply_27451" type="GroupConvolution" version="opset1">
			<data strides="2, 2" pads_begin="1, 1" pads_end="1, 1" dilations="1, 1" auto_pad="explicit" />
			<input>
				<port id="0" precision="FP32">
					<dim>1</dim>
					<dim>58</dim>
					<dim>80</dim>
					<dim>80</dim>
				</port>
				<port id="1" precision="FP32">
					<dim>58</dim>
					<dim>1</dim>
					<dim>1</dim>
					<dim>3</dim>
					<dim>3</dim>
				</port>
			</input>
			<output>
				<port id="2" precision="FP32" names="402">
					<dim>1</dim>
					<dim>58</dim>
					<dim>40</dim>
					<dim>40</dim>
				</port>
			</output>
		</layer>
		<layer id="37" name="Constant_27456_compressed" type="Const" version="opset1">
			<data element_type="f16" shape="1, 58, 1, 1" offset="15074" size="116" />
			<output>
				<port id="0" precision="FP16">
					<dim>1</dim>
					<dim>58</dim>
					<dim>1</dim>
					<dim>1</dim>
				</port>
			</output>
		</layer>
		<layer id="38" name="Constant_27456" type="Convert" version="opset1">
			<data destination_type="f32" />
			<rt_info>
				<attribute name="decompression" version="0" />
			</rt_info>
			<input>
				<port id="0" precision="FP16">
					<dim>1</dim>
					<dim>58</dim>
					<dim>1</dim>
					<dim>1</dim>
				</port>
			</input>
			<output>
				<port id="1" precision="FP32">
					<dim>1</dim>
					<dim>58</dim>
					<dim>1</dim>
					<dim>1</dim>
				</port>
			</output>
		</layer>
		<layer id="39" name="403" type="Add" version="opset1">
			<data auto_broadcast="numpy" />
			<input>
				<port id="0" precision="FP32">
					<dim>1</dim>
					<dim>58</dim>
					<dim>40</dim>
					<dim>40</dim>
				</port>
				<port id="1" precision="FP32">
					<dim>1</dim>
					<dim>58</dim>
					<dim>1</dim>
					<dim>1</dim>
				</port>
			</input>
			<output>
				<port id="2" precision="FP32" names="403">
					<dim>1</dim>
					<dim>58</dim>
					<dim>40</dim>
					<dim>40</dim>
				</port>
			</output>
		</layer>
		<layer id="40" name="Multiply_27863_compressed" type="Const" version="opset1">
			<data element_type="f16" shape="58, 58, 1, 1" offset="15190" size="6728" />
			<output>
				<port id="0" precision="FP16">
					<dim>58</dim>
					<dim>58</dim>
					<dim>1</dim>
					<dim>1</dim>
				</port>
			</output>
		</layer>
		<layer id="41" name="Multiply_27863" type="Convert" version="opset1">
			<data destination_type="f32" />
			<rt_info>
				<attribute name="decompression" version="0" />
			</rt_info>
			<input>
				<port id="0" precision="FP16">
					<dim>58</dim>
					<dim>58</dim>
					<dim>1</dim>
					<dim>1</dim>
				</port>
			</input>
			<output>
				<port id="1" precision="FP32">
					<dim>58</dim>
					<dim>58</dim>
					<dim>1</dim>
					<dim>1</dim>
				</port>
			</output>
		</layer>
		<layer id="42" name="Multiply_27458" type="Convolution" version="opset1">
			<data strides="1, 1" dilations="1, 1" pads_begin="0, 0" pads_end="0, 0" auto_pad="explicit" />
			<input>
				<port id="0" precision="FP32">
					<dim>1</dim>
					<dim>58</dim>
					<dim>40</dim>
					<dim>40</dim>
				</port>
				<port id="1" precision="FP32">
					<dim>58</dim>
					<dim>58</dim>
					<dim>1</dim>
					<dim>1</dim>
				</port>
			</input>
			<output>
				<port id="2" precision="FP32">
					<dim>1</dim>
					<dim>58</dim>
					<dim>40</dim>
					<dim>40</dim>
				</port>
			</output>
		</layer>
		<layer id="43" name="Constant_27463_compressed" type="Const" version="opset1">
			<data element_type="f16" shape="1, 58, 1, 1" offset="21918" size="116" />
			<output>
				<port id="0" precision="FP16">
					<dim>1</dim>
					<dim>58</dim>
					<dim>1</dim>
					<dim>1</dim>
				</port>
			</output>
		</layer>
		<layer id="44" name="Constant_27463" type="Convert" version="opset1">
			<data destination_type="f32" />
			<rt_info>
				<attribute name="decompression" version="0" />
			</rt_info>
			<input>
				<port id="0" precision="FP16">
					<dim>1</dim>
					<dim>58</dim>
					<dim>1</dim>
					<dim>1</dim>
				</port>
			</input>
			<output>
				<port id="1" precision="FP32">
					<dim>1</dim>
					<dim>58</dim>
					<dim>1</dim>
					<dim>1</dim>
				</port>
			</output>
		</layer>
		<layer id="45" name="405" type="Add" version="opset1">
			<data auto_broadcast="numpy" />
			<input>
				<port id="0" precision="FP32">
					<dim>1</dim>
					<dim>58</dim>
					<dim>40</dim>
					<dim>40</dim>
				</port>
				<port id="1" precision="FP32">
					<dim>1</dim>
					<dim>58</dim>
					<dim>1</dim>
					<dim>1</dim>
				</port>
			</input>
			<output>
				<port id="2" precision="FP32" names="405">
					<dim>1</dim>
					<dim>58</dim>
					<dim>40</dim>
					<dim>40</dim>
				</port>
			</output>
		</layer>
		<layer id="46" name="406" type="ReLU" version="opset1">
			<input>
				<port id="0" precision="FP32">
					<dim>1</dim>
					<dim>58</dim>
					<dim>40</dim>
					<dim>40</dim>
				</port>
			</input>
			<output>
				<port id="1" precision="FP32" names="406">
					<dim>1</dim>
					<dim>58</dim>
					<dim>40</dim>
					<dim>40</dim>
				</port>
			</output>
		</layer>
		<layer id="47" name="407" type="Concat" version="opset1">
			<data axis="1" />
			<input>
				<port id="0" precision="FP32">
					<dim>1</dim>
					<dim>58</dim>
					<dim>40</dim>
					<dim>40</dim>
				</port>
				<port id="1" precision="FP32">
					<dim>1</dim>
					<dim>58</dim>
					<dim>40</dim>
					<dim>40</dim>
				</port>
			</input>
			<output>
				<port id="2" precision="FP32" names="407">
					<dim>1</dim>
					<dim>116</dim>
					<dim>40</dim>
					<dim>40</dim>
				</port>
			</output>
		</layer>
		<layer id="48" name="Constant_20566" type="Const" version="opset1">
			<data element_type="i64" shape="1" offset="22034" size="8" />
			<output>
				<port id="0" precision="I64">
					<dim>1</dim>
				</port>
			</output>
		</layer>
		<layer id="49" name="424" type="Const" version="opset1">
			<data element_type="i64" shape="1" offset="22042" size="8" />
			<output>
				<port id="0" precision="I64" names="424">
					<dim>1</dim>
				</port>
			</output>
		</layer>
		<layer id="50" name="409" type="ShapeOf" version="opset3">
			<data output_type="i64" />
			<input>
				<port id="0" precision="FP32">
					<dim>1</dim>
					<dim>116</dim>
					<dim>40</dim>
					<dim>40</dim>
				</port>
			</input>
			<output>
				<port id="1" precision="I64" names="409,412,415,418,435">
					<dim>4</dim>
				</port>
			</output>
		</layer>
		<layer id="51" name="411" type="Const" version="opset1">
			<data element_type="i64" shape="" offset="22050" size="8" />
			<output>
				<port id="0" precision="I64" names="411" />
			</output>
		</layer>
		<layer id="52" name="Constant_454" type="Const" version="opset1">
			<data element_type="i64" shape="" offset="22034" size="8" />
			<output>
				<port id="0" precision="I64" />
			</output>
		</layer>
		<layer id="53" name="413" type="Gather" version="opset8">
			<data batch_dims="0" />
			<input>
				<port id="0" precision="I64">
					<dim>4</dim>
				</port>
				<port id="1" precision="I64" />
				<port id="2" precision="I64" />
			</input>
			<output>
				<port id="3" precision="I64" names="413" />
			</output>
		</layer>
		<layer id="54" name="420" type="Const" version="opset1">
			<data element_type="i64" shape="" offset="22042" size="8" />
			<output>
				<port id="0" precision="I64" names="420" />
			</output>
		</layer>
		<layer id="55" name="421" type="Divide" version="opset1">
			<data auto_broadcast="numpy" m_pythondiv="true" />
			<input>
				<port id="0" precision="I64" />
				<port id="1" precision="I64" />
			</input>
			<output>
				<port id="2" precision="I64" names="421" />
			</output>
		</layer>
		<layer id="56" name="1741" type="Const" version="opset1">
			<data element_type="i64" shape="1" offset="22034" size="8" />
			<output>
				<port id="0" precision="I64" names="1741">
					<dim>1</dim>
				</port>
			</output>
		</layer>
		<layer id="57" name="425" type="Unsqueeze" version="opset1">
			<input>
				<port id="0" precision="I64" />
				<port id="1" precision="I64">
					<dim>1</dim>
				</port>
			</input>
			<output>
				<port id="2" precision="I64" names="425">
					<dim>1</dim>
				</port>
			</output>
		</layer>
		<layer id="58" name="Constant_19171" type="Const" version="opset1">
			<data element_type="i64" shape="2" offset="22058" size="16" />
			<output>
				<port id="0" precision="I64">
					<dim>2</dim>
				</port>
			</output>
		</layer>
		<layer id="59" name="Constant_19172" type="Const" version="opset1">
			<data element_type="i64" shape="" offset="22034" size="8" />
			<output>
				<port id="0" precision="I64" />
			</output>
		</layer>
		<layer id="60" name="Gather_19173" type="Gather" version="opset8">
			<data batch_dims="0" />
			<input>
				<port id="0" precision="I64">
					<dim>4</dim>
				</port>
				<port id="1" precision="I64">
					<dim>2</dim>
				</port>
				<port id="2" precision="I64" />
			</input>
			<output>
				<port id="3" precision="I64">
					<dim>2</dim>
				</port>
			</output>
		</layer>
		<layer id="61" name="428" type="Concat" version="opset1">
			<data axis="0" />
			<input>
				<port id="0" precision="I64">
					<dim>1</dim>
				</port>
				<port id="1" precision="I64">
					<dim>1</dim>
				</port>
				<port id="2" precision="I64">
					<dim>1</dim>
				</port>
				<port id="3" precision="I64">
					<dim>2</dim>
				</port>
			</input>
			<output>
				<port id="4" precision="I64">
					<dim>5</dim>
				</port>
			</output>
		</layer>
		<layer id="62" name="429" type="Reshape" version="opset1">
			<data special_zero="true" />
			<input>
				<port id="0" precision="FP32">
					<dim>1</dim>
					<dim>116</dim>
					<dim>40</dim>
					<dim>40</dim>
				</port>
				<port id="1" precision="I64">
					<dim>5</dim>
				</port>
			</input>
			<output>
				<port id="2" precision="FP32" names="429">
					<dim>1</dim>
					<dim>2</dim>
					<dim>58</dim>
					<dim>40</dim>
					<dim>40</dim>
				</port>
			</output>
		</layer>
		<layer id="63" name="Constant_519" type="Const" version="opset1">
			<data element_type="i64" shape="5" offset="22074" size="40" />
			<output>
				<port id="0" precision="I64">
					<dim>5</dim>
				</port>
			</output>
		</layer>
		<layer id="64" name="430" type="Transpose" version="opset1">
			<input>
				<port id="0" precision="FP32">
					<dim>1</dim>
					<dim>2</dim>
					<dim>58</dim>
					<dim>40</dim>
					<dim>40</dim>
				</port>
				<port id="1" precision="I64">
					<dim>5</dim>
				</port>
			</input>
			<output>
				<port id="2" precision="FP32" names="430">
					<dim>1</dim>
					<dim>58</dim>
					<dim>2</dim>
					<dim>40</dim>
					<dim>40</dim>
				</port>
			</output>
		</layer>
		<layer id="65" name="436" type="Reshape" version="opset1">
			<data special_zero="true" />
			<input>
				<port id="0" precision="FP32">
					<dim>1</dim>
					<dim>58</dim>
					<dim>2</dim>
					<dim>40</dim>
					<dim>40</dim>
				</port>
				<port id="1" precision="I64">
					<dim>4</dim>
				</port>
			</input>
			<output>
				<port id="2" precision="FP32" names="436">
					<dim>1</dim>
					<dim>116</dim>
					<dim>40</dim>
					<dim>40</dim>
				</port>
			</output>
		</layer>
		<layer id="66" name="Constant_534" type="Const" version="opset1">
			<data element_type="i64" shape="" offset="22050" size="8" />
			<output>
				<port id="0" precision="I64" />
			</output>
		</layer>
		<layer id="67" name="1748" type="Const" version="opset1">
			<data element_type="i64" shape="2" offset="22114" size="16" />
			<output>
				<port id="0" precision="I64" names="1748">
					<dim>2</dim>
				</port>
			</output>
		</layer>
		<layer id="68" name="438" type="VariadicSplit" version="opset1">
			<input>
				<port id="0" precision="FP32">
					<dim>1</dim>
					<dim>116</dim>
					<dim>40</dim>
					<dim>40</dim>
				</port>
				<port id="1" precision="I64" />
				<port id="2" precision="I64">
					<dim>2</dim>
				</port>
			</input>
			<output>
				<port id="3" precision="FP32" names="437">
					<dim>1</dim>
					<dim>58</dim>
					<dim>40</dim>
					<dim>40</dim>
				</port>
				<port id="4" precision="FP32" names="438">
					<dim>1</dim>
					<dim>58</dim>
					<dim>40</dim>
					<dim>40</dim>
				</port>
			</output>
		</layer>
		<layer id="69" name="Multiply_27869_compressed" type="Const" version="opset1">
			<data element_type="f16" shape="58, 58, 1, 1" offset="22130" size="6728" />
			<output>
				<port id="0" precision="FP16">
					<dim>58</dim>
					<dim>58</dim>
					<dim>1</dim>
					<dim>1</dim>
				</port>
			</output>
		</layer>
		<layer id="70" name="Multiply_27869" type="Convert" version="opset1">
			<data destination_type="f32" />
			<rt_info>
				<attribute name="decompression" version="0" />
			</rt_info>
			<input>
				<port id="0" precision="FP16">
					<dim>58</dim>
					<dim>58</dim>
					<dim>1</dim>
					<dim>1</dim>
				</port>
			</input>
			<output>
				<port id="1" precision="FP32">
					<dim>58</dim>
					<dim>58</dim>
					<dim>1</dim>
					<dim>1</dim>
				</port>
			</output>
		</layer>
		<layer id="71" name="Multiply_27465" type="Convolution" version="opset1">
			<data strides="1, 1" dilations="1, 1" pads_begin="0, 0" pads_end="0, 0" auto_pad="explicit" />
			<input>
				<port id="0" precision="FP32">
					<dim>1</dim>
					<dim>58</dim>
					<dim>40</dim>
					<dim>40</dim>
				</port>
				<port id="1" precision="FP32">
					<dim>58</dim>
					<dim>58</dim>
					<dim>1</dim>
					<dim>1</dim>
				</port>
			</input>
			<output>
				<port id="2" precision="FP32">
					<dim>1</dim>
					<dim>58</dim>
					<dim>40</dim>
					<dim>40</dim>
				</port>
			</output>
		</layer>
		<layer id="72" name="Constant_27470_compressed" type="Const" version="opset1">
			<data element_type="f16" shape="1, 58, 1, 1" offset="28858" size="116" />
			<output>
				<port id="0" precision="FP16">
					<dim>1</dim>
					<dim>58</dim>
					<dim>1</dim>
					<dim>1</dim>
				</port>
			</output>
		</layer>
		<layer id="73" name="Constant_27470" type="Convert" version="opset1">
			<data destination_type="f32" />
			<rt_info>
				<attribute name="decompression" version="0" />
			</rt_info>
			<input>
				<port id="0" precision="FP16">
					<dim>1</dim>
					<dim>58</dim>
					<dim>1</dim>
					<dim>1</dim>
				</port>
			</input>
			<output>
				<port id="1" precision="FP32">
					<dim>1</dim>
					<dim>58</dim>
					<dim>1</dim>
					<dim>1</dim>
				</port>
			</output>
		</layer>
		<layer id="74" name="440" type="Add" version="opset1">
			<data auto_broadcast="numpy" />
			<input>
				<port id="0" precision="FP32">
					<dim>1</dim>
					<dim>58</dim>
					<dim>40</dim>
					<dim>40</dim>
				</port>
				<port id="1" precision="FP32">
					<dim>1</dim>
					<dim>58</dim>
					<dim>1</dim>
					<dim>1</dim>
				</port>
			</input>
			<output>
				<port id="2" precision="FP32" names="440">
					<dim>1</dim>
					<dim>58</dim>
					<dim>40</dim>
					<dim>40</dim>
				</port>
			</output>
		</layer>
		<layer id="75" name="441" type="ReLU" version="opset1">
			<input>
				<port id="0" precision="FP32">
					<dim>1</dim>
					<dim>58</dim>
					<dim>40</dim>
					<dim>40</dim>
				</port>
			</input>
			<output>
				<port id="1" precision="FP32" names="441">
					<dim>1</dim>
					<dim>58</dim>
					<dim>40</dim>
					<dim>40</dim>
				</port>
			</output>
		</layer>
		<layer id="76" name="Multiply_27875_compressed" type="Const" version="opset1">
			<data element_type="f16" shape="58, 1, 1, 3, 3" offset="28974" size="1044" />
			<output>
				<port id="0" precision="FP16">
					<dim>58</dim>
					<dim>1</dim>
					<dim>1</dim>
					<dim>3</dim>
					<dim>3</dim>
				</port>
			</output>
		</layer>
		<layer id="77" name="Multiply_27875" type="Convert" version="opset1">
			<data destination_type="f32" />
			<rt_info>
				<attribute name="decompression" version="0" />
			</rt_info>
			<input>
				<port id="0" precision="FP16">
					<dim>58</dim>
					<dim>1</dim>
					<dim>1</dim>
					<dim>3</dim>
					<dim>3</dim>
				</port>
			</input>
			<output>
				<port id="1" precision="FP32">
					<dim>58</dim>
					<dim>1</dim>
					<dim>1</dim>
					<dim>3</dim>
					<dim>3</dim>
				</port>
			</output>
		</layer>
		<layer id="78" name="Multiply_27472" type="GroupConvolution" version="opset1">
			<data strides="1, 1" pads_begin="1, 1" pads_end="1, 1" dilations="1, 1" auto_pad="explicit" />
			<input>
				<port id="0" precision="FP32">
					<dim>1</dim>
					<dim>58</dim>
					<dim>40</dim>
					<dim>40</dim>
				</port>
				<port id="1" precision="FP32">
					<dim>58</dim>
					<dim>1</dim>
					<dim>1</dim>
					<dim>3</dim>
					<dim>3</dim>
				</port>
			</input>
			<output>
				<port id="2" precision="FP32" names="442">
					<dim>1</dim>
					<dim>58</dim>
					<dim>40</dim>
					<dim>40</dim>
				</port>
			</output>
		</layer>
		<layer id="79" name="Constant_27477_compressed" type="Const" version="opset1">
			<data element_type="f16" shape="1, 58, 1, 1" offset="30018" size="116" />
			<output>
				<port id="0" precision="FP16">
					<dim>1</dim>
					<dim>58</dim>
					<dim>1</dim>
					<dim>1</dim>
				</port>
			</output>
		</layer>
		<layer id="80" name="Constant_27477" type="Convert" version="opset1">
			<data destination_type="f32" />
			<rt_info>
				<attribute name="decompression" version="0" />
			</rt_info>
			<input>
				<port id="0" precision="FP16">
					<dim>1</dim>
					<dim>58</dim>
					<dim>1</dim>
					<dim>1</dim>
				</port>
			</input>
			<output>
				<port id="1" precision="FP32">
					<dim>1</dim>
					<dim>58</dim>
					<dim>1</dim>
					<dim>1</dim>
				</port>
			</output>
		</layer>
		<layer id="81" name="443" type="Add" version="opset1">
			<data auto_broadcast="numpy" />
			<input>
				<port id="0" precision="FP32">
					<dim>1</dim>
					<dim>58</dim>
					<dim>40</dim>
					<dim>40</dim>
				</port>
				<port id="1" precision="FP32">
					<dim>1</dim>
					<dim>58</dim>
					<dim>1</dim>
					<dim>1</dim>
				</port>
			</input>
			<output>
				<port id="2" precision="FP32" names="443">
					<dim>1</dim>
					<dim>58</dim>
					<dim>40</dim>
					<dim>40</dim>
				</port>
			</output>
		</layer>
		<layer id="82" name="Multiply_27880_compressed" type="Const" version="opset1">
			<data element_type="f16" shape="58, 58, 1, 1" offset="30134" size="6728" />
			<output>
				<port id="0" precision="FP16">
					<dim>58</dim>
					<dim>58</dim>
					<dim>1</dim>
					<dim>1</dim>
				</port>
			</output>
		</layer>
		<layer id="83" name="Multiply_27880" type="Convert" version="opset1">
			<data destination_type="f32" />
			<rt_info>
				<attribute name="decompression" version="0" />
			</rt_info>
			<input>
				<port id="0" precision="FP16">
					<dim>58</dim>
					<dim>58</dim>
					<dim>1</dim>
					<dim>1</dim>
				</port>
			</input>
			<output>
				<port id="1" precision="FP32">
					<dim>58</dim>
					<dim>58</dim>
					<dim>1</dim>
					<dim>1</dim>
				</port>
			</output>
		</layer>
		<layer id="84" name="Multiply_27479" type="Convolution" version="opset1">
			<data strides="1, 1" dilations="1, 1" pads_begin="0, 0" pads_end="0, 0" auto_pad="explicit" />
			<input>
				<port id="0" precision="FP32">
					<dim>1</dim>
					<dim>58</dim>
					<dim>40</dim>
					<dim>40</dim>
				</port>
				<port id="1" precision="FP32">
					<dim>58</dim>
					<dim>58</dim>
					<dim>1</dim>
					<dim>1</dim>
				</port>
			</input>
			<output>
				<port id="2" precision="FP32">
					<dim>1</dim>
					<dim>58</dim>
					<dim>40</dim>
					<dim>40</dim>
				</port>
			</output>
		</layer>
		<layer id="85" name="Constant_27484_compressed" type="Const" version="opset1">
			<data element_type="f16" shape="1, 58, 1, 1" offset="36862" size="116" />
			<output>
				<port id="0" precision="FP16">
					<dim>1</dim>
					<dim>58</dim>
					<dim>1</dim>
					<dim>1</dim>
				</port>
			</output>
		</layer>
		<layer id="86" name="Constant_27484" type="Convert" version="opset1">
			<data destination_type="f32" />
			<rt_info>
				<attribute name="decompression" version="0" />
			</rt_info>
			<input>
				<port id="0" precision="FP16">
					<dim>1</dim>
					<dim>58</dim>
					<dim>1</dim>
					<dim>1</dim>
				</port>
			</input>
			<output>
				<port id="1" precision="FP32">
					<dim>1</dim>
					<dim>58</dim>
					<dim>1</dim>
					<dim>1</dim>
				</port>
			</output>
		</layer>
		<layer id="87" name="445" type="Add" version="opset1">
			<data auto_broadcast="numpy" />
			<input>
				<port id="0" precision="FP32">
					<dim>1</dim>
					<dim>58</dim>
					<dim>40</dim>
					<dim>40</dim>
				</port>
				<port id="1" precision="FP32">
					<dim>1</dim>
					<dim>58</dim>
					<dim>1</dim>
					<dim>1</dim>
				</port>
			</input>
			<output>
				<port id="2" precision="FP32" names="445">
					<dim>1</dim>
					<dim>58</dim>
					<dim>40</dim>
					<dim>40</dim>
				</port>
			</output>
		</layer>
		<layer id="88" name="446" type="ReLU" version="opset1">
			<input>
				<port id="0" precision="FP32">
					<dim>1</dim>
					<dim>58</dim>
					<dim>40</dim>
					<dim>40</dim>
				</port>
			</input>
			<output>
				<port id="1" precision="FP32" names="446">
					<dim>1</dim>
					<dim>58</dim>
					<dim>40</dim>
					<dim>40</dim>
				</port>
			</output>
		</layer>
		<layer id="89" name="447" type="Concat" version="opset1">
			<data axis="1" />
			<input>
				<port id="0" precision="FP32">
					<dim>1</dim>
					<dim>58</dim>
					<dim>40</dim>
					<dim>40</dim>
				</port>
				<port id="1" precision="FP32">
					<dim>1</dim>
					<dim>58</dim>
					<dim>40</dim>
					<dim>40</dim>
				</port>
			</input>
			<output>
				<port id="2" precision="FP32" names="447">
					<dim>1</dim>
					<dim>116</dim>
					<dim>40</dim>
					<dim>40</dim>
				</port>
			</output>
		</layer>
		<layer id="90" name="Constant_20613" type="Const" version="opset1">
			<data element_type="i64" shape="1" offset="22034" size="8" />
			<output>
				<port id="0" precision="I64">
					<dim>1</dim>
				</port>
			</output>
		</layer>
		<layer id="91" name="464" type="Const" version="opset1">
			<data element_type="i64" shape="1" offset="22042" size="8" />
			<output>
				<port id="0" precision="I64" names="464">
					<dim>1</dim>
				</port>
			</output>
		</layer>
		<layer id="92" name="449" type="ShapeOf" version="opset3">
			<data output_type="i64" />
			<input>
				<port id="0" precision="FP32">
					<dim>1</dim>
					<dim>116</dim>
					<dim>40</dim>
					<dim>40</dim>
				</port>
			</input>
			<output>
				<port id="1" precision="I64" names="449,452,455,458,475">
					<dim>4</dim>
				</port>
			</output>
		</layer>
		<layer id="93" name="451" type="Const" version="opset1">
			<data element_type="i64" shape="" offset="22050" size="8" />
			<output>
				<port id="0" precision="I64" names="451" />
			</output>
		</layer>
		<layer id="94" name="Constant_602" type="Const" version="opset1">
			<data element_type="i64" shape="" offset="22034" size="8" />
			<output>
				<port id="0" precision="I64" />
			</output>
		</layer>
		<layer id="95" name="453" type="Gather" version="opset8">
			<data batch_dims="0" />
			<input>
				<port id="0" precision="I64">
					<dim>4</dim>
				</port>
				<port id="1" precision="I64" />
				<port id="2" precision="I64" />
			</input>
			<output>
				<port id="3" precision="I64" names="453" />
			</output>
		</layer>
		<layer id="96" name="460" type="Const" version="opset1">
			<data element_type="i64" shape="" offset="22042" size="8" />
			<output>
				<port id="0" precision="I64" names="460" />
			</output>
		</layer>
		<layer id="97" name="461" type="Divide" version="opset1">
			<data auto_broadcast="numpy" m_pythondiv="true" />
			<input>
				<port id="0" precision="I64" />
				<port id="1" precision="I64" />
			</input>
			<output>
				<port id="2" precision="I64" names="461" />
			</output>
		</layer>
		<layer id="98" name="1751" type="Const" version="opset1">
			<data element_type="i64" shape="1" offset="22034" size="8" />
			<output>
				<port id="0" precision="I64" names="1751">
					<dim>1</dim>
				</port>
			</output>
		</layer>
		<layer id="99" name="465" type="Unsqueeze" version="opset1">
			<input>
				<port id="0" precision="I64" />
				<port id="1" precision="I64">
					<dim>1</dim>
				</port>
			</input>
			<output>
				<port id="2" precision="I64" names="465">
					<dim>1</dim>
				</port>
			</output>
		</layer>
		<layer id="100" name="Constant_19188" type="Const" version="opset1">
			<data element_type="i64" shape="2" offset="22058" size="16" />
			<output>
				<port id="0" precision="I64">
					<dim>2</dim>
				</port>
			</output>
		</layer>
		<layer id="101" name="Constant_19189" type="Const" version="opset1">
			<data element_type="i64" shape="" offset="22034" size="8" />
			<output>
				<port id="0" precision="I64" />
			</output>
		</layer>
		<layer id="102" name="Gather_19190" type="Gather" version="opset8">
			<data batch_dims="0" />
			<input>
				<port id="0" precision="I64">
					<dim>4</dim>
				</port>
				<port id="1" precision="I64">
					<dim>2</dim>
				</port>
				<port id="2" precision="I64" />
			</input>
			<output>
				<port id="3" precision="I64">
					<dim>2</dim>
				</port>
			</output>
		</layer>
		<layer id="103" name="468" type="Concat" version="opset1">
			<data axis="0" />
			<input>
				<port id="0" precision="I64">
					<dim>1</dim>
				</port>
				<port id="1" precision="I64">
					<dim>1</dim>
				</port>
				<port id="2" precision="I64">
					<dim>1</dim>
				</port>
				<port id="3" precision="I64">
					<dim>2</dim>
				</port>
			</input>
			<output>
				<port id="4" precision="I64">
					<dim>5</dim>
				</port>
			</output>
		</layer>
		<layer id="104" name="469" type="Reshape" version="opset1">
			<data special_zero="true" />
			<input>
				<port id="0" precision="FP32">
					<dim>1</dim>
					<dim>116</dim>
					<dim>40</dim>
					<dim>40</dim>
				</port>
				<port id="1" precision="I64">
					<dim>5</dim>
				</port>
			</input>
			<output>
				<port id="2" precision="FP32" names="469">
					<dim>1</dim>
					<dim>2</dim>
					<dim>58</dim>
					<dim>40</dim>
					<dim>40</dim>
				</port>
			</output>
		</layer>
		<layer id="105" name="Constant_667" type="Const" version="opset1">
			<data element_type="i64" shape="5" offset="22074" size="40" />
			<output>
				<port id="0" precision="I64">
					<dim>5</dim>
				</port>
			</output>
		</layer>
		<layer id="106" name="470" type="Transpose" version="opset1">
			<input>
				<port id="0" precision="FP32">
					<dim>1</dim>
					<dim>2</dim>
					<dim>58</dim>
					<dim>40</dim>
					<dim>40</dim>
				</port>
				<port id="1" precision="I64">
					<dim>5</dim>
				</port>
			</input>
			<output>
				<port id="2" precision="FP32" names="470">
					<dim>1</dim>
					<dim>58</dim>
					<dim>2</dim>
					<dim>40</dim>
					<dim>40</dim>
				</port>
			</output>
		</layer>
		<layer id="107" name="476" type="Reshape" version="opset1">
			<data special_zero="true" />
			<input>
				<port id="0" precision="FP32">
					<dim>1</dim>
					<dim>58</dim>
					<dim>2</dim>
					<dim>40</dim>
					<dim>40</dim>
				</port>
				<port id="1" precision="I64">
					<dim>4</dim>
				</port>
			</input>
			<output>
				<port id="2" precision="FP32" names="476">
					<dim>1</dim>
					<dim>116</dim>
					<dim>40</dim>
					<dim>40</dim>
				</port>
			</output>
		</layer>
		<layer id="108" name="Constant_682" type="Const" version="opset1">
			<data element_type="i64" shape="" offset="22050" size="8" />
			<output>
				<port id="0" precision="I64" />
			</output>
		</layer>
		<layer id="109" name="1758" type="Const" version="opset1">
			<data element_type="i64" shape="2" offset="22114" size="16" />
			<output>
				<port id="0" precision="I64" names="1758">
					<dim>2</dim>
				</port>
			</output>
		</layer>
		<layer id="110" name="478" type="VariadicSplit" version="opset1">
			<input>
				<port id="0" precision="FP32">
					<dim>1</dim>
					<dim>116</dim>
					<dim>40</dim>
					<dim>40</dim>
				</port>
				<port id="1" precision="I64" />
				<port id="2" precision="I64">
					<dim>2</dim>
				</port>
			</input>
			<output>
				<port id="3" precision="FP32" names="477">
					<dim>1</dim>
					<dim>58</dim>
					<dim>40</dim>
					<dim>40</dim>
				</port>
				<port id="4" precision="FP32" names="478">
					<dim>1</dim>
					<dim>58</dim>
					<dim>40</dim>
					<dim>40</dim>
				</port>
			</output>
		</layer>
		<layer id="111" name="Multiply_27886_compressed" type="Const" version="opset1">
			<data element_type="f16" shape="58, 58, 1, 1" offset="36978" size="6728" />
			<output>
				<port id="0" precision="FP16">
					<dim>58</dim>
					<dim>58</dim>
					<dim>1</dim>
					<dim>1</dim>
				</port>
			</output>
		</layer>
		<layer id="112" name="Multiply_27886" type="Convert" version="opset1">
			<data destination_type="f32" />
			<rt_info>
				<attribute name="decompression" version="0" />
			</rt_info>
			<input>
				<port id="0" precision="FP16">
					<dim>58</dim>
					<dim>58</dim>
					<dim>1</dim>
					<dim>1</dim>
				</port>
			</input>
			<output>
				<port id="1" precision="FP32">
					<dim>58</dim>
					<dim>58</dim>
					<dim>1</dim>
					<dim>1</dim>
				</port>
			</output>
		</layer>
		<layer id="113" name="Multiply_27486" type="Convolution" version="opset1">
			<data strides="1, 1" dilations="1, 1" pads_begin="0, 0" pads_end="0, 0" auto_pad="explicit" />
			<input>
				<port id="0" precision="FP32">
					<dim>1</dim>
					<dim>58</dim>
					<dim>40</dim>
					<dim>40</dim>
				</port>
				<port id="1" precision="FP32">
					<dim>58</dim>
					<dim>58</dim>
					<dim>1</dim>
					<dim>1</dim>
				</port>
			</input>
			<output>
				<port id="2" precision="FP32">
					<dim>1</dim>
					<dim>58</dim>
					<dim>40</dim>
					<dim>40</dim>
				</port>
			</output>
		</layer>
		<layer id="114" name="Constant_27491_compressed" type="Const" version="opset1">
			<data element_type="f16" shape="1, 58, 1, 1" offset="43706" size="116" />
			<output>
				<port id="0" precision="FP16">
					<dim>1</dim>
					<dim>58</dim>
					<dim>1</dim>
					<dim>1</dim>
				</port>
			</output>
		</layer>
		<layer id="115" name="Constant_27491" type="Convert" version="opset1">
			<data destination_type="f32" />
			<rt_info>
				<attribute name="decompression" version="0" />
			</rt_info>
			<input>
				<port id="0" precision="FP16">
					<dim>1</dim>
					<dim>58</dim>
					<dim>1</dim>
					<dim>1</dim>
				</port>
			</input>
			<output>
				<port id="1" precision="FP32">
					<dim>1</dim>
					<dim>58</dim>
					<dim>1</dim>
					<dim>1</dim>
				</port>
			</output>
		</layer>
		<layer id="116" name="480" type="Add" version="opset1">
			<data auto_broadcast="numpy" />
			<input>
				<port id="0" precision="FP32">
					<dim>1</dim>
					<dim>58</dim>
					<dim>40</dim>
					<dim>40</dim>
				</port>
				<port id="1" precision="FP32">
					<dim>1</dim>
					<dim>58</dim>
					<dim>1</dim>
					<dim>1</dim>
				</port>
			</input>
			<output>
				<port id="2" precision="FP32" names="480">
					<dim>1</dim>
					<dim>58</dim>
					<dim>40</dim>
					<dim>40</dim>
				</port>
			</output>
		</layer>
		<layer id="117" name="481" type="ReLU" version="opset1">
			<input>
				<port id="0" precision="FP32">
					<dim>1</dim>
					<dim>58</dim>
					<dim>40</dim>
					<dim>40</dim>
				</port>
			</input>
			<output>
				<port id="1" precision="FP32" names="481">
					<dim>1</dim>
					<dim>58</dim>
					<dim>40</dim>
					<dim>40</dim>
				</port>
			</output>
		</layer>
		<layer id="118" name="Multiply_27892_compressed" type="Const" version="opset1">
			<data element_type="f16" shape="58, 1, 1, 3, 3" offset="43822" size="1044" />
			<output>
				<port id="0" precision="FP16">
					<dim>58</dim>
					<dim>1</dim>
					<dim>1</dim>
					<dim>3</dim>
					<dim>3</dim>
				</port>
			</output>
		</layer>
		<layer id="119" name="Multiply_27892" type="Convert" version="opset1">
			<data destination_type="f32" />
			<rt_info>
				<attribute name="decompression" version="0" />
			</rt_info>
			<input>
				<port id="0" precision="FP16">
					<dim>58</dim>
					<dim>1</dim>
					<dim>1</dim>
					<dim>3</dim>
					<dim>3</dim>
				</port>
			</input>
			<output>
				<port id="1" precision="FP32">
					<dim>58</dim>
					<dim>1</dim>
					<dim>1</dim>
					<dim>3</dim>
					<dim>3</dim>
				</port>
			</output>
		</layer>
		<layer id="120" name="Multiply_27493" type="GroupConvolution" version="opset1">
			<data strides="1, 1" pads_begin="1, 1" pads_end="1, 1" dilations="1, 1" auto_pad="explicit" />
			<input>
				<port id="0" precision="FP32">
					<dim>1</dim>
					<dim>58</dim>
					<dim>40</dim>
					<dim>40</dim>
				</port>
				<port id="1" precision="FP32">
					<dim>58</dim>
					<dim>1</dim>
					<dim>1</dim>
					<dim>3</dim>
					<dim>3</dim>
				</port>
			</input>
			<output>
				<port id="2" precision="FP32" names="482">
					<dim>1</dim>
					<dim>58</dim>
					<dim>40</dim>
					<dim>40</dim>
				</port>
			</output>
		</layer>
		<layer id="121" name="Constant_27498_compressed" type="Const" version="opset1">
			<data element_type="f16" shape="1, 58, 1, 1" offset="44866" size="116" />
			<output>
				<port id="0" precision="FP16">
					<dim>1</dim>
					<dim>58</dim>
					<dim>1</dim>
					<dim>1</dim>
				</port>
			</output>
		</layer>
		<layer id="122" name="Constant_27498" type="Convert" version="opset1">
			<data destination_type="f32" />
			<rt_info>
				<attribute name="decompression" version="0" />
			</rt_info>
			<input>
				<port id="0" precision="FP16">
					<dim>1</dim>
					<dim>58</dim>
					<dim>1</dim>
					<dim>1</dim>
				</port>
			</input>
			<output>
				<port id="1" precision="FP32">
					<dim>1</dim>
					<dim>58</dim>
					<dim>1</dim>
					<dim>1</dim>
				</port>
			</output>
		</layer>
		<layer id="123" name="483" type="Add" version="opset1">
			<data auto_broadcast="numpy" />
			<input>
				<port id="0" precision="FP32">
					<dim>1</dim>
					<dim>58</dim>
					<dim>40</dim>
					<dim>40</dim>
				</port>
				<port id="1" precision="FP32">
					<dim>1</dim>
					<dim>58</dim>
					<dim>1</dim>
					<dim>1</dim>
				</port>
			</input>
			<output>
				<port id="2" precision="FP32" names="483">
					<dim>1</dim>
					<dim>58</dim>
					<dim>40</dim>
					<dim>40</dim>
				</port>
			</output>
		</layer>
		<layer id="124" name="Multiply_27897_compressed" type="Const" version="opset1">
			<data element_type="f16" shape="58, 58, 1, 1" offset="44982" size="6728" />
			<output>
				<port id="0" precision="FP16">
					<dim>58</dim>
					<dim>58</dim>
					<dim>1</dim>
					<dim>1</dim>
				</port>
			</output>
		</layer>
		<layer id="125" name="Multiply_27897" type="Convert" version="opset1">
			<data destination_type="f32" />
			<rt_info>
				<attribute name="decompression" version="0" />
			</rt_info>
			<input>
				<port id="0" precision="FP16">
					<dim>58</dim>
					<dim>58</dim>
					<dim>1</dim>
					<dim>1</dim>
				</port>
			</input>
			<output>
				<port id="1" precision="FP32">
					<dim>58</dim>
					<dim>58</dim>
					<dim>1</dim>
					<dim>1</dim>
				</port>
			</output>
		</layer>
		<layer id="126" name="Multiply_27500" type="Convolution" version="opset1">
			<data strides="1, 1" dilations="1, 1" pads_begin="0, 0" pads_end="0, 0" auto_pad="explicit" />
			<input>
				<port id="0" precision="FP32">
					<dim>1</dim>
					<dim>58</dim>
					<dim>40</dim>
					<dim>40</dim>
				</port>
				<port id="1" precision="FP32">
					<dim>58</dim>
					<dim>58</dim>
					<dim>1</dim>
					<dim>1</dim>
				</port>
			</input>
			<output>
				<port id="2" precision="FP32">
					<dim>1</dim>
					<dim>58</dim>
					<dim>40</dim>
					<dim>40</dim>
				</port>
			</output>
		</layer>
		<layer id="127" name="Constant_27505_compressed" type="Const" version="opset1">
			<data element_type="f16" shape="1, 58, 1, 1" offset="51710" size="116" />
			<output>
				<port id="0" precision="FP16">
					<dim>1</dim>
					<dim>58</dim>
					<dim>1</dim>
					<dim>1</dim>
				</port>
			</output>
		</layer>
		<layer id="128" name="Constant_27505" type="Convert" version="opset1">
			<data destination_type="f32" />
			<rt_info>
				<attribute name="decompression" version="0" />
			</rt_info>
			<input>
				<port id="0" precision="FP16">
					<dim>1</dim>
					<dim>58</dim>
					<dim>1</dim>
					<dim>1</dim>
				</port>
			</input>
			<output>
				<port id="1" precision="FP32">
					<dim>1</dim>
					<dim>58</dim>
					<dim>1</dim>
					<dim>1</dim>
				</port>
			</output>
		</layer>
		<layer id="129" name="485" type="Add" version="opset1">
			<data auto_broadcast="numpy" />
			<input>
				<port id="0" precision="FP32">
					<dim>1</dim>
					<dim>58</dim>
					<dim>40</dim>
					<dim>40</dim>
				</port>
				<port id="1" precision="FP32">
					<dim>1</dim>
					<dim>58</dim>
					<dim>1</dim>
					<dim>1</dim>
				</port>
			</input>
			<output>
				<port id="2" precision="FP32" names="485">
					<dim>1</dim>
					<dim>58</dim>
					<dim>40</dim>
					<dim>40</dim>
				</port>
			</output>
		</layer>
		<layer id="130" name="486" type="ReLU" version="opset1">
			<input>
				<port id="0" precision="FP32">
					<dim>1</dim>
					<dim>58</dim>
					<dim>40</dim>
					<dim>40</dim>
				</port>
			</input>
			<output>
				<port id="1" precision="FP32" names="486">
					<dim>1</dim>
					<dim>58</dim>
					<dim>40</dim>
					<dim>40</dim>
				</port>
			</output>
		</layer>
		<layer id="131" name="487" type="Concat" version="opset1">
			<data axis="1" />
			<input>
				<port id="0" precision="FP32">
					<dim>1</dim>
					<dim>58</dim>
					<dim>40</dim>
					<dim>40</dim>
				</port>
				<port id="1" precision="FP32">
					<dim>1</dim>
					<dim>58</dim>
					<dim>40</dim>
					<dim>40</dim>
				</port>
			</input>
			<output>
				<port id="2" precision="FP32" names="487">
					<dim>1</dim>
					<dim>116</dim>
					<dim>40</dim>
					<dim>40</dim>
				</port>
			</output>
		</layer>
		<layer id="132" name="Constant_20660" type="Const" version="opset1">
			<data element_type="i64" shape="1" offset="22034" size="8" />
			<output>
				<port id="0" precision="I64">
					<dim>1</dim>
				</port>
			</output>
		</layer>
		<layer id="133" name="504" type="Const" version="opset1">
			<data element_type="i64" shape="1" offset="22042" size="8" />
			<output>
				<port id="0" precision="I64" names="504">
					<dim>1</dim>
				</port>
			</output>
		</layer>
		<layer id="134" name="489" type="ShapeOf" version="opset3">
			<data output_type="i64" />
			<input>
				<port id="0" precision="FP32">
					<dim>1</dim>
					<dim>116</dim>
					<dim>40</dim>
					<dim>40</dim>
				</port>
			</input>
			<output>
				<port id="1" precision="I64" names="489,492,495,498,515">
					<dim>4</dim>
				</port>
			</output>
		</layer>
		<layer id="135" name="491" type="Const" version="opset1">
			<data element_type="i64" shape="" offset="22050" size="8" />
			<output>
				<port id="0" precision="I64" names="491" />
			</output>
		</layer>
		<layer id="136" name="Constant_750" type="Const" version="opset1">
			<data element_type="i64" shape="" offset="22034" size="8" />
			<output>
				<port id="0" precision="I64" />
			</output>
		</layer>
		<layer id="137" name="493" type="Gather" version="opset8">
			<data batch_dims="0" />
			<input>
				<port id="0" precision="I64">
					<dim>4</dim>
				</port>
				<port id="1" precision="I64" />
				<port id="2" precision="I64" />
			</input>
			<output>
				<port id="3" precision="I64" names="493" />
			</output>
		</layer>
		<layer id="138" name="500" type="Const" version="opset1">
			<data element_type="i64" shape="" offset="22042" size="8" />
			<output>
				<port id="0" precision="I64" names="500" />
			</output>
		</layer>
		<layer id="139" name="501" type="Divide" version="opset1">
			<data auto_broadcast="numpy" m_pythondiv="true" />
			<input>
				<port id="0" precision="I64" />
				<port id="1" precision="I64" />
			</input>
			<output>
				<port id="2" precision="I64" names="501" />
			</output>
		</layer>
		<layer id="140" name="1761" type="Const" version="opset1">
			<data element_type="i64" shape="1" offset="22034" size="8" />
			<output>
				<port id="0" precision="I64" names="1761">
					<dim>1</dim>
				</port>
			</output>
		</layer>
		<layer id="141" name="505" type="Unsqueeze" version="opset1">
			<input>
				<port id="0" precision="I64" />
				<port id="1" precision="I64">
					<dim>1</dim>
				</port>
			</input>
			<output>
				<port id="2" precision="I64" names="505">
					<dim>1</dim>
				</port>
			</output>
		</layer>
		<layer id="142" name="Constant_19205" type="Const" version="opset1">
			<data element_type="i64" shape="2" offset="22058" size="16" />
			<output>
				<port id="0" precision="I64">
					<dim>2</dim>
				</port>
			</output>
		</layer>
		<layer id="143" name="Constant_19206" type="Const" version="opset1">
			<data element_type="i64" shape="" offset="22034" size="8" />
			<output>
				<port id="0" precision="I64" />
			</output>
		</layer>
		<layer id="144" name="Gather_19207" type="Gather" version="opset8">
			<data batch_dims="0" />
			<input>
				<port id="0" precision="I64">
					<dim>4</dim>
				</port>
				<port id="1" precision="I64">
					<dim>2</dim>
				</port>
				<port id="2" precision="I64" />
			</input>
			<output>
				<port id="3" precision="I64">
					<dim>2</dim>
				</port>
			</output>
		</layer>
		<layer id="145" name="508" type="Concat" version="opset1">
			<data axis="0" />
			<input>
				<port id="0" precision="I64">
					<dim>1</dim>
				</port>
				<port id="1" precision="I64">
					<dim>1</dim>
				</port>
				<port id="2" precision="I64">
					<dim>1</dim>
				</port>
				<port id="3" precision="I64">
					<dim>2</dim>
				</port>
			</input>
			<output>
				<port id="4" precision="I64">
					<dim>5</dim>
				</port>
			</output>
		</layer>
		<layer id="146" name="509" type="Reshape" version="opset1">
			<data special_zero="true" />
			<input>
				<port id="0" precision="FP32">
					<dim>1</dim>
					<dim>116</dim>
					<dim>40</dim>
					<dim>40</dim>
				</port>
				<port id="1" precision="I64">
					<dim>5</dim>
				</port>
			</input>
			<output>
				<port id="2" precision="FP32" names="509">
					<dim>1</dim>
					<dim>2</dim>
					<dim>58</dim>
					<dim>40</dim>
					<dim>40</dim>
				</port>
			</output>
		</layer>
		<layer id="147" name="Constant_815" type="Const" version="opset1">
			<data element_type="i64" shape="5" offset="22074" size="40" />
			<output>
				<port id="0" precision="I64">
					<dim>5</dim>
				</port>
			</output>
		</layer>
		<layer id="148" name="510" type="Transpose" version="opset1">
			<input>
				<port id="0" precision="FP32">
					<dim>1</dim>
					<dim>2</dim>
					<dim>58</dim>
					<dim>40</dim>
					<dim>40</dim>
				</port>
				<port id="1" precision="I64">
					<dim>5</dim>
				</port>
			</input>
			<output>
				<port id="2" precision="FP32" names="510">
					<dim>1</dim>
					<dim>58</dim>
					<dim>2</dim>
					<dim>40</dim>
					<dim>40</dim>
				</port>
			</output>
		</layer>
		<layer id="149" name="516" type="Reshape" version="opset1">
			<data special_zero="true" />
			<input>
				<port id="0" precision="FP32">
					<dim>1</dim>
					<dim>58</dim>
					<dim>2</dim>
					<dim>40</dim>
					<dim>40</dim>
				</port>
				<port id="1" precision="I64">
					<dim>4</dim>
				</port>
			</input>
			<output>
				<port id="2" precision="FP32" names="516">
					<dim>1</dim>
					<dim>116</dim>
					<dim>40</dim>
					<dim>40</dim>
				</port>
			</output>
		</layer>
		<layer id="150" name="Constant_830" type="Const" version="opset1">
			<data element_type="i64" shape="" offset="22050" size="8" />
			<output>
				<port id="0" precision="I64" />
			</output>
		</layer>
		<layer id="151" name="1768" type="Const" version="opset1">
			<data element_type="i64" shape="2" offset="22114" size="16" />
			<output>
				<port id="0" precision="I64" names="1768">
					<dim>2</dim>
				</port>
			</output>
		</layer>
		<layer id="152" name="518" type="VariadicSplit" version="opset1">
			<input>
				<port id="0" precision="FP32">
					<dim>1</dim>
					<dim>116</dim>
					<dim>40</dim>
					<dim>40</dim>
				</port>
				<port id="1" precision="I64" />
				<port id="2" precision="I64">
					<dim>2</dim>
				</port>
			</input>
			<output>
				<port id="3" precision="FP32" names="517">
					<dim>1</dim>
					<dim>58</dim>
					<dim>40</dim>
					<dim>40</dim>
				</port>
				<port id="4" precision="FP32" names="518">
					<dim>1</dim>
					<dim>58</dim>
					<dim>40</dim>
					<dim>40</dim>
				</port>
			</output>
		</layer>
		<layer id="153" name="Multiply_27903_compressed" type="Const" version="opset1">
			<data element_type="f16" shape="58, 58, 1, 1" offset="51826" size="6728" />
			<output>
				<port id="0" precision="FP16">
					<dim>58</dim>
					<dim>58</dim>
					<dim>1</dim>
					<dim>1</dim>
				</port>
			</output>
		</layer>
		<layer id="154" name="Multiply_27903" type="Convert" version="opset1">
			<data destination_type="f32" />
			<rt_info>
				<attribute name="decompression" version="0" />
			</rt_info>
			<input>
				<port id="0" precision="FP16">
					<dim>58</dim>
					<dim>58</dim>
					<dim>1</dim>
					<dim>1</dim>
				</port>
			</input>
			<output>
				<port id="1" precision="FP32">
					<dim>58</dim>
					<dim>58</dim>
					<dim>1</dim>
					<dim>1</dim>
				</port>
			</output>
		</layer>
		<layer id="155" name="Multiply_27507" type="Convolution" version="opset1">
			<data strides="1, 1" dilations="1, 1" pads_begin="0, 0" pads_end="0, 0" auto_pad="explicit" />
			<input>
				<port id="0" precision="FP32">
					<dim>1</dim>
					<dim>58</dim>
					<dim>40</dim>
					<dim>40</dim>
				</port>
				<port id="1" precision="FP32">
					<dim>58</dim>
					<dim>58</dim>
					<dim>1</dim>
					<dim>1</dim>
				</port>
			</input>
			<output>
				<port id="2" precision="FP32">
					<dim>1</dim>
					<dim>58</dim>
					<dim>40</dim>
					<dim>40</dim>
				</port>
			</output>
		</layer>
		<layer id="156" name="Constant_27512_compressed" type="Const" version="opset1">
			<data element_type="f16" shape="1, 58, 1, 1" offset="58554" size="116" />
			<output>
				<port id="0" precision="FP16">
					<dim>1</dim>
					<dim>58</dim>
					<dim>1</dim>
					<dim>1</dim>
				</port>
			</output>
		</layer>
		<layer id="157" name="Constant_27512" type="Convert" version="opset1">
			<data destination_type="f32" />
			<rt_info>
				<attribute name="decompression" version="0" />
			</rt_info>
			<input>
				<port id="0" precision="FP16">
					<dim>1</dim>
					<dim>58</dim>
					<dim>1</dim>
					<dim>1</dim>
				</port>
			</input>
			<output>
				<port id="1" precision="FP32">
					<dim>1</dim>
					<dim>58</dim>
					<dim>1</dim>
					<dim>1</dim>
				</port>
			</output>
		</layer>
		<layer id="158" name="520" type="Add" version="opset1">
			<data auto_broadcast="numpy" />
			<input>
				<port id="0" precision="FP32">
					<dim>1</dim>
					<dim>58</dim>
					<dim>40</dim>
					<dim>40</dim>
				</port>
				<port id="1" precision="FP32">
					<dim>1</dim>
					<dim>58</dim>
					<dim>1</dim>
					<dim>1</dim>
				</port>
			</input>
			<output>
				<port id="2" precision="FP32" names="520">
					<dim>1</dim>
					<dim>58</dim>
					<dim>40</dim>
					<dim>40</dim>
				</port>
			</output>
		</layer>
		<layer id="159" name="521" type="ReLU" version="opset1">
			<input>
				<port id="0" precision="FP32">
					<dim>1</dim>
					<dim>58</dim>
					<dim>40</dim>
					<dim>40</dim>
				</port>
			</input>
			<output>
				<port id="1" precision="FP32" names="521">
					<dim>1</dim>
					<dim>58</dim>
					<dim>40</dim>
					<dim>40</dim>
				</port>
			</output>
		</layer>
		<layer id="160" name="Multiply_27909_compressed" type="Const" version="opset1">
			<data element_type="f16" shape="58, 1, 1, 3, 3" offset="58670" size="1044" />
			<output>
				<port id="0" precision="FP16">
					<dim>58</dim>
					<dim>1</dim>
					<dim>1</dim>
					<dim>3</dim>
					<dim>3</dim>
				</port>
			</output>
		</layer>
		<layer id="161" name="Multiply_27909" type="Convert" version="opset1">
			<data destination_type="f32" />
			<rt_info>
				<attribute name="decompression" version="0" />
			</rt_info>
			<input>
				<port id="0" precision="FP16">
					<dim>58</dim>
					<dim>1</dim>
					<dim>1</dim>
					<dim>3</dim>
					<dim>3</dim>
				</port>
			</input>
			<output>
				<port id="1" precision="FP32">
					<dim>58</dim>
					<dim>1</dim>
					<dim>1</dim>
					<dim>3</dim>
					<dim>3</dim>
				</port>
			</output>
		</layer>
		<layer id="162" name="Multiply_27514" type="GroupConvolution" version="opset1">
			<data strides="1, 1" pads_begin="1, 1" pads_end="1, 1" dilations="1, 1" auto_pad="explicit" />
			<input>
				<port id="0" precision="FP32">
					<dim>1</dim>
					<dim>58</dim>
					<dim>40</dim>
					<dim>40</dim>
				</port>
				<port id="1" precision="FP32">
					<dim>58</dim>
					<dim>1</dim>
					<dim>1</dim>
					<dim>3</dim>
					<dim>3</dim>
				</port>
			</input>
			<output>
				<port id="2" precision="FP32" names="522">
					<dim>1</dim>
					<dim>58</dim>
					<dim>40</dim>
					<dim>40</dim>
				</port>
			</output>
		</layer>
		<layer id="163" name="Constant_27519_compressed" type="Const" version="opset1">
			<data element_type="f16" shape="1, 58, 1, 1" offset="59714" size="116" />
			<output>
				<port id="0" precision="FP16">
					<dim>1</dim>
					<dim>58</dim>
					<dim>1</dim>
					<dim>1</dim>
				</port>
			</output>
		</layer>
		<layer id="164" name="Constant_27519" type="Convert" version="opset1">
			<data destination_type="f32" />
			<rt_info>
				<attribute name="decompression" version="0" />
			</rt_info>
			<input>
				<port id="0" precision="FP16">
					<dim>1</dim>
					<dim>58</dim>
					<dim>1</dim>
					<dim>1</dim>
				</port>
			</input>
			<output>
				<port id="1" precision="FP32">
					<dim>1</dim>
					<dim>58</dim>
					<dim>1</dim>
					<dim>1</dim>
				</port>
			</output>
		</layer>
		<layer id="165" name="523" type="Add" version="opset1">
			<data auto_broadcast="numpy" />
			<input>
				<port id="0" precision="FP32">
					<dim>1</dim>
					<dim>58</dim>
					<dim>40</dim>
					<dim>40</dim>
				</port>
				<port id="1" precision="FP32">
					<dim>1</dim>
					<dim>58</dim>
					<dim>1</dim>
					<dim>1</dim>
				</port>
			</input>
			<output>
				<port id="2" precision="FP32" names="523">
					<dim>1</dim>
					<dim>58</dim>
					<dim>40</dim>
					<dim>40</dim>
				</port>
			</output>
		</layer>
		<layer id="166" name="Multiply_27914_compressed" type="Const" version="opset1">
			<data element_type="f16" shape="58, 58, 1, 1" offset="59830" size="6728" />
			<output>
				<port id="0" precision="FP16">
					<dim>58</dim>
					<dim>58</dim>
					<dim>1</dim>
					<dim>1</dim>
				</port>
			</output>
		</layer>
		<layer id="167" name="Multiply_27914" type="Convert" version="opset1">
			<data destination_type="f32" />
			<rt_info>
				<attribute name="decompression" version="0" />
			</rt_info>
			<input>
				<port id="0" precision="FP16">
					<dim>58</dim>
					<dim>58</dim>
					<dim>1</dim>
					<dim>1</dim>
				</port>
			</input>
			<output>
				<port id="1" precision="FP32">
					<dim>58</dim>
					<dim>58</dim>
					<dim>1</dim>
					<dim>1</dim>
				</port>
			</output>
		</layer>
		<layer id="168" name="Multiply_27521" type="Convolution" version="opset1">
			<data strides="1, 1" dilations="1, 1" pads_begin="0, 0" pads_end="0, 0" auto_pad="explicit" />
			<input>
				<port id="0" precision="FP32">
					<dim>1</dim>
					<dim>58</dim>
					<dim>40</dim>
					<dim>40</dim>
				</port>
				<port id="1" precision="FP32">
					<dim>58</dim>
					<dim>58</dim>
					<dim>1</dim>
					<dim>1</dim>
				</port>
			</input>
			<output>
				<port id="2" precision="FP32">
					<dim>1</dim>
					<dim>58</dim>
					<dim>40</dim>
					<dim>40</dim>
				</port>
			</output>
		</layer>
		<layer id="169" name="Constant_27526_compressed" type="Const" version="opset1">
			<data element_type="f16" shape="1, 58, 1, 1" offset="66558" size="116" />
			<output>
				<port id="0" precision="FP16">
					<dim>1</dim>
					<dim>58</dim>
					<dim>1</dim>
					<dim>1</dim>
				</port>
			</output>
		</layer>
		<layer id="170" name="Constant_27526" type="Convert" version="opset1">
			<data destination_type="f32" />
			<rt_info>
				<attribute name="decompression" version="0" />
			</rt_info>
			<input>
				<port id="0" precision="FP16">
					<dim>1</dim>
					<dim>58</dim>
					<dim>1</dim>
					<dim>1</dim>
				</port>
			</input>
			<output>
				<port id="1" precision="FP32">
					<dim>1</dim>
					<dim>58</dim>
					<dim>1</dim>
					<dim>1</dim>
				</port>
			</output>
		</layer>
		<layer id="171" name="525" type="Add" version="opset1">
			<data auto_broadcast="numpy" />
			<input>
				<port id="0" precision="FP32">
					<dim>1</dim>
					<dim>58</dim>
					<dim>40</dim>
					<dim>40</dim>
				</port>
				<port id="1" precision="FP32">
					<dim>1</dim>
					<dim>58</dim>
					<dim>1</dim>
					<dim>1</dim>
				</port>
			</input>
			<output>
				<port id="2" precision="FP32" names="525">
					<dim>1</dim>
					<dim>58</dim>
					<dim>40</dim>
					<dim>40</dim>
				</port>
			</output>
		</layer>
		<layer id="172" name="526" type="ReLU" version="opset1">
			<input>
				<port id="0" precision="FP32">
					<dim>1</dim>
					<dim>58</dim>
					<dim>40</dim>
					<dim>40</dim>
				</port>
			</input>
			<output>
				<port id="1" precision="FP32" names="526">
					<dim>1</dim>
					<dim>58</dim>
					<dim>40</dim>
					<dim>40</dim>
				</port>
			</output>
		</layer>
		<layer id="173" name="527" type="Concat" version="opset1">
			<data axis="1" />
			<input>
				<port id="0" precision="FP32">
					<dim>1</dim>
					<dim>58</dim>
					<dim>40</dim>
					<dim>40</dim>
				</port>
				<port id="1" precision="FP32">
					<dim>1</dim>
					<dim>58</dim>
					<dim>40</dim>
					<dim>40</dim>
				</port>
			</input>
			<output>
				<port id="2" precision="FP32" names="527">
					<dim>1</dim>
					<dim>116</dim>
					<dim>40</dim>
					<dim>40</dim>
				</port>
			</output>
		</layer>
		<layer id="174" name="Constant_20707" type="Const" version="opset1">
			<data element_type="i64" shape="1" offset="22034" size="8" />
			<output>
				<port id="0" precision="I64">
					<dim>1</dim>
				</port>
			</output>
		</layer>
		<layer id="175" name="544" type="Const" version="opset1">
			<data element_type="i64" shape="1" offset="22042" size="8" />
			<output>
				<port id="0" precision="I64" names="544">
					<dim>1</dim>
				</port>
			</output>
		</layer>
		<layer id="176" name="529" type="ShapeOf" version="opset3">
			<data output_type="i64" />
			<input>
				<port id="0" precision="FP32">
					<dim>1</dim>
					<dim>116</dim>
					<dim>40</dim>
					<dim>40</dim>
				</port>
			</input>
			<output>
				<port id="1" precision="I64" names="529,532,535,538,555">
					<dim>4</dim>
				</port>
			</output>
		</layer>
		<layer id="177" name="531" type="Const" version="opset1">
			<data element_type="i64" shape="" offset="22050" size="8" />
			<output>
				<port id="0" precision="I64" names="531" />
			</output>
		</layer>
		<layer id="178" name="Constant_898" type="Const" version="opset1">
			<data element_type="i64" shape="" offset="22034" size="8" />
			<output>
				<port id="0" precision="I64" />
			</output>
		</layer>
		<layer id="179" name="533" type="Gather" version="opset8">
			<data batch_dims="0" />
			<input>
				<port id="0" precision="I64">
					<dim>4</dim>
				</port>
				<port id="1" precision="I64" />
				<port id="2" precision="I64" />
			</input>
			<output>
				<port id="3" precision="I64" names="533" />
			</output>
		</layer>
		<layer id="180" name="540" type="Const" version="opset1">
			<data element_type="i64" shape="" offset="22042" size="8" />
			<output>
				<port id="0" precision="I64" names="540" />
			</output>
		</layer>
		<layer id="181" name="541" type="Divide" version="opset1">
			<data auto_broadcast="numpy" m_pythondiv="true" />
			<input>
				<port id="0" precision="I64" />
				<port id="1" precision="I64" />
			</input>
			<output>
				<port id="2" precision="I64" names="541" />
			</output>
		</layer>
		<layer id="182" name="1771" type="Const" version="opset1">
			<data element_type="i64" shape="1" offset="22034" size="8" />
			<output>
				<port id="0" precision="I64" names="1771">
					<dim>1</dim>
				</port>
			</output>
		</layer>
		<layer id="183" name="545" type="Unsqueeze" version="opset1">
			<input>
				<port id="0" precision="I64" />
				<port id="1" precision="I64">
					<dim>1</dim>
				</port>
			</input>
			<output>
				<port id="2" precision="I64" names="545">
					<dim>1</dim>
				</port>
			</output>
		</layer>
		<layer id="184" name="Constant_19222" type="Const" version="opset1">
			<data element_type="i64" shape="2" offset="22058" size="16" />
			<output>
				<port id="0" precision="I64">
					<dim>2</dim>
				</port>
			</output>
		</layer>
		<layer id="185" name="Constant_19223" type="Const" version="opset1">
			<data element_type="i64" shape="" offset="22034" size="8" />
			<output>
				<port id="0" precision="I64" />
			</output>
		</layer>
		<layer id="186" name="Gather_19224" type="Gather" version="opset8">
			<data batch_dims="0" />
			<input>
				<port id="0" precision="I64">
					<dim>4</dim>
				</port>
				<port id="1" precision="I64">
					<dim>2</dim>
				</port>
				<port id="2" precision="I64" />
			</input>
			<output>
				<port id="3" precision="I64">
					<dim>2</dim>
				</port>
			</output>
		</layer>
		<layer id="187" name="548" type="Concat" version="opset1">
			<data axis="0" />
			<input>
				<port id="0" precision="I64">
					<dim>1</dim>
				</port>
				<port id="1" precision="I64">
					<dim>1</dim>
				</port>
				<port id="2" precision="I64">
					<dim>1</dim>
				</port>
				<port id="3" precision="I64">
					<dim>2</dim>
				</port>
			</input>
			<output>
				<port id="4" precision="I64">
					<dim>5</dim>
				</port>
			</output>
		</layer>
		<layer id="188" name="549" type="Reshape" version="opset1">
			<data special_zero="true" />
			<input>
				<port id="0" precision="FP32">
					<dim>1</dim>
					<dim>116</dim>
					<dim>40</dim>
					<dim>40</dim>
				</port>
				<port id="1" precision="I64">
					<dim>5</dim>
				</port>
			</input>
			<output>
				<port id="2" precision="FP32" names="549">
					<dim>1</dim>
					<dim>2</dim>
					<dim>58</dim>
					<dim>40</dim>
					<dim>40</dim>
				</port>
			</output>
		</layer>
		<layer id="189" name="Constant_963" type="Const" version="opset1">
			<data element_type="i64" shape="5" offset="22074" size="40" />
			<output>
				<port id="0" precision="I64">
					<dim>5</dim>
				</port>
			</output>
		</layer>
		<layer id="190" name="550" type="Transpose" version="opset1">
			<input>
				<port id="0" precision="FP32">
					<dim>1</dim>
					<dim>2</dim>
					<dim>58</dim>
					<dim>40</dim>
					<dim>40</dim>
				</port>
				<port id="1" precision="I64">
					<dim>5</dim>
				</port>
			</input>
			<output>
				<port id="2" precision="FP32" names="550">
					<dim>1</dim>
					<dim>58</dim>
					<dim>2</dim>
					<dim>40</dim>
					<dim>40</dim>
				</port>
			</output>
		</layer>
		<layer id="191" name="556" type="Reshape" version="opset1">
			<data special_zero="true" />
			<input>
				<port id="0" precision="FP32">
					<dim>1</dim>
					<dim>58</dim>
					<dim>2</dim>
					<dim>40</dim>
					<dim>40</dim>
				</port>
				<port id="1" precision="I64">
					<dim>4</dim>
				</port>
			</input>
			<output>
				<port id="2" precision="FP32" names="556">
					<dim>1</dim>
					<dim>116</dim>
					<dim>40</dim>
					<dim>40</dim>
				</port>
			</output>
		</layer>
		<layer id="192" name="neck.lateral_convs.0.conv.weight_compressed" type="Const" version="opset1">
			<data element_type="f16" shape="48, 116, 1, 1" offset="66674" size="11136" />
			<output>
				<port id="0" precision="FP16">
					<dim>48</dim>
					<dim>116</dim>
					<dim>1</dim>
					<dim>1</dim>
				</port>
			</output>
		</layer>
		<layer id="193" name="neck.lateral_convs.0.conv.weight" type="Convert" version="opset1">
			<data destination_type="f32" />
			<rt_info>
				<attribute name="decompression" version="0" />
			</rt_info>
			<input>
				<port id="0" precision="FP16">
					<dim>48</dim>
					<dim>116</dim>
					<dim>1</dim>
					<dim>1</dim>
				</port>
			</input>
			<output>
				<port id="1" precision="FP32" names="neck.lateral_convs.0.conv.weight">
					<dim>48</dim>
					<dim>116</dim>
					<dim>1</dim>
					<dim>1</dim>
				</port>
			</output>
		</layer>
		<layer id="194" name="1043/WithoutBiases" type="Convolution" version="opset1">
			<data strides="1, 1" dilations="1, 1" pads_begin="0, 0" pads_end="0, 0" auto_pad="explicit" />
			<input>
				<port id="0" precision="FP32">
					<dim>1</dim>
					<dim>116</dim>
					<dim>40</dim>
					<dim>40</dim>
				</port>
				<port id="1" precision="FP32">
					<dim>48</dim>
					<dim>116</dim>
					<dim>1</dim>
					<dim>1</dim>
				</port>
			</input>
			<output>
				<port id="2" precision="FP32">
					<dim>1</dim>
					<dim>48</dim>
					<dim>40</dim>
					<dim>40</dim>
				</port>
			</output>
		</layer>
		<layer id="195" name="Reshape_2868_compressed" type="Const" version="opset1">
			<data element_type="f16" shape="1, 48, 1, 1" offset="77810" size="96" />
			<output>
				<port id="0" precision="FP16">
					<dim>1</dim>
					<dim>48</dim>
					<dim>1</dim>
					<dim>1</dim>
				</port>
			</output>
		</layer>
		<layer id="196" name="Reshape_2868" type="Convert" version="opset1">
			<data destination_type="f32" />
			<rt_info>
				<attribute name="decompression" version="0" />
			</rt_info>
			<input>
				<port id="0" precision="FP16">
					<dim>1</dim>
					<dim>48</dim>
					<dim>1</dim>
					<dim>1</dim>
				</port>
			</input>
			<output>
				<port id="1" precision="FP32">
					<dim>1</dim>
					<dim>48</dim>
					<dim>1</dim>
					<dim>1</dim>
				</port>
			</output>
		</layer>
		<layer id="197" name="1043" type="Add" version="opset1">
			<data auto_broadcast="numpy" />
			<input>
				<port id="0" precision="FP32">
					<dim>1</dim>
					<dim>48</dim>
					<dim>40</dim>
					<dim>40</dim>
				</port>
				<port id="1" precision="FP32">
					<dim>1</dim>
					<dim>48</dim>
					<dim>1</dim>
					<dim>1</dim>
				</port>
			</input>
			<output>
				<port id="2" precision="FP32" names="1043">
					<dim>1</dim>
					<dim>48</dim>
					<dim>40</dim>
					<dim>40</dim>
				</port>
			</output>
		</layer>
		<layer id="198" name="Multiply_27920_compressed" type="Const" version="opset1">
			<data element_type="f16" shape="116, 1, 1, 3, 3" offset="77906" size="2088" />
			<output>
				<port id="0" precision="FP16">
					<dim>116</dim>
					<dim>1</dim>
					<dim>1</dim>
					<dim>3</dim>
					<dim>3</dim>
				</port>
			</output>
		</layer>
		<layer id="199" name="Multiply_27920" type="Convert" version="opset1">
			<data destination_type="f32" />
			<rt_info>
				<attribute name="decompression" version="0" />
			</rt_info>
			<input>
				<port id="0" precision="FP16">
					<dim>116</dim>
					<dim>1</dim>
					<dim>1</dim>
					<dim>3</dim>
					<dim>3</dim>
				</port>
			</input>
			<output>
				<port id="1" precision="FP32">
					<dim>116</dim>
					<dim>1</dim>
					<dim>1</dim>
					<dim>3</dim>
					<dim>3</dim>
				</port>
			</output>
		</layer>
		<layer id="200" name="Multiply_27528" type="GroupConvolution" version="opset1">
			<data strides="2, 2" pads_begin="1, 1" pads_end="1, 1" dilations="1, 1" auto_pad="explicit" />
			<input>
				<port id="0" precision="FP32">
					<dim>1</dim>
					<dim>116</dim>
					<dim>40</dim>
					<dim>40</dim>
				</port>
				<port id="1" precision="FP32">
					<dim>116</dim>
					<dim>1</dim>
					<dim>1</dim>
					<dim>3</dim>
					<dim>3</dim>
				</port>
			</input>
			<output>
				<port id="2" precision="FP32" names="557">
					<dim>1</dim>
					<dim>116</dim>
					<dim>20</dim>
					<dim>20</dim>
				</port>
			</output>
		</layer>
		<layer id="201" name="Constant_27533_compressed" type="Const" version="opset1">
			<data element_type="f16" shape="1, 116, 1, 1" offset="79994" size="232" />
			<output>
				<port id="0" precision="FP16">
					<dim>1</dim>
					<dim>116</dim>
					<dim>1</dim>
					<dim>1</dim>
				</port>
			</output>
		</layer>
		<layer id="202" name="Constant_27533" type="Convert" version="opset1">
			<data destination_type="f32" />
			<rt_info>
				<attribute name="decompression" version="0" />
			</rt_info>
			<input>
				<port id="0" precision="FP16">
					<dim>1</dim>
					<dim>116</dim>
					<dim>1</dim>
					<dim>1</dim>
				</port>
			</input>
			<output>
				<port id="1" precision="FP32">
					<dim>1</dim>
					<dim>116</dim>
					<dim>1</dim>
					<dim>1</dim>
				</port>
			</output>
		</layer>
		<layer id="203" name="558" type="Add" version="opset1">
			<data auto_broadcast="numpy" />
			<input>
				<port id="0" precision="FP32">
					<dim>1</dim>
					<dim>116</dim>
					<dim>20</dim>
					<dim>20</dim>
				</port>
				<port id="1" precision="FP32">
					<dim>1</dim>
					<dim>116</dim>
					<dim>1</dim>
					<dim>1</dim>
				</port>
			</input>
			<output>
				<port id="2" precision="FP32" names="558">
					<dim>1</dim>
					<dim>116</dim>
					<dim>20</dim>
					<dim>20</dim>
				</port>
			</output>
		</layer>
		<layer id="204" name="Multiply_27925_compressed" type="Const" version="opset1">
			<data element_type="f16" shape="116, 116, 1, 1" offset="80226" size="26912" />
			<output>
				<port id="0" precision="FP16">
					<dim>116</dim>
					<dim>116</dim>
					<dim>1</dim>
					<dim>1</dim>
				</port>
			</output>
		</layer>
		<layer id="205" name="Multiply_27925" type="Convert" version="opset1">
			<data destination_type="f32" />
			<rt_info>
				<attribute name="decompression" version="0" />
			</rt_info>
			<input>
				<port id="0" precision="FP16">
					<dim>116</dim>
					<dim>116</dim>
					<dim>1</dim>
					<dim>1</dim>
				</port>
			</input>
			<output>
				<port id="1" precision="FP32">
					<dim>116</dim>
					<dim>116</dim>
					<dim>1</dim>
					<dim>1</dim>
				</port>
			</output>
		</layer>
		<layer id="206" name="Multiply_27535" type="Convolution" version="opset1">
			<data strides="1, 1" dilations="1, 1" pads_begin="0, 0" pads_end="0, 0" auto_pad="explicit" />
			<input>
				<port id="0" precision="FP32">
					<dim>1</dim>
					<dim>116</dim>
					<dim>20</dim>
					<dim>20</dim>
				</port>
				<port id="1" precision="FP32">
					<dim>116</dim>
					<dim>116</dim>
					<dim>1</dim>
					<dim>1</dim>
				</port>
			</input>
			<output>
				<port id="2" precision="FP32">
					<dim>1</dim>
					<dim>116</dim>
					<dim>20</dim>
					<dim>20</dim>
				</port>
			</output>
		</layer>
		<layer id="207" name="Constant_27540_compressed" type="Const" version="opset1">
			<data element_type="f16" shape="1, 116, 1, 1" offset="107138" size="232" />
			<output>
				<port id="0" precision="FP16">
					<dim>1</dim>
					<dim>116</dim>
					<dim>1</dim>
					<dim>1</dim>
				</port>
			</output>
		</layer>
		<layer id="208" name="Constant_27540" type="Convert" version="opset1">
			<data destination_type="f32" />
			<rt_info>
				<attribute name="decompression" version="0" />
			</rt_info>
			<input>
				<port id="0" precision="FP16">
					<dim>1</dim>
					<dim>116</dim>
					<dim>1</dim>
					<dim>1</dim>
				</port>
			</input>
			<output>
				<port id="1" precision="FP32">
					<dim>1</dim>
					<dim>116</dim>
					<dim>1</dim>
					<dim>1</dim>
				</port>
			</output>
		</layer>
		<layer id="209" name="560" type="Add" version="opset1">
			<data auto_broadcast="numpy" />
			<input>
				<port id="0" precision="FP32">
					<dim>1</dim>
					<dim>116</dim>
					<dim>20</dim>
					<dim>20</dim>
				</port>
				<port id="1" precision="FP32">
					<dim>1</dim>
					<dim>116</dim>
					<dim>1</dim>
					<dim>1</dim>
				</port>
			</input>
			<output>
				<port id="2" precision="FP32" names="560">
					<dim>1</dim>
					<dim>116</dim>
					<dim>20</dim>
					<dim>20</dim>
				</port>
			</output>
		</layer>
		<layer id="210" name="561" type="ReLU" version="opset1">
			<input>
				<port id="0" precision="FP32">
					<dim>1</dim>
					<dim>116</dim>
					<dim>20</dim>
					<dim>20</dim>
				</port>
			</input>
			<output>
				<port id="1" precision="FP32" names="561">
					<dim>1</dim>
					<dim>116</dim>
					<dim>20</dim>
					<dim>20</dim>
				</port>
			</output>
		</layer>
		<layer id="211" name="Multiply_27931_compressed" type="Const" version="opset1">
			<data element_type="f16" shape="116, 116, 1, 1" offset="107370" size="26912" />
			<output>
				<port id="0" precision="FP16">
					<dim>116</dim>
					<dim>116</dim>
					<dim>1</dim>
					<dim>1</dim>
				</port>
			</output>
		</layer>
		<layer id="212" name="Multiply_27931" type="Convert" version="opset1">
			<data destination_type="f32" />
			<rt_info>
				<attribute name="decompression" version="0" />
			</rt_info>
			<input>
				<port id="0" precision="FP16">
					<dim>116</dim>
					<dim>116</dim>
					<dim>1</dim>
					<dim>1</dim>
				</port>
			</input>
			<output>
				<port id="1" precision="FP32">
					<dim>116</dim>
					<dim>116</dim>
					<dim>1</dim>
					<dim>1</dim>
				</port>
			</output>
		</layer>
		<layer id="213" name="Multiply_27542" type="Convolution" version="opset1">
			<data strides="1, 1" dilations="1, 1" pads_begin="0, 0" pads_end="0, 0" auto_pad="explicit" />
			<input>
				<port id="0" precision="FP32">
					<dim>1</dim>
					<dim>116</dim>
					<dim>40</dim>
					<dim>40</dim>
				</port>
				<port id="1" precision="FP32">
					<dim>116</dim>
					<dim>116</dim>
					<dim>1</dim>
					<dim>1</dim>
				</port>
			</input>
			<output>
				<port id="2" precision="FP32">
					<dim>1</dim>
					<dim>116</dim>
					<dim>40</dim>
					<dim>40</dim>
				</port>
			</output>
		</layer>
		<layer id="214" name="Constant_27547_compressed" type="Const" version="opset1">
			<data element_type="f16" shape="1, 116, 1, 1" offset="134282" size="232" />
			<output>
				<port id="0" precision="FP16">
					<dim>1</dim>
					<dim>116</dim>
					<dim>1</dim>
					<dim>1</dim>
				</port>
			</output>
		</layer>
		<layer id="215" name="Constant_27547" type="Convert" version="opset1">
			<data destination_type="f32" />
			<rt_info>
				<attribute name="decompression" version="0" />
			</rt_info>
			<input>
				<port id="0" precision="FP16">
					<dim>1</dim>
					<dim>116</dim>
					<dim>1</dim>
					<dim>1</dim>
				</port>
			</input>
			<output>
				<port id="1" precision="FP32">
					<dim>1</dim>
					<dim>116</dim>
					<dim>1</dim>
					<dim>1</dim>
				</port>
			</output>
		</layer>
		<layer id="216" name="563" type="Add" version="opset1">
			<data auto_broadcast="numpy" />
			<input>
				<port id="0" precision="FP32">
					<dim>1</dim>
					<dim>116</dim>
					<dim>40</dim>
					<dim>40</dim>
				</port>
				<port id="1" precision="FP32">
					<dim>1</dim>
					<dim>116</dim>
					<dim>1</dim>
					<dim>1</dim>
				</port>
			</input>
			<output>
				<port id="2" precision="FP32" names="563">
					<dim>1</dim>
					<dim>116</dim>
					<dim>40</dim>
					<dim>40</dim>
				</port>
			</output>
		</layer>
		<layer id="217" name="564" type="ReLU" version="opset1">
			<input>
				<port id="0" precision="FP32">
					<dim>1</dim>
					<dim>116</dim>
					<dim>40</dim>
					<dim>40</dim>
				</port>
			</input>
			<output>
				<port id="1" precision="FP32" names="564">
					<dim>1</dim>
					<dim>116</dim>
					<dim>40</dim>
					<dim>40</dim>
				</port>
			</output>
		</layer>
		<layer id="218" name="Multiply_27937_compressed" type="Const" version="opset1">
			<data element_type="f16" shape="116, 1, 1, 3, 3" offset="134514" size="2088" />
			<output>
				<port id="0" precision="FP16">
					<dim>116</dim>
					<dim>1</dim>
					<dim>1</dim>
					<dim>3</dim>
					<dim>3</dim>
				</port>
			</output>
		</layer>
		<layer id="219" name="Multiply_27937" type="Convert" version="opset1">
			<data destination_type="f32" />
			<rt_info>
				<attribute name="decompression" version="0" />
			</rt_info>
			<input>
				<port id="0" precision="FP16">
					<dim>116</dim>
					<dim>1</dim>
					<dim>1</dim>
					<dim>3</dim>
					<dim>3</dim>
				</port>
			</input>
			<output>
				<port id="1" precision="FP32">
					<dim>116</dim>
					<dim>1</dim>
					<dim>1</dim>
					<dim>3</dim>
					<dim>3</dim>
				</port>
			</output>
		</layer>
		<layer id="220" name="Multiply_27549" type="GroupConvolution" version="opset1">
			<data strides="2, 2" pads_begin="1, 1" pads_end="1, 1" dilations="1, 1" auto_pad="explicit" />
			<input>
				<port id="0" precision="FP32">
					<dim>1</dim>
					<dim>116</dim>
					<dim>40</dim>
					<dim>40</dim>
				</port>
				<port id="1" precision="FP32">
					<dim>116</dim>
					<dim>1</dim>
					<dim>1</dim>
					<dim>3</dim>
					<dim>3</dim>
				</port>
			</input>
			<output>
				<port id="2" precision="FP32" names="565">
					<dim>1</dim>
					<dim>116</dim>
					<dim>20</dim>
					<dim>20</dim>
				</port>
			</output>
		</layer>
		<layer id="221" name="Constant_27554_compressed" type="Const" version="opset1">
			<data element_type="f16" shape="1, 116, 1, 1" offset="136602" size="232" />
			<output>
				<port id="0" precision="FP16">
					<dim>1</dim>
					<dim>116</dim>
					<dim>1</dim>
					<dim>1</dim>
				</port>
			</output>
		</layer>
		<layer id="222" name="Constant_27554" type="Convert" version="opset1">
			<data destination_type="f32" />
			<rt_info>
				<attribute name="decompression" version="0" />
			</rt_info>
			<input>
				<port id="0" precision="FP16">
					<dim>1</dim>
					<dim>116</dim>
					<dim>1</dim>
					<dim>1</dim>
				</port>
			</input>
			<output>
				<port id="1" precision="FP32">
					<dim>1</dim>
					<dim>116</dim>
					<dim>1</dim>
					<dim>1</dim>
				</port>
			</output>
		</layer>
		<layer id="223" name="566" type="Add" version="opset1">
			<data auto_broadcast="numpy" />
			<input>
				<port id="0" precision="FP32">
					<dim>1</dim>
					<dim>116</dim>
					<dim>20</dim>
					<dim>20</dim>
				</port>
				<port id="1" precision="FP32">
					<dim>1</dim>
					<dim>116</dim>
					<dim>1</dim>
					<dim>1</dim>
				</port>
			</input>
			<output>
				<port id="2" precision="FP32" names="566">
					<dim>1</dim>
					<dim>116</dim>
					<dim>20</dim>
					<dim>20</dim>
				</port>
			</output>
		</layer>
		<layer id="224" name="Multiply_27942_compressed" type="Const" version="opset1">
			<data element_type="f16" shape="116, 116, 1, 1" offset="136834" size="26912" />
			<output>
				<port id="0" precision="FP16">
					<dim>116</dim>
					<dim>116</dim>
					<dim>1</dim>
					<dim>1</dim>
				</port>
			</output>
		</layer>
		<layer id="225" name="Multiply_27942" type="Convert" version="opset1">
			<data destination_type="f32" />
			<rt_info>
				<attribute name="decompression" version="0" />
			</rt_info>
			<input>
				<port id="0" precision="FP16">
					<dim>116</dim>
					<dim>116</dim>
					<dim>1</dim>
					<dim>1</dim>
				</port>
			</input>
			<output>
				<port id="1" precision="FP32">
					<dim>116</dim>
					<dim>116</dim>
					<dim>1</dim>
					<dim>1</dim>
				</port>
			</output>
		</layer>
		<layer id="226" name="Multiply_27556" type="Convolution" version="opset1">
			<data strides="1, 1" dilations="1, 1" pads_begin="0, 0" pads_end="0, 0" auto_pad="explicit" />
			<input>
				<port id="0" precision="FP32">
					<dim>1</dim>
					<dim>116</dim>
					<dim>20</dim>
					<dim>20</dim>
				</port>
				<port id="1" precision="FP32">
					<dim>116</dim>
					<dim>116</dim>
					<dim>1</dim>
					<dim>1</dim>
				</port>
			</input>
			<output>
				<port id="2" precision="FP32">
					<dim>1</dim>
					<dim>116</dim>
					<dim>20</dim>
					<dim>20</dim>
				</port>
			</output>
		</layer>
		<layer id="227" name="Constant_27561_compressed" type="Const" version="opset1">
			<data element_type="f16" shape="1, 116, 1, 1" offset="163746" size="232" />
			<output>
				<port id="0" precision="FP16">
					<dim>1</dim>
					<dim>116</dim>
					<dim>1</dim>
					<dim>1</dim>
				</port>
			</output>
		</layer>
		<layer id="228" name="Constant_27561" type="Convert" version="opset1">
			<data destination_type="f32" />
			<rt_info>
				<attribute name="decompression" version="0" />
			</rt_info>
			<input>
				<port id="0" precision="FP16">
					<dim>1</dim>
					<dim>116</dim>
					<dim>1</dim>
					<dim>1</dim>
				</port>
			</input>
			<output>
				<port id="1" precision="FP32">
					<dim>1</dim>
					<dim>116</dim>
					<dim>1</dim>
					<dim>1</dim>
				</port>
			</output>
		</layer>
		<layer id="229" name="568" type="Add" version="opset1">
			<data auto_broadcast="numpy" />
			<input>
				<port id="0" precision="FP32">
					<dim>1</dim>
					<dim>116</dim>
					<dim>20</dim>
					<dim>20</dim>
				</port>
				<port id="1" precision="FP32">
					<dim>1</dim>
					<dim>116</dim>
					<dim>1</dim>
					<dim>1</dim>
				</port>
			</input>
			<output>
				<port id="2" precision="FP32" names="568">
					<dim>1</dim>
					<dim>116</dim>
					<dim>20</dim>
					<dim>20</dim>
				</port>
			</output>
		</layer>
		<layer id="230" name="569" type="ReLU" version="opset1">
			<input>
				<port id="0" precision="FP32">
					<dim>1</dim>
					<dim>116</dim>
					<dim>20</dim>
					<dim>20</dim>
				</port>
			</input>
			<output>
				<port id="1" precision="FP32" names="569">
					<dim>1</dim>
					<dim>116</dim>
					<dim>20</dim>
					<dim>20</dim>
				</port>
			</output>
		</layer>
		<layer id="231" name="570" type="Concat" version="opset1">
			<data axis="1" />
			<input>
				<port id="0" precision="FP32">
					<dim>1</dim>
					<dim>116</dim>
					<dim>20</dim>
					<dim>20</dim>
				</port>
				<port id="1" precision="FP32">
					<dim>1</dim>
					<dim>116</dim>
					<dim>20</dim>
					<dim>20</dim>
				</port>
			</input>
			<output>
				<port id="2" precision="FP32" names="570">
					<dim>1</dim>
					<dim>232</dim>
					<dim>20</dim>
					<dim>20</dim>
				</port>
			</output>
		</layer>
		<layer id="232" name="Constant_20754" type="Const" version="opset1">
			<data element_type="i64" shape="1" offset="22034" size="8" />
			<output>
				<port id="0" precision="I64">
					<dim>1</dim>
				</port>
			</output>
		</layer>
		<layer id="233" name="587" type="Const" version="opset1">
			<data element_type="i64" shape="1" offset="22042" size="8" />
			<output>
				<port id="0" precision="I64" names="587">
					<dim>1</dim>
				</port>
			</output>
		</layer>
		<layer id="234" name="572" type="ShapeOf" version="opset3">
			<data output_type="i64" />
			<input>
				<port id="0" precision="FP32">
					<dim>1</dim>
					<dim>232</dim>
					<dim>20</dim>
					<dim>20</dim>
				</port>
			</input>
			<output>
				<port id="1" precision="I64" names="572,575,578,581,598">
					<dim>4</dim>
				</port>
			</output>
		</layer>
		<layer id="235" name="574" type="Const" version="opset1">
			<data element_type="i64" shape="" offset="22050" size="8" />
			<output>
				<port id="0" precision="I64" names="574" />
			</output>
		</layer>
		<layer id="236" name="Constant_1098" type="Const" version="opset1">
			<data element_type="i64" shape="" offset="22034" size="8" />
			<output>
				<port id="0" precision="I64" />
			</output>
		</layer>
		<layer id="237" name="576" type="Gather" version="opset8">
			<data batch_dims="0" />
			<input>
				<port id="0" precision="I64">
					<dim>4</dim>
				</port>
				<port id="1" precision="I64" />
				<port id="2" precision="I64" />
			</input>
			<output>
				<port id="3" precision="I64" names="576" />
			</output>
		</layer>
		<layer id="238" name="583" type="Const" version="opset1">
			<data element_type="i64" shape="" offset="22042" size="8" />
			<output>
				<port id="0" precision="I64" names="583" />
			</output>
		</layer>
		<layer id="239" name="584" type="Divide" version="opset1">
			<data auto_broadcast="numpy" m_pythondiv="true" />
			<input>
				<port id="0" precision="I64" />
				<port id="1" precision="I64" />
			</input>
			<output>
				<port id="2" precision="I64" names="584" />
			</output>
		</layer>
		<layer id="240" name="1780" type="Const" version="opset1">
			<data element_type="i64" shape="1" offset="22034" size="8" />
			<output>
				<port id="0" precision="I64" names="1780">
					<dim>1</dim>
				</port>
			</output>
		</layer>
		<layer id="241" name="588" type="Unsqueeze" version="opset1">
			<input>
				<port id="0" precision="I64" />
				<port id="1" precision="I64">
					<dim>1</dim>
				</port>
			</input>
			<output>
				<port id="2" precision="I64" names="588">
					<dim>1</dim>
				</port>
			</output>
		</layer>
		<layer id="242" name="Constant_19239" type="Const" version="opset1">
			<data element_type="i64" shape="2" offset="22058" size="16" />
			<output>
				<port id="0" precision="I64">
					<dim>2</dim>
				</port>
			</output>
		</layer>
		<layer id="243" name="Constant_19240" type="Const" version="opset1">
			<data element_type="i64" shape="" offset="22034" size="8" />
			<output>
				<port id="0" precision="I64" />
			</output>
		</layer>
		<layer id="244" name="Gather_19241" type="Gather" version="opset8">
			<data batch_dims="0" />
			<input>
				<port id="0" precision="I64">
					<dim>4</dim>
				</port>
				<port id="1" precision="I64">
					<dim>2</dim>
				</port>
				<port id="2" precision="I64" />
			</input>
			<output>
				<port id="3" precision="I64">
					<dim>2</dim>
				</port>
			</output>
		</layer>
		<layer id="245" name="591" type="Concat" version="opset1">
			<data axis="0" />
			<input>
				<port id="0" precision="I64">
					<dim>1</dim>
				</port>
				<port id="1" precision="I64">
					<dim>1</dim>
				</port>
				<port id="2" precision="I64">
					<dim>1</dim>
				</port>
				<port id="3" precision="I64">
					<dim>2</dim>
				</port>
			</input>
			<output>
				<port id="4" precision="I64">
					<dim>5</dim>
				</port>
			</output>
		</layer>
		<layer id="246" name="592" type="Reshape" version="opset1">
			<data special_zero="true" />
			<input>
				<port id="0" precision="FP32">
					<dim>1</dim>
					<dim>232</dim>
					<dim>20</dim>
					<dim>20</dim>
				</port>
				<port id="1" precision="I64">
					<dim>5</dim>
				</port>
			</input>
			<output>
				<port id="2" precision="FP32" names="592">
					<dim>1</dim>
					<dim>2</dim>
					<dim>116</dim>
					<dim>20</dim>
					<dim>20</dim>
				</port>
			</output>
		</layer>
		<layer id="247" name="Constant_1163" type="Const" version="opset1">
			<data element_type="i64" shape="5" offset="22074" size="40" />
			<output>
				<port id="0" precision="I64">
					<dim>5</dim>
				</port>
			</output>
		</layer>
		<layer id="248" name="593" type="Transpose" version="opset1">
			<input>
				<port id="0" precision="FP32">
					<dim>1</dim>
					<dim>2</dim>
					<dim>116</dim>
					<dim>20</dim>
					<dim>20</dim>
				</port>
				<port id="1" precision="I64">
					<dim>5</dim>
				</port>
			</input>
			<output>
				<port id="2" precision="FP32" names="593">
					<dim>1</dim>
					<dim>116</dim>
					<dim>2</dim>
					<dim>20</dim>
					<dim>20</dim>
				</port>
			</output>
		</layer>
		<layer id="249" name="599" type="Reshape" version="opset1">
			<data special_zero="true" />
			<input>
				<port id="0" precision="FP32">
					<dim>1</dim>
					<dim>116</dim>
					<dim>2</dim>
					<dim>20</dim>
					<dim>20</dim>
				</port>
				<port id="1" precision="I64">
					<dim>4</dim>
				</port>
			</input>
			<output>
				<port id="2" precision="FP32" names="599">
					<dim>1</dim>
					<dim>232</dim>
					<dim>20</dim>
					<dim>20</dim>
				</port>
			</output>
		</layer>
		<layer id="250" name="Constant_1178" type="Const" version="opset1">
			<data element_type="i64" shape="" offset="22050" size="8" />
			<output>
				<port id="0" precision="I64" />
			</output>
		</layer>
		<layer id="251" name="1787" type="Const" version="opset1">
			<data element_type="i64" shape="2" offset="163978" size="16" />
			<output>
				<port id="0" precision="I64" names="1787">
					<dim>2</dim>
				</port>
			</output>
		</layer>
		<layer id="252" name="601" type="VariadicSplit" version="opset1">
			<input>
				<port id="0" precision="FP32">
					<dim>1</dim>
					<dim>232</dim>
					<dim>20</dim>
					<dim>20</dim>
				</port>
				<port id="1" precision="I64" />
				<port id="2" precision="I64">
					<dim>2</dim>
				</port>
			</input>
			<output>
				<port id="3" precision="FP32" names="600">
					<dim>1</dim>
					<dim>116</dim>
					<dim>20</dim>
					<dim>20</dim>
				</port>
				<port id="4" precision="FP32" names="601">
					<dim>1</dim>
					<dim>116</dim>
					<dim>20</dim>
					<dim>20</dim>
				</port>
			</output>
		</layer>
		<layer id="253" name="Multiply_27948_compressed" type="Const" version="opset1">
			<data element_type="f16" shape="116, 116, 1, 1" offset="163994" size="26912" />
			<output>
				<port id="0" precision="FP16">
					<dim>116</dim>
					<dim>116</dim>
					<dim>1</dim>
					<dim>1</dim>
				</port>
			</output>
		</layer>
		<layer id="254" name="Multiply_27948" type="Convert" version="opset1">
			<data destination_type="f32" />
			<rt_info>
				<attribute name="decompression" version="0" />
			</rt_info>
			<input>
				<port id="0" precision="FP16">
					<dim>116</dim>
					<dim>116</dim>
					<dim>1</dim>
					<dim>1</dim>
				</port>
			</input>
			<output>
				<port id="1" precision="FP32">
					<dim>116</dim>
					<dim>116</dim>
					<dim>1</dim>
					<dim>1</dim>
				</port>
			</output>
		</layer>
		<layer id="255" name="Multiply_27563" type="Convolution" version="opset1">
			<data strides="1, 1" dilations="1, 1" pads_begin="0, 0" pads_end="0, 0" auto_pad="explicit" />
			<input>
				<port id="0" precision="FP32">
					<dim>1</dim>
					<dim>116</dim>
					<dim>20</dim>
					<dim>20</dim>
				</port>
				<port id="1" precision="FP32">
					<dim>116</dim>
					<dim>116</dim>
					<dim>1</dim>
					<dim>1</dim>
				</port>
			</input>
			<output>
				<port id="2" precision="FP32">
					<dim>1</dim>
					<dim>116</dim>
					<dim>20</dim>
					<dim>20</dim>
				</port>
			</output>
		</layer>
		<layer id="256" name="Constant_27568_compressed" type="Const" version="opset1">
			<data element_type="f16" shape="1, 116, 1, 1" offset="190906" size="232" />
			<output>
				<port id="0" precision="FP16">
					<dim>1</dim>
					<dim>116</dim>
					<dim>1</dim>
					<dim>1</dim>
				</port>
			</output>
		</layer>
		<layer id="257" name="Constant_27568" type="Convert" version="opset1">
			<data destination_type="f32" />
			<rt_info>
				<attribute name="decompression" version="0" />
			</rt_info>
			<input>
				<port id="0" precision="FP16">
					<dim>1</dim>
					<dim>116</dim>
					<dim>1</dim>
					<dim>1</dim>
				</port>
			</input>
			<output>
				<port id="1" precision="FP32">
					<dim>1</dim>
					<dim>116</dim>
					<dim>1</dim>
					<dim>1</dim>
				</port>
			</output>
		</layer>
		<layer id="258" name="603" type="Add" version="opset1">
			<data auto_broadcast="numpy" />
			<input>
				<port id="0" precision="FP32">
					<dim>1</dim>
					<dim>116</dim>
					<dim>20</dim>
					<dim>20</dim>
				</port>
				<port id="1" precision="FP32">
					<dim>1</dim>
					<dim>116</dim>
					<dim>1</dim>
					<dim>1</dim>
				</port>
			</input>
			<output>
				<port id="2" precision="FP32" names="603">
					<dim>1</dim>
					<dim>116</dim>
					<dim>20</dim>
					<dim>20</dim>
				</port>
			</output>
		</layer>
		<layer id="259" name="604" type="ReLU" version="opset1">
			<input>
				<port id="0" precision="FP32">
					<dim>1</dim>
					<dim>116</dim>
					<dim>20</dim>
					<dim>20</dim>
				</port>
			</input>
			<output>
				<port id="1" precision="FP32" names="604">
					<dim>1</dim>
					<dim>116</dim>
					<dim>20</dim>
					<dim>20</dim>
				</port>
			</output>
		</layer>
		<layer id="260" name="Multiply_27954_compressed" type="Const" version="opset1">
			<data element_type="f16" shape="116, 1, 1, 3, 3" offset="191138" size="2088" />
			<output>
				<port id="0" precision="FP16">
					<dim>116</dim>
					<dim>1</dim>
					<dim>1</dim>
					<dim>3</dim>
					<dim>3</dim>
				</port>
			</output>
		</layer>
		<layer id="261" name="Multiply_27954" type="Convert" version="opset1">
			<data destination_type="f32" />
			<rt_info>
				<attribute name="decompression" version="0" />
			</rt_info>
			<input>
				<port id="0" precision="FP16">
					<dim>116</dim>
					<dim>1</dim>
					<dim>1</dim>
					<dim>3</dim>
					<dim>3</dim>
				</port>
			</input>
			<output>
				<port id="1" precision="FP32">
					<dim>116</dim>
					<dim>1</dim>
					<dim>1</dim>
					<dim>3</dim>
					<dim>3</dim>
				</port>
			</output>
		</layer>
		<layer id="262" name="Multiply_27570" type="GroupConvolution" version="opset1">
			<data strides="1, 1" pads_begin="1, 1" pads_end="1, 1" dilations="1, 1" auto_pad="explicit" />
			<input>
				<port id="0" precision="FP32">
					<dim>1</dim>
					<dim>116</dim>
					<dim>20</dim>
					<dim>20</dim>
				</port>
				<port id="1" precision="FP32">
					<dim>116</dim>
					<dim>1</dim>
					<dim>1</dim>
					<dim>3</dim>
					<dim>3</dim>
				</port>
			</input>
			<output>
				<port id="2" precision="FP32" names="605">
					<dim>1</dim>
					<dim>116</dim>
					<dim>20</dim>
					<dim>20</dim>
				</port>
			</output>
		</layer>
		<layer id="263" name="Constant_27575_compressed" type="Const" version="opset1">
			<data element_type="f16" shape="1, 116, 1, 1" offset="193226" size="232" />
			<output>
				<port id="0" precision="FP16">
					<dim>1</dim>
					<dim>116</dim>
					<dim>1</dim>
					<dim>1</dim>
				</port>
			</output>
		</layer>
		<layer id="264" name="Constant_27575" type="Convert" version="opset1">
			<data destination_type="f32" />
			<rt_info>
				<attribute name="decompression" version="0" />
			</rt_info>
			<input>
				<port id="0" precision="FP16">
					<dim>1</dim>
					<dim>116</dim>
					<dim>1</dim>
					<dim>1</dim>
				</port>
			</input>
			<output>
				<port id="1" precision="FP32">
					<dim>1</dim>
					<dim>116</dim>
					<dim>1</dim>
					<dim>1</dim>
				</port>
			</output>
		</layer>
		<layer id="265" name="606" type="Add" version="opset1">
			<data auto_broadcast="numpy" />
			<input>
				<port id="0" precision="FP32">
					<dim>1</dim>
					<dim>116</dim>
					<dim>20</dim>
					<dim>20</dim>
				</port>
				<port id="1" precision="FP32">
					<dim>1</dim>
					<dim>116</dim>
					<dim>1</dim>
					<dim>1</dim>
				</port>
			</input>
			<output>
				<port id="2" precision="FP32" names="606">
					<dim>1</dim>
					<dim>116</dim>
					<dim>20</dim>
					<dim>20</dim>
				</port>
			</output>
		</layer>
		<layer id="266" name="Multiply_27959_compressed" type="Const" version="opset1">
			<data element_type="f16" shape="116, 116, 1, 1" offset="193458" size="26912" />
			<output>
				<port id="0" precision="FP16">
					<dim>116</dim>
					<dim>116</dim>
					<dim>1</dim>
					<dim>1</dim>
				</port>
			</output>
		</layer>
		<layer id="267" name="Multiply_27959" type="Convert" version="opset1">
			<data destination_type="f32" />
			<rt_info>
				<attribute name="decompression" version="0" />
			</rt_info>
			<input>
				<port id="0" precision="FP16">
					<dim>116</dim>
					<dim>116</dim>
					<dim>1</dim>
					<dim>1</dim>
				</port>
			</input>
			<output>
				<port id="1" precision="FP32">
					<dim>116</dim>
					<dim>116</dim>
					<dim>1</dim>
					<dim>1</dim>
				</port>
			</output>
		</layer>
		<layer id="268" name="Multiply_27577" type="Convolution" version="opset1">
			<data strides="1, 1" dilations="1, 1" pads_begin="0, 0" pads_end="0, 0" auto_pad="explicit" />
			<input>
				<port id="0" precision="FP32">
					<dim>1</dim>
					<dim>116</dim>
					<dim>20</dim>
					<dim>20</dim>
				</port>
				<port id="1" precision="FP32">
					<dim>116</dim>
					<dim>116</dim>
					<dim>1</dim>
					<dim>1</dim>
				</port>
			</input>
			<output>
				<port id="2" precision="FP32">
					<dim>1</dim>
					<dim>116</dim>
					<dim>20</dim>
					<dim>20</dim>
				</port>
			</output>
		</layer>
		<layer id="269" name="Constant_27582_compressed" type="Const" version="opset1">
			<data element_type="f16" shape="1, 116, 1, 1" offset="220370" size="232" />
			<output>
				<port id="0" precision="FP16">
					<dim>1</dim>
					<dim>116</dim>
					<dim>1</dim>
					<dim>1</dim>
				</port>
			</output>
		</layer>
		<layer id="270" name="Constant_27582" type="Convert" version="opset1">
			<data destination_type="f32" />
			<rt_info>
				<attribute name="decompression" version="0" />
			</rt_info>
			<input>
				<port id="0" precision="FP16">
					<dim>1</dim>
					<dim>116</dim>
					<dim>1</dim>
					<dim>1</dim>
				</port>
			</input>
			<output>
				<port id="1" precision="FP32">
					<dim>1</dim>
					<dim>116</dim>
					<dim>1</dim>
					<dim>1</dim>
				</port>
			</output>
		</layer>
		<layer id="271" name="608" type="Add" version="opset1">
			<data auto_broadcast="numpy" />
			<input>
				<port id="0" precision="FP32">
					<dim>1</dim>
					<dim>116</dim>
					<dim>20</dim>
					<dim>20</dim>
				</port>
				<port id="1" precision="FP32">
					<dim>1</dim>
					<dim>116</dim>
					<dim>1</dim>
					<dim>1</dim>
				</port>
			</input>
			<output>
				<port id="2" precision="FP32" names="608">
					<dim>1</dim>
					<dim>116</dim>
					<dim>20</dim>
					<dim>20</dim>
				</port>
			</output>
		</layer>
		<layer id="272" name="609" type="ReLU" version="opset1">
			<input>
				<port id="0" precision="FP32">
					<dim>1</dim>
					<dim>116</dim>
					<dim>20</dim>
					<dim>20</dim>
				</port>
			</input>
			<output>
				<port id="1" precision="FP32" names="609">
					<dim>1</dim>
					<dim>116</dim>
					<dim>20</dim>
					<dim>20</dim>
				</port>
			</output>
		</layer>
		<layer id="273" name="610" type="Concat" version="opset1">
			<data axis="1" />
			<input>
				<port id="0" precision="FP32">
					<dim>1</dim>
					<dim>116</dim>
					<dim>20</dim>
					<dim>20</dim>
				</port>
				<port id="1" precision="FP32">
					<dim>1</dim>
					<dim>116</dim>
					<dim>20</dim>
					<dim>20</dim>
				</port>
			</input>
			<output>
				<port id="2" precision="FP32" names="610">
					<dim>1</dim>
					<dim>232</dim>
					<dim>20</dim>
					<dim>20</dim>
				</port>
			</output>
		</layer>
		<layer id="274" name="Constant_20801" type="Const" version="opset1">
			<data element_type="i64" shape="1" offset="22034" size="8" />
			<output>
				<port id="0" precision="I64">
					<dim>1</dim>
				</port>
			</output>
		</layer>
		<layer id="275" name="627" type="Const" version="opset1">
			<data element_type="i64" shape="1" offset="22042" size="8" />
			<output>
				<port id="0" precision="I64" names="627">
					<dim>1</dim>
				</port>
			</output>
		</layer>
		<layer id="276" name="612" type="ShapeOf" version="opset3">
			<data output_type="i64" />
			<input>
				<port id="0" precision="FP32">
					<dim>1</dim>
					<dim>232</dim>
					<dim>20</dim>
					<dim>20</dim>
				</port>
			</input>
			<output>
				<port id="1" precision="I64" names="612,615,618,621,638">
					<dim>4</dim>
				</port>
			</output>
		</layer>
		<layer id="277" name="614" type="Const" version="opset1">
			<data element_type="i64" shape="" offset="22050" size="8" />
			<output>
				<port id="0" precision="I64" names="614" />
			</output>
		</layer>
		<layer id="278" name="Constant_1246" type="Const" version="opset1">
			<data element_type="i64" shape="" offset="22034" size="8" />
			<output>
				<port id="0" precision="I64" />
			</output>
		</layer>
		<layer id="279" name="616" type="Gather" version="opset8">
			<data batch_dims="0" />
			<input>
				<port id="0" precision="I64">
					<dim>4</dim>
				</port>
				<port id="1" precision="I64" />
				<port id="2" precision="I64" />
			</input>
			<output>
				<port id="3" precision="I64" names="616" />
			</output>
		</layer>
		<layer id="280" name="623" type="Const" version="opset1">
			<data element_type="i64" shape="" offset="22042" size="8" />
			<output>
				<port id="0" precision="I64" names="623" />
			</output>
		</layer>
		<layer id="281" name="624" type="Divide" version="opset1">
			<data auto_broadcast="numpy" m_pythondiv="true" />
			<input>
				<port id="0" precision="I64" />
				<port id="1" precision="I64" />
			</input>
			<output>
				<port id="2" precision="I64" names="624" />
			</output>
		</layer>
		<layer id="282" name="1790" type="Const" version="opset1">
			<data element_type="i64" shape="1" offset="22034" size="8" />
			<output>
				<port id="0" precision="I64" names="1790">
					<dim>1</dim>
				</port>
			</output>
		</layer>
		<layer id="283" name="628" type="Unsqueeze" version="opset1">
			<input>
				<port id="0" precision="I64" />
				<port id="1" precision="I64">
					<dim>1</dim>
				</port>
			</input>
			<output>
				<port id="2" precision="I64" names="628">
					<dim>1</dim>
				</port>
			</output>
		</layer>
		<layer id="284" name="Constant_19256" type="Const" version="opset1">
			<data element_type="i64" shape="2" offset="22058" size="16" />
			<output>
				<port id="0" precision="I64">
					<dim>2</dim>
				</port>
			</output>
		</layer>
		<layer id="285" name="Constant_19257" type="Const" version="opset1">
			<data element_type="i64" shape="" offset="22034" size="8" />
			<output>
				<port id="0" precision="I64" />
			</output>
		</layer>
		<layer id="286" name="Gather_19258" type="Gather" version="opset8">
			<data batch_dims="0" />
			<input>
				<port id="0" precision="I64">
					<dim>4</dim>
				</port>
				<port id="1" precision="I64">
					<dim>2</dim>
				</port>
				<port id="2" precision="I64" />
			</input>
			<output>
				<port id="3" precision="I64">
					<dim>2</dim>
				</port>
			</output>
		</layer>
		<layer id="287" name="631" type="Concat" version="opset1">
			<data axis="0" />
			<input>
				<port id="0" precision="I64">
					<dim>1</dim>
				</port>
				<port id="1" precision="I64">
					<dim>1</dim>
				</port>
				<port id="2" precision="I64">
					<dim>1</dim>
				</port>
				<port id="3" precision="I64">
					<dim>2</dim>
				</port>
			</input>
			<output>
				<port id="4" precision="I64">
					<dim>5</dim>
				</port>
			</output>
		</layer>
		<layer id="288" name="632" type="Reshape" version="opset1">
			<data special_zero="true" />
			<input>
				<port id="0" precision="FP32">
					<dim>1</dim>
					<dim>232</dim>
					<dim>20</dim>
					<dim>20</dim>
				</port>
				<port id="1" precision="I64">
					<dim>5</dim>
				</port>
			</input>
			<output>
				<port id="2" precision="FP32" names="632">
					<dim>1</dim>
					<dim>2</dim>
					<dim>116</dim>
					<dim>20</dim>
					<dim>20</dim>
				</port>
			</output>
		</layer>
		<layer id="289" name="Constant_1311" type="Const" version="opset1">
			<data element_type="i64" shape="5" offset="22074" size="40" />
			<output>
				<port id="0" precision="I64">
					<dim>5</dim>
				</port>
			</output>
		</layer>
		<layer id="290" name="633" type="Transpose" version="opset1">
			<input>
				<port id="0" precision="FP32">
					<dim>1</dim>
					<dim>2</dim>
					<dim>116</dim>
					<dim>20</dim>
					<dim>20</dim>
				</port>
				<port id="1" precision="I64">
					<dim>5</dim>
				</port>
			</input>
			<output>
				<port id="2" precision="FP32" names="633">
					<dim>1</dim>
					<dim>116</dim>
					<dim>2</dim>
					<dim>20</dim>
					<dim>20</dim>
				</port>
			</output>
		</layer>
		<layer id="291" name="639" type="Reshape" version="opset1">
			<data special_zero="true" />
			<input>
				<port id="0" precision="FP32">
					<dim>1</dim>
					<dim>116</dim>
					<dim>2</dim>
					<dim>20</dim>
					<dim>20</dim>
				</port>
				<port id="1" precision="I64">
					<dim>4</dim>
				</port>
			</input>
			<output>
				<port id="2" precision="FP32" names="639">
					<dim>1</dim>
					<dim>232</dim>
					<dim>20</dim>
					<dim>20</dim>
				</port>
			</output>
		</layer>
		<layer id="292" name="Constant_1326" type="Const" version="opset1">
			<data element_type="i64" shape="" offset="22050" size="8" />
			<output>
				<port id="0" precision="I64" />
			</output>
		</layer>
		<layer id="293" name="1797" type="Const" version="opset1">
			<data element_type="i64" shape="2" offset="163978" size="16" />
			<output>
				<port id="0" precision="I64" names="1797">
					<dim>2</dim>
				</port>
			</output>
		</layer>
		<layer id="294" name="641" type="VariadicSplit" version="opset1">
			<input>
				<port id="0" precision="FP32">
					<dim>1</dim>
					<dim>232</dim>
					<dim>20</dim>
					<dim>20</dim>
				</port>
				<port id="1" precision="I64" />
				<port id="2" precision="I64">
					<dim>2</dim>
				</port>
			</input>
			<output>
				<port id="3" precision="FP32" names="640">
					<dim>1</dim>
					<dim>116</dim>
					<dim>20</dim>
					<dim>20</dim>
				</port>
				<port id="4" precision="FP32" names="641">
					<dim>1</dim>
					<dim>116</dim>
					<dim>20</dim>
					<dim>20</dim>
				</port>
			</output>
		</layer>
		<layer id="295" name="Multiply_27965_compressed" type="Const" version="opset1">
			<data element_type="f16" shape="116, 116, 1, 1" offset="220602" size="26912" />
			<output>
				<port id="0" precision="FP16">
					<dim>116</dim>
					<dim>116</dim>
					<dim>1</dim>
					<dim>1</dim>
				</port>
			</output>
		</layer>
		<layer id="296" name="Multiply_27965" type="Convert" version="opset1">
			<data destination_type="f32" />
			<rt_info>
				<attribute name="decompression" version="0" />
			</rt_info>
			<input>
				<port id="0" precision="FP16">
					<dim>116</dim>
					<dim>116</dim>
					<dim>1</dim>
					<dim>1</dim>
				</port>
			</input>
			<output>
				<port id="1" precision="FP32">
					<dim>116</dim>
					<dim>116</dim>
					<dim>1</dim>
					<dim>1</dim>
				</port>
			</output>
		</layer>
		<layer id="297" name="Multiply_27584" type="Convolution" version="opset1">
			<data strides="1, 1" dilations="1, 1" pads_begin="0, 0" pads_end="0, 0" auto_pad="explicit" />
			<input>
				<port id="0" precision="FP32">
					<dim>1</dim>
					<dim>116</dim>
					<dim>20</dim>
					<dim>20</dim>
				</port>
				<port id="1" precision="FP32">
					<dim>116</dim>
					<dim>116</dim>
					<dim>1</dim>
					<dim>1</dim>
				</port>
			</input>
			<output>
				<port id="2" precision="FP32">
					<dim>1</dim>
					<dim>116</dim>
					<dim>20</dim>
					<dim>20</dim>
				</port>
			</output>
		</layer>
		<layer id="298" name="Constant_27589_compressed" type="Const" version="opset1">
			<data element_type="f16" shape="1, 116, 1, 1" offset="247514" size="232" />
			<output>
				<port id="0" precision="FP16">
					<dim>1</dim>
					<dim>116</dim>
					<dim>1</dim>
					<dim>1</dim>
				</port>
			</output>
		</layer>
		<layer id="299" name="Constant_27589" type="Convert" version="opset1">
			<data destination_type="f32" />
			<rt_info>
				<attribute name="decompression" version="0" />
			</rt_info>
			<input>
				<port id="0" precision="FP16">
					<dim>1</dim>
					<dim>116</dim>
					<dim>1</dim>
					<dim>1</dim>
				</port>
			</input>
			<output>
				<port id="1" precision="FP32">
					<dim>1</dim>
					<dim>116</dim>
					<dim>1</dim>
					<dim>1</dim>
				</port>
			</output>
		</layer>
		<layer id="300" name="643" type="Add" version="opset1">
			<data auto_broadcast="numpy" />
			<input>
				<port id="0" precision="FP32">
					<dim>1</dim>
					<dim>116</dim>
					<dim>20</dim>
					<dim>20</dim>
				</port>
				<port id="1" precision="FP32">
					<dim>1</dim>
					<dim>116</dim>
					<dim>1</dim>
					<dim>1</dim>
				</port>
			</input>
			<output>
				<port id="2" precision="FP32" names="643">
					<dim>1</dim>
					<dim>116</dim>
					<dim>20</dim>
					<dim>20</dim>
				</port>
			</output>
		</layer>
		<layer id="301" name="644" type="ReLU" version="opset1">
			<input>
				<port id="0" precision="FP32">
					<dim>1</dim>
					<dim>116</dim>
					<dim>20</dim>
					<dim>20</dim>
				</port>
			</input>
			<output>
				<port id="1" precision="FP32" names="644">
					<dim>1</dim>
					<dim>116</dim>
					<dim>20</dim>
					<dim>20</dim>
				</port>
			</output>
		</layer>
		<layer id="302" name="Multiply_27971_compressed" type="Const" version="opset1">
			<data element_type="f16" shape="116, 1, 1, 3, 3" offset="247746" size="2088" />
			<output>
				<port id="0" precision="FP16">
					<dim>116</dim>
					<dim>1</dim>
					<dim>1</dim>
					<dim>3</dim>
					<dim>3</dim>
				</port>
			</output>
		</layer>
		<layer id="303" name="Multiply_27971" type="Convert" version="opset1">
			<data destination_type="f32" />
			<rt_info>
				<attribute name="decompression" version="0" />
			</rt_info>
			<input>
				<port id="0" precision="FP16">
					<dim>116</dim>
					<dim>1</dim>
					<dim>1</dim>
					<dim>3</dim>
					<dim>3</dim>
				</port>
			</input>
			<output>
				<port id="1" precision="FP32">
					<dim>116</dim>
					<dim>1</dim>
					<dim>1</dim>
					<dim>3</dim>
					<dim>3</dim>
				</port>
			</output>
		</layer>
		<layer id="304" name="Multiply_27591" type="GroupConvolution" version="opset1">
			<data strides="1, 1" pads_begin="1, 1" pads_end="1, 1" dilations="1, 1" auto_pad="explicit" />
			<input>
				<port id="0" precision="FP32">
					<dim>1</dim>
					<dim>116</dim>
					<dim>20</dim>
					<dim>20</dim>
				</port>
				<port id="1" precision="FP32">
					<dim>116</dim>
					<dim>1</dim>
					<dim>1</dim>
					<dim>3</dim>
					<dim>3</dim>
				</port>
			</input>
			<output>
				<port id="2" precision="FP32" names="645">
					<dim>1</dim>
					<dim>116</dim>
					<dim>20</dim>
					<dim>20</dim>
				</port>
			</output>
		</layer>
		<layer id="305" name="Constant_27596_compressed" type="Const" version="opset1">
			<data element_type="f16" shape="1, 116, 1, 1" offset="249834" size="232" />
			<output>
				<port id="0" precision="FP16">
					<dim>1</dim>
					<dim>116</dim>
					<dim>1</dim>
					<dim>1</dim>
				</port>
			</output>
		</layer>
		<layer id="306" name="Constant_27596" type="Convert" version="opset1">
			<data destination_type="f32" />
			<rt_info>
				<attribute name="decompression" version="0" />
			</rt_info>
			<input>
				<port id="0" precision="FP16">
					<dim>1</dim>
					<dim>116</dim>
					<dim>1</dim>
					<dim>1</dim>
				</port>
			</input>
			<output>
				<port id="1" precision="FP32">
					<dim>1</dim>
					<dim>116</dim>
					<dim>1</dim>
					<dim>1</dim>
				</port>
			</output>
		</layer>
		<layer id="307" name="646" type="Add" version="opset1">
			<data auto_broadcast="numpy" />
			<input>
				<port id="0" precision="FP32">
					<dim>1</dim>
					<dim>116</dim>
					<dim>20</dim>
					<dim>20</dim>
				</port>
				<port id="1" precision="FP32">
					<dim>1</dim>
					<dim>116</dim>
					<dim>1</dim>
					<dim>1</dim>
				</port>
			</input>
			<output>
				<port id="2" precision="FP32" names="646">
					<dim>1</dim>
					<dim>116</dim>
					<dim>20</dim>
					<dim>20</dim>
				</port>
			</output>
		</layer>
		<layer id="308" name="Multiply_27976_compressed" type="Const" version="opset1">
			<data element_type="f16" shape="116, 116, 1, 1" offset="250066" size="26912" />
			<output>
				<port id="0" precision="FP16">
					<dim>116</dim>
					<dim>116</dim>
					<dim>1</dim>
					<dim>1</dim>
				</port>
			</output>
		</layer>
		<layer id="309" name="Multiply_27976" type="Convert" version="opset1">
			<data destination_type="f32" />
			<rt_info>
				<attribute name="decompression" version="0" />
			</rt_info>
			<input>
				<port id="0" precision="FP16">
					<dim>116</dim>
					<dim>116</dim>
					<dim>1</dim>
					<dim>1</dim>
				</port>
			</input>
			<output>
				<port id="1" precision="FP32">
					<dim>116</dim>
					<dim>116</dim>
					<dim>1</dim>
					<dim>1</dim>
				</port>
			</output>
		</layer>
		<layer id="310" name="Multiply_27598" type="Convolution" version="opset1">
			<data strides="1, 1" dilations="1, 1" pads_begin="0, 0" pads_end="0, 0" auto_pad="explicit" />
			<input>
				<port id="0" precision="FP32">
					<dim>1</dim>
					<dim>116</dim>
					<dim>20</dim>
					<dim>20</dim>
				</port>
				<port id="1" precision="FP32">
					<dim>116</dim>
					<dim>116</dim>
					<dim>1</dim>
					<dim>1</dim>
				</port>
			</input>
			<output>
				<port id="2" precision="FP32">
					<dim>1</dim>
					<dim>116</dim>
					<dim>20</dim>
					<dim>20</dim>
				</port>
			</output>
		</layer>
		<layer id="311" name="Constant_27603_compressed" type="Const" version="opset1">
			<data element_type="f16" shape="1, 116, 1, 1" offset="276978" size="232" />
			<output>
				<port id="0" precision="FP16">
					<dim>1</dim>
					<dim>116</dim>
					<dim>1</dim>
					<dim>1</dim>
				</port>
			</output>
		</layer>
		<layer id="312" name="Constant_27603" type="Convert" version="opset1">
			<data destination_type="f32" />
			<rt_info>
				<attribute name="decompression" version="0" />
			</rt_info>
			<input>
				<port id="0" precision="FP16">
					<dim>1</dim>
					<dim>116</dim>
					<dim>1</dim>
					<dim>1</dim>
				</port>
			</input>
			<output>
				<port id="1" precision="FP32">
					<dim>1</dim>
					<dim>116</dim>
					<dim>1</dim>
					<dim>1</dim>
				</port>
			</output>
		</layer>
		<layer id="313" name="648" type="Add" version="opset1">
			<data auto_broadcast="numpy" />
			<input>
				<port id="0" precision="FP32">
					<dim>1</dim>
					<dim>116</dim>
					<dim>20</dim>
					<dim>20</dim>
				</port>
				<port id="1" precision="FP32">
					<dim>1</dim>
					<dim>116</dim>
					<dim>1</dim>
					<dim>1</dim>
				</port>
			</input>
			<output>
				<port id="2" precision="FP32" names="648">
					<dim>1</dim>
					<dim>116</dim>
					<dim>20</dim>
					<dim>20</dim>
				</port>
			</output>
		</layer>
		<layer id="314" name="649" type="ReLU" version="opset1">
			<input>
				<port id="0" precision="FP32">
					<dim>1</dim>
					<dim>116</dim>
					<dim>20</dim>
					<dim>20</dim>
				</port>
			</input>
			<output>
				<port id="1" precision="FP32" names="649">
					<dim>1</dim>
					<dim>116</dim>
					<dim>20</dim>
					<dim>20</dim>
				</port>
			</output>
		</layer>
		<layer id="315" name="650" type="Concat" version="opset1">
			<data axis="1" />
			<input>
				<port id="0" precision="FP32">
					<dim>1</dim>
					<dim>116</dim>
					<dim>20</dim>
					<dim>20</dim>
				</port>
				<port id="1" precision="FP32">
					<dim>1</dim>
					<dim>116</dim>
					<dim>20</dim>
					<dim>20</dim>
				</port>
			</input>
			<output>
				<port id="2" precision="FP32" names="650">
					<dim>1</dim>
					<dim>232</dim>
					<dim>20</dim>
					<dim>20</dim>
				</port>
			</output>
		</layer>
		<layer id="316" name="Constant_20848" type="Const" version="opset1">
			<data element_type="i64" shape="1" offset="22034" size="8" />
			<output>
				<port id="0" precision="I64">
					<dim>1</dim>
				</port>
			</output>
		</layer>
		<layer id="317" name="667" type="Const" version="opset1">
			<data element_type="i64" shape="1" offset="22042" size="8" />
			<output>
				<port id="0" precision="I64" names="667">
					<dim>1</dim>
				</port>
			</output>
		</layer>
		<layer id="318" name="652" type="ShapeOf" version="opset3">
			<data output_type="i64" />
			<input>
				<port id="0" precision="FP32">
					<dim>1</dim>
					<dim>232</dim>
					<dim>20</dim>
					<dim>20</dim>
				</port>
			</input>
			<output>
				<port id="1" precision="I64" names="652,655,658,661,678">
					<dim>4</dim>
				</port>
			</output>
		</layer>
		<layer id="319" name="654" type="Const" version="opset1">
			<data element_type="i64" shape="" offset="22050" size="8" />
			<output>
				<port id="0" precision="I64" names="654" />
			</output>
		</layer>
		<layer id="320" name="Constant_1394" type="Const" version="opset1">
			<data element_type="i64" shape="" offset="22034" size="8" />
			<output>
				<port id="0" precision="I64" />
			</output>
		</layer>
		<layer id="321" name="656" type="Gather" version="opset8">
			<data batch_dims="0" />
			<input>
				<port id="0" precision="I64">
					<dim>4</dim>
				</port>
				<port id="1" precision="I64" />
				<port id="2" precision="I64" />
			</input>
			<output>
				<port id="3" precision="I64" names="656" />
			</output>
		</layer>
		<layer id="322" name="663" type="Const" version="opset1">
			<data element_type="i64" shape="" offset="22042" size="8" />
			<output>
				<port id="0" precision="I64" names="663" />
			</output>
		</layer>
		<layer id="323" name="664" type="Divide" version="opset1">
			<data auto_broadcast="numpy" m_pythondiv="true" />
			<input>
				<port id="0" precision="I64" />
				<port id="1" precision="I64" />
			</input>
			<output>
				<port id="2" precision="I64" names="664" />
			</output>
		</layer>
		<layer id="324" name="1800" type="Const" version="opset1">
			<data element_type="i64" shape="1" offset="22034" size="8" />
			<output>
				<port id="0" precision="I64" names="1800">
					<dim>1</dim>
				</port>
			</output>
		</layer>
		<layer id="325" name="668" type="Unsqueeze" version="opset1">
			<input>
				<port id="0" precision="I64" />
				<port id="1" precision="I64">
					<dim>1</dim>
				</port>
			</input>
			<output>
				<port id="2" precision="I64" names="668">
					<dim>1</dim>
				</port>
			</output>
		</layer>
		<layer id="326" name="Constant_19273" type="Const" version="opset1">
			<data element_type="i64" shape="2" offset="22058" size="16" />
			<output>
				<port id="0" precision="I64">
					<dim>2</dim>
				</port>
			</output>
		</layer>
		<layer id="327" name="Constant_19274" type="Const" version="opset1">
			<data element_type="i64" shape="" offset="22034" size="8" />
			<output>
				<port id="0" precision="I64" />
			</output>
		</layer>
		<layer id="328" name="Gather_19275" type="Gather" version="opset8">
			<data batch_dims="0" />
			<input>
				<port id="0" precision="I64">
					<dim>4</dim>
				</port>
				<port id="1" precision="I64">
					<dim>2</dim>
				</port>
				<port id="2" precision="I64" />
			</input>
			<output>
				<port id="3" precision="I64">
					<dim>2</dim>
				</port>
			</output>
		</layer>
		<layer id="329" name="671" type="Concat" version="opset1">
			<data axis="0" />
			<input>
				<port id="0" precision="I64">
					<dim>1</dim>
				</port>
				<port id="1" precision="I64">
					<dim>1</dim>
				</port>
				<port id="2" precision="I64">
					<dim>1</dim>
				</port>
				<port id="3" precision="I64">
					<dim>2</dim>
				</port>
			</input>
			<output>
				<port id="4" precision="I64">
					<dim>5</dim>
				</port>
			</output>
		</layer>
		<layer id="330" name="672" type="Reshape" version="opset1">
			<data special_zero="true" />
			<input>
				<port id="0" precision="FP32">
					<dim>1</dim>
					<dim>232</dim>
					<dim>20</dim>
					<dim>20</dim>
				</port>
				<port id="1" precision="I64">
					<dim>5</dim>
				</port>
			</input>
			<output>
				<port id="2" precision="FP32" names="672">
					<dim>1</dim>
					<dim>2</dim>
					<dim>116</dim>
					<dim>20</dim>
					<dim>20</dim>
				</port>
			</output>
		</layer>
		<layer id="331" name="Constant_1459" type="Const" version="opset1">
			<data element_type="i64" shape="5" offset="22074" size="40" />
			<output>
				<port id="0" precision="I64">
					<dim>5</dim>
				</port>
			</output>
		</layer>
		<layer id="332" name="673" type="Transpose" version="opset1">
			<input>
				<port id="0" precision="FP32">
					<dim>1</dim>
					<dim>2</dim>
					<dim>116</dim>
					<dim>20</dim>
					<dim>20</dim>
				</port>
				<port id="1" precision="I64">
					<dim>5</dim>
				</port>
			</input>
			<output>
				<port id="2" precision="FP32" names="673">
					<dim>1</dim>
					<dim>116</dim>
					<dim>2</dim>
					<dim>20</dim>
					<dim>20</dim>
				</port>
			</output>
		</layer>
		<layer id="333" name="679" type="Reshape" version="opset1">
			<data special_zero="true" />
			<input>
				<port id="0" precision="FP32">
					<dim>1</dim>
					<dim>116</dim>
					<dim>2</dim>
					<dim>20</dim>
					<dim>20</dim>
				</port>
				<port id="1" precision="I64">
					<dim>4</dim>
				</port>
			</input>
			<output>
				<port id="2" precision="FP32" names="679">
					<dim>1</dim>
					<dim>232</dim>
					<dim>20</dim>
					<dim>20</dim>
				</port>
			</output>
		</layer>
		<layer id="334" name="Constant_1474" type="Const" version="opset1">
			<data element_type="i64" shape="" offset="22050" size="8" />
			<output>
				<port id="0" precision="I64" />
			</output>
		</layer>
		<layer id="335" name="1807" type="Const" version="opset1">
			<data element_type="i64" shape="2" offset="163978" size="16" />
			<output>
				<port id="0" precision="I64" names="1807">
					<dim>2</dim>
				</port>
			</output>
		</layer>
		<layer id="336" name="681" type="VariadicSplit" version="opset1">
			<input>
				<port id="0" precision="FP32">
					<dim>1</dim>
					<dim>232</dim>
					<dim>20</dim>
					<dim>20</dim>
				</port>
				<port id="1" precision="I64" />
				<port id="2" precision="I64">
					<dim>2</dim>
				</port>
			</input>
			<output>
				<port id="3" precision="FP32" names="680">
					<dim>1</dim>
					<dim>116</dim>
					<dim>20</dim>
					<dim>20</dim>
				</port>
				<port id="4" precision="FP32" names="681">
					<dim>1</dim>
					<dim>116</dim>
					<dim>20</dim>
					<dim>20</dim>
				</port>
			</output>
		</layer>
		<layer id="337" name="Multiply_27982_compressed" type="Const" version="opset1">
			<data element_type="f16" shape="116, 116, 1, 1" offset="277210" size="26912" />
			<output>
				<port id="0" precision="FP16">
					<dim>116</dim>
					<dim>116</dim>
					<dim>1</dim>
					<dim>1</dim>
				</port>
			</output>
		</layer>
		<layer id="338" name="Multiply_27982" type="Convert" version="opset1">
			<data destination_type="f32" />
			<rt_info>
				<attribute name="decompression" version="0" />
			</rt_info>
			<input>
				<port id="0" precision="FP16">
					<dim>116</dim>
					<dim>116</dim>
					<dim>1</dim>
					<dim>1</dim>
				</port>
			</input>
			<output>
				<port id="1" precision="FP32">
					<dim>116</dim>
					<dim>116</dim>
					<dim>1</dim>
					<dim>1</dim>
				</port>
			</output>
		</layer>
		<layer id="339" name="Multiply_27605" type="Convolution" version="opset1">
			<data strides="1, 1" dilations="1, 1" pads_begin="0, 0" pads_end="0, 0" auto_pad="explicit" />
			<input>
				<port id="0" precision="FP32">
					<dim>1</dim>
					<dim>116</dim>
					<dim>20</dim>
					<dim>20</dim>
				</port>
				<port id="1" precision="FP32">
					<dim>116</dim>
					<dim>116</dim>
					<dim>1</dim>
					<dim>1</dim>
				</port>
			</input>
			<output>
				<port id="2" precision="FP32">
					<dim>1</dim>
					<dim>116</dim>
					<dim>20</dim>
					<dim>20</dim>
				</port>
			</output>
		</layer>
		<layer id="340" name="Constant_27610_compressed" type="Const" version="opset1">
			<data element_type="f16" shape="1, 116, 1, 1" offset="304122" size="232" />
			<output>
				<port id="0" precision="FP16">
					<dim>1</dim>
					<dim>116</dim>
					<dim>1</dim>
					<dim>1</dim>
				</port>
			</output>
		</layer>
		<layer id="341" name="Constant_27610" type="Convert" version="opset1">
			<data destination_type="f32" />
			<rt_info>
				<attribute name="decompression" version="0" />
			</rt_info>
			<input>
				<port id="0" precision="FP16">
					<dim>1</dim>
					<dim>116</dim>
					<dim>1</dim>
					<dim>1</dim>
				</port>
			</input>
			<output>
				<port id="1" precision="FP32">
					<dim>1</dim>
					<dim>116</dim>
					<dim>1</dim>
					<dim>1</dim>
				</port>
			</output>
		</layer>
		<layer id="342" name="683" type="Add" version="opset1">
			<data auto_broadcast="numpy" />
			<input>
				<port id="0" precision="FP32">
					<dim>1</dim>
					<dim>116</dim>
					<dim>20</dim>
					<dim>20</dim>
				</port>
				<port id="1" precision="FP32">
					<dim>1</dim>
					<dim>116</dim>
					<dim>1</dim>
					<dim>1</dim>
				</port>
			</input>
			<output>
				<port id="2" precision="FP32" names="683">
					<dim>1</dim>
					<dim>116</dim>
					<dim>20</dim>
					<dim>20</dim>
				</port>
			</output>
		</layer>
		<layer id="343" name="684" type="ReLU" version="opset1">
			<input>
				<port id="0" precision="FP32">
					<dim>1</dim>
					<dim>116</dim>
					<dim>20</dim>
					<dim>20</dim>
				</port>
			</input>
			<output>
				<port id="1" precision="FP32" names="684">
					<dim>1</dim>
					<dim>116</dim>
					<dim>20</dim>
					<dim>20</dim>
				</port>
			</output>
		</layer>
		<layer id="344" name="Multiply_27988_compressed" type="Const" version="opset1">
			<data element_type="f16" shape="116, 1, 1, 3, 3" offset="304354" size="2088" />
			<output>
				<port id="0" precision="FP16">
					<dim>116</dim>
					<dim>1</dim>
					<dim>1</dim>
					<dim>3</dim>
					<dim>3</dim>
				</port>
			</output>
		</layer>
		<layer id="345" name="Multiply_27988" type="Convert" version="opset1">
			<data destination_type="f32" />
			<rt_info>
				<attribute name="decompression" version="0" />
			</rt_info>
			<input>
				<port id="0" precision="FP16">
					<dim>116</dim>
					<dim>1</dim>
					<dim>1</dim>
					<dim>3</dim>
					<dim>3</dim>
				</port>
			</input>
			<output>
				<port id="1" precision="FP32">
					<dim>116</dim>
					<dim>1</dim>
					<dim>1</dim>
					<dim>3</dim>
					<dim>3</dim>
				</port>
			</output>
		</layer>
		<layer id="346" name="Multiply_27612" type="GroupConvolution" version="opset1">
			<data strides="1, 1" pads_begin="1, 1" pads_end="1, 1" dilations="1, 1" auto_pad="explicit" />
			<input>
				<port id="0" precision="FP32">
					<dim>1</dim>
					<dim>116</dim>
					<dim>20</dim>
					<dim>20</dim>
				</port>
				<port id="1" precision="FP32">
					<dim>116</dim>
					<dim>1</dim>
					<dim>1</dim>
					<dim>3</dim>
					<dim>3</dim>
				</port>
			</input>
			<output>
				<port id="2" precision="FP32" names="685">
					<dim>1</dim>
					<dim>116</dim>
					<dim>20</dim>
					<dim>20</dim>
				</port>
			</output>
		</layer>
		<layer id="347" name="Constant_27617_compressed" type="Const" version="opset1">
			<data element_type="f16" shape="1, 116, 1, 1" offset="306442" size="232" />
			<output>
				<port id="0" precision="FP16">
					<dim>1</dim>
					<dim>116</dim>
					<dim>1</dim>
					<dim>1</dim>
				</port>
			</output>
		</layer>
		<layer id="348" name="Constant_27617" type="Convert" version="opset1">
			<data destination_type="f32" />
			<rt_info>
				<attribute name="decompression" version="0" />
			</rt_info>
			<input>
				<port id="0" precision="FP16">
					<dim>1</dim>
					<dim>116</dim>
					<dim>1</dim>
					<dim>1</dim>
				</port>
			</input>
			<output>
				<port id="1" precision="FP32">
					<dim>1</dim>
					<dim>116</dim>
					<dim>1</dim>
					<dim>1</dim>
				</port>
			</output>
		</layer>
		<layer id="349" name="686" type="Add" version="opset1">
			<data auto_broadcast="numpy" />
			<input>
				<port id="0" precision="FP32">
					<dim>1</dim>
					<dim>116</dim>
					<dim>20</dim>
					<dim>20</dim>
				</port>
				<port id="1" precision="FP32">
					<dim>1</dim>
					<dim>116</dim>
					<dim>1</dim>
					<dim>1</dim>
				</port>
			</input>
			<output>
				<port id="2" precision="FP32" names="686">
					<dim>1</dim>
					<dim>116</dim>
					<dim>20</dim>
					<dim>20</dim>
				</port>
			</output>
		</layer>
		<layer id="350" name="Multiply_27993_compressed" type="Const" version="opset1">
			<data element_type="f16" shape="116, 116, 1, 1" offset="306674" size="26912" />
			<output>
				<port id="0" precision="FP16">
					<dim>116</dim>
					<dim>116</dim>
					<dim>1</dim>
					<dim>1</dim>
				</port>
			</output>
		</layer>
		<layer id="351" name="Multiply_27993" type="Convert" version="opset1">
			<data destination_type="f32" />
			<rt_info>
				<attribute name="decompression" version="0" />
			</rt_info>
			<input>
				<port id="0" precision="FP16">
					<dim>116</dim>
					<dim>116</dim>
					<dim>1</dim>
					<dim>1</dim>
				</port>
			</input>
			<output>
				<port id="1" precision="FP32">
					<dim>116</dim>
					<dim>116</dim>
					<dim>1</dim>
					<dim>1</dim>
				</port>
			</output>
		</layer>
		<layer id="352" name="Multiply_27619" type="Convolution" version="opset1">
			<data strides="1, 1" dilations="1, 1" pads_begin="0, 0" pads_end="0, 0" auto_pad="explicit" />
			<input>
				<port id="0" precision="FP32">
					<dim>1</dim>
					<dim>116</dim>
					<dim>20</dim>
					<dim>20</dim>
				</port>
				<port id="1" precision="FP32">
					<dim>116</dim>
					<dim>116</dim>
					<dim>1</dim>
					<dim>1</dim>
				</port>
			</input>
			<output>
				<port id="2" precision="FP32">
					<dim>1</dim>
					<dim>116</dim>
					<dim>20</dim>
					<dim>20</dim>
				</port>
			</output>
		</layer>
		<layer id="353" name="Constant_27624_compressed" type="Const" version="opset1">
			<data element_type="f16" shape="1, 116, 1, 1" offset="333586" size="232" />
			<output>
				<port id="0" precision="FP16">
					<dim>1</dim>
					<dim>116</dim>
					<dim>1</dim>
					<dim>1</dim>
				</port>
			</output>
		</layer>
		<layer id="354" name="Constant_27624" type="Convert" version="opset1">
			<data destination_type="f32" />
			<rt_info>
				<attribute name="decompression" version="0" />
			</rt_info>
			<input>
				<port id="0" precision="FP16">
					<dim>1</dim>
					<dim>116</dim>
					<dim>1</dim>
					<dim>1</dim>
				</port>
			</input>
			<output>
				<port id="1" precision="FP32">
					<dim>1</dim>
					<dim>116</dim>
					<dim>1</dim>
					<dim>1</dim>
				</port>
			</output>
		</layer>
		<layer id="355" name="688" type="Add" version="opset1">
			<data auto_broadcast="numpy" />
			<input>
				<port id="0" precision="FP32">
					<dim>1</dim>
					<dim>116</dim>
					<dim>20</dim>
					<dim>20</dim>
				</port>
				<port id="1" precision="FP32">
					<dim>1</dim>
					<dim>116</dim>
					<dim>1</dim>
					<dim>1</dim>
				</port>
			</input>
			<output>
				<port id="2" precision="FP32" names="688">
					<dim>1</dim>
					<dim>116</dim>
					<dim>20</dim>
					<dim>20</dim>
				</port>
			</output>
		</layer>
		<layer id="356" name="689" type="ReLU" version="opset1">
			<input>
				<port id="0" precision="FP32">
					<dim>1</dim>
					<dim>116</dim>
					<dim>20</dim>
					<dim>20</dim>
				</port>
			</input>
			<output>
				<port id="1" precision="FP32" names="689">
					<dim>1</dim>
					<dim>116</dim>
					<dim>20</dim>
					<dim>20</dim>
				</port>
			</output>
		</layer>
		<layer id="357" name="690" type="Concat" version="opset1">
			<data axis="1" />
			<input>
				<port id="0" precision="FP32">
					<dim>1</dim>
					<dim>116</dim>
					<dim>20</dim>
					<dim>20</dim>
				</port>
				<port id="1" precision="FP32">
					<dim>1</dim>
					<dim>116</dim>
					<dim>20</dim>
					<dim>20</dim>
				</port>
			</input>
			<output>
				<port id="2" precision="FP32" names="690">
					<dim>1</dim>
					<dim>232</dim>
					<dim>20</dim>
					<dim>20</dim>
				</port>
			</output>
		</layer>
		<layer id="358" name="Constant_20895" type="Const" version="opset1">
			<data element_type="i64" shape="1" offset="22034" size="8" />
			<output>
				<port id="0" precision="I64">
					<dim>1</dim>
				</port>
			</output>
		</layer>
		<layer id="359" name="707" type="Const" version="opset1">
			<data element_type="i64" shape="1" offset="22042" size="8" />
			<output>
				<port id="0" precision="I64" names="707">
					<dim>1</dim>
				</port>
			</output>
		</layer>
		<layer id="360" name="692" type="ShapeOf" version="opset3">
			<data output_type="i64" />
			<input>
				<port id="0" precision="FP32">
					<dim>1</dim>
					<dim>232</dim>
					<dim>20</dim>
					<dim>20</dim>
				</port>
			</input>
			<output>
				<port id="1" precision="I64" names="692,695,698,701,718">
					<dim>4</dim>
				</port>
			</output>
		</layer>
		<layer id="361" name="694" type="Const" version="opset1">
			<data element_type="i64" shape="" offset="22050" size="8" />
			<output>
				<port id="0" precision="I64" names="694" />
			</output>
		</layer>
		<layer id="362" name="Constant_1542" type="Const" version="opset1">
			<data element_type="i64" shape="" offset="22034" size="8" />
			<output>
				<port id="0" precision="I64" />
			</output>
		</layer>
		<layer id="363" name="696" type="Gather" version="opset8">
			<data batch_dims="0" />
			<input>
				<port id="0" precision="I64">
					<dim>4</dim>
				</port>
				<port id="1" precision="I64" />
				<port id="2" precision="I64" />
			</input>
			<output>
				<port id="3" precision="I64" names="696" />
			</output>
		</layer>
		<layer id="364" name="703" type="Const" version="opset1">
			<data element_type="i64" shape="" offset="22042" size="8" />
			<output>
				<port id="0" precision="I64" names="703" />
			</output>
		</layer>
		<layer id="365" name="704" type="Divide" version="opset1">
			<data auto_broadcast="numpy" m_pythondiv="true" />
			<input>
				<port id="0" precision="I64" />
				<port id="1" precision="I64" />
			</input>
			<output>
				<port id="2" precision="I64" names="704" />
			</output>
		</layer>
		<layer id="366" name="1810" type="Const" version="opset1">
			<data element_type="i64" shape="1" offset="22034" size="8" />
			<output>
				<port id="0" precision="I64" names="1810">
					<dim>1</dim>
				</port>
			</output>
		</layer>
		<layer id="367" name="708" type="Unsqueeze" version="opset1">
			<input>
				<port id="0" precision="I64" />
				<port id="1" precision="I64">
					<dim>1</dim>
				</port>
			</input>
			<output>
				<port id="2" precision="I64" names="708">
					<dim>1</dim>
				</port>
			</output>
		</layer>
		<layer id="368" name="Constant_19290" type="Const" version="opset1">
			<data element_type="i64" shape="2" offset="22058" size="16" />
			<output>
				<port id="0" precision="I64">
					<dim>2</dim>
				</port>
			</output>
		</layer>
		<layer id="369" name="Constant_19291" type="Const" version="opset1">
			<data element_type="i64" shape="" offset="22034" size="8" />
			<output>
				<port id="0" precision="I64" />
			</output>
		</layer>
		<layer id="370" name="Gather_19292" type="Gather" version="opset8">
			<data batch_dims="0" />
			<input>
				<port id="0" precision="I64">
					<dim>4</dim>
				</port>
				<port id="1" precision="I64">
					<dim>2</dim>
				</port>
				<port id="2" precision="I64" />
			</input>
			<output>
				<port id="3" precision="I64">
					<dim>2</dim>
				</port>
			</output>
		</layer>
		<layer id="371" name="711" type="Concat" version="opset1">
			<data axis="0" />
			<input>
				<port id="0" precision="I64">
					<dim>1</dim>
				</port>
				<port id="1" precision="I64">
					<dim>1</dim>
				</port>
				<port id="2" precision="I64">
					<dim>1</dim>
				</port>
				<port id="3" precision="I64">
					<dim>2</dim>
				</port>
			</input>
			<output>
				<port id="4" precision="I64">
					<dim>5</dim>
				</port>
			</output>
		</layer>
		<layer id="372" name="712" type="Reshape" version="opset1">
			<data special_zero="true" />
			<input>
				<port id="0" precision="FP32">
					<dim>1</dim>
					<dim>232</dim>
					<dim>20</dim>
					<dim>20</dim>
				</port>
				<port id="1" precision="I64">
					<dim>5</dim>
				</port>
			</input>
			<output>
				<port id="2" precision="FP32" names="712">
					<dim>1</dim>
					<dim>2</dim>
					<dim>116</dim>
					<dim>20</dim>
					<dim>20</dim>
				</port>
			</output>
		</layer>
		<layer id="373" name="Constant_1607" type="Const" version="opset1">
			<data element_type="i64" shape="5" offset="22074" size="40" />
			<output>
				<port id="0" precision="I64">
					<dim>5</dim>
				</port>
			</output>
		</layer>
		<layer id="374" name="713" type="Transpose" version="opset1">
			<input>
				<port id="0" precision="FP32">
					<dim>1</dim>
					<dim>2</dim>
					<dim>116</dim>
					<dim>20</dim>
					<dim>20</dim>
				</port>
				<port id="1" precision="I64">
					<dim>5</dim>
				</port>
			</input>
			<output>
				<port id="2" precision="FP32" names="713">
					<dim>1</dim>
					<dim>116</dim>
					<dim>2</dim>
					<dim>20</dim>
					<dim>20</dim>
				</port>
			</output>
		</layer>
		<layer id="375" name="719" type="Reshape" version="opset1">
			<data special_zero="true" />
			<input>
				<port id="0" precision="FP32">
					<dim>1</dim>
					<dim>116</dim>
					<dim>2</dim>
					<dim>20</dim>
					<dim>20</dim>
				</port>
				<port id="1" precision="I64">
					<dim>4</dim>
				</port>
			</input>
			<output>
				<port id="2" precision="FP32" names="719">
					<dim>1</dim>
					<dim>232</dim>
					<dim>20</dim>
					<dim>20</dim>
				</port>
			</output>
		</layer>
		<layer id="376" name="Constant_1622" type="Const" version="opset1">
			<data element_type="i64" shape="" offset="22050" size="8" />
			<output>
				<port id="0" precision="I64" />
			</output>
		</layer>
		<layer id="377" name="1817" type="Const" version="opset1">
			<data element_type="i64" shape="2" offset="163978" size="16" />
			<output>
				<port id="0" precision="I64" names="1817">
					<dim>2</dim>
				</port>
			</output>
		</layer>
		<layer id="378" name="721" type="VariadicSplit" version="opset1">
			<input>
				<port id="0" precision="FP32">
					<dim>1</dim>
					<dim>232</dim>
					<dim>20</dim>
					<dim>20</dim>
				</port>
				<port id="1" precision="I64" />
…
		<edge from-layer="1242" from-port="1" to-layer="1243" to-port="1" />
		<edge from-layer="1243" from-port="2" to-layer="1246" to-port="0" />
		<edge from-layer="1244" from-port="0" to-layer="1245" to-port="0" />
		<edge from-layer="1245" from-port="1" to-layer="1246" to-port="1" />
		<edge from-layer="1246" from-port="2" to-layer="1247" to-port="0" />
		<edge from-layer="1247" from-port="1" to-layer="1263" to-port="0" />
		<edge from-layer="1247" from-port="1" to-layer="1248" to-port="0" />
		<edge from-layer="1248" from-port="2" to-layer="1251" to-port="0" />
		<edge from-layer="1249" from-port="0" to-layer="1250" to-port="0" />
		<edge from-layer="1250" from-port="1" to-layer="1251" to-port="1" />
		<edge from-layer="1251" from-port="2" to-layer="1254" to-port="0" />
		<edge from-layer="1252" from-port="0" to-layer="1254" to-port="1" />
		<edge from-layer="1253" from-port="0" to-layer="1254" to-port="2" />
		<edge from-layer="1254" from-port="3" to-layer="1259" to-port="0" />
		<edge from-layer="1254" from-port="3" to-layer="1255" to-port="0" />
		<edge from-layer="1255" from-port="1" to-layer="1258" to-port="0" />
		<edge from-layer="1256" from-port="0" to-layer="1258" to-port="1" />
		<edge from-layer="1257" from-port="0" to-layer="1258" to-port="2" />
		<edge from-layer="1258" from-port="3" to-layer="1259" to-port="1" />
		<edge from-layer="1259" from-port="2" to-layer="1261" to-port="0" />
		<edge from-layer="1260" from-port="0" to-layer="1261" to-port="1" />
		<edge from-layer="1261" from-port="2" to-layer="1262" to-port="0" />
		<edge from-layer="1262" from-port="1" to-layer="1795" to-port="0" />
		<edge from-layer="1262" from-port="1" to-layer="1280" to-port="0" />
		<edge from-layer="1263" from-port="2" to-layer="1266" to-port="0" />
		<edge from-layer="1264" from-port="0" to-layer="1265" to-port="0" />
		<edge from-layer="1265" from-port="1" to-layer="1266" to-port="1" />
		<edge from-layer="1266" from-port="2" to-layer="1269" to-port="0" />
		<edge from-layer="1267" from-port="0" to-layer="1269" to-port="1" />
		<edge from-layer="1268" from-port="0" to-layer="1269" to-port="2" />
		<edge from-layer="1269" from-port="3" to-layer="1274" to-port="0" />
		<edge from-layer="1269" from-port="3" to-layer="1270" to-port="0" />
		<edge from-layer="1270" from-port="1" to-layer="1273" to-port="0" />
		<edge from-layer="1271" from-port="0" to-layer="1273" to-port="1" />
		<edge from-layer="1272" from-port="0" to-layer="1273" to-port="2" />
		<edge from-layer="1273" from-port="3" to-layer="1274" to-port="1" />
		<edge from-layer="1274" from-port="2" to-layer="1276" to-port="0" />
		<edge from-layer="1275" from-port="0" to-layer="1276" to-port="1" />
		<edge from-layer="1276" from-port="2" to-layer="1277" to-port="0" />
		<edge from-layer="1277" from-port="1" to-layer="1279" to-port="0" />
		<edge from-layer="1277" from-port="1" to-layer="1806" to-port="0" />
		<edge from-layer="1278" from-port="0" to-layer="1279" to-port="1" />
		<edge from-layer="1279" from-port="2" to-layer="1280" to-port="1" />
		<edge from-layer="1280" from-port="2" to-layer="1282" to-port="0" />
		<edge from-layer="1281" from-port="0" to-layer="1282" to-port="1" />
		<edge from-layer="1282" from-port="2" to-layer="1294" to-port="0" />
		<edge from-layer="1282" from-port="2" to-layer="1284" to-port="0" />
		<edge from-layer="1283" from-port="0" to-layer="1285" to-port="0" />
		<edge from-layer="1284" from-port="1" to-layer="1285" to-port="1" />
		<edge from-layer="1285" from-port="2" to-layer="1286" to-port="0" />
		<edge from-layer="1286" from-port="1" to-layer="1288" to-port="0" />
		<edge from-layer="1287" from-port="0" to-layer="1288" to-port="1" />
		<edge from-layer="1288" from-port="2" to-layer="1289" to-port="0" />
		<edge from-layer="1289" from-port="1" to-layer="1291" to-port="0" />
		<edge from-layer="1290" from-port="0" to-layer="1291" to-port="1" />
		<edge from-layer="1291" from-port="2" to-layer="1293" to-port="0" />
		<edge from-layer="1292" from-port="0" to-layer="1293" to-port="1" />
		<edge from-layer="1293" from-port="2" to-layer="1294" to-port="1" />
		<edge from-layer="1294" from-port="3" to-layer="1806" to-port="1" />
		<edge from-layer="1294" from-port="3" to-layer="1795" to-port="1" />
		<edge from-layer="1294" from-port="3" to-layer="1355" to-port="1" />
		<edge from-layer="1294" from-port="3" to-layer="1296" to-port="1" />
		<edge from-layer="1295" from-port="0" to-layer="1296" to-port="2" />
		<edge from-layer="1296" from-port="3" to-layer="1299" to-port="0" />
		<edge from-layer="1296" from-port="3" to-layer="1365" to-port="0" />
		<edge from-layer="1296" from-port="3" to-layer="1375" to-port="0" />
		<edge from-layer="1296" from-port="3" to-layer="1385" to-port="0" />
		<edge from-layer="1297" from-port="0" to-layer="1299" to-port="1" />
		<edge from-layer="1298" from-port="0" to-layer="1299" to-port="2" />
		<edge from-layer="1299" from-port="3" to-layer="1359" to-port="0" />
		<edge from-layer="1300" from-port="2" to-layer="1302" to-port="0" />
		<edge from-layer="1301" from-port="0" to-layer="1302" to-port="1" />
		<edge from-layer="1302" from-port="2" to-layer="1305" to-port="0" />
		<edge from-layer="1303" from-port="0" to-layer="1304" to-port="0" />
		<edge from-layer="1304" from-port="1" to-layer="1305" to-port="1" />
		<edge from-layer="1305" from-port="2" to-layer="1308" to-port="0" />
		<edge from-layer="1306" from-port="0" to-layer="1307" to-port="0" />
		<edge from-layer="1307" from-port="1" to-layer="1308" to-port="1" />
		<edge from-layer="1308" from-port="2" to-layer="1309" to-port="0" />
		<edge from-layer="1309" from-port="1" to-layer="1310" to-port="0" />
		<edge from-layer="1310" from-port="2" to-layer="1312" to-port="0" />
		<edge from-layer="1311" from-port="0" to-layer="1312" to-port="1" />
		<edge from-layer="1312" from-port="2" to-layer="1315" to-port="0" />
		<edge from-layer="1313" from-port="0" to-layer="1314" to-port="0" />
		<edge from-layer="1314" from-port="1" to-layer="1315" to-port="1" />
		<edge from-layer="1315" from-port="2" to-layer="1318" to-port="0" />
		<edge from-layer="1316" from-port="0" to-layer="1317" to-port="0" />
		<edge from-layer="1317" from-port="1" to-layer="1318" to-port="1" />
		<edge from-layer="1318" from-port="2" to-layer="1319" to-port="0" />
		<edge from-layer="1319" from-port="1" to-layer="1320" to-port="0" />
		<edge from-layer="1320" from-port="2" to-layer="1322" to-port="0" />
		<edge from-layer="1321" from-port="0" to-layer="1322" to-port="1" />
		<edge from-layer="1322" from-port="2" to-layer="1325" to-port="0" />
		<edge from-layer="1323" from-port="0" to-layer="1324" to-port="0" />
		<edge from-layer="1324" from-port="1" to-layer="1325" to-port="1" />
		<edge from-layer="1325" from-port="2" to-layer="1328" to-port="0" />
		<edge from-layer="1326" from-port="0" to-layer="1327" to-port="0" />
		<edge from-layer="1327" from-port="1" to-layer="1328" to-port="1" />
		<edge from-layer="1328" from-port="2" to-layer="1329" to-port="0" />
		<edge from-layer="1329" from-port="1" to-layer="1330" to-port="0" />
		<edge from-layer="1330" from-port="2" to-layer="1332" to-port="0" />
		<edge from-layer="1331" from-port="0" to-layer="1332" to-port="1" />
		<edge from-layer="1332" from-port="2" to-layer="1335" to-port="0" />
		<edge from-layer="1333" from-port="0" to-layer="1334" to-port="0" />
		<edge from-layer="1334" from-port="1" to-layer="1335" to-port="1" />
		<edge from-layer="1335" from-port="2" to-layer="1338" to-port="0" />
		<edge from-layer="1336" from-port="0" to-layer="1337" to-port="0" />
		<edge from-layer="1337" from-port="1" to-layer="1338" to-port="1" />
		<edge from-layer="1338" from-port="2" to-layer="1339" to-port="0" />
		<edge from-layer="1339" from-port="1" to-layer="1342" to-port="0" />
		<edge from-layer="1340" from-port="0" to-layer="1341" to-port="0" />
		<edge from-layer="1341" from-port="1" to-layer="1342" to-port="1" />
		<edge from-layer="1342" from-port="2" to-layer="1345" to-port="0" />
		<edge from-layer="1343" from-port="0" to-layer="1344" to-port="0" />
		<edge from-layer="1344" from-port="1" to-layer="1345" to-port="1" />
		<edge from-layer="1345" from-port="2" to-layer="1346" to-port="0" />
		<edge from-layer="1346" from-port="1" to-layer="1349" to-port="0" />
		<edge from-layer="1347" from-port="0" to-layer="1349" to-port="1" />
		<edge from-layer="1348" from-port="0" to-layer="1349" to-port="2" />
		<edge from-layer="1349" from-port="3" to-layer="1351" to-port="0" />
		<edge from-layer="1350" from-port="0" to-layer="1351" to-port="1" />
		<edge from-layer="1351" from-port="2" to-layer="1353" to-port="0" />
		<edge from-layer="1352" from-port="0" to-layer="1353" to-port="1" />
		<edge from-layer="1353" from-port="2" to-layer="1355" to-port="0" />
		<edge from-layer="1354" from-port="0" to-layer="1355" to-port="2" />
		<edge from-layer="1355" from-port="3" to-layer="1378" to-port="0" />
		<edge from-layer="1355" from-port="3" to-layer="1368" to-port="0" />
		<edge from-layer="1355" from-port="3" to-layer="1388" to-port="0" />
		<edge from-layer="1355" from-port="3" to-layer="1358" to-port="0" />
		<edge from-layer="1356" from-port="0" to-layer="1358" to-port="1" />
		<edge from-layer="1357" from-port="0" to-layer="1358" to-port="2" />
		<edge from-layer="1358" from-port="3" to-layer="1359" to-port="1" />
		<edge from-layer="1359" from-port="2" to-layer="1360" to-port="0" />
		<edge from-layer="1360" from-port="1" to-layer="1362" to-port="0" />
		<edge from-layer="1361" from-port="0" to-layer="1362" to-port="1" />
		<edge from-layer="1362" from-port="2" to-layer="1393" to-port="0" />
		<edge from-layer="1363" from-port="0" to-layer="1365" to-port="1" />
		<edge from-layer="1364" from-port="0" to-layer="1365" to-port="2" />
		<edge from-layer="1365" from-port="3" to-layer="1369" to-port="0" />
		<edge from-layer="1366" from-port="0" to-layer="1368" to-port="1" />
		<edge from-layer="1367" from-port="0" to-layer="1368" to-port="2" />
		<edge from-layer="1368" from-port="3" to-layer="1369" to-port="1" />
		<edge from-layer="1369" from-port="2" to-layer="1370" to-port="0" />
		<edge from-layer="1370" from-port="1" to-layer="1372" to-port="0" />
		<edge from-layer="1371" from-port="0" to-layer="1372" to-port="1" />
		<edge from-layer="1372" from-port="2" to-layer="1393" to-port="1" />
		<edge from-layer="1373" from-port="0" to-layer="1375" to-port="1" />
		<edge from-layer="1374" from-port="0" to-layer="1375" to-port="2" />
		<edge from-layer="1375" from-port="3" to-layer="1379" to-port="0" />
		<edge from-layer="1376" from-port="0" to-layer="1378" to-port="1" />
		<edge from-layer="1377" from-port="0" to-layer="1378" to-port="2" />
		<edge from-layer="1378" from-port="3" to-layer="1379" to-port="1" />
		<edge from-layer="1379" from-port="2" to-layer="1380" to-port="0" />
		<edge from-layer="1380" from-port="1" to-layer="1382" to-port="0" />
		<edge from-layer="1381" from-port="0" to-layer="1382" to-port="1" />
		<edge from-layer="1382" from-port="2" to-layer="1393" to-port="2" />
		<edge from-layer="1383" from-port="0" to-layer="1385" to-port="1" />
		<edge from-layer="1384" from-port="0" to-layer="1385" to-port="2" />
		<edge from-layer="1385" from-port="3" to-layer="1389" to-port="0" />
		<edge from-layer="1386" from-port="0" to-layer="1388" to-port="1" />
		<edge from-layer="1387" from-port="0" to-layer="1388" to-port="2" />
		<edge from-layer="1388" from-port="3" to-layer="1389" to-port="1" />
		<edge from-layer="1389" from-port="2" to-layer="1390" to-port="0" />
		<edge from-layer="1390" from-port="1" to-layer="1392" to-port="0" />
		<edge from-layer="1391" from-port="0" to-layer="1392" to-port="1" />
		<edge from-layer="1392" from-port="2" to-layer="1393" to-port="3" />
		<edge from-layer="1393" from-port="4" to-layer="1783" to-port="2" />
		<edge from-layer="1394" from-port="0" to-layer="1395" to-port="0" />
		<edge from-layer="1395" from-port="1" to-layer="1490" to-port="0" />
		<edge from-layer="1396" from-port="0" to-layer="1397" to-port="0" />
		<edge from-layer="1397" from-port="1" to-layer="1398" to-port="1" />
		<edge from-layer="1398" from-port="2" to-layer="1401" to-port="0" />
		<edge from-layer="1399" from-port="0" to-layer="1400" to-port="0" />
		<edge from-layer="1400" from-port="1" to-layer="1401" to-port="1" />
		<edge from-layer="1401" from-port="2" to-layer="1494" to-port="0" />
		<edge from-layer="1401" from-port="2" to-layer="1590" to-port="0" />
		<edge from-layer="1401" from-port="2" to-layer="1402" to-port="0" />
		<edge from-layer="1402" from-port="2" to-layer="1404" to-port="0" />
		<edge from-layer="1403" from-port="0" to-layer="1404" to-port="1" />
		<edge from-layer="1404" from-port="2" to-layer="1407" to-port="0" />
		<edge from-layer="1405" from-port="0" to-layer="1406" to-port="0" />
		<edge from-layer="1406" from-port="1" to-layer="1407" to-port="1" />
		<edge from-layer="1407" from-port="2" to-layer="1410" to-port="0" />
		<edge from-layer="1408" from-port="0" to-layer="1409" to-port="0" />
		<edge from-layer="1409" from-port="1" to-layer="1410" to-port="1" />
		<edge from-layer="1410" from-port="2" to-layer="1411" to-port="0" />
		<edge from-layer="1411" from-port="1" to-layer="1412" to-port="0" />
		<edge from-layer="1412" from-port="2" to-layer="1414" to-port="0" />
		<edge from-layer="1413" from-port="0" to-layer="1414" to-port="1" />
		<edge from-layer="1414" from-port="2" to-layer="1417" to-port="0" />
		<edge from-layer="1415" from-port="0" to-layer="1416" to-port="0" />
		<edge from-layer="1416" from-port="1" to-layer="1417" to-port="1" />
		<edge from-layer="1417" from-port="2" to-layer="1420" to-port="0" />
		<edge from-layer="1418" from-port="0" to-layer="1419" to-port="0" />
		<edge from-layer="1419" from-port="1" to-layer="1420" to-port="1" />
		<edge from-layer="1420" from-port="2" to-layer="1421" to-port="0" />
		<edge from-layer="1421" from-port="1" to-layer="1422" to-port="0" />
		<edge from-layer="1422" from-port="2" to-layer="1424" to-port="0" />
		<edge from-layer="1423" from-port="0" to-layer="1424" to-port="1" />
		<edge from-layer="1424" from-port="2" to-layer="1427" to-port="0" />
		<edge from-layer="1425" from-port="0" to-layer="1426" to-port="0" />
		<edge from-layer="1426" from-port="1" to-layer="1427" to-port="1" />
		<edge from-layer="1427" from-port="2" to-layer="1430" to-port="0" />
		<edge from-layer="1428" from-port="0" to-layer="1429" to-port="0" />
		<edge from-layer="1429" from-port="1" to-layer="1430" to-port="1" />
		<edge from-layer="1430" from-port="2" to-layer="1431" to-port="0" />
		<edge from-layer="1431" from-port="1" to-layer="1432" to-port="0" />
		<edge from-layer="1432" from-port="2" to-layer="1434" to-port="0" />
		<edge from-layer="1433" from-port="0" to-layer="1434" to-port="1" />
		<edge from-layer="1434" from-port="2" to-layer="1437" to-port="0" />
		<edge from-layer="1435" from-port="0" to-layer="1436" to-port="0" />
		<edge from-layer="1436" from-port="1" to-layer="1437" to-port="1" />
		<edge from-layer="1437" from-port="2" to-layer="1440" to-port="0" />
		<edge from-layer="1438" from-port="0" to-layer="1439" to-port="0" />
		<edge from-layer="1439" from-port="1" to-layer="1440" to-port="1" />
		<edge from-layer="1440" from-port="2" to-layer="1441" to-port="0" />
		<edge from-layer="1441" from-port="1" to-layer="1457" to-port="0" />
		<edge from-layer="1441" from-port="1" to-layer="1442" to-port="0" />
		<edge from-layer="1442" from-port="2" to-layer="1445" to-port="0" />
		<edge from-layer="1443" from-port="0" to-layer="1444" to-port="0" />
		<edge from-layer="1444" from-port="1" to-layer="1445" to-port="1" />
		<edge from-layer="1445" from-port="2" to-layer="1448" to-port="0" />
		<edge from-layer="1446" from-port="0" to-layer="1448" to-port="1" />
		<edge from-layer="1447" from-port="0" to-layer="1448" to-port="2" />
		<edge from-layer="1448" from-port="3" to-layer="1449" to-port="0" />
		<edge from-layer="1448" from-port="3" to-layer="1453" to-port="0" />
		<edge from-layer="1449" from-port="1" to-layer="1452" to-port="0" />
		<edge from-layer="1450" from-port="0" to-layer="1452" to-port="1" />
		<edge from-layer="1451" from-port="0" to-layer="1452" to-port="2" />
		<edge from-layer="1452" from-port="3" to-layer="1453" to-port="1" />
		<edge from-layer="1453" from-port="2" to-layer="1455" to-port="0" />
		<edge from-layer="1454" from-port="0" to-layer="1455" to-port="1" />
		<edge from-layer="1455" from-port="2" to-layer="1456" to-port="0" />
		<edge from-layer="1456" from-port="1" to-layer="1474" to-port="0" />
		<edge from-layer="1456" from-port="1" to-layer="1797" to-port="0" />
		<edge from-layer="1457" from-port="2" to-layer="1460" to-port="0" />
		<edge from-layer="1458" from-port="0" to-layer="1459" to-port="0" />
		<edge from-layer="1459" from-port="1" to-layer="1460" to-port="1" />
		<edge from-layer="1460" from-port="2" to-layer="1463" to-port="0" />
		<edge from-layer="1461" from-port="0" to-layer="1463" to-port="1" />
		<edge from-layer="1462" from-port="0" to-layer="1463" to-port="2" />
		<edge from-layer="1463" from-port="3" to-layer="1464" to-port="0" />
		<edge from-layer="1463" from-port="3" to-layer="1468" to-port="0" />
		<edge from-layer="1464" from-port="1" to-layer="1467" to-port="0" />
		<edge from-layer="1465" from-port="0" to-layer="1467" to-port="1" />
		<edge from-layer="1466" from-port="0" to-layer="1467" to-port="2" />
		<edge from-layer="1467" from-port="3" to-layer="1468" to-port="1" />
		<edge from-layer="1468" from-port="2" to-layer="1470" to-port="0" />
		<edge from-layer="1469" from-port="0" to-layer="1470" to-port="1" />
		<edge from-layer="1470" from-port="2" to-layer="1471" to-port="0" />
		<edge from-layer="1471" from-port="1" to-layer="1473" to-port="0" />
		<edge from-layer="1471" from-port="1" to-layer="1808" to-port="0" />
		<edge from-layer="1472" from-port="0" to-layer="1473" to-port="1" />
		<edge from-layer="1473" from-port="2" to-layer="1474" to-port="1" />
		<edge from-layer="1474" from-port="2" to-layer="1476" to-port="0" />
		<edge from-layer="1475" from-port="0" to-layer="1476" to-port="1" />
		<edge from-layer="1476" from-port="2" to-layer="1488" to-port="0" />
		<edge from-layer="1476" from-port="2" to-layer="1478" to-port="0" />
		<edge from-layer="1477" from-port="0" to-layer="1479" to-port="0" />
		<edge from-layer="1478" from-port="1" to-layer="1479" to-port="1" />
		<edge from-layer="1479" from-port="2" to-layer="1480" to-port="0" />
		<edge from-layer="1480" from-port="1" to-layer="1482" to-port="0" />
		<edge from-layer="1481" from-port="0" to-layer="1482" to-port="1" />
		<edge from-layer="1482" from-port="2" to-layer="1483" to-port="0" />
		<edge from-layer="1483" from-port="1" to-layer="1485" to-port="0" />
		<edge from-layer="1484" from-port="0" to-layer="1485" to-port="1" />
		<edge from-layer="1485" from-port="2" to-layer="1487" to-port="0" />
		<edge from-layer="1486" from-port="0" to-layer="1487" to-port="1" />
		<edge from-layer="1487" from-port="2" to-layer="1488" to-port="1" />
		<edge from-layer="1488" from-port="3" to-layer="1549" to-port="1" />
		<edge from-layer="1488" from-port="3" to-layer="1797" to-port="1" />
		<edge from-layer="1488" from-port="3" to-layer="1490" to-port="1" />
		<edge from-layer="1488" from-port="3" to-layer="1808" to-port="1" />
		<edge from-layer="1489" from-port="0" to-layer="1490" to-port="2" />
		<edge from-layer="1490" from-port="3" to-layer="1493" to-port="0" />
		<edge from-layer="1490" from-port="3" to-layer="1569" to-port="0" />
		<edge from-layer="1490" from-port="3" to-layer="1559" to-port="0" />
		<edge from-layer="1490" from-port="3" to-layer="1579" to-port="0" />
		<edge from-layer="1491" from-port="0" to-layer="1493" to-port="1" />
		<edge from-layer="1492" from-port="0" to-layer="1493" to-port="2" />
		<edge from-layer="1493" from-port="3" to-layer="1553" to-port="0" />
		<edge from-layer="1494" from-port="2" to-layer="1496" to-port="0" />
		<edge from-layer="1495" from-port="0" to-layer="1496" to-port="1" />
		<edge from-layer="1496" from-port="2" to-layer="1499" to-port="0" />
		<edge from-layer="1497" from-port="0" to-layer="1498" to-port="0" />
		<edge from-layer="1498" from-port="1" to-layer="1499" to-port="1" />
		<edge from-layer="1499" from-port="2" to-layer="1502" to-port="0" />
		<edge from-layer="1500" from-port="0" to-layer="1501" to-port="0" />
		<edge from-layer="1501" from-port="1" to-layer="1502" to-port="1" />
		<edge from-layer="1502" from-port="2" to-layer="1503" to-port="0" />
		<edge from-layer="1503" from-port="1" to-layer="1504" to-port="0" />
		<edge from-layer="1504" from-port="2" to-layer="1506" to-port="0" />
		<edge from-layer="1505" from-port="0" to-layer="1506" to-port="1" />
		<edge from-layer="1506" from-port="2" to-layer="1509" to-port="0" />
		<edge from-layer="1507" from-port="0" to-layer="1508" to-port="0" />
		<edge from-layer="1508" from-port="1" to-layer="1509" to-port="1" />
		<edge from-layer="1509" from-port="2" to-layer="1512" to-port="0" />
		<edge from-layer="1510" from-port="0" to-layer="1511" to-port="0" />
		<edge from-layer="1511" from-port="1" to-layer="1512" to-port="1" />
		<edge from-layer="1512" from-port="2" to-layer="1513" to-port="0" />
		<edge from-layer="1513" from-port="1" to-layer="1514" to-port="0" />
		<edge from-layer="1514" from-port="2" to-layer="1516" to-port="0" />
		<edge from-layer="1515" from-port="0" to-layer="1516" to-port="1" />
		<edge from-layer="1516" from-port="2" to-layer="1519" to-port="0" />
		<edge from-layer="1517" from-port="0" to-layer="1518" to-port="0" />
		<edge from-layer="1518" from-port="1" to-layer="1519" to-port="1" />
		<edge from-layer="1519" from-port="2" to-layer="1522" to-port="0" />
		<edge from-layer="1520" from-port="0" to-layer="1521" to-port="0" />
		<edge from-layer="1521" from-port="1" to-layer="1522" to-port="1" />
		<edge from-layer="1522" from-port="2" to-layer="1523" to-port="0" />
		<edge from-layer="1523" from-port="1" to-layer="1524" to-port="0" />
		<edge from-layer="1524" from-port="2" to-layer="1526" to-port="0" />
		<edge from-layer="1525" from-port="0" to-layer="1526" to-port="1" />
		<edge from-layer="1526" from-port="2" to-layer="1529" to-port="0" />
		<edge from-layer="1527" from-port="0" to-layer="1528" to-port="0" />
		<edge from-layer="1528" from-port="1" to-layer="1529" to-port="1" />
		<edge from-layer="1529" from-port="2" to-layer="1532" to-port="0" />
		<edge from-layer="1530" from-port="0" to-layer="1531" to-port="0" />
		<edge from-layer="1531" from-port="1" to-layer="1532" to-port="1" />
		<edge from-layer="1532" from-port="2" to-layer="1533" to-port="0" />
		<edge from-layer="1533" from-port="1" to-layer="1536" to-port="0" />
		<edge from-layer="1534" from-port="0" to-layer="1535" to-port="0" />
		<edge from-layer="1535" from-port="1" to-layer="1536" to-port="1" />
		<edge from-layer="1536" from-port="2" to-layer="1539" to-port="0" />
		<edge from-layer="1537" from-port="0" to-layer="1538" to-port="0" />
		<edge from-layer="1538" from-port="1" to-layer="1539" to-port="1" />
		<edge from-layer="1539" from-port="2" to-layer="1540" to-port="0" />
		<edge from-layer="1540" from-port="1" to-layer="1543" to-port="0" />
		<edge from-layer="1541" from-port="0" to-layer="1543" to-port="1" />
		<edge from-layer="1542" from-port="0" to-layer="1543" to-port="2" />
		<edge from-layer="1543" from-port="3" to-layer="1545" to-port="0" />
		<edge from-layer="1544" from-port="0" to-layer="1545" to-port="1" />
		<edge from-layer="1545" from-port="2" to-layer="1547" to-port="0" />
		<edge from-layer="1546" from-port="0" to-layer="1547" to-port="1" />
		<edge from-layer="1547" from-port="2" to-layer="1549" to-port="0" />
		<edge from-layer="1548" from-port="0" to-layer="1549" to-port="2" />
		<edge from-layer="1549" from-port="3" to-layer="1572" to-port="0" />
		<edge from-layer="1549" from-port="3" to-layer="1552" to-port="0" />
		<edge from-layer="1549" from-port="3" to-layer="1562" to-port="0" />
		<edge from-layer="1549" from-port="3" to-layer="1582" to-port="0" />
		<edge from-layer="1550" from-port="0" to-layer="1552" to-port="1" />
		<edge from-layer="1551" from-port="0" to-layer="1552" to-port="2" />
		<edge from-layer="1552" from-port="3" to-layer="1553" to-port="1" />
		<edge from-layer="1553" from-port="2" to-layer="1554" to-port="0" />
		<edge from-layer="1554" from-port="1" to-layer="1556" to-port="0" />
		<edge from-layer="1555" from-port="0" to-layer="1556" to-port="1" />
		<edge from-layer="1556" from-port="2" to-layer="1587" to-port="0" />
		<edge from-layer="1557" from-port="0" to-layer="1559" to-port="1" />
		<edge from-layer="1558" from-port="0" to-layer="1559" to-port="2" />
		<edge from-layer="1559" from-port="3" to-layer="1563" to-port="0" />
		<edge from-layer="1560" from-port="0" to-layer="1562" to-port="1" />
		<edge from-layer="1561" from-port="0" to-layer="1562" to-port="2" />
		<edge from-layer="1562" from-port="3" to-layer="1563" to-port="1" />
		<edge from-layer="1563" from-port="2" to-layer="1564" to-port="0" />
		<edge from-layer="1564" from-port="1" to-layer="1566" to-port="0" />
		<edge from-layer="1565" from-port="0" to-layer="1566" to-port="1" />
		<edge from-layer="1566" from-port="2" to-layer="1587" to-port="1" />
		<edge from-layer="1567" from-port="0" to-layer="1569" to-port="1" />
		<edge from-layer="1568" from-port="0" to-layer="1569" to-port="2" />
		<edge from-layer="1569" from-port="3" to-layer="1573" to-port="0" />
		<edge from-layer="1570" from-port="0" to-layer="1572" to-port="1" />
		<edge from-layer="1571" from-port="0" to-layer="1572" to-port="2" />
		<edge from-layer="1572" from-port="3" to-layer="1573" to-port="1" />
		<edge from-layer="1573" from-port="2" to-layer="1574" to-port="0" />
		<edge from-layer="1574" from-port="1" to-layer="1576" to-port="0" />
		<edge from-layer="1575" from-port="0" to-layer="1576" to-port="1" />
		<edge from-layer="1576" from-port="2" to-layer="1587" to-port="2" />
		<edge from-layer="1577" from-port="0" to-layer="1579" to-port="1" />
		<edge from-layer="1578" from-port="0" to-layer="1579" to-port="2" />
		<edge from-layer="1579" from-port="3" to-layer="1583" to-port="0" />
		<edge from-layer="1580" from-port="0" to-layer="1582" to-port="1" />
		<edge from-layer="1581" from-port="0" to-layer="1582" to-port="2" />
		<edge from-layer="1582" from-port="3" to-layer="1583" to-port="1" />
		<edge from-layer="1583" from-port="2" to-layer="1584" to-port="0" />
		<edge from-layer="1584" from-port="1" to-layer="1586" to-port="0" />
		<edge from-layer="1585" from-port="0" to-layer="1586" to-port="1" />
		<edge from-layer="1586" from-port="2" to-layer="1587" to-port="3" />
		<edge from-layer="1587" from-port="4" to-layer="1783" to-port="3" />
		<edge from-layer="1588" from-port="0" to-layer="1589" to-port="0" />
		<edge from-layer="1589" from-port="1" to-layer="1685" to-port="0" />
		<edge from-layer="1590" from-port="1" to-layer="1593" to-port="0" />
		<edge from-layer="1591" from-port="0" to-layer="1592" to-port="0" />
		<edge from-layer="1592" from-port="1" to-layer="1593" to-port="1" />
		<edge from-layer="1593" from-port="2" to-layer="1596" to-port="0" />
		<edge from-layer="1594" from-port="0" to-layer="1595" to-port="0" />
		<edge from-layer="1595" from-port="1" to-layer="1596" to-port="1" />
		<edge from-layer="1596" from-port="2" to-layer="1597" to-port="0" />
		<edge from-layer="1596" from-port="2" to-layer="1689" to-port="0" />
		<edge from-layer="1597" from-port="2" to-layer="1599" to-port="0" />
		<edge from-layer="1598" from-port="0" to-layer="1599" to-port="1" />
		<edge from-layer="1599" from-port="2" to-layer="1602" to-port="0" />
		<edge from-layer="1600" from-port="0" to-layer="1601" to-port="0" />
		<edge from-layer="1601" from-port="1" to-layer="1602" to-port="1" />
		<edge from-layer="1602" from-port="2" to-layer="1605" to-port="0" />
		<edge from-layer="1603" from-port="0" to-layer="1604" to-port="0" />
		<edge from-layer="1604" from-port="1" to-layer="1605" to-port="1" />
		<edge from-layer="1605" from-port="2" to-layer="1606" to-port="0" />
		<edge from-layer="1606" from-port="1" to-layer="1607" to-port="0" />
		<edge from-layer="1607" from-port="2" to-layer="1609" to-port="0" />
		<edge from-layer="1608" from-port="0" to-layer="1609" to-port="1" />
		<edge from-layer="1609" from-port="2" to-layer="1612" to-port="0" />
		<edge from-layer="1610" from-port="0" to-layer="1611" to-port="0" />
		<edge from-layer="1611" from-port="1" to-layer="1612" to-port="1" />
		<edge from-layer="1612" from-port="2" to-layer="1615" to-port="0" />
		<edge from-layer="1613" from-port="0" to-layer="1614" to-port="0" />
		<edge from-layer="1614" from-port="1" to-layer="1615" to-port="1" />
		<edge from-layer="1615" from-port="2" to-layer="1616" to-port="0" />
		<edge from-layer="1616" from-port="1" to-layer="1617" to-port="0" />
		<edge from-layer="1617" from-port="2" to-layer="1619" to-port="0" />
		<edge from-layer="1618" from-port="0" to-layer="1619" to-port="1" />
		<edge from-layer="1619" from-port="2" to-layer="1622" to-port="0" />
		<edge from-layer="1620" from-port="0" to-layer="1621" to-port="0" />
		<edge from-layer="1621" from-port="1" to-layer="1622" to-port="1" />
		<edge from-layer="1622" from-port="2" to-layer="1625" to-port="0" />
		<edge from-layer="1623" from-port="0" to-layer="1624" to-port="0" />
		<edge from-layer="1624" from-port="1" to-layer="1625" to-port="1" />
		<edge from-layer="1625" from-port="2" to-layer="1626" to-port="0" />
		<edge from-layer="1626" from-port="1" to-layer="1627" to-port="0" />
		<edge from-layer="1627" from-port="2" to-layer="1629" to-port="0" />
		<edge from-layer="1628" from-port="0" to-layer="1629" to-port="1" />
		<edge from-layer="1629" from-port="2" to-layer="1632" to-port="0" />
		<edge from-layer="1630" from-port="0" to-layer="1631" to-port="0" />
		<edge from-layer="1631" from-port="1" to-layer="1632" to-port="1" />
		<edge from-layer="1632" from-port="2" to-layer="1635" to-port="0" />
		<edge from-layer="1633" from-port="0" to-layer="1634" to-port="0" />
		<edge from-layer="1634" from-port="1" to-layer="1635" to-port="1" />
		<edge from-layer="1635" from-port="2" to-layer="1636" to-port="0" />
		<edge from-layer="1636" from-port="1" to-layer="1652" to-port="0" />
		<edge from-layer="1636" from-port="1" to-layer="1637" to-port="0" />
		<edge from-layer="1637" from-port="2" to-layer="1640" to-port="0" />
		<edge from-layer="1638" from-port="0" to-layer="1639" to-port="0" />
		<edge from-layer="1639" from-port="1" to-layer="1640" to-port="1" />
		<edge from-layer="1640" from-port="2" to-layer="1643" to-port="0" />
		<edge from-layer="1641" from-port="0" to-layer="1643" to-port="1" />
		<edge from-layer="1642" from-port="0" to-layer="1643" to-port="2" />
		<edge from-layer="1643" from-port="3" to-layer="1644" to-port="0" />
		<edge from-layer="1643" from-port="3" to-layer="1648" to-port="0" />
		<edge from-layer="1644" from-port="1" to-layer="1647" to-port="0" />
		<edge from-layer="1645" from-port="0" to-layer="1647" to-port="1" />
		<edge from-layer="1646" from-port="0" to-layer="1647" to-port="2" />
		<edge from-layer="1647" from-port="3" to-layer="1648" to-port="1" />
		<edge from-layer="1648" from-port="2" to-layer="1650" to-port="0" />
		<edge from-layer="1649" from-port="0" to-layer="1650" to-port="1" />
		<edge from-layer="1650" from-port="2" to-layer="1651" to-port="0" />
		<edge from-layer="1651" from-port="1" to-layer="1799" to-port="0" />
		<edge from-layer="1651" from-port="1" to-layer="1669" to-port="0" />
		<edge from-layer="1652" from-port="2" to-layer="1655" to-port="0" />
		<edge from-layer="1653" from-port="0" to-layer="1654" to-port="0" />
		<edge from-layer="1654" from-port="1" to-layer="1655" to-port="1" />
		<edge from-layer="1655" from-port="2" to-layer="1658" to-port="0" />
		<edge from-layer="1656" from-port="0" to-layer="1658" to-port="1" />
		<edge from-layer="1657" from-port="0" to-layer="1658" to-port="2" />
		<edge from-layer="1658" from-port="3" to-layer="1663" to-port="0" />
		<edge from-layer="1658" from-port="3" to-layer="1659" to-port="0" />
		<edge from-layer="1659" from-port="1" to-layer="1662" to-port="0" />
		<edge from-layer="1660" from-port="0" to-layer="1662" to-port="1" />
		<edge from-layer="1661" from-port="0" to-layer="1662" to-port="2" />
		<edge from-layer="1662" from-port="3" to-layer="1663" to-port="1" />
		<edge from-layer="1663" from-port="2" to-layer="1665" to-port="0" />
		<edge from-layer="1664" from-port="0" to-layer="1665" to-port="1" />
		<edge from-layer="1665" from-port="2" to-layer="1666" to-port="0" />
		<edge from-layer="1666" from-port="1" to-layer="1810" to-port="0" />
		<edge from-layer="1666" from-port="1" to-layer="1668" to-port="0" />
		<edge from-layer="1667" from-port="0" to-layer="1668" to-port="1" />
		<edge from-layer="1668" from-port="2" to-layer="1669" to-port="1" />
		<edge from-layer="1669" from-port="2" to-layer="1671" to-port="0" />
		<edge from-layer="1670" from-port="0" to-layer="1671" to-port="1" />
		<edge from-layer="1671" from-port="2" to-layer="1673" to-port="0" />
		<edge from-layer="1671" from-port="2" to-layer="1683" to-port="0" />
		<edge from-layer="1672" from-port="0" to-layer="1674" to-port="0" />
		<edge from-layer="1673" from-port="1" to-layer="1674" to-port="1" />
		<edge from-layer="1674" from-port="2" to-layer="1675" to-port="0" />
		<edge from-layer="1675" from-port="1" to-layer="1677" to-port="0" />
		<edge from-layer="1676" from-port="0" to-layer="1677" to-port="1" />
		<edge from-layer="1677" from-port="2" to-layer="1678" to-port="0" />
		<edge from-layer="1678" from-port="1" to-layer="1680" to-port="0" />
		<edge from-layer="1679" from-port="0" to-layer="1680" to-port="1" />
		<edge from-layer="1680" from-port="2" to-layer="1682" to-port="0" />
		<edge from-layer="1681" from-port="0" to-layer="1682" to-port="1" />
		<edge from-layer="1682" from-port="2" to-layer="1683" to-port="1" />
		<edge from-layer="1683" from-port="3" to-layer="1685" to-port="1" />
		<edge from-layer="1683" from-port="3" to-layer="1810" to-port="1" />
		<edge from-layer="1683" from-port="3" to-layer="1799" to-port="1" />
		<edge from-layer="1683" from-port="3" to-layer="1744" to-port="1" />
		<edge from-layer="1684" from-port="0" to-layer="1685" to-port="2" />
		<edge from-layer="1685" from-port="3" to-layer="1764" to-port="0" />
		<edge from-layer="1685" from-port="3" to-layer="1688" to-port="0" />
		<edge from-layer="1685" from-port="3" to-layer="1774" to-port="0" />
		<edge from-layer="1685" from-port="3" to-layer="1754" to-port="0" />
		<edge from-layer="1686" from-port="0" to-layer="1688" to-port="1" />
		<edge from-layer="1687" from-port="0" to-layer="1688" to-port="2" />
		<edge from-layer="1688" from-port="3" to-layer="1748" to-port="0" />
		<edge from-layer="1689" from-port="2" to-layer="1691" to-port="0" />
		<edge from-layer="1690" from-port="0" to-layer="1691" to-port="1" />
		<edge from-layer="1691" from-port="2" to-layer="1694" to-port="0" />
		<edge from-layer="1692" from-port="0" to-layer="1693" to-port="0" />
		<edge from-layer="1693" from-port="1" to-layer="1694" to-port="1" />
		<edge from-layer="1694" from-port="2" to-layer="1697" to-port="0" />
		<edge from-layer="1695" from-port="0" to-layer="1696" to-port="0" />
		<edge from-layer="1696" from-port="1" to-layer="1697" to-port="1" />
		<edge from-layer="1697" from-port="2" to-layer="1698" to-port="0" />
		<edge from-layer="1698" from-port="1" to-layer="1699" to-port="0" />
		<edge from-layer="1699" from-port="2" to-layer="1701" to-port="0" />
		<edge from-layer="1700" from-port="0" to-layer="1701" to-port="1" />
		<edge from-layer="1701" from-port="2" to-layer="1704" to-port="0" />
		<edge from-layer="1702" from-port="0" to-layer="1703" to-port="0" />
		<edge from-layer="1703" from-port="1" to-layer="1704" to-port="1" />
		<edge from-layer="1704" from-port="2" to-layer="1707" to-port="0" />
		<edge from-layer="1705" from-port="0" to-layer="1706" to-port="0" />
		<edge from-layer="1706" from-port="1" to-layer="1707" to-port="1" />
		<edge from-layer="1707" from-port="2" to-layer="1708" to-port="0" />
		<edge from-layer="1708" from-port="1" to-layer="1709" to-port="0" />
		<edge from-layer="1709" from-port="2" to-layer="1711" to-port="0" />
		<edge from-layer="1710" from-port="0" to-layer="1711" to-port="1" />
		<edge from-layer="1711" from-port="2" to-layer="1714" to-port="0" />
		<edge from-layer="1712" from-port="0" to-layer="1713" to-port="0" />
		<edge from-layer="1713" from-port="1" to-layer="1714" to-port="1" />
		<edge from-layer="1714" from-port="2" to-layer="1717" to-port="0" />
		<edge from-layer="1715" from-port="0" to-layer="1716" to-port="0" />
		<edge from-layer="1716" from-port="1" to-layer="1717" to-port="1" />
		<edge from-layer="1717" from-port="2" to-layer="1718" to-port="0" />
		<edge from-layer="1718" from-port="1" to-layer="1719" to-port="0" />
		<edge from-layer="1719" from-port="2" to-layer="1721" to-port="0" />
		<edge from-layer="1720" from-port="0" to-layer="1721" to-port="1" />
		<edge from-layer="1721" from-port="2" to-layer="1724" to-port="0" />
		<edge from-layer="1722" from-port="0" to-layer="1723" to-port="0" />
		<edge from-layer="1723" from-port="1" to-layer="1724" to-port="1" />
		<edge from-layer="1724" from-port="2" to-layer="1727" to-port="0" />
		<edge from-layer="1725" from-port="0" to-layer="1726" to-port="0" />
		<edge from-layer="1726" from-port="1" to-layer="1727" to-port="1" />
		<edge from-layer="1727" from-port="2" to-layer="1728" to-port="0" />
		<edge from-layer="1728" from-port="1" to-layer="1731" to-port="0" />
		<edge from-layer="1729" from-port="0" to-layer="1730" to-port="0" />
		<edge from-layer="1730" from-port="1" to-layer="1731" to-port="1" />
		<edge from-layer="1731" from-port="2" to-layer="1734" to-port="0" />
		<edge from-layer="1732" from-port="0" to-layer="1733" to-port="0" />
		<edge from-layer="1733" from-port="1" to-layer="1734" to-port="1" />
		<edge from-layer="1734" from-port="2" to-layer="1735" to-port="0" />
		<edge from-layer="1735" from-port="1" to-layer="1738" to-port="0" />
		<edge from-layer="1736" from-port="0" to-layer="1738" to-port="1" />
		<edge from-layer="1737" from-port="0" to-layer="1738" to-port="2" />
		<edge from-layer="1738" from-port="3" to-layer="1740" to-port="0" />
		<edge from-layer="1739" from-port="0" to-layer="1740" to-port="1" />
		<edge from-layer="1740" from-port="2" to-layer="1742" to-port="0" />
		<edge from-layer="1741" from-port="0" to-layer="1742" to-port="1" />
		<edge from-layer="1742" from-port="2" to-layer="1744" to-port="0" />
		<edge from-layer="1743" from-port="0" to-layer="1744" to-port="2" />
		<edge from-layer="1744" from-port="3" to-layer="1777" to-port="0" />
		<edge from-layer="1744" from-port="3" to-layer="1757" to-port="0" />
		<edge from-layer="1744" from-port="3" to-layer="1767" to-port="0" />
		<edge from-layer="1744" from-port="3" to-layer="1747" to-port="0" />
		<edge from-layer="1745" from-port="0" to-layer="1747" to-port="1" />
		<edge from-layer="1746" from-port="0" to-layer="1747" to-port="2" />
		<edge from-layer="1747" from-port="3" to-layer="1748" to-port="1" />
		<edge from-layer="1748" from-port="2" to-layer="1749" to-port="0" />
		<edge from-layer="1749" from-port="1" to-layer="1751" to-port="0" />
		<edge from-layer="1750" from-port="0" to-layer="1751" to-port="1" />
		<edge from-layer="1751" from-port="2" to-layer="1782" to-port="0" />
		<edge from-layer="1752" from-port="0" to-layer="1754" to-port="1" />
		<edge from-layer="1753" from-port="0" to-layer="1754" to-port="2" />
		<edge from-layer="1754" from-port="3" to-layer="1758" to-port="0" />
		<edge from-layer="1755" from-port="0" to-layer="1757" to-port="1" />
		<edge from-layer="1756" from-port="0" to-layer="1757" to-port="2" />
		<edge from-layer="1757" from-port="3" to-layer="1758" to-port="1" />
		<edge from-layer="1758" from-port="2" to-layer="1759" to-port="0" />
		<edge from-layer="1759" from-port="1" to-layer="1761" to-port="0" />
		<edge from-layer="1760" from-port="0" to-layer="1761" to-port="1" />
		<edge from-layer="1761" from-port="2" to-layer="1782" to-port="1" />
		<edge from-layer="1762" from-port="0" to-layer="1764" to-port="1" />
		<edge from-layer="1763" from-port="0" to-layer="1764" to-port="2" />
		<edge from-layer="1764" from-port="3" to-layer="1768" to-port="0" />
		<edge from-layer="1765" from-port="0" to-layer="1767" to-port="1" />
		<edge from-layer="1766" from-port="0" to-layer="1767" to-port="2" />
		<edge from-layer="1767" from-port="3" to-layer="1768" to-port="1" />
		<edge from-layer="1768" from-port="2" to-layer="1769" to-port="0" />
		<edge from-layer="1769" from-port="1" to-layer="1771" to-port="0" />
		<edge from-layer="1770" from-port="0" to-layer="1771" to-port="1" />
		<edge from-layer="1771" from-port="2" to-layer="1782" to-port="2" />
		<edge from-layer="1772" from-port="0" to-layer="1774" to-port="1" />
		<edge from-layer="1773" from-port="0" to-layer="1774" to-port="2" />
		<edge from-layer="1774" from-port="3" to-layer="1778" to-port="0" />
		<edge from-layer="1775" from-port="0" to-layer="1777" to-port="1" />
		<edge from-layer="1776" from-port="0" to-layer="1777" to-port="2" />
		<edge from-layer="1777" from-port="3" to-layer="1778" to-port="1" />
		<edge from-layer="1778" from-port="2" to-layer="1779" to-port="0" />
		<edge from-layer="1779" from-port="1" to-layer="1781" to-port="0" />
		<edge from-layer="1780" from-port="0" to-layer="1781" to-port="1" />
		<edge from-layer="1781" from-port="2" to-layer="1782" to-port="3" />
		<edge from-layer="1782" from-port="4" to-layer="1783" to-port="4" />
		<edge from-layer="1783" from-port="5" to-layer="1785" to-port="0" />
		<edge from-layer="1784" from-port="0" to-layer="1785" to-port="1" />
		<edge from-layer="1785" from-port="2" to-layer="1787" to-port="0" />
		<edge from-layer="1786" from-port="0" to-layer="1787" to-port="1" />
		<edge from-layer="1787" from-port="2" to-layer="1826" to-port="0" />
		<edge from-layer="1787" from-port="2" to-layer="1831" to-port="0" />
		<edge from-layer="1787" from-port="2" to-layer="1789" to-port="0" />
		<edge from-layer="1788" from-port="0" to-layer="1789" to-port="1" />
		<edge from-layer="1789" from-port="2" to-layer="1843" to-port="0" />
		<edge from-layer="1790" from-port="0" to-layer="1791" to-port="2" />
		<edge from-layer="1791" from-port="3" to-layer="1800" to-port="0" />
		<edge from-layer="1792" from-port="0" to-layer="1793" to-port="2" />
		<edge from-layer="1793" from-port="3" to-layer="1800" to-port="1" />
		<edge from-layer="1794" from-port="0" to-layer="1795" to-port="2" />
		<edge from-layer="1795" from-port="3" to-layer="1800" to-port="2" />
		<edge from-layer="1796" from-port="0" to-layer="1797" to-port="2" />
		<edge from-layer="1797" from-port="3" to-layer="1800" to-port="3" />
		<edge from-layer="1798" from-port="0" to-layer="1799" to-port="2" />
		<edge from-layer="1799" from-port="3" to-layer="1800" to-port="4" />
		<edge from-layer="1800" from-port="5" to-layer="1816" to-port="0" />
		<edge from-layer="1801" from-port="0" to-layer="1802" to-port="2" />
		<edge from-layer="1802" from-port="3" to-layer="1811" to-port="0" />
		<edge from-layer="1803" from-port="0" to-layer="1804" to-port="2" />
		<edge from-layer="1804" from-port="3" to-layer="1811" to-port="1" />
		<edge from-layer="1805" from-port="0" to-layer="1806" to-port="2" />
		<edge from-layer="1806" from-port="3" to-layer="1811" to-port="2" />
		<edge from-layer="1807" from-port="0" to-layer="1808" to-port="2" />
		<edge from-layer="1808" from-port="3" to-layer="1811" to-port="3" />
		<edge from-layer="1809" from-port="0" to-layer="1810" to-port="2" />
		<edge from-layer="1810" from-port="3" to-layer="1811" to-port="4" />
		<edge from-layer="1811" from-port="5" to-layer="1812" to-port="0" />
		<edge from-layer="1811" from-port="5" to-layer="1815" to-port="0" />
		<edge from-layer="1812" from-port="1" to-layer="1814" to-port="0" />
		<edge from-layer="1813" from-port="0" to-layer="1814" to-port="1" />
		<edge from-layer="1814" from-port="2" to-layer="1815" to-port="1" />
		<edge from-layer="1815" from-port="2" to-layer="1816" to-port="1" />
		<edge from-layer="1816" from-port="2" to-layer="1818" to-port="0" />
		<edge from-layer="1817" from-port="0" to-layer="1818" to-port="1" />
		<edge from-layer="1818" from-port="2" to-layer="1820" to-port="0" />
		<edge from-layer="1819" from-port="0" to-layer="1820" to-port="1" />
		<edge from-layer="1820" from-port="2" to-layer="1826" to-port="1" />
		<edge from-layer="1820" from-port="2" to-layer="1847" to-port="0" />
		<edge from-layer="1821" from-port="0" to-layer="1826" to-port="2" />
		<edge from-layer="1822" from-port="0" to-layer="1823" to-port="0" />
		<edge from-layer="1823" from-port="1" to-layer="1826" to-port="3" />
		<edge from-layer="1824" from-port="0" to-layer="1825" to-port="0" />
		<edge from-layer="1825" from-port="1" to-layer="1826" to-port="4" />
		<edge from-layer="1826" from-port="5" to-layer="1830" to-port="0" />
		<edge from-layer="1826" from-port="5" to-layer="1840" to-port="0" />
		<edge from-layer="1827" from-port="0" to-layer="1830" to-port="1" />
		<edge from-layer="1828" from-port="0" to-layer="1830" to-port="2" />
		<edge from-layer="1829" from-port="0" to-layer="1830" to-port="3" />
		<edge from-layer="1830" from-port="4" to-layer="1836" to-port="0" />
		<edge from-layer="1830" from-port="4" to-layer="1852" to-port="0" />
		<edge from-layer="1831" from-port="1" to-layer="1835" to-port="0" />
		<edge from-layer="1832" from-port="0" to-layer="1835" to-port="1" />
		<edge from-layer="1833" from-port="0" to-layer="1835" to-port="2" />
		<edge from-layer="1834" from-port="0" to-layer="1835" to-port="3" />
		<edge from-layer="1835" from-port="4" to-layer="1836" to-port="1" />
		<edge from-layer="1836" from-port="2" to-layer="1841" to-port="0" />
		<edge from-layer="1837" from-port="0" to-layer="1840" to-port="1" />
		<edge from-layer="1838" from-port="0" to-layer="1840" to-port="2" />
		<edge from-layer="1839" from-port="0" to-layer="1840" to-port="3" />
		<edge from-layer="1840" from-port="4" to-layer="1841" to-port="1" />
		<edge from-layer="1841" from-port="2" to-layer="1843" to-port="1" />
		<edge from-layer="1841" from-port="2" to-layer="1849" to-port="1" />
		<edge from-layer="1842" from-port="0" to-layer="1843" to-port="2" />
		<edge from-layer="1843" from-port="3" to-layer="1845" to-port="0" />
		<edge from-layer="1844" from-port="0" to-layer="1845" to-port="1" />
		<edge from-layer="1845" from-port="2" to-layer="1855" to-port="0" />
		<edge from-layer="1846" from-port="0" to-layer="1847" to-port="1" />
		<edge from-layer="1847" from-port="2" to-layer="1849" to-port="0" />
		<edge from-layer="1848" from-port="0" to-layer="1849" to-port="2" />
		<edge from-layer="1849" from-port="3" to-layer="1851" to-port="0" />
		<edge from-layer="1850" from-port="0" to-layer="1851" to-port="1" />
		<edge from-layer="1851" from-port="2" to-layer="1855" to-port="1" />
		<edge from-layer="1852" from-port="1" to-layer="1854" to-port="0" />
		<edge from-layer="1853" from-port="0" to-layer="1854" to-port="1" />
		<edge from-layer="1854" from-port="2" to-layer="1855" to-port="2" />
		<edge from-layer="1855" from-port="3" to-layer="1858" to-port="0" />
		<edge from-layer="1855" from-port="3" to-layer="1874" to-port="0" />
		<edge from-layer="1856" from-port="0" to-layer="1858" to-port="1" />
		<edge from-layer="1857" from-port="0" to-layer="1858" to-port="2" />
		<edge from-layer="1858" from-port="3" to-layer="1860" to-port="0" />
		<edge from-layer="1859" from-port="0" to-layer="1860" to-port="1" />
		<edge from-layer="1860" from-port="2" to-layer="1862" to-port="0" />
		<edge from-layer="1860" from-port="2" to-layer="1872" to-port="0" />
		<edge from-layer="1861" from-port="0" to-layer="1863" to-port="0" />
		<edge from-layer="1862" from-port="1" to-layer="1863" to-port="1" />
		<edge from-layer="1863" from-port="2" to-layer="1864" to-port="0" />
		<edge from-layer="1864" from-port="1" to-layer="1866" to-port="0" />
		<edge from-layer="1865" from-port="0" to-layer="1866" to-port="1" />
		<edge from-layer="1866" from-port="2" to-layer="1867" to-port="0" />
		<edge from-layer="1867" from-port="1" to-layer="1869" to-port="0" />
		<edge from-layer="1868" from-port="0" to-layer="1869" to-port="1" />
		<edge from-layer="1869" from-port="2" to-layer="1871" to-port="0" />
		<edge from-layer="1870" from-port="0" to-layer="1871" to-port="1" />
		<edge from-layer="1871" from-port="2" to-layer="1872" to-port="1" />
		<edge from-layer="1872" from-port="3" to-layer="1874" to-port="1" />
		<edge from-layer="1873" from-port="0" to-layer="1874" to-port="2" />
		<edge from-layer="1874" from-port="3" to-layer="1878" to-port="0" />
		<edge from-layer="1875" from-port="0" to-layer="1878" to-port="1" />
		<edge from-layer="1876" from-port="0" to-layer="1878" to-port="2" />
		<edge from-layer="1877" from-port="0" to-layer="1878" to-port="3" />
		<edge from-layer="1878" from-port="4" to-layer="1879" to-port="0" />
	</edges>
	<rt_info>
		<MO_version value="custom_HEAD_f6ee6e92f846a8c665e4a7089c51481f9689a3b5" />
		<Runtime_version value="2023.0.0-10521-f6ee6e92f84-HEAD" />
		<conversion_parameters>
			<framework value="onnx" />
			<input value="image" />
			<input_model value="DIR/person-detection-asl-0001_opset13.onnx" />
			<input_shape value="[1,3,320,320]" />
			<layout value="image(nchw)" />
			<mean_values value="image[123.675,116.28,103.53]" />
			<model_name value="person-detection-asl-0001" />
			<output value="boxes" />
			<output_dir value="DIR" />
			<reverse_input_channels value="True" />
			<scale_values value="image[58.395,57.12,57.375]" />
		</conversion_parameters>
		<legacy_frontend value="False" />
	</rt_info>
</net>
