<?xml version="1.0"?>
<net name="torch-jit-export" version="11">
	<layers>
		<layer id="0" name="input" type="Parameter" version="opset1">
			<data shape="1,3,16,224,224" element_type="f32" />
			<rt_info>
				<attribute name="old_api_map_element_type" version="0" value="f16" />
			</rt_info>
			<output>
				<port id="0" precision="FP32" names="input">
					<dim>1</dim>
					<dim>3</dim>
					<dim>16</dim>
					<dim>224</dim>
					<dim>224</dim>
					<rt_info>
						<attribute name="layout" version="0" layout="[N,C,D,H,W]" />
					</rt_info>
				</port>
			</output>
		</layer>
		<layer id="1" name="Constant_2017_compressed" type="Const" version="opset1">
			<data element_type="f16" shape="1, 3, 1, 1, 1" offset="0" size="6" />
			<output>
				<port id="0" precision="FP16">
					<dim>1</dim>
					<dim>3</dim>
					<dim>1</dim>
					<dim>1</dim>
					<dim>1</dim>
				</port>
			</output>
		</layer>
		<layer id="2" name="Constant_2017" type="Convert" version="opset1">
			<data destination_type="f32" />
			<rt_info>
				<attribute name="decompression" version="0" />
			</rt_info>
			<input>
				<port id="0" precision="FP16">
					<dim>1</dim>
					<dim>3</dim>
					<dim>1</dim>
					<dim>1</dim>
					<dim>1</dim>
				</port>
			</input>
			<output>
				<port id="1" precision="FP32">
					<dim>1</dim>
					<dim>3</dim>
					<dim>1</dim>
					<dim>1</dim>
					<dim>1</dim>
				</port>
			</output>
		</layer>
		<layer id="3" name="Subtract_2018" type="Subtract" version="opset1">
			<data auto_broadcast="numpy" />
			<rt_info>
				<attribute name="preprocessing" version="0" />
			</rt_info>
			<input>
				<port id="0" precision="FP32">
					<dim>1</dim>
					<dim>3</dim>
					<dim>16</dim>
					<dim>224</dim>
					<dim>224</dim>
				</port>
				<port id="1" precision="FP32">
					<dim>1</dim>
					<dim>3</dim>
					<dim>1</dim>
					<dim>1</dim>
					<dim>1</dim>
				</port>
			</input>
			<output>
				<port id="2" precision="FP32">
					<dim>1</dim>
					<dim>3</dim>
					<dim>16</dim>
					<dim>224</dim>
					<dim>224</dim>
				</port>
			</output>
		</layer>
		<layer id="4" name="Multiply_8983_compressed" type="Const" version="opset1">
			<data element_type="f16" shape="16, 3, 1, 3, 3" offset="6" size="864" />
			<rt_info>
				<attribute name="preprocessing" version="0" />
			</rt_info>
			<output>
				<port id="0" precision="FP16">
					<dim>16</dim>
					<dim>3</dim>
					<dim>1</dim>
					<dim>3</dim>
					<dim>3</dim>
				</port>
			</output>
		</layer>
		<layer id="5" name="Multiply_8983" type="Convert" version="opset1">
			<data destination_type="f32" />
			<rt_info>
				<attribute name="decompression" version="0" />
				<attribute name="preprocessing" version="0" />
			</rt_info>
			<input>
				<port id="0" precision="FP16">
					<dim>16</dim>
					<dim>3</dim>
					<dim>1</dim>
					<dim>3</dim>
					<dim>3</dim>
				</port>
			</input>
			<output>
				<port id="1" precision="FP32">
					<dim>16</dim>
					<dim>3</dim>
					<dim>1</dim>
					<dim>3</dim>
					<dim>3</dim>
				</port>
			</output>
		</layer>
		<layer id="6" name="Multiply_8591" type="Convolution" version="opset1">
			<data strides="1, 2, 2" dilations="1, 1, 1" pads_begin="0, 1, 1" pads_end="0, 1, 1" auto_pad="explicit" />
			<rt_info>
				<attribute name="preprocessing" version="0" />
			</rt_info>
			<input>
				<port id="0" precision="FP32">
					<dim>1</dim>
					<dim>3</dim>
					<dim>16</dim>
					<dim>224</dim>
					<dim>224</dim>
				</port>
				<port id="1" precision="FP32">
					<dim>16</dim>
					<dim>3</dim>
					<dim>1</dim>
					<dim>3</dim>
					<dim>3</dim>
				</port>
			</input>
			<output>
				<port id="2" precision="FP32">
					<dim>1</dim>
					<dim>16</dim>
					<dim>16</dim>
					<dim>112</dim>
					<dim>112</dim>
				</port>
			</output>
		</layer>
		<layer id="7" name="Constant_8596_compressed" type="Const" version="opset1">
			<data element_type="f16" shape="1, 16, 1, 1, 1" offset="870" size="32" />
			<output>
				<port id="0" precision="FP16">
					<dim>1</dim>
					<dim>16</dim>
					<dim>1</dim>
					<dim>1</dim>
					<dim>1</dim>
				</port>
			</output>
		</layer>
		<layer id="8" name="Constant_8596" type="Convert" version="opset1">
			<data destination_type="f32" />
			<rt_info>
				<attribute name="decompression" version="0" />
			</rt_info>
			<input>
				<port id="0" precision="FP16">
					<dim>1</dim>
					<dim>16</dim>
					<dim>1</dim>
					<dim>1</dim>
					<dim>1</dim>
				</port>
			</input>
			<output>
				<port id="1" precision="FP32">
					<dim>1</dim>
					<dim>16</dim>
					<dim>1</dim>
					<dim>1</dim>
					<dim>1</dim>
				</port>
			</output>
		</layer>
		<layer id="9" name="368" type="Add" version="opset1">
			<data auto_broadcast="numpy" />
			<input>
				<port id="0" precision="FP32">
					<dim>1</dim>
					<dim>16</dim>
					<dim>16</dim>
					<dim>112</dim>
					<dim>112</dim>
				</port>
				<port id="1" precision="FP32">
					<dim>1</dim>
					<dim>16</dim>
					<dim>1</dim>
					<dim>1</dim>
					<dim>1</dim>
				</port>
			</input>
			<output>
				<port id="2" precision="FP32" names="368">
					<dim>1</dim>
					<dim>16</dim>
					<dim>16</dim>
					<dim>112</dim>
					<dim>112</dim>
				</port>
			</output>
		</layer>
		<layer id="10" name="374" type="HSwish" version="opset4">
			<input>
				<port id="0" precision="FP32">
					<dim>1</dim>
					<dim>16</dim>
					<dim>16</dim>
					<dim>112</dim>
					<dim>112</dim>
				</port>
			</input>
			<output>
				<port id="1" precision="FP32" names="374">
					<dim>1</dim>
					<dim>16</dim>
					<dim>16</dim>
					<dim>112</dim>
					<dim>112</dim>
				</port>
			</output>
		</layer>
		<layer id="11" name="Multiply_8989_compressed" type="Const" version="opset1">
			<data element_type="f16" shape="16, 1, 1, 1, 3, 3" offset="902" size="288" />
			<output>
				<port id="0" precision="FP16">
					<dim>16</dim>
					<dim>1</dim>
					<dim>1</dim>
					<dim>1</dim>
					<dim>3</dim>
					<dim>3</dim>
				</port>
			</output>
		</layer>
		<layer id="12" name="Multiply_8989" type="Convert" version="opset1">
			<data destination_type="f32" />
			<rt_info>
				<attribute name="decompression" version="0" />
			</rt_info>
			<input>
				<port id="0" precision="FP16">
					<dim>16</dim>
					<dim>1</dim>
					<dim>1</dim>
					<dim>1</dim>
					<dim>3</dim>
					<dim>3</dim>
				</port>
			</input>
			<output>
				<port id="1" precision="FP32">
					<dim>16</dim>
					<dim>1</dim>
					<dim>1</dim>
					<dim>1</dim>
					<dim>3</dim>
					<dim>3</dim>
				</port>
			</output>
		</layer>
		<layer id="13" name="Multiply_8598" type="GroupConvolution" version="opset1">
			<data strides="1, 1, 1" pads_begin="0, 1, 1" pads_end="0, 1, 1" dilations="1, 1, 1" auto_pad="explicit" />
			<input>
				<port id="0" precision="FP32">
					<dim>1</dim>
					<dim>16</dim>
					<dim>16</dim>
					<dim>112</dim>
					<dim>112</dim>
				</port>
				<port id="1" precision="FP32">
					<dim>16</dim>
					<dim>1</dim>
					<dim>1</dim>
					<dim>1</dim>
					<dim>3</dim>
					<dim>3</dim>
				</port>
			</input>
			<output>
				<port id="2" precision="FP32" names="375">
					<dim>1</dim>
					<dim>16</dim>
					<dim>16</dim>
					<dim>112</dim>
					<dim>112</dim>
				</port>
			</output>
		</layer>
		<layer id="14" name="Constant_8603_compressed" type="Const" version="opset1">
			<data element_type="f16" shape="1, 16, 1, 1, 1" offset="1190" size="32" />
			<output>
				<port id="0" precision="FP16">
					<dim>1</dim>
					<dim>16</dim>
					<dim>1</dim>
					<dim>1</dim>
					<dim>1</dim>
				</port>
			</output>
		</layer>
		<layer id="15" name="Constant_8603" type="Convert" version="opset1">
			<data destination_type="f32" />
			<rt_info>
				<attribute name="decompression" version="0" />
			</rt_info>
			<input>
				<port id="0" precision="FP16">
					<dim>1</dim>
					<dim>16</dim>
					<dim>1</dim>
					<dim>1</dim>
					<dim>1</dim>
				</port>
			</input>
			<output>
				<port id="1" precision="FP32">
					<dim>1</dim>
					<dim>16</dim>
					<dim>1</dim>
					<dim>1</dim>
					<dim>1</dim>
				</port>
			</output>
		</layer>
		<layer id="16" name="376" type="Add" version="opset1">
			<data auto_broadcast="numpy" />
			<input>
				<port id="0" precision="FP32">
					<dim>1</dim>
					<dim>16</dim>
					<dim>16</dim>
					<dim>112</dim>
					<dim>112</dim>
				</port>
				<port id="1" precision="FP32">
					<dim>1</dim>
					<dim>16</dim>
					<dim>1</dim>
					<dim>1</dim>
					<dim>1</dim>
				</port>
			</input>
			<output>
				<port id="2" precision="FP32" names="376">
					<dim>1</dim>
					<dim>16</dim>
					<dim>16</dim>
					<dim>112</dim>
					<dim>112</dim>
				</port>
			</output>
		</layer>
		<layer id="17" name="377" type="ReLU" version="opset1">
			<input>
				<port id="0" precision="FP32">
					<dim>1</dim>
					<dim>16</dim>
					<dim>16</dim>
					<dim>112</dim>
					<dim>112</dim>
				</port>
			</input>
			<output>
				<port id="1" precision="FP32" names="377">
					<dim>1</dim>
					<dim>16</dim>
					<dim>16</dim>
					<dim>112</dim>
					<dim>112</dim>
				</port>
			</output>
		</layer>
		<layer id="18" name="Multiply_8994_compressed" type="Const" version="opset1">
			<data element_type="f16" shape="16, 16, 5, 1, 1" offset="1222" size="2560" />
			<output>
				<port id="0" precision="FP16">
					<dim>16</dim>
					<dim>16</dim>
					<dim>5</dim>
					<dim>1</dim>
					<dim>1</dim>
				</port>
			</output>
		</layer>
		<layer id="19" name="Multiply_8994" type="Convert" version="opset1">
			<data destination_type="f32" />
			<rt_info>
				<attribute name="decompression" version="0" />
			</rt_info>
			<input>
				<port id="0" precision="FP16">
					<dim>16</dim>
					<dim>16</dim>
					<dim>5</dim>
					<dim>1</dim>
					<dim>1</dim>
				</port>
			</input>
			<output>
				<port id="1" precision="FP32">
					<dim>16</dim>
					<dim>16</dim>
					<dim>5</dim>
					<dim>1</dim>
					<dim>1</dim>
				</port>
			</output>
		</layer>
		<layer id="20" name="Multiply_8605" type="Convolution" version="opset1">
			<data strides="1, 1, 1" dilations="1, 1, 1" pads_begin="2, 0, 0" pads_end="2, 0, 0" auto_pad="explicit" />
			<input>
				<port id="0" precision="FP32">
					<dim>1</dim>
					<dim>16</dim>
					<dim>16</dim>
					<dim>112</dim>
					<dim>112</dim>
				</port>
				<port id="1" precision="FP32">
					<dim>16</dim>
					<dim>16</dim>
					<dim>5</dim>
					<dim>1</dim>
					<dim>1</dim>
				</port>
			</input>
			<output>
				<port id="2" precision="FP32">
					<dim>1</dim>
					<dim>16</dim>
					<dim>16</dim>
					<dim>112</dim>
					<dim>112</dim>
				</port>
			</output>
		</layer>
		<layer id="21" name="Constant_8610_compressed" type="Const" version="opset1">
			<data element_type="f16" shape="1, 16, 1, 1, 1" offset="3782" size="32" />
			<output>
				<port id="0" precision="FP16">
					<dim>1</dim>
					<dim>16</dim>
					<dim>1</dim>
					<dim>1</dim>
					<dim>1</dim>
				</port>
			</output>
		</layer>
		<layer id="22" name="Constant_8610" type="Convert" version="opset1">
			<data destination_type="f32" />
			<rt_info>
				<attribute name="decompression" version="0" />
			</rt_info>
			<input>
				<port id="0" precision="FP16">
					<dim>1</dim>
					<dim>16</dim>
					<dim>1</dim>
					<dim>1</dim>
					<dim>1</dim>
				</port>
			</input>
			<output>
				<port id="1" precision="FP32">
					<dim>1</dim>
					<dim>16</dim>
					<dim>1</dim>
					<dim>1</dim>
					<dim>1</dim>
				</port>
			</output>
		</layer>
		<layer id="23" name="379" type="Add" version="opset1">
			<data auto_broadcast="numpy" />
			<input>
				<port id="0" precision="FP32">
					<dim>1</dim>
					<dim>16</dim>
					<dim>16</dim>
					<dim>112</dim>
					<dim>112</dim>
				</port>
				<port id="1" precision="FP32">
					<dim>1</dim>
					<dim>16</dim>
					<dim>1</dim>
					<dim>1</dim>
					<dim>1</dim>
				</port>
			</input>
			<output>
				<port id="2" precision="FP32" names="379">
					<dim>1</dim>
					<dim>16</dim>
					<dim>16</dim>
					<dim>112</dim>
					<dim>112</dim>
				</port>
			</output>
		</layer>
		<layer id="24" name="380" type="Add" version="opset1">
			<data auto_broadcast="numpy" />
			<input>
				<port id="0" precision="FP32">
					<dim>1</dim>
					<dim>16</dim>
					<dim>16</dim>
					<dim>112</dim>
					<dim>112</dim>
				</port>
				<port id="1" precision="FP32">
					<dim>1</dim>
					<dim>16</dim>
					<dim>16</dim>
					<dim>112</dim>
					<dim>112</dim>
				</port>
			</input>
			<output>
				<port id="2" precision="FP32" names="380">
					<dim>1</dim>
					<dim>16</dim>
					<dim>16</dim>
					<dim>112</dim>
					<dim>112</dim>
				</port>
			</output>
		</layer>
		<layer id="25" name="Multiply_9000_compressed" type="Const" version="opset1">
			<data element_type="f16" shape="64, 16, 1, 1, 1" offset="3814" size="2048" />
			<output>
				<port id="0" precision="FP16">
					<dim>64</dim>
					<dim>16</dim>
					<dim>1</dim>
					<dim>1</dim>
					<dim>1</dim>
				</port>
			</output>
		</layer>
		<layer id="26" name="Multiply_9000" type="Convert" version="opset1">
			<data destination_type="f32" />
			<rt_info>
				<attribute name="decompression" version="0" />
			</rt_info>
			<input>
				<port id="0" precision="FP16">
					<dim>64</dim>
					<dim>16</dim>
					<dim>1</dim>
					<dim>1</dim>
					<dim>1</dim>
				</port>
			</input>
			<output>
				<port id="1" precision="FP32">
					<dim>64</dim>
					<dim>16</dim>
					<dim>1</dim>
					<dim>1</dim>
					<dim>1</dim>
				</port>
			</output>
		</layer>
		<layer id="27" name="Multiply_8612" type="Convolution" version="opset1">
			<data strides="1, 1, 1" dilations="1, 1, 1" pads_begin="0, 0, 0" pads_end="0, 0, 0" auto_pad="explicit" />
			<input>
				<port id="0" precision="FP32">
					<dim>1</dim>
					<dim>16</dim>
					<dim>16</dim>
					<dim>112</dim>
					<dim>112</dim>
				</port>
				<port id="1" precision="FP32">
					<dim>64</dim>
					<dim>16</dim>
					<dim>1</dim>
					<dim>1</dim>
					<dim>1</dim>
				</port>
			</input>
			<output>
				<port id="2" precision="FP32">
					<dim>1</dim>
					<dim>64</dim>
					<dim>16</dim>
					<dim>112</dim>
					<dim>112</dim>
				</port>
			</output>
		</layer>
		<layer id="28" name="Constant_8617_compressed" type="Const" version="opset1">
			<data element_type="f16" shape="1, 64, 1, 1, 1" offset="5862" size="128" />
			<output>
				<port id="0" precision="FP16">
					<dim>1</dim>
					<dim>64</dim>
					<dim>1</dim>
					<dim>1</dim>
					<dim>1</dim>
				</port>
			</output>
		</layer>
		<layer id="29" name="Constant_8617" type="Convert" version="opset1">
			<data destination_type="f32" />
			<rt_info>
				<attribute name="decompression" version="0" />
			</rt_info>
			<input>
				<port id="0" precision="FP16">
					<dim>1</dim>
					<dim>64</dim>
					<dim>1</dim>
					<dim>1</dim>
					<dim>1</dim>
				</port>
			</input>
			<output>
				<port id="1" precision="FP32">
					<dim>1</dim>
					<dim>64</dim>
					<dim>1</dim>
					<dim>1</dim>
					<dim>1</dim>
				</port>
			</output>
		</layer>
		<layer id="30" name="382" type="Add" version="opset1">
			<data auto_broadcast="numpy" />
			<input>
				<port id="0" precision="FP32">
					<dim>1</dim>
					<dim>64</dim>
					<dim>16</dim>
					<dim>112</dim>
					<dim>112</dim>
				</port>
				<port id="1" precision="FP32">
					<dim>1</dim>
					<dim>64</dim>
					<dim>1</dim>
					<dim>1</dim>
					<dim>1</dim>
				</port>
			</input>
			<output>
				<port id="2" precision="FP32" names="382">
					<dim>1</dim>
					<dim>64</dim>
					<dim>16</dim>
					<dim>112</dim>
					<dim>112</dim>
				</port>
			</output>
		</layer>
		<layer id="31" name="383" type="ReLU" version="opset1">
			<input>
				<port id="0" precision="FP32">
					<dim>1</dim>
					<dim>64</dim>
					<dim>16</dim>
					<dim>112</dim>
					<dim>112</dim>
				</port>
			</input>
			<output>
				<port id="1" precision="FP32" names="383">
					<dim>1</dim>
					<dim>64</dim>
					<dim>16</dim>
					<dim>112</dim>
					<dim>112</dim>
				</port>
			</output>
		</layer>
		<layer id="32" name="Multiply_9006_compressed" type="Const" version="opset1">
			<data element_type="f16" shape="64, 1, 1, 1, 3, 3" offset="5990" size="1152" />
			<output>
				<port id="0" precision="FP16">
					<dim>64</dim>
					<dim>1</dim>
					<dim>1</dim>
					<dim>1</dim>
					<dim>3</dim>
					<dim>3</dim>
				</port>
			</output>
		</layer>
		<layer id="33" name="Multiply_9006" type="Convert" version="opset1">
			<data destination_type="f32" />
			<rt_info>
				<attribute name="decompression" version="0" />
			</rt_info>
			<input>
				<port id="0" precision="FP16">
					<dim>64</dim>
					<dim>1</dim>
					<dim>1</dim>
					<dim>1</dim>
					<dim>3</dim>
					<dim>3</dim>
				</port>
			</input>
			<output>
				<port id="1" precision="FP32">
					<dim>64</dim>
					<dim>1</dim>
					<dim>1</dim>
					<dim>1</dim>
					<dim>3</dim>
					<dim>3</dim>
				</port>
			</output>
		</layer>
		<layer id="34" name="Multiply_8619" type="GroupConvolution" version="opset1">
			<data strides="1, 2, 2" pads_begin="0, 1, 1" pads_end="0, 1, 1" dilations="1, 1, 1" auto_pad="explicit" />
			<input>
				<port id="0" precision="FP32">
					<dim>1</dim>
					<dim>64</dim>
					<dim>16</dim>
					<dim>112</dim>
					<dim>112</dim>
				</port>
				<port id="1" precision="FP32">
					<dim>64</dim>
					<dim>1</dim>
					<dim>1</dim>
					<dim>1</dim>
					<dim>3</dim>
					<dim>3</dim>
				</port>
			</input>
			<output>
				<port id="2" precision="FP32" names="384">
					<dim>1</dim>
					<dim>64</dim>
					<dim>16</dim>
					<dim>56</dim>
					<dim>56</dim>
				</port>
			</output>
		</layer>
		<layer id="35" name="Constant_8624_compressed" type="Const" version="opset1">
			<data element_type="f16" shape="1, 64, 1, 1, 1" offset="7142" size="128" />
			<output>
				<port id="0" precision="FP16">
					<dim>1</dim>
					<dim>64</dim>
					<dim>1</dim>
					<dim>1</dim>
					<dim>1</dim>
				</port>
			</output>
		</layer>
		<layer id="36" name="Constant_8624" type="Convert" version="opset1">
			<data destination_type="f32" />
			<rt_info>
				<attribute name="decompression" version="0" />
			</rt_info>
			<input>
				<port id="0" precision="FP16">
					<dim>1</dim>
					<dim>64</dim>
					<dim>1</dim>
					<dim>1</dim>
					<dim>1</dim>
				</port>
			</input>
			<output>
				<port id="1" precision="FP32">
					<dim>1</dim>
					<dim>64</dim>
					<dim>1</dim>
					<dim>1</dim>
					<dim>1</dim>
				</port>
			</output>
		</layer>
		<layer id="37" name="385" type="Add" version="opset1">
			<data auto_broadcast="numpy" />
			<input>
				<port id="0" precision="FP32">
					<dim>1</dim>
					<dim>64</dim>
					<dim>16</dim>
					<dim>56</dim>
					<dim>56</dim>
				</port>
				<port id="1" precision="FP32">
					<dim>1</dim>
					<dim>64</dim>
					<dim>1</dim>
					<dim>1</dim>
					<dim>1</dim>
				</port>
			</input>
			<output>
				<port id="2" precision="FP32" names="385">
					<dim>1</dim>
					<dim>64</dim>
					<dim>16</dim>
					<dim>56</dim>
					<dim>56</dim>
				</port>
			</output>
		</layer>
		<layer id="38" name="386" type="ReLU" version="opset1">
			<input>
				<port id="0" precision="FP32">
					<dim>1</dim>
					<dim>64</dim>
					<dim>16</dim>
					<dim>56</dim>
					<dim>56</dim>
				</port>
			</input>
			<output>
				<port id="1" precision="FP32" names="386">
					<dim>1</dim>
					<dim>64</dim>
					<dim>16</dim>
					<dim>56</dim>
					<dim>56</dim>
				</port>
			</output>
		</layer>
		<layer id="39" name="Multiply_9011_compressed" type="Const" version="opset1">
			<data element_type="f16" shape="24, 64, 3, 1, 1" offset="7270" size="9216" />
			<output>
				<port id="0" precision="FP16">
					<dim>24</dim>
					<dim>64</dim>
					<dim>3</dim>
					<dim>1</dim>
					<dim>1</dim>
				</port>
			</output>
		</layer>
		<layer id="40" name="Multiply_9011" type="Convert" version="opset1">
			<data destination_type="f32" />
			<rt_info>
				<attribute name="decompression" version="0" />
			</rt_info>
			<input>
				<port id="0" precision="FP16">
					<dim>24</dim>
					<dim>64</dim>
					<dim>3</dim>
					<dim>1</dim>
					<dim>1</dim>
				</port>
			</input>
			<output>
				<port id="1" precision="FP32">
					<dim>24</dim>
					<dim>64</dim>
					<dim>3</dim>
					<dim>1</dim>
					<dim>1</dim>
				</port>
			</output>
		</layer>
		<layer id="41" name="Multiply_8626" type="Convolution" version="opset1">
			<data strides="1, 1, 1" dilations="1, 1, 1" pads_begin="1, 0, 0" pads_end="1, 0, 0" auto_pad="explicit" />
			<input>
				<port id="0" precision="FP32">
					<dim>1</dim>
					<dim>64</dim>
					<dim>16</dim>
					<dim>56</dim>
					<dim>56</dim>
				</port>
				<port id="1" precision="FP32">
					<dim>24</dim>
					<dim>64</dim>
					<dim>3</dim>
					<dim>1</dim>
					<dim>1</dim>
				</port>
			</input>
			<output>
				<port id="2" precision="FP32">
					<dim>1</dim>
					<dim>24</dim>
					<dim>16</dim>
					<dim>56</dim>
					<dim>56</dim>
				</port>
			</output>
		</layer>
		<layer id="42" name="Constant_8631_compressed" type="Const" version="opset1">
			<data element_type="f16" shape="1, 24, 1, 1, 1" offset="16486" size="48" />
			<output>
				<port id="0" precision="FP16">
					<dim>1</dim>
					<dim>24</dim>
					<dim>1</dim>
					<dim>1</dim>
					<dim>1</dim>
				</port>
			</output>
		</layer>
		<layer id="43" name="Constant_8631" type="Convert" version="opset1">
			<data destination_type="f32" />
			<rt_info>
				<attribute name="decompression" version="0" />
			</rt_info>
			<input>
				<port id="0" precision="FP16">
					<dim>1</dim>
					<dim>24</dim>
					<dim>1</dim>
					<dim>1</dim>
					<dim>1</dim>
				</port>
			</input>
			<output>
				<port id="1" precision="FP32">
					<dim>1</dim>
					<dim>24</dim>
					<dim>1</dim>
					<dim>1</dim>
					<dim>1</dim>
				</port>
			</output>
		</layer>
		<layer id="44" name="388" type="Add" version="opset1">
			<data auto_broadcast="numpy" />
			<input>
				<port id="0" precision="FP32">
					<dim>1</dim>
					<dim>24</dim>
					<dim>16</dim>
					<dim>56</dim>
					<dim>56</dim>
				</port>
				<port id="1" precision="FP32">
					<dim>1</dim>
					<dim>24</dim>
					<dim>1</dim>
					<dim>1</dim>
					<dim>1</dim>
				</port>
			</input>
			<output>
				<port id="2" precision="FP32" names="388,389">
					<dim>1</dim>
					<dim>24</dim>
					<dim>16</dim>
					<dim>56</dim>
					<dim>56</dim>
				</port>
			</output>
		</layer>
		<layer id="45" name="390" type="AvgPool" version="opset1">
			<data kernel="2, 1, 1" strides="2, 1, 1" pads_begin="0, 0, 0" pads_end="0, 0, 0" exclude-pad="true" auto_pad="explicit" rounding_type="floor" />
			<input>
				<port id="0" precision="FP32">
					<dim>1</dim>
					<dim>24</dim>
					<dim>16</dim>
					<dim>56</dim>
					<dim>56</dim>
				</port>
			</input>
			<output>
				<port id="1" precision="FP32" names="390">
					<dim>1</dim>
					<dim>24</dim>
					<dim>8</dim>
					<dim>56</dim>
					<dim>56</dim>
				</port>
			</output>
		</layer>
		<layer id="46" name="Multiply_9017_compressed" type="Const" version="opset1">
			<data element_type="f16" shape="72, 24, 1, 1, 1" offset="16534" size="3456" />
			<output>
				<port id="0" precision="FP16">
					<dim>72</dim>
					<dim>24</dim>
					<dim>1</dim>
					<dim>1</dim>
					<dim>1</dim>
				</port>
			</output>
		</layer>
		<layer id="47" name="Multiply_9017" type="Convert" version="opset1">
			<data destination_type="f32" />
			<rt_info>
				<attribute name="decompression" version="0" />
			</rt_info>
			<input>
				<port id="0" precision="FP16">
					<dim>72</dim>
					<dim>24</dim>
					<dim>1</dim>
					<dim>1</dim>
					<dim>1</dim>
				</port>
			</input>
			<output>
				<port id="1" precision="FP32">
					<dim>72</dim>
					<dim>24</dim>
					<dim>1</dim>
					<dim>1</dim>
					<dim>1</dim>
				</port>
			</output>
		</layer>
		<layer id="48" name="Multiply_8633" type="Convolution" version="opset1">
			<data strides="1, 1, 1" dilations="1, 1, 1" pads_begin="0, 0, 0" pads_end="0, 0, 0" auto_pad="explicit" />
			<input>
				<port id="0" precision="FP32">
					<dim>1</dim>
					<dim>24</dim>
					<dim>8</dim>
					<dim>56</dim>
					<dim>56</dim>
				</port>
				<port id="1" precision="FP32">
					<dim>72</dim>
					<dim>24</dim>
					<dim>1</dim>
					<dim>1</dim>
					<dim>1</dim>
				</port>
			</input>
			<output>
				<port id="2" precision="FP32">
					<dim>1</dim>
					<dim>72</dim>
					<dim>8</dim>
					<dim>56</dim>
					<dim>56</dim>
				</port>
			</output>
		</layer>
		<layer id="49" name="Constant_8638_compressed" type="Const" version="opset1">
			<data element_type="f16" shape="1, 72, 1, 1, 1" offset="19990" size="144" />
			<output>
				<port id="0" precision="FP16">
					<dim>1</dim>
					<dim>72</dim>
					<dim>1</dim>
					<dim>1</dim>
					<dim>1</dim>
				</port>
			</output>
		</layer>
		<layer id="50" name="Constant_8638" type="Convert" version="opset1">
			<data destination_type="f32" />
			<rt_info>
				<attribute name="decompression" version="0" />
			</rt_info>
			<input>
				<port id="0" precision="FP16">
					<dim>1</dim>
					<dim>72</dim>
					<dim>1</dim>
					<dim>1</dim>
					<dim>1</dim>
				</port>
			</input>
			<output>
				<port id="1" precision="FP32">
					<dim>1</dim>
					<dim>72</dim>
					<dim>1</dim>
					<dim>1</dim>
					<dim>1</dim>
				</port>
			</output>
		</layer>
		<layer id="51" name="392" type="Add" version="opset1">
			<data auto_broadcast="numpy" />
			<input>
				<port id="0" precision="FP32">
					<dim>1</dim>
					<dim>72</dim>
					<dim>8</dim>
					<dim>56</dim>
					<dim>56</dim>
				</port>
				<port id="1" precision="FP32">
					<dim>1</dim>
					<dim>72</dim>
					<dim>1</dim>
					<dim>1</dim>
					<dim>1</dim>
				</port>
			</input>
			<output>
				<port id="2" precision="FP32" names="392">
					<dim>1</dim>
					<dim>72</dim>
					<dim>8</dim>
					<dim>56</dim>
					<dim>56</dim>
				</port>
			</output>
		</layer>
		<layer id="52" name="393" type="ReLU" version="opset1">
			<input>
				<port id="0" precision="FP32">
					<dim>1</dim>
					<dim>72</dim>
					<dim>8</dim>
					<dim>56</dim>
					<dim>56</dim>
				</port>
			</input>
			<output>
				<port id="1" precision="FP32" names="393">
					<dim>1</dim>
					<dim>72</dim>
					<dim>8</dim>
					<dim>56</dim>
					<dim>56</dim>
				</port>
			</output>
		</layer>
		<layer id="53" name="Multiply_9023_compressed" type="Const" version="opset1">
			<data element_type="f16" shape="72, 1, 1, 1, 3, 3" offset="20134" size="1296" />
			<output>
				<port id="0" precision="FP16">
					<dim>72</dim>
					<dim>1</dim>
					<dim>1</dim>
					<dim>1</dim>
					<dim>3</dim>
					<dim>3</dim>
				</port>
			</output>
		</layer>
		<layer id="54" name="Multiply_9023" type="Convert" version="opset1">
			<data destination_type="f32" />
			<rt_info>
				<attribute name="decompression" version="0" />
			</rt_info>
			<input>
				<port id="0" precision="FP16">
					<dim>72</dim>
					<dim>1</dim>
					<dim>1</dim>
					<dim>1</dim>
					<dim>3</dim>
					<dim>3</dim>
				</port>
			</input>
			<output>
				<port id="1" precision="FP32">
					<dim>72</dim>
					<dim>1</dim>
					<dim>1</dim>
					<dim>1</dim>
					<dim>3</dim>
					<dim>3</dim>
				</port>
			</output>
		</layer>
		<layer id="55" name="Multiply_8640" type="GroupConvolution" version="opset1">
			<data strides="1, 1, 1" pads_begin="0, 1, 1" pads_end="0, 1, 1" dilations="1, 1, 1" auto_pad="explicit" />
			<input>
				<port id="0" precision="FP32">
					<dim>1</dim>
					<dim>72</dim>
					<dim>8</dim>
					<dim>56</dim>
					<dim>56</dim>
				</port>
				<port id="1" precision="FP32">
					<dim>72</dim>
					<dim>1</dim>
					<dim>1</dim>
					<dim>1</dim>
					<dim>3</dim>
					<dim>3</dim>
				</port>
			</input>
			<output>
				<port id="2" precision="FP32" names="394">
					<dim>1</dim>
					<dim>72</dim>
					<dim>8</dim>
					<dim>56</dim>
					<dim>56</dim>
				</port>
			</output>
		</layer>
		<layer id="56" name="Constant_8645_compressed" type="Const" version="opset1">
			<data element_type="f16" shape="1, 72, 1, 1, 1" offset="21430" size="144" />
			<output>
				<port id="0" precision="FP16">
					<dim>1</dim>
					<dim>72</dim>
					<dim>1</dim>
					<dim>1</dim>
					<dim>1</dim>
				</port>
			</output>
		</layer>
		<layer id="57" name="Constant_8645" type="Convert" version="opset1">
			<data destination_type="f32" />
			<rt_info>
				<attribute name="decompression" version="0" />
			</rt_info>
			<input>
				<port id="0" precision="FP16">
					<dim>1</dim>
					<dim>72</dim>
					<dim>1</dim>
					<dim>1</dim>
					<dim>1</dim>
				</port>
			</input>
			<output>
				<port id="1" precision="FP32">
					<dim>1</dim>
					<dim>72</dim>
					<dim>1</dim>
					<dim>1</dim>
					<dim>1</dim>
				</port>
			</output>
		</layer>
		<layer id="58" name="395" type="Add" version="opset1">
			<data auto_broadcast="numpy" />
			<input>
				<port id="0" precision="FP32">
					<dim>1</dim>
					<dim>72</dim>
					<dim>8</dim>
					<dim>56</dim>
					<dim>56</dim>
				</port>
				<port id="1" precision="FP32">
					<dim>1</dim>
					<dim>72</dim>
					<dim>1</dim>
					<dim>1</dim>
					<dim>1</dim>
				</port>
			</input>
			<output>
				<port id="2" precision="FP32" names="395">
					<dim>1</dim>
					<dim>72</dim>
					<dim>8</dim>
					<dim>56</dim>
					<dim>56</dim>
				</port>
			</output>
		</layer>
		<layer id="59" name="396" type="ReLU" version="opset1">
			<input>
				<port id="0" precision="FP32">
					<dim>1</dim>
					<dim>72</dim>
					<dim>8</dim>
					<dim>56</dim>
					<dim>56</dim>
				</port>
			</input>
			<output>
				<port id="1" precision="FP32" names="396">
					<dim>1</dim>
					<dim>72</dim>
					<dim>8</dim>
					<dim>56</dim>
					<dim>56</dim>
				</port>
			</output>
		</layer>
		<layer id="60" name="Multiply_9028_compressed" type="Const" version="opset1">
			<data element_type="f16" shape="24, 72, 3, 1, 1" offset="21574" size="10368" />
			<output>
				<port id="0" precision="FP16">
					<dim>24</dim>
					<dim>72</dim>
					<dim>3</dim>
					<dim>1</dim>
					<dim>1</dim>
				</port>
			</output>
		</layer>
		<layer id="61" name="Multiply_9028" type="Convert" version="opset1">
			<data destination_type="f32" />
			<rt_info>
				<attribute name="decompression" version="0" />
			</rt_info>
			<input>
				<port id="0" precision="FP16">
					<dim>24</dim>
					<dim>72</dim>
					<dim>3</dim>
					<dim>1</dim>
					<dim>1</dim>
				</port>
			</input>
			<output>
				<port id="1" precision="FP32">
					<dim>24</dim>
					<dim>72</dim>
					<dim>3</dim>
					<dim>1</dim>
					<dim>1</dim>
				</port>
			</output>
		</layer>
		<layer id="62" name="Multiply_8647" type="Convolution" version="opset1">
			<data strides="1, 1, 1" dilations="1, 1, 1" pads_begin="1, 0, 0" pads_end="1, 0, 0" auto_pad="explicit" />
			<input>
				<port id="0" precision="FP32">
					<dim>1</dim>
					<dim>72</dim>
					<dim>8</dim>
					<dim>56</dim>
					<dim>56</dim>
				</port>
				<port id="1" precision="FP32">
					<dim>24</dim>
					<dim>72</dim>
					<dim>3</dim>
					<dim>1</dim>
					<dim>1</dim>
				</port>
			</input>
			<output>
				<port id="2" precision="FP32">
					<dim>1</dim>
					<dim>24</dim>
					<dim>8</dim>
					<dim>56</dim>
					<dim>56</dim>
				</port>
			</output>
		</layer>
		<layer id="63" name="Constant_8652_compressed" type="Const" version="opset1">
			<data element_type="f16" shape="1, 24, 1, 1, 1" offset="31942" size="48" />
			<output>
				<port id="0" precision="FP16">
					<dim>1</dim>
					<dim>24</dim>
					<dim>1</dim>
					<dim>1</dim>
					<dim>1</dim>
				</port>
			</output>
		</layer>
		<layer id="64" name="Constant_8652" type="Convert" version="opset1">
			<data destination_type="f32" />
			<rt_info>
				<attribute name="decompression" version="0" />
			</rt_info>
			<input>
				<port id="0" precision="FP16">
					<dim>1</dim>
					<dim>24</dim>
					<dim>1</dim>
					<dim>1</dim>
					<dim>1</dim>
				</port>
			</input>
			<output>
				<port id="1" precision="FP32">
					<dim>1</dim>
					<dim>24</dim>
					<dim>1</dim>
					<dim>1</dim>
					<dim>1</dim>
				</port>
			</output>
		</layer>
		<layer id="65" name="398" type="Add" version="opset1">
			<data auto_broadcast="numpy" />
			<input>
				<port id="0" precision="FP32">
					<dim>1</dim>
					<dim>24</dim>
					<dim>8</dim>
					<dim>56</dim>
					<dim>56</dim>
				</port>
				<port id="1" precision="FP32">
					<dim>1</dim>
					<dim>24</dim>
					<dim>1</dim>
					<dim>1</dim>
					<dim>1</dim>
				</port>
			</input>
			<output>
				<port id="2" precision="FP32" names="398">
					<dim>1</dim>
					<dim>24</dim>
					<dim>8</dim>
					<dim>56</dim>
					<dim>56</dim>
				</port>
			</output>
		</layer>
		<layer id="66" name="399" type="Add" version="opset1">
			<data auto_broadcast="numpy" />
			<input>
				<port id="0" precision="FP32">
					<dim>1</dim>
					<dim>24</dim>
					<dim>8</dim>
					<dim>56</dim>
					<dim>56</dim>
				</port>
				<port id="1" precision="FP32">
					<dim>1</dim>
					<dim>24</dim>
					<dim>8</dim>
					<dim>56</dim>
					<dim>56</dim>
				</port>
			</input>
			<output>
				<port id="2" precision="FP32" names="399">
					<dim>1</dim>
					<dim>24</dim>
					<dim>8</dim>
					<dim>56</dim>
					<dim>56</dim>
				</port>
			</output>
		</layer>
		<layer id="67" name="Multiply_9034_compressed" type="Const" version="opset1">
			<data element_type="f16" shape="72, 24, 1, 1, 1" offset="31990" size="3456" />
			<output>
				<port id="0" precision="FP16">
					<dim>72</dim>
					<dim>24</dim>
					<dim>1</dim>
					<dim>1</dim>
					<dim>1</dim>
				</port>
			</output>
		</layer>
		<layer id="68" name="Multiply_9034" type="Convert" version="opset1">
			<data destination_type="f32" />
			<rt_info>
				<attribute name="decompression" version="0" />
			</rt_info>
			<input>
				<port id="0" precision="FP16">
					<dim>72</dim>
					<dim>24</dim>
					<dim>1</dim>
					<dim>1</dim>
					<dim>1</dim>
				</port>
			</input>
			<output>
				<port id="1" precision="FP32">
					<dim>72</dim>
					<dim>24</dim>
					<dim>1</dim>
					<dim>1</dim>
					<dim>1</dim>
				</port>
			</output>
		</layer>
		<layer id="69" name="Multiply_8654" type="Convolution" version="opset1">
			<data strides="1, 1, 1" dilations="1, 1, 1" pads_begin="0, 0, 0" pads_end="0, 0, 0" auto_pad="explicit" />
			<input>
				<port id="0" precision="FP32">
					<dim>1</dim>
					<dim>24</dim>
					<dim>8</dim>
					<dim>56</dim>
					<dim>56</dim>
				</port>
				<port id="1" precision="FP32">
					<dim>72</dim>
					<dim>24</dim>
					<dim>1</dim>
					<dim>1</dim>
					<dim>1</dim>
				</port>
			</input>
			<output>
				<port id="2" precision="FP32">
					<dim>1</dim>
					<dim>72</dim>
					<dim>8</dim>
					<dim>56</dim>
					<dim>56</dim>
				</port>
			</output>
		</layer>
		<layer id="70" name="Constant_8659_compressed" type="Const" version="opset1">
			<data element_type="f16" shape="1, 72, 1, 1, 1" offset="35446" size="144" />
			<output>
				<port id="0" precision="FP16">
					<dim>1</dim>
					<dim>72</dim>
					<dim>1</dim>
					<dim>1</dim>
					<dim>1</dim>
				</port>
			</output>
		</layer>
		<layer id="71" name="Constant_8659" type="Convert" version="opset1">
			<data destination_type="f32" />
			<rt_info>
				<attribute name="decompression" version="0" />
			</rt_info>
			<input>
				<port id="0" precision="FP16">
					<dim>1</dim>
					<dim>72</dim>
					<dim>1</dim>
					<dim>1</dim>
					<dim>1</dim>
				</port>
			</input>
			<output>
				<port id="1" precision="FP32">
					<dim>1</dim>
					<dim>72</dim>
					<dim>1</dim>
					<dim>1</dim>
					<dim>1</dim>
				</port>
			</output>
		</layer>
		<layer id="72" name="401" type="Add" version="opset1">
			<data auto_broadcast="numpy" />
			<input>
				<port id="0" precision="FP32">
					<dim>1</dim>
					<dim>72</dim>
					<dim>8</dim>
					<dim>56</dim>
					<dim>56</dim>
				</port>
				<port id="1" precision="FP32">
					<dim>1</dim>
					<dim>72</dim>
					<dim>1</dim>
					<dim>1</dim>
					<dim>1</dim>
				</port>
			</input>
			<output>
				<port id="2" precision="FP32" names="401">
					<dim>1</dim>
					<dim>72</dim>
					<dim>8</dim>
					<dim>56</dim>
					<dim>56</dim>
				</port>
			</output>
		</layer>
		<layer id="73" name="402" type="ReLU" version="opset1">
			<input>
				<port id="0" precision="FP32">
					<dim>1</dim>
					<dim>72</dim>
					<dim>8</dim>
					<dim>56</dim>
					<dim>56</dim>
				</port>
			</input>
			<output>
				<port id="1" precision="FP32" names="402">
					<dim>1</dim>
					<dim>72</dim>
					<dim>8</dim>
					<dim>56</dim>
					<dim>56</dim>
				</port>
			</output>
		</layer>
		<layer id="74" name="Multiply_9040_compressed" type="Const" version="opset1">
			<data element_type="f16" shape="72, 1, 1, 1, 5, 5" offset="35590" size="3600" />
			<output>
				<port id="0" precision="FP16">
					<dim>72</dim>
					<dim>1</dim>
					<dim>1</dim>
					<dim>1</dim>
					<dim>5</dim>
					<dim>5</dim>
				</port>
			</output>
		</layer>
		<layer id="75" name="Multiply_9040" type="Convert" version="opset1">
			<data destination_type="f32" />
			<rt_info>
				<attribute name="decompression" version="0" />
			</rt_info>
			<input>
				<port id="0" precision="FP16">
					<dim>72</dim>
					<dim>1</dim>
					<dim>1</dim>
					<dim>1</dim>
					<dim>5</dim>
					<dim>5</dim>
				</port>
			</input>
			<output>
				<port id="1" precision="FP32">
					<dim>72</dim>
					<dim>1</dim>
					<dim>1</dim>
					<dim>1</dim>
					<dim>5</dim>
					<dim>5</dim>
				</port>
			</output>
		</layer>
		<layer id="76" name="Multiply_8661" type="GroupConvolution" version="opset1">
			<data strides="1, 2, 2" pads_begin="0, 2, 2" pads_end="0, 2, 2" dilations="1, 1, 1" auto_pad="explicit" />
			<input>
				<port id="0" precision="FP32">
					<dim>1</dim>
					<dim>72</dim>
					<dim>8</dim>
					<dim>56</dim>
					<dim>56</dim>
				</port>
				<port id="1" precision="FP32">
					<dim>72</dim>
					<dim>1</dim>
					<dim>1</dim>
					<dim>1</dim>
					<dim>5</dim>
					<dim>5</dim>
				</port>
			</input>
			<output>
				<port id="2" precision="FP32" names="403">
					<dim>1</dim>
					<dim>72</dim>
					<dim>8</dim>
					<dim>28</dim>
					<dim>28</dim>
				</port>
			</output>
		</layer>
		<layer id="77" name="Constant_8666_compressed" type="Const" version="opset1">
			<data element_type="f16" shape="1, 72, 1, 1, 1" offset="39190" size="144" />
			<output>
				<port id="0" precision="FP16">
					<dim>1</dim>
					<dim>72</dim>
					<dim>1</dim>
					<dim>1</dim>
					<dim>1</dim>
				</port>
			</output>
		</layer>
		<layer id="78" name="Constant_8666" type="Convert" version="opset1">
			<data destination_type="f32" />
			<rt_info>
				<attribute name="decompression" version="0" />
			</rt_info>
			<input>
				<port id="0" precision="FP16">
					<dim>1</dim>
					<dim>72</dim>
					<dim>1</dim>
					<dim>1</dim>
					<dim>1</dim>
				</port>
			</input>
			<output>
				<port id="1" precision="FP32">
					<dim>1</dim>
					<dim>72</dim>
					<dim>1</dim>
					<dim>1</dim>
					<dim>1</dim>
				</port>
			</output>
		</layer>
		<layer id="79" name="404" type="Add" version="opset1">
			<data auto_broadcast="numpy" />
			<input>
				<port id="0" precision="FP32">
					<dim>1</dim>
					<dim>72</dim>
					<dim>8</dim>
					<dim>28</dim>
					<dim>28</dim>
				</port>
				<port id="1" precision="FP32">
					<dim>1</dim>
					<dim>72</dim>
					<dim>1</dim>
					<dim>1</dim>
					<dim>1</dim>
				</port>
			</input>
			<output>
				<port id="2" precision="FP32" names="404,405">
					<dim>1</dim>
					<dim>72</dim>
					<dim>8</dim>
					<dim>28</dim>
					<dim>28</dim>
				</port>
			</output>
		</layer>
		<layer id="80" name="406" type="AvgPool" version="opset1">
			<data kernel="1, 28, 28" strides="1, 1, 1" pads_begin="0, 0, 0" pads_end="0, 0, 0" exclude-pad="true" auto_pad="explicit" rounding_type="floor" />
			<input>
				<port id="0" precision="FP32">
					<dim>1</dim>
					<dim>72</dim>
					<dim>8</dim>
					<dim>28</dim>
					<dim>28</dim>
				</port>
			</input>
			<output>
				<port id="1" precision="FP32" names="406">
					<dim>1</dim>
					<dim>72</dim>
					<dim>8</dim>
					<dim>1</dim>
					<dim>1</dim>
				</port>
			</output>
		</layer>
		<layer id="81" name="backbone.features.4.conv.5.fc.0.weight_compressed" type="Const" version="opset1">
			<data element_type="f16" shape="18, 72, 1, 1, 1" offset="39334" size="2592" />
			<output>
				<port id="0" precision="FP16">
					<dim>18</dim>
					<dim>72</dim>
					<dim>1</dim>
					<dim>1</dim>
					<dim>1</dim>
				</port>
			</output>
		</layer>
		<layer id="82" name="backbone.features.4.conv.5.fc.0.weight" type="Convert" version="opset1">
			<data destination_type="f32" />
			<rt_info>
				<attribute name="decompression" version="0" />
			</rt_info>
			<input>
				<port id="0" precision="FP16">
					<dim>18</dim>
					<dim>72</dim>
					<dim>1</dim>
					<dim>1</dim>
					<dim>1</dim>
				</port>
			</input>
			<output>
				<port id="1" precision="FP32" names="backbone.features.4.conv.5.fc.0.weight">
					<dim>18</dim>
					<dim>72</dim>
					<dim>1</dim>
					<dim>1</dim>
					<dim>1</dim>
				</port>
			</output>
		</layer>
		<layer id="83" name="407/WithoutBiases" type="Convolution" version="opset1">
			<data strides="1, 1, 1" dilations="1, 1, 1" pads_begin="0, 0, 0" pads_end="0, 0, 0" auto_pad="explicit" />
			<input>
				<port id="0" precision="FP32">
					<dim>1</dim>
					<dim>72</dim>
					<dim>8</dim>
					<dim>1</dim>
					<dim>1</dim>
				</port>
				<port id="1" precision="FP32">
					<dim>18</dim>
					<dim>72</dim>
					<dim>1</dim>
					<dim>1</dim>
					<dim>1</dim>
				</port>
			</input>
			<output>
				<port id="2" precision="FP32">
					<dim>1</dim>
					<dim>18</dim>
					<dim>8</dim>
					<dim>1</dim>
					<dim>1</dim>
				</port>
			</output>
		</layer>
		<layer id="84" name="Reshape_628_compressed" type="Const" version="opset1">
			<data element_type="f16" shape="1, 18, 1, 1, 1" offset="41926" size="36" />
			<output>
				<port id="0" precision="FP16">
					<dim>1</dim>
					<dim>18</dim>
					<dim>1</dim>
					<dim>1</dim>
					<dim>1</dim>
				</port>
			</output>
		</layer>
		<layer id="85" name="Reshape_628" type="Convert" version="opset1">
			<data destination_type="f32" />
			<rt_info>
				<attribute name="decompression" version="0" />
			</rt_info>
			<input>
				<port id="0" precision="FP16">
					<dim>1</dim>
					<dim>18</dim>
					<dim>1</dim>
					<dim>1</dim>
					<dim>1</dim>
				</port>
			</input>
			<output>
				<port id="1" precision="FP32">
					<dim>1</dim>
					<dim>18</dim>
					<dim>1</dim>
					<dim>1</dim>
					<dim>1</dim>
				</port>
			</output>
		</layer>
		<layer id="86" name="407" type="Add" version="opset1">
			<data auto_broadcast="numpy" />
			<input>
				<port id="0" precision="FP32">
					<dim>1</dim>
					<dim>18</dim>
					<dim>8</dim>
					<dim>1</dim>
					<dim>1</dim>
				</port>
				<port id="1" precision="FP32">
					<dim>1</dim>
					<dim>18</dim>
					<dim>1</dim>
					<dim>1</dim>
					<dim>1</dim>
				</port>
			</input>
			<output>
				<port id="2" precision="FP32" names="407">
					<dim>1</dim>
					<dim>18</dim>
					<dim>8</dim>
					<dim>1</dim>
					<dim>1</dim>
				</port>
			</output>
		</layer>
		<layer id="87" name="408" type="ReLU" version="opset1">
			<input>
				<port id="0" precision="FP32">
					<dim>1</dim>
					<dim>18</dim>
					<dim>8</dim>
					<dim>1</dim>
					<dim>1</dim>
				</port>
			</input>
			<output>
				<port id="1" precision="FP32" names="408">
					<dim>1</dim>
					<dim>18</dim>
					<dim>8</dim>
					<dim>1</dim>
					<dim>1</dim>
				</port>
			</output>
		</layer>
		<layer id="88" name="backbone.features.4.conv.5.fc.2.weight_compressed" type="Const" version="opset1">
			<data element_type="f16" shape="72, 18, 1, 1, 1" offset="41962" size="2592" />
			<output>
				<port id="0" precision="FP16">
					<dim>72</dim>
					<dim>18</dim>
					<dim>1</dim>
					<dim>1</dim>
					<dim>1</dim>
				</port>
			</output>
		</layer>
		<layer id="89" name="backbone.features.4.conv.5.fc.2.weight" type="Convert" version="opset1">
			<data destination_type="f32" />
			<rt_info>
				<attribute name="decompression" version="0" />
			</rt_info>
			<input>
				<port id="0" precision="FP16">
					<dim>72</dim>
					<dim>18</dim>
					<dim>1</dim>
					<dim>1</dim>
					<dim>1</dim>
				</port>
			</input>
			<output>
				<port id="1" precision="FP32" names="backbone.features.4.conv.5.fc.2.weight">
					<dim>72</dim>
					<dim>18</dim>
					<dim>1</dim>
					<dim>1</dim>
					<dim>1</dim>
				</port>
			</output>
		</layer>
		<layer id="90" name="409/WithoutBiases" type="Convolution" version="opset1">
			<data strides="1, 1, 1" dilations="1, 1, 1" pads_begin="0, 0, 0" pads_end="0, 0, 0" auto_pad="explicit" />
			<input>
				<port id="0" precision="FP32">
					<dim>1</dim>
					<dim>18</dim>
					<dim>8</dim>
					<dim>1</dim>
					<dim>1</dim>
				</port>
				<port id="1" precision="FP32">
					<dim>72</dim>
					<dim>18</dim>
					<dim>1</dim>
					<dim>1</dim>
					<dim>1</dim>
				</port>
			</input>
			<output>
				<port id="2" precision="FP32">
					<dim>1</dim>
					<dim>72</dim>
					<dim>8</dim>
					<dim>1</dim>
					<dim>1</dim>
				</port>
			</output>
		</layer>
		<layer id="91" name="Reshape_644_compressed" type="Const" version="opset1">
			<data element_type="f16" shape="1, 72, 1, 1, 1" offset="44554" size="144" />
			<output>
				<port id="0" precision="FP16">
					<dim>1</dim>
					<dim>72</dim>
					<dim>1</dim>
					<dim>1</dim>
					<dim>1</dim>
				</port>
			</output>
		</layer>
		<layer id="92" name="Reshape_644" type="Convert" version="opset1">
			<data destination_type="f32" />
			<rt_info>
				<attribute name="decompression" version="0" />
			</rt_info>
			<input>
				<port id="0" precision="FP16">
					<dim>1</dim>
					<dim>72</dim>
					<dim>1</dim>
					<dim>1</dim>
					<dim>1</dim>
				</port>
			</input>
			<output>
				<port id="1" precision="FP32">
					<dim>1</dim>
					<dim>72</dim>
					<dim>1</dim>
					<dim>1</dim>
					<dim>1</dim>
				</port>
			</output>
		</layer>
		<layer id="93" name="409" type="Add" version="opset1">
			<data auto_broadcast="numpy" />
			<input>
				<port id="0" precision="FP32">
					<dim>1</dim>
					<dim>72</dim>
					<dim>8</dim>
					<dim>1</dim>
					<dim>1</dim>
				</port>
				<port id="1" precision="FP32">
					<dim>1</dim>
					<dim>72</dim>
					<dim>1</dim>
					<dim>1</dim>
					<dim>1</dim>
				</port>
			</input>
			<output>
				<port id="2" precision="FP32" names="409">
					<dim>1</dim>
					<dim>72</dim>
					<dim>8</dim>
					<dim>1</dim>
					<dim>1</dim>
				</port>
			</output>
		</layer>
		<layer id="94" name="414" type="HSigmoid" version="opset5">
			<input>
				<port id="0" precision="FP32">
					<dim>1</dim>
					<dim>72</dim>
					<dim>8</dim>
					<dim>1</dim>
					<dim>1</dim>
				</port>
			</input>
			<output>
				<port id="1" precision="FP32" names="414">
					<dim>1</dim>
					<dim>72</dim>
					<dim>8</dim>
					<dim>1</dim>
					<dim>1</dim>
				</port>
			</output>
		</layer>
		<layer id="95" name="415" type="Multiply" version="opset1">
			<data auto_broadcast="numpy" />
			<input>
				<port id="0" precision="FP32">
					<dim>1</dim>
					<dim>72</dim>
					<dim>8</dim>
					<dim>1</dim>
					<dim>1</dim>
				</port>
				<port id="1" precision="FP32">
					<dim>1</dim>
					<dim>72</dim>
					<dim>8</dim>
					<dim>28</dim>
					<dim>28</dim>
				</port>
			</input>
			<output>
				<port id="2" precision="FP32" names="415">
					<dim>1</dim>
					<dim>72</dim>
					<dim>8</dim>
					<dim>28</dim>
					<dim>28</dim>
				</port>
			</output>
		</layer>
		<layer id="96" name="416" type="ReLU" version="opset1">
			<input>
				<port id="0" precision="FP32">
					<dim>1</dim>
					<dim>72</dim>
					<dim>8</dim>
					<dim>28</dim>
					<dim>28</dim>
				</port>
			</input>
			<output>
				<port id="1" precision="FP32" names="416">
					<dim>1</dim>
					<dim>72</dim>
					<dim>8</dim>
					<dim>28</dim>
					<dim>28</dim>
				</port>
			</output>
		</layer>
		<layer id="97" name="Multiply_9045_compressed" type="Const" version="opset1">
			<data element_type="f16" shape="40, 72, 3, 1, 1" offset="44698" size="17280" />
			<output>
				<port id="0" precision="FP16">
					<dim>40</dim>
					<dim>72</dim>
					<dim>3</dim>
					<dim>1</dim>
					<dim>1</dim>
				</port>
			</output>
		</layer>
		<layer id="98" name="Multiply_9045" type="Convert" version="opset1">
			<data destination_type="f32" />
			<rt_info>
				<attribute name="decompression" version="0" />
			</rt_info>
			<input>
				<port id="0" precision="FP16">
					<dim>40</dim>
					<dim>72</dim>
					<dim>3</dim>
					<dim>1</dim>
					<dim>1</dim>
				</port>
			</input>
			<output>
				<port id="1" precision="FP32">
					<dim>40</dim>
					<dim>72</dim>
					<dim>3</dim>
					<dim>1</dim>
					<dim>1</dim>
				</port>
			</output>
		</layer>
		<layer id="99" name="Multiply_8668" type="Convolution" version="opset1">
			<data strides="1, 1, 1" dilations="1, 1, 1" pads_begin="1, 0, 0" pads_end="1, 0, 0" auto_pad="explicit" />
			<input>
				<port id="0" precision="FP32">
					<dim>1</dim>
					<dim>72</dim>
					<dim>8</dim>
					<dim>28</dim>
					<dim>28</dim>
				</port>
				<port id="1" precision="FP32">
					<dim>40</dim>
					<dim>72</dim>
					<dim>3</dim>
					<dim>1</dim>
					<dim>1</dim>
				</port>
			</input>
			<output>
				<port id="2" precision="FP32">
					<dim>1</dim>
					<dim>40</dim>
					<dim>8</dim>
					<dim>28</dim>
					<dim>28</dim>
				</port>
			</output>
		</layer>
		<layer id="100" name="Constant_8673_compressed" type="Const" version="opset1">
			<data element_type="f16" shape="1, 40, 1, 1, 1" offset="61978" size="80" />
			<output>
				<port id="0" precision="FP16">
					<dim>1</dim>
					<dim>40</dim>
					<dim>1</dim>
					<dim>1</dim>
					<dim>1</dim>
				</port>
			</output>
		</layer>
		<layer id="101" name="Constant_8673" type="Convert" version="opset1">
			<data destination_type="f32" />
			<rt_info>
				<attribute name="decompression" version="0" />
			</rt_info>
			<input>
				<port id="0" precision="FP16">
					<dim>1</dim>
					<dim>40</dim>
					<dim>1</dim>
					<dim>1</dim>
					<dim>1</dim>
				</port>
			</input>
			<output>
				<port id="1" precision="FP32">
					<dim>1</dim>
					<dim>40</dim>
					<dim>1</dim>
					<dim>1</dim>
					<dim>1</dim>
				</port>
			</output>
		</layer>
		<layer id="102" name="418" type="Add" version="opset1">
			<data auto_broadcast="numpy" />
			<input>
				<port id="0" precision="FP32">
					<dim>1</dim>
					<dim>40</dim>
					<dim>8</dim>
					<dim>28</dim>
					<dim>28</dim>
				</port>
				<port id="1" precision="FP32">
					<dim>1</dim>
					<dim>40</dim>
					<dim>1</dim>
					<dim>1</dim>
					<dim>1</dim>
				</port>
			</input>
			<output>
				<port id="2" precision="FP32" names="418">
					<dim>1</dim>
					<dim>40</dim>
					<dim>8</dim>
					<dim>28</dim>
					<dim>28</dim>
				</port>
			</output>
		</layer>
		<layer id="103" name="Multiply_9051_compressed" type="Const" version="opset1">
			<data element_type="f16" shape="120, 40, 1, 1, 1" offset="62058" size="9600" />
			<output>
				<port id="0" precision="FP16">
					<dim>120</dim>
					<dim>40</dim>
					<dim>1</dim>
					<dim>1</dim>
					<dim>1</dim>
				</port>
			</output>
		</layer>
		<layer id="104" name="Multiply_9051" type="Convert" version="opset1">
			<data destination_type="f32" />
			<rt_info>
				<attribute name="decompression" version="0" />
			</rt_info>
			<input>
				<port id="0" precision="FP16">
					<dim>120</dim>
					<dim>40</dim>
					<dim>1</dim>
					<dim>1</dim>
					<dim>1</dim>
				</port>
			</input>
			<output>
				<port id="1" precision="FP32">
					<dim>120</dim>
					<dim>40</dim>
					<dim>1</dim>
					<dim>1</dim>
					<dim>1</dim>
				</port>
			</output>
		</layer>
		<layer id="105" name="Multiply_8675" type="Convolution" version="opset1">
			<data strides="1, 1, 1" dilations="1, 1, 1" pads_begin="0, 0, 0" pads_end="0, 0, 0" auto_pad="explicit" />
			<input>
				<port id="0" precision="FP32">
					<dim>1</dim>
					<dim>40</dim>
					<dim>8</dim>
					<dim>28</dim>
					<dim>28</dim>
				</port>
				<port id="1" precision="FP32">
					<dim>120</dim>
					<dim>40</dim>
					<dim>1</dim>
					<dim>1</dim>
					<dim>1</dim>
				</port>
			</input>
			<output>
				<port id="2" precision="FP32">
					<dim>1</dim>
					<dim>120</dim>
					<dim>8</dim>
					<dim>28</dim>
					<dim>28</dim>
				</port>
			</output>
		</layer>
		<layer id="106" name="Constant_8680_compressed" type="Const" version="opset1">
			<data element_type="f16" shape="1, 120, 1, 1, 1" offset="71658" size="240" />
			<output>
				<port id="0" precision="FP16">
					<dim>1</dim>
					<dim>120</dim>
					<dim>1</dim>
					<dim>1</dim>
					<dim>1</dim>
				</port>
			</output>
		</layer>
		<layer id="107" name="Constant_8680" type="Convert" version="opset1">
			<data destination_type="f32" />
			<rt_info>
				<attribute name="decompression" version="0" />
			</rt_info>
			<input>
				<port id="0" precision="FP16">
					<dim>1</dim>
					<dim>120</dim>
					<dim>1</dim>
					<dim>1</dim>
					<dim>1</dim>
				</port>
			</input>
			<output>
				<port id="1" precision="FP32">
					<dim>1</dim>
					<dim>120</dim>
					<dim>1</dim>
					<dim>1</dim>
					<dim>1</dim>
				</port>
			</output>
		</layer>
		<layer id="108" name="420" type="Add" version="opset1">
			<data auto_broadcast="numpy" />
			<input>
				<port id="0" precision="FP32">
					<dim>1</dim>
					<dim>120</dim>
					<dim>8</dim>
					<dim>28</dim>
					<dim>28</dim>
				</port>
				<port id="1" precision="FP32">
					<dim>1</dim>
					<dim>120</dim>
					<dim>1</dim>
					<dim>1</dim>
					<dim>1</dim>
				</port>
			</input>
			<output>
				<port id="2" precision="FP32" names="420">
					<dim>1</dim>
					<dim>120</dim>
					<dim>8</dim>
					<dim>28</dim>
					<dim>28</dim>
				</port>
			</output>
		</layer>
		<layer id="109" name="421" type="ReLU" version="opset1">
			<input>
				<port id="0" precision="FP32">
					<dim>1</dim>
					<dim>120</dim>
					<dim>8</dim>
					<dim>28</dim>
					<dim>28</dim>
				</port>
			</input>
			<output>
				<port id="1" precision="FP32" names="421">
					<dim>1</dim>
					<dim>120</dim>
					<dim>8</dim>
					<dim>28</dim>
					<dim>28</dim>
				</port>
			</output>
		</layer>
		<layer id="110" name="Multiply_9057_compressed" type="Const" version="opset1">
			<data element_type="f16" shape="120, 1, 1, 1, 5, 5" offset="71898" size="6000" />
			<output>
				<port id="0" precision="FP16">
					<dim>120</dim>
					<dim>1</dim>
					<dim>1</dim>
					<dim>1</dim>
					<dim>5</dim>
					<dim>5</dim>
				</port>
			</output>
		</layer>
		<layer id="111" name="Multiply_9057" type="Convert" version="opset1">
			<data destination_type="f32" />
			<rt_info>
				<attribute name="decompression" version="0" />
			</rt_info>
			<input>
				<port id="0" precision="FP16">
					<dim>120</dim>
					<dim>1</dim>
					<dim>1</dim>
					<dim>1</dim>
					<dim>5</dim>
					<dim>5</dim>
				</port>
			</input>
			<output>
				<port id="1" precision="FP32">
					<dim>120</dim>
					<dim>1</dim>
					<dim>1</dim>
					<dim>1</dim>
					<dim>5</dim>
					<dim>5</dim>
				</port>
			</output>
		</layer>
		<layer id="112" name="Multiply_8682" type="GroupConvolution" version="opset1">
			<data strides="1, 1, 1" pads_begin="0, 2, 2" pads_end="0, 2, 2" dilations="1, 1, 1" auto_pad="explicit" />
			<input>
				<port id="0" precision="FP32">
					<dim>1</dim>
					<dim>120</dim>
					<dim>8</dim>
					<dim>28</dim>
					<dim>28</dim>
				</port>
				<port id="1" precision="FP32">
					<dim>120</dim>
					<dim>1</dim>
					<dim>1</dim>
					<dim>1</dim>
					<dim>5</dim>
					<dim>5</dim>
				</port>
			</input>
			<output>
				<port id="2" precision="FP32" names="422">
					<dim>1</dim>
					<dim>120</dim>
					<dim>8</dim>
					<dim>28</dim>
					<dim>28</dim>
				</port>
			</output>
		</layer>
		<layer id="113" name="Constant_8687_compressed" type="Const" version="opset1">
			<data element_type="f16" shape="1, 120, 1, 1, 1" offset="77898" size="240" />
			<output>
				<port id="0" precision="FP16">
					<dim>1</dim>
					<dim>120</dim>
					<dim>1</dim>
					<dim>1</dim>
					<dim>1</dim>
				</port>
			</output>
		</layer>
		<layer id="114" name="Constant_8687" type="Convert" version="opset1">
			<data destination_type="f32" />
			<rt_info>
				<attribute name="decompression" version="0" />
			</rt_info>
			<input>
				<port id="0" precision="FP16">
					<dim>1</dim>
					<dim>120</dim>
					<dim>1</dim>
					<dim>1</dim>
					<dim>1</dim>
				</port>
			</input>
			<output>
				<port id="1" precision="FP32">
					<dim>1</dim>
					<dim>120</dim>
					<dim>1</dim>
					<dim>1</dim>
					<dim>1</dim>
				</port>
			</output>
		</layer>
		<layer id="115" name="423" type="Add" version="opset1">
			<data auto_broadcast="numpy" />
			<input>
				<port id="0" precision="FP32">
					<dim>1</dim>
					<dim>120</dim>
					<dim>8</dim>
					<dim>28</dim>
					<dim>28</dim>
				</port>
				<port id="1" precision="FP32">
					<dim>1</dim>
					<dim>120</dim>
					<dim>1</dim>
					<dim>1</dim>
					<dim>1</dim>
				</port>
			</input>
			<output>
				<port id="2" precision="FP32" names="423,424">
					<dim>1</dim>
					<dim>120</dim>
					<dim>8</dim>
					<dim>28</dim>
					<dim>28</dim>
				</port>
			</output>
		</layer>
		<layer id="116" name="425" type="AvgPool" version="opset1">
			<data kernel="1, 28, 28" strides="1, 1, 1" pads_begin="0, 0, 0" pads_end="0, 0, 0" exclude-pad="true" auto_pad="explicit" rounding_type="floor" />
			<input>
				<port id="0" precision="FP32">
					<dim>1</dim>
					<dim>120</dim>
					<dim>8</dim>
					<dim>28</dim>
					<dim>28</dim>
				</port>
			</input>
			<output>
				<port id="1" precision="FP32" names="425">
					<dim>1</dim>
					<dim>120</dim>
					<dim>8</dim>
					<dim>1</dim>
					<dim>1</dim>
				</port>
			</output>
		</layer>
		<layer id="117" name="backbone.features.5.conv.5.fc.0.weight_compressed" type="Const" version="opset1">
			<data element_type="f16" shape="30, 120, 1, 1, 1" offset="78138" size="7200" />
			<output>
				<port id="0" precision="FP16">
					<dim>30</dim>
					<dim>120</dim>
					<dim>1</dim>
					<dim>1</dim>
					<dim>1</dim>
				</port>
			</output>
		</layer>
		<layer id="118" name="backbone.features.5.conv.5.fc.0.weight" type="Convert" version="opset1">
			<data destination_type="f32" />
			<rt_info>
				<attribute name="decompression" version="0" />
			</rt_info>
			<input>
				<port id="0" precision="FP16">
					<dim>30</dim>
					<dim>120</dim>
					<dim>1</dim>
					<dim>1</dim>
					<dim>1</dim>
				</port>
			</input>
			<output>
				<port id="1" precision="FP32" names="backbone.features.5.conv.5.fc.0.weight">
					<dim>30</dim>
					<dim>120</dim>
					<dim>1</dim>
					<dim>1</dim>
					<dim>1</dim>
				</port>
			</output>
		</layer>
		<layer id="119" name="426/WithoutBiases" type="Convolution" version="opset1">
			<data strides="1, 1, 1" dilations="1, 1, 1" pads_begin="0, 0, 0" pads_end="0, 0, 0" auto_pad="explicit" />
			<input>
				<port id="0" precision="FP32">
					<dim>1</dim>
					<dim>120</dim>
					<dim>8</dim>
					<dim>1</dim>
					<dim>1</dim>
				</port>
				<port id="1" precision="FP32">
					<dim>30</dim>
					<dim>120</dim>
					<dim>1</dim>
					<dim>1</dim>
					<dim>1</dim>
				</port>
			</input>
			<output>
				<port id="2" precision="FP32">
					<dim>1</dim>
					<dim>30</dim>
					<dim>8</dim>
					<dim>1</dim>
					<dim>1</dim>
				</port>
			</output>
		</layer>
		<layer id="120" name="Reshape_729_compressed" type="Const" version="opset1">
			<data element_type="f16" shape="1, 30, 1, 1, 1" offset="85338" size="60" />
			<output>
				<port id="0" precision="FP16">
					<dim>1</dim>
					<dim>30</dim>
					<dim>1</dim>
					<dim>1</dim>
					<dim>1</dim>
				</port>
			</output>
		</layer>
		<layer id="121" name="Reshape_729" type="Convert" version="opset1">
			<data destination_type="f32" />
			<rt_info>
				<attribute name="decompression" version="0" />
			</rt_info>
			<input>
				<port id="0" precision="FP16">
					<dim>1</dim>
					<dim>30</dim>
					<dim>1</dim>
					<dim>1</dim>
					<dim>1</dim>
				</port>
			</input>
			<output>
				<port id="1" precision="FP32">
					<dim>1</dim>
					<dim>30</dim>
					<dim>1</dim>
					<dim>1</dim>
					<dim>1</dim>
				</port>
			</output>
		</layer>
		<layer id="122" name="426" type="Add" version="opset1">
			<data auto_broadcast="numpy" />
			<input>
				<port id="0" precision="FP32">
					<dim>1</dim>
					<dim>30</dim>
					<dim>8</dim>
					<dim>1</dim>
					<dim>1</dim>
				</port>
				<port id="1" precision="FP32">
					<dim>1</dim>
					<dim>30</dim>
					<dim>1</dim>
					<dim>1</dim>
					<dim>1</dim>
				</port>
			</input>
			<output>
				<port id="2" precision="FP32" names="426">
					<dim>1</dim>
					<dim>30</dim>
					<dim>8</dim>
					<dim>1</dim>
					<dim>1</dim>
				</port>
			</output>
		</layer>
		<layer id="123" name="427" type="ReLU" version="opset1">
			<input>
				<port id="0" precision="FP32">
					<dim>1</dim>
					<dim>30</dim>
					<dim>8</dim>
					<dim>1</dim>
					<dim>1</dim>
				</port>
			</input>
			<output>
				<port id="1" precision="FP32" names="427">
					<dim>1</dim>
					<dim>30</dim>
					<dim>8</dim>
					<dim>1</dim>
					<dim>1</dim>
				</port>
			</output>
		</layer>
		<layer id="124" name="backbone.features.5.conv.5.fc.2.weight_compressed" type="Const" version="opset1">
			<data element_type="f16" shape="120, 30, 1, 1, 1" offset="85398" size="7200" />
			<output>
				<port id="0" precision="FP16">
					<dim>120</dim>
					<dim>30</dim>
					<dim>1</dim>
					<dim>1</dim>
					<dim>1</dim>
				</port>
			</output>
		</layer>
		<layer id="125" name="backbone.features.5.conv.5.fc.2.weight" type="Convert" version="opset1">
			<data destination_type="f32" />
			<rt_info>
				<attribute name="decompression" version="0" />
			</rt_info>
			<input>
				<port id="0" precision="FP16">
					<dim>120</dim>
					<dim>30</dim>
					<dim>1</dim>
					<dim>1</dim>
					<dim>1</dim>
				</port>
			</input>
			<output>
				<port id="1" precision="FP32" names="backbone.features.5.conv.5.fc.2.weight">
					<dim>120</dim>
					<dim>30</dim>
					<dim>1</dim>
					<dim>1</dim>
					<dim>1</dim>
				</port>
			</output>
		</layer>
		<layer id="126" name="428/WithoutBiases" type="Convolution" version="opset1">
			<data strides="1, 1, 1" dilations="1, 1, 1" pads_begin="0, 0, 0" pads_end="0, 0, 0" auto_pad="explicit" />
			<input>
				<port id="0" precision="FP32">
					<dim>1</dim>
					<dim>30</dim>
					<dim>8</dim>
					<dim>1</dim>
					<dim>1</dim>
				</port>
				<port id="1" precision="FP32">
					<dim>120</dim>
					<dim>30</dim>
					<dim>1</dim>
					<dim>1</dim>
					<dim>1</dim>
				</port>
			</input>
			<output>
				<port id="2" precision="FP32">
					<dim>1</dim>
					<dim>120</dim>
					<dim>8</dim>
					<dim>1</dim>
					<dim>1</dim>
				</port>
			</output>
		</layer>
		<layer id="127" name="Reshape_745_compressed" type="Const" version="opset1">
			<data element_type="f16" shape="1, 120, 1, 1, 1" offset="92598" size="240" />
			<output>
				<port id="0" precision="FP16">
					<dim>1</dim>
					<dim>120</dim>
					<dim>1</dim>
					<dim>1</dim>
					<dim>1</dim>
				</port>
			</output>
		</layer>
		<layer id="128" name="Reshape_745" type="Convert" version="opset1">
			<data destination_type="f32" />
			<rt_info>
				<attribute name="decompression" version="0" />
			</rt_info>
			<input>
				<port id="0" precision="FP16">
					<dim>1</dim>
					<dim>120</dim>
					<dim>1</dim>
					<dim>1</dim>
					<dim>1</dim>
				</port>
			</input>
			<output>
				<port id="1" precision="FP32">
					<dim>1</dim>
					<dim>120</dim>
					<dim>1</dim>
					<dim>1</dim>
					<dim>1</dim>
				</port>
			</output>
		</layer>
		<layer id="129" name="428" type="Add" version="opset1">
			<data auto_broadcast="numpy" />
			<input>
				<port id="0" precision="FP32">
					<dim>1</dim>
					<dim>120</dim>
					<dim>8</dim>
					<dim>1</dim>
					<dim>1</dim>
				</port>
				<port id="1" precision="FP32">
					<dim>1</dim>
					<dim>120</dim>
					<dim>1</dim>
					<dim>1</dim>
					<dim>1</dim>
				</port>
			</input>
			<output>
				<port id="2" precision="FP32" names="428">
					<dim>1</dim>
					<dim>120</dim>
					<dim>8</dim>
					<dim>1</dim>
					<dim>1</dim>
				</port>
			</output>
		</layer>
		<layer id="130" name="433" type="HSigmoid" version="opset5">
			<input>
				<port id="0" precision="FP32">
					<dim>1</dim>
					<dim>120</dim>
					<dim>8</dim>
					<dim>1</dim>
					<dim>1</dim>
				</port>
			</input>
			<output>
				<port id="1" precision="FP32" names="433">
					<dim>1</dim>
					<dim>120</dim>
					<dim>8</dim>
					<dim>1</dim>
					<dim>1</dim>
				</port>
			</output>
		</layer>
		<layer id="131" name="434" type="Multiply" version="opset1">
			<data auto_broadcast="numpy" />
			<input>
				<port id="0" precision="FP32">
					<dim>1</dim>
					<dim>120</dim>
					<dim>8</dim>
					<dim>1</dim>
					<dim>1</dim>
				</port>
				<port id="1" precision="FP32">
					<dim>1</dim>
					<dim>120</dim>
					<dim>8</dim>
					<dim>28</dim>
					<dim>28</dim>
				</port>
			</input>
			<output>
				<port id="2" precision="FP32" names="434">
					<dim>1</dim>
					<dim>120</dim>
					<dim>8</dim>
					<dim>28</dim>
					<dim>28</dim>
				</port>
			</output>
		</layer>
		<layer id="132" name="435" type="ReLU" version="opset1">
			<input>
				<port id="0" precision="FP32">
					<dim>1</dim>
					<dim>120</dim>
					<dim>8</dim>
					<dim>28</dim>
					<dim>28</dim>
				</port>
			</input>
			<output>
				<port id="1" precision="FP32" names="435">
					<dim>1</dim>
					<dim>120</dim>
					<dim>8</dim>
					<dim>28</dim>
					<dim>28</dim>
				</port>
			</output>
		</layer>
		<layer id="133" name="Multiply_9062_compressed" type="Const" version="opset1">
			<data element_type="f16" shape="40, 120, 3, 1, 1" offset="92838" size="28800" />
			<output>
				<port id="0" precision="FP16">
					<dim>40</dim>
					<dim>120</dim>
					<dim>3</dim>
					<dim>1</dim>
					<dim>1</dim>
				</port>
			</output>
		</layer>
		<layer id="134" name="Multiply_9062" type="Convert" version="opset1">
			<data destination_type="f32" />
			<rt_info>
				<attribute name="decompression" version="0" />
			</rt_info>
			<input>
				<port id="0" precision="FP16">
					<dim>40</dim>
					<dim>120</dim>
					<dim>3</dim>
					<dim>1</dim>
					<dim>1</dim>
				</port>
			</input>
			<output>
				<port id="1" precision="FP32">
					<dim>40</dim>
					<dim>120</dim>
					<dim>3</dim>
					<dim>1</dim>
					<dim>1</dim>
				</port>
			</output>
		</layer>
		<layer id="135" name="Multiply_8689" type="Convolution" version="opset1">
			<data strides="1, 1, 1" dilations="1, 1, 1" pads_begin="1, 0, 0" pads_end="1, 0, 0" auto_pad="explicit" />
			<input>
				<port id="0" precision="FP32">
					<dim>1</dim>
					<dim>120</dim>
					<dim>8</dim>
					<dim>28</dim>
					<dim>28</dim>
				</port>
				<port id="1" precision="FP32">
					<dim>40</dim>
					<dim>120</dim>
					<dim>3</dim>
					<dim>1</dim>
					<dim>1</dim>
				</port>
			</input>
			<output>
				<port id="2" precision="FP32">
					<dim>1</dim>
					<dim>40</dim>
					<dim>8</dim>
					<dim>28</dim>
					<dim>28</dim>
				</port>
			</output>
		</layer>
		<layer id="136" name="Constant_8694_compressed" type="Const" version="opset1">
			<data element_type="f16" shape="1, 40, 1, 1, 1" offset="121638" size="80" />
			<output>
				<port id="0" precision="FP16">
					<dim>1</dim>
					<dim>40</dim>
					<dim>1</dim>
					<dim>1</dim>
					<dim>1</dim>
				</port>
			</output>
		</layer>
		<layer id="137" name="Constant_8694" type="Convert" version="opset1">
			<data destination_type="f32" />
			<rt_info>
				<attribute name="decompression" version="0" />
			</rt_info>
			<input>
				<port id="0" precision="FP16">
					<dim>1</dim>
					<dim>40</dim>
					<dim>1</dim>
					<dim>1</dim>
					<dim>1</dim>
				</port>
			</input>
			<output>
				<port id="1" precision="FP32">
					<dim>1</dim>
					<dim>40</dim>
					<dim>1</dim>
					<dim>1</dim>
					<dim>1</dim>
				</port>
			</output>
		</layer>
		<layer id="138" name="437" type="Add" version="opset1">
			<data auto_broadcast="numpy" />
			<input>
				<port id="0" precision="FP32">
					<dim>1</dim>
					<dim>40</dim>
					<dim>8</dim>
					<dim>28</dim>
					<dim>28</dim>
				</port>
				<port id="1" precision="FP32">
					<dim>1</dim>
					<dim>40</dim>
					<dim>1</dim>
					<dim>1</dim>
					<dim>1</dim>
				</port>
			</input>
			<output>
				<port id="2" precision="FP32" names="437">
					<dim>1</dim>
					<dim>40</dim>
					<dim>8</dim>
					<dim>28</dim>
					<dim>28</dim>
				</port>
			</output>
		</layer>
		<layer id="139" name="438" type="Add" version="opset1">
			<data auto_broadcast="numpy" />
			<input>
				<port id="0" precision="FP32">
					<dim>1</dim>
					<dim>40</dim>
					<dim>8</dim>
					<dim>28</dim>
					<dim>28</dim>
				</port>
				<port id="1" precision="FP32">
					<dim>1</dim>
					<dim>40</dim>
					<dim>8</dim>
					<dim>28</dim>
					<dim>28</dim>
				</port>
			</input>
			<output>
				<port id="2" precision="FP32" names="438">
					<dim>1</dim>
					<dim>40</dim>
					<dim>8</dim>
					<dim>28</dim>
					<dim>28</dim>
				</port>
			</output>
		</layer>
		<layer id="140" name="Multiply_9068_compressed" type="Const" version="opset1">
			<data element_type="f16" shape="120, 40, 1, 1, 1" offset="121718" size="9600" />
			<output>
				<port id="0" precision="FP16">
					<dim>120</dim>
					<dim>40</dim>
					<dim>1</dim>
					<dim>1</dim>
					<dim>1</dim>
				</port>
			</output>
		</layer>
		<layer id="141" name="Multiply_9068" type="Convert" version="opset1">
			<data destination_type="f32" />
			<rt_info>
				<attribute name="decompression" version="0" />
			</rt_info>
			<input>
				<port id="0" precision="FP16">
					<dim>120</dim>
					<dim>40</dim>
					<dim>1</dim>
					<dim>1</dim>
					<dim>1</dim>
				</port>
			</input>
			<output>
				<port id="1" precision="FP32">
					<dim>120</dim>
					<dim>40</dim>
					<dim>1</dim>
					<dim>1</dim>
					<dim>1</dim>
				</port>
			</output>
		</layer>
		<layer id="142" name="Multiply_8696" type="Convolution" version="opset1">
			<data strides="1, 1, 1" dilations="1, 1, 1" pads_begin="0, 0, 0" pads_end="0, 0, 0" auto_pad="explicit" />
			<input>
				<port id="0" precision="FP32">
					<dim>1</dim>
					<dim>40</dim>
					<dim>8</dim>
					<dim>28</dim>
					<dim>28</dim>
				</port>
				<port id="1" precision="FP32">
					<dim>120</dim>
					<dim>40</dim>
					<dim>1</dim>
					<dim>1</dim>
					<dim>1</dim>
				</port>
			</input>
			<output>
				<port id="2" precision="FP32">
					<dim>1</dim>
					<dim>120</dim>
					<dim>8</dim>
					<dim>28</dim>
					<dim>28</dim>
				</port>
			</output>
		</layer>
		<layer id="143" name="Constant_8701_compressed" type="Const" version="opset1">
			<data element_type="f16" shape="1, 120, 1, 1, 1" offset="131318" size="240" />
			<output>
				<port id="0" precision="FP16">
					<dim>1</dim>
					<dim>120</dim>
					<dim>1</dim>
					<dim>1</dim>
					<dim>1</dim>
				</port>
			</output>
		</layer>
		<layer id="144" name="Constant_8701" type="Convert" version="opset1">
			<data destination_type="f32" />
			<rt_info>
				<attribute name="decompression" version="0" />
			</rt_info>
			<input>
				<port id="0" precision="FP16">
					<dim>1</dim>
					<dim>120</dim>
					<dim>1</dim>
					<dim>1</dim>
					<dim>1</dim>
				</port>
			</input>
			<output>
				<port id="1" precision="FP32">
					<dim>1</dim>
					<dim>120</dim>
					<dim>1</dim>
					<dim>1</dim>
					<dim>1</dim>
				</port>
			</output>
		</layer>
		<layer id="145" name="440" type="Add" version="opset1">
			<data auto_broadcast="numpy" />
			<input>
				<port id="0" precision="FP32">
					<dim>1</dim>
					<dim>120</dim>
					<dim>8</dim>
					<dim>28</dim>
					<dim>28</dim>
				</port>
				<port id="1" precision="FP32">
					<dim>1</dim>
					<dim>120</dim>
					<dim>1</dim>
					<dim>1</dim>
					<dim>1</dim>
				</port>
			</input>
			<output>
				<port id="2" precision="FP32" names="440">
					<dim>1</dim>
					<dim>120</dim>
					<dim>8</dim>
					<dim>28</dim>
					<dim>28</dim>
				</port>
			</output>
		</layer>
		<layer id="146" name="441" type="ReLU" version="opset1">
			<input>
				<port id="0" precision="FP32">
					<dim>1</dim>
					<dim>120</dim>
					<dim>8</dim>
					<dim>28</dim>
					<dim>28</dim>
				</port>
			</input>
			<output>
				<port id="1" precision="FP32" names="441">
					<dim>1</dim>
					<dim>120</dim>
					<dim>8</dim>
					<dim>28</dim>
					<dim>28</dim>
				</port>
			</output>
		</layer>
		<layer id="147" name="Multiply_9074_compressed" type="Const" version="opset1">
			<data element_type="f16" shape="120, 1, 1, 1, 5, 5" offset="131558" size="6000" />
			<output>
				<port id="0" precision="FP16">
					<dim>120</dim>
					<dim>1</dim>
					<dim>1</dim>
					<dim>1</dim>
					<dim>5</dim>
					<dim>5</dim>
				</port>
			</output>
		</layer>
		<layer id="148" name="Multiply_9074" type="Convert" version="opset1">
			<data destination_type="f32" />
			<rt_info>
				<attribute name="decompression" version="0" />
			</rt_info>
			<input>
				<port id="0" precision="FP16">
					<dim>120</dim>
					<dim>1</dim>
					<dim>1</dim>
					<dim>1</dim>
					<dim>5</dim>
					<dim>5</dim>
				</port>
			</input>
			<output>
				<port id="1" precision="FP32">
					<dim>120</dim>
					<dim>1</dim>
					<dim>1</dim>
					<dim>1</dim>
					<dim>5</dim>
					<dim>5</dim>
				</port>
			</output>
		</layer>
		<layer id="149" name="Multiply_8703" type="GroupConvolution" version="opset1">
			<data strides="1, 1, 1" pads_begin="0, 2, 2" pads_end="0, 2, 2" dilations="1, 1, 1" auto_pad="explicit" />
			<input>
				<port id="0" precision="FP32">
					<dim>1</dim>
					<dim>120</dim>
					<dim>8</dim>
					<dim>28</dim>
					<dim>28</dim>
				</port>
				<port id="1" precision="FP32">
					<dim>120</dim>
					<dim>1</dim>
					<dim>1</dim>
					<dim>1</dim>
					<dim>5</dim>
					<dim>5</dim>
				</port>
			</input>
			<output>
				<port id="2" precision="FP32" names="442">
					<dim>1</dim>
					<dim>120</dim>
					<dim>8</dim>
					<dim>28</dim>
					<dim>28</dim>
				</port>
			</output>
		</layer>
		<layer id="150" name="Constant_8708_compressed" type="Const" version="opset1">
			<data element_type="f16" shape="1, 120, 1, 1, 1" offset="137558" size="240" />
			<output>
				<port id="0" precision="FP16">
					<dim>1</dim>
					<dim>120</dim>
					<dim>1</dim>
					<dim>1</dim>
					<dim>1</dim>
				</port>
			</output>
		</layer>
		<layer id="151" name="Constant_8708" type="Convert" version="opset1">
			<data destination_type="f32" />
			<rt_info>
				<attribute name="decompression" version="0" />
			</rt_info>
			<input>
				<port id="0" precision="FP16">
					<dim>1</dim>
					<dim>120</dim>
					<dim>1</dim>
					<dim>1</dim>
					<dim>1</dim>
				</port>
			</input>
			<output>
				<port id="1" precision="FP32">
					<dim>1</dim>
					<dim>120</dim>
					<dim>1</dim>
					<dim>1</dim>
					<dim>1</dim>
				</port>
			</output>
		</layer>
		<layer id="152" name="443" type="Add" version="opset1">
			<data auto_broadcast="numpy" />
			<input>
				<port id="0" precision="FP32">
					<dim>1</dim>
					<dim>120</dim>
					<dim>8</dim>
					<dim>28</dim>
					<dim>28</dim>
				</port>
				<port id="1" precision="FP32">
					<dim>1</dim>
					<dim>120</dim>
					<dim>1</dim>
					<dim>1</dim>
					<dim>1</dim>
				</port>
			</input>
			<output>
				<port id="2" precision="FP32" names="443,444">
					<dim>1</dim>
					<dim>120</dim>
					<dim>8</dim>
					<dim>28</dim>
					<dim>28</dim>
				</port>
			</output>
		</layer>
		<layer id="153" name="445" type="AvgPool" version="opset1">
			<data kernel="1, 28, 28" strides="1, 1, 1" pads_begin="0, 0, 0" pads_end="0, 0, 0" exclude-pad="true" auto_pad="explicit" rounding_type="floor" />
			<input>
				<port id="0" precision="FP32">
					<dim>1</dim>
					<dim>120</dim>
					<dim>8</dim>
					<dim>28</dim>
					<dim>28</dim>
				</port>
			</input>
			<output>
				<port id="1" precision="FP32" names="445">
					<dim>1</dim>
					<dim>120</dim>
					<dim>8</dim>
					<dim>1</dim>
					<dim>1</dim>
				</port>
			</output>
		</layer>
		<layer id="154" name="backbone.features.6.conv.5.fc.0.weight_compressed" type="Const" version="opset1">
			<data element_type="f16" shape="30, 120, 1, 1, 1" offset="137798" size="7200" />
			<output>
				<port id="0" precision="FP16">
					<dim>30</dim>
					<dim>120</dim>
					<dim>1</dim>
					<dim>1</dim>
					<dim>1</dim>
				</port>
			</output>
		</layer>
		<layer id="155" name="backbone.features.6.conv.5.fc.0.weight" type="Convert" version="opset1">
			<data destination_type="f32" />
			<rt_info>
				<attribute name="decompression" version="0" />
			</rt_info>
			<input>
				<port id="0" precision="FP16">
					<dim>30</dim>
					<dim>120</dim>
					<dim>1</dim>
					<dim>1</dim>
					<dim>1</dim>
				</port>
			</input>
			<output>
				<port id="1" precision="FP32" names="backbone.features.6.conv.5.fc.0.weight">
					<dim>30</dim>
					<dim>120</dim>
					<dim>1</dim>
					<dim>1</dim>
					<dim>1</dim>
				</port>
			</output>
		</layer>
		<layer id="156" name="446/WithoutBiases" type="Convolution" version="opset1">
			<data strides="1, 1, 1" dilations="1, 1, 1" pads_begin="0, 0, 0" pads_end="0, 0, 0" auto_pad="explicit" />
			<input>
				<port id="0" precision="FP32">
					<dim>1</dim>
					<dim>120</dim>
					<dim>8</dim>
					<dim>1</dim>
					<dim>1</dim>
				</port>
				<port id="1" precision="FP32">
					<dim>30</dim>
					<dim>120</dim>
					<dim>1</dim>
					<dim>1</dim>
					<dim>1</dim>
				</port>
			</input>
			<output>
				<port id="2" precision="FP32">
					<dim>1</dim>
					<dim>30</dim>
					<dim>8</dim>
					<dim>1</dim>
					<dim>1</dim>
				</port>
			</output>
		</layer>
		<layer id="157" name="Reshape_831_compressed" type="Const" version="opset1">
			<data element_type="f16" shape="1, 30, 1, 1, 1" offset="144998" size="60" />
			<output>
				<port id="0" precision="FP16">
					<dim>1</dim>
					<dim>30</dim>
					<dim>1</dim>
					<dim>1</dim>
					<dim>1</dim>
				</port>
			</output>
		</layer>
		<layer id="158" name="Reshape_831" type="Convert" version="opset1">
			<data destination_type="f32" />
			<rt_info>
				<attribute name="decompression" version="0" />
			</rt_info>
			<input>
				<port id="0" precision="FP16">
					<dim>1</dim>
					<dim>30</dim>
					<dim>1</dim>
					<dim>1</dim>
					<dim>1</dim>
				</port>
			</input>
			<output>
				<port id="1" precision="FP32">
					<dim>1</dim>
					<dim>30</dim>
					<dim>1</dim>
					<dim>1</dim>
					<dim>1</dim>
				</port>
			</output>
		</layer>
		<layer id="159" name="446" type="Add" version="opset1">
			<data auto_broadcast="numpy" />
			<input>
				<port id="0" precision="FP32">
					<dim>1</dim>
					<dim>30</dim>
					<dim>8</dim>
					<dim>1</dim>
					<dim>1</dim>
				</port>
				<port id="1" precision="FP32">
					<dim>1</dim>
					<dim>30</dim>
					<dim>1</dim>
					<dim>1</dim>
					<dim>1</dim>
				</port>
			</input>
			<output>
				<port id="2" precision="FP32" names="446">
					<dim>1</dim>
					<dim>30</dim>
					<dim>8</dim>
					<dim>1</dim>
					<dim>1</dim>
				</port>
			</output>
		</layer>
		<layer id="160" name="447" type="ReLU" version="opset1">
			<input>
				<port id="0" precision="FP32">
					<dim>1</dim>
					<dim>30</dim>
					<dim>8</dim>
					<dim>1</dim>
					<dim>1</dim>
				</port>
			</input>
			<output>
				<port id="1" precision="FP32" names="447">
					<dim>1</dim>
					<dim>30</dim>
					<dim>8</dim>
					<dim>1</dim>
					<dim>1</dim>
				</port>
			</output>
		</layer>
		<layer id="161" name="backbone.features.6.conv.5.fc.2.weight_compressed" type="Const" version="opset1">
			<data element_type="f16" shape="120, 30, 1, 1, 1" offset="145058" size="7200" />
			<output>
				<port id="0" precision="FP16">
					<dim>120</dim>
					<dim>30</dim>
					<dim>1</dim>
					<dim>1</dim>
					<dim>1</dim>
				</port>
			</output>
		</layer>
		<layer id="162" name="backbone.features.6.conv.5.fc.2.weight" type="Convert" version="opset1">
			<data destination_type="f32" />
			<rt_info>
				<attribute name="decompression" version="0" />
			</rt_info>
			<input>
				<port id="0" precision="FP16">
					<dim>120</dim>
					<dim>30</dim>
					<dim>1</dim>
					<dim>1</dim>
					<dim>1</dim>
				</port>
			</input>
			<output>
				<port id="1" precision="FP32" names="backbone.features.6.conv.5.fc.2.weight">
					<dim>120</dim>
					<dim>30</dim>
					<dim>1</dim>
					<dim>1</dim>
					<dim>1</dim>
				</port>
			</output>
		</layer>
		<layer id="163" name="448/WithoutBiases" type="Convolution" version="opset1">
			<data strides="1, 1, 1" dilations="1, 1, 1" pads_begin="0, 0, 0" pads_end="0, 0, 0" auto_pad="explicit" />
			<input>
				<port id="0" precision="FP32">
					<dim>1</dim>
					<dim>30</dim>
					<dim>8</dim>
					<dim>1</dim>
					<dim>1</dim>
				</port>
				<port id="1" precision="FP32">
					<dim>120</dim>
					<dim>30</dim>
					<dim>1</dim>
					<dim>1</dim>
					<dim>1</dim>
				</port>
			</input>
			<output>
				<port id="2" precision="FP32">
					<dim>1</dim>
					<dim>120</dim>
					<dim>8</dim>
					<dim>1</dim>
					<dim>1</dim>
				</port>
			</output>
		</layer>
		<layer id="164" name="Reshape_847_compressed" type="Const" version="opset1">
			<data element_type="f16" shape="1, 120, 1, 1, 1" offset="152258" size="240" />
			<output>
				<port id="0" precision="FP16">
					<dim>1</dim>
					<dim>120</dim>
					<dim>1</dim>
					<dim>1</dim>
					<dim>1</dim>
				</port>
			</output>
		</layer>
		<layer id="165" name="Reshape_847" type="Convert" version="opset1">
			<data destination_type="f32" />
			<rt_info>
				<attribute name="decompression" version="0" />
			</rt_info>
			<input>
				<port id="0" precision="FP16">
					<dim>1</dim>
					<dim>120</dim>
					<dim>1</dim>
					<dim>1</dim>
					<dim>1</dim>
				</port>
			</input>
			<output>
				<port id="1" precision="FP32">
					<dim>1</dim>
					<dim>120</dim>
					<dim>1</dim>
					<dim>1</dim>
					<dim>1</dim>
				</port>
			</output>
		</layer>
		<layer id="166" name="448" type="Add" version="opset1">
			<data auto_broadcast="numpy" />
			<input>
				<port id="0" precision="FP32">
					<dim>1</dim>
					<dim>120</dim>
					<dim>8</dim>
					<dim>1</dim>
					<dim>1</dim>
				</port>
				<port id="1" precision="FP32">
					<dim>1</dim>
					<dim>120</dim>
					<dim>1</dim>
					<dim>1</dim>
					<dim>1</dim>
				</port>
			</input>
			<output>
				<port id="2" precision="FP32" names="448">
					<dim>1</dim>
					<dim>120</dim>
					<dim>8</dim>
					<dim>1</dim>
					<dim>1</dim>
				</port>
			</output>
		</layer>
		<layer id="167" name="453" type="HSigmoid" version="opset5">
			<input>
				<port id="0" precision="FP32">
					<dim>1</dim>
					<dim>120</dim>
					<dim>8</dim>
					<dim>1</dim>
					<dim>1</dim>
				</port>
			</input>
			<output>
				<port id="1" precision="FP32" names="453">
					<dim>1</dim>
					<dim>120</dim>
					<dim>8</dim>
					<dim>1</dim>
					<dim>1</dim>
				</port>
			</output>
		</layer>
		<layer id="168" name="454" type="Multiply" version="opset1">
			<data auto_broadcast="numpy" />
			<input>
				<port id="0" precision="FP32">
					<dim>1</dim>
					<dim>120</dim>
					<dim>8</dim>
					<dim>1</dim>
					<dim>1</dim>
				</port>
				<port id="1" precision="FP32">
					<dim>1</dim>
					<dim>120</dim>
					<dim>8</dim>
					<dim>28</dim>
					<dim>28</dim>
				</port>
			</input>
			<output>
				<port id="2" precision="FP32" names="454">
					<dim>1</dim>
					<dim>120</dim>
					<dim>8</dim>
					<dim>28</dim>
					<dim>28</dim>
				</port>
			</output>
		</layer>
		<layer id="169" name="455" type="ReLU" version="opset1">
			<input>
				<port id="0" precision="FP32">
					<dim>1</dim>
					<dim>120</dim>
					<dim>8</dim>
					<dim>28</dim>
					<dim>28</dim>
				</port>
			</input>
			<output>
				<port id="1" precision="FP32" names="455">
					<dim>1</dim>
					<dim>120</dim>
					<dim>8</dim>
					<dim>28</dim>
					<dim>28</dim>
				</port>
			</output>
		</layer>
		<layer id="170" name="Multiply_9079_compressed" type="Const" version="opset1">
			<data element_type="f16" shape="40, 120, 5, 1, 1" offset="152498" size="48000" />
			<output>
				<port id="0" precision="FP16">
					<dim>40</dim>
					<dim>120</dim>
					<dim>5</dim>
					<dim>1</dim>
					<dim>1</dim>
				</port>
			</output>
		</layer>
		<layer id="171" name="Multiply_9079" type="Convert" version="opset1">
			<data destination_type="f32" />
			<rt_info>
				<attribute name="decompression" version="0" />
			</rt_info>
			<input>
				<port id="0" precision="FP16">
					<dim>40</dim>
					<dim>120</dim>
					<dim>5</dim>
					<dim>1</dim>
					<dim>1</dim>
				</port>
			</input>
			<output>
				<port id="1" precision="FP32">
					<dim>40</dim>
					<dim>120</dim>
					<dim>5</dim>
					<dim>1</dim>
					<dim>1</dim>
				</port>
			</output>
		</layer>
		<layer id="172" name="Multiply_8710" type="Convolution" version="opset1">
			<data strides="1, 1, 1" dilations="1, 1, 1" pads_begin="2, 0, 0" pads_end="2, 0, 0" auto_pad="explicit" />
			<input>
				<port id="0" precision="FP32">
					<dim>1</dim>
					<dim>120</dim>
					<dim>8</dim>
					<dim>28</dim>
					<dim>28</dim>
				</port>
				<port id="1" precision="FP32">
					<dim>40</dim>
					<dim>120</dim>
					<dim>5</dim>
					<dim>1</dim>
					<dim>1</dim>
				</port>
			</input>
			<output>
				<port id="2" precision="FP32">
					<dim>1</dim>
					<dim>40</dim>
					<dim>8</dim>
					<dim>28</dim>
					<dim>28</dim>
				</port>
			</output>
		</layer>
		<layer id="173" name="Constant_8715_compressed" type="Const" version="opset1">
			<data element_type="f16" shape="1, 40, 1, 1, 1" offset="200498" size="80" />
			<output>
				<port id="0" precision="FP16">
					<dim>1</dim>
					<dim>40</dim>
					<dim>1</dim>
					<dim>1</dim>
					<dim>1</dim>
				</port>
			</output>
		</layer>
		<layer id="174" name="Constant_8715" type="Convert" version="opset1">
			<data destination_type="f32" />
			<rt_info>
				<attribute name="decompression" version="0" />
			</rt_info>
			<input>
				<port id="0" precision="FP16">
					<dim>1</dim>
					<dim>40</dim>
					<dim>1</dim>
					<dim>1</dim>
					<dim>1</dim>
				</port>
			</input>
			<output>
				<port id="1" precision="FP32">
					<dim>1</dim>
					<dim>40</dim>
					<dim>1</dim>
					<dim>1</dim>
					<dim>1</dim>
				</port>
			</output>
		</layer>
		<layer id="175" name="457" type="Add" version="opset1">
			<data auto_broadcast="numpy" />
			<input>
				<port id="0" precision="FP32">
					<dim>1</dim>
					<dim>40</dim>
					<dim>8</dim>
					<dim>28</dim>
					<dim>28</dim>
				</port>
				<port id="1" precision="FP32">
					<dim>1</dim>
					<dim>40</dim>
					<dim>1</dim>
					<dim>1</dim>
					<dim>1</dim>
				</port>
			</input>
			<output>
				<port id="2" precision="FP32" names="457">
					<dim>1</dim>
					<dim>40</dim>
					<dim>8</dim>
					<dim>28</dim>
					<dim>28</dim>
				</port>
			</output>
		</layer>
		<layer id="176" name="458" type="Add" version="opset1">
			<data auto_broadcast="numpy" />
			<input>
				<port id="0" precision="FP32">
					<dim>1</dim>
					<dim>40</dim>
					<dim>8</dim>
					<dim>28</dim>
					<dim>28</dim>
				</port>
				<port id="1" precision="FP32">
					<dim>1</dim>
					<dim>40</dim>
					<dim>8</dim>
					<dim>28</dim>
					<dim>28</dim>
				</port>
			</input>
			<output>
				<port id="2" precision="FP32" names="458">
					<dim>1</dim>
					<dim>40</dim>
					<dim>8</dim>
					<dim>28</dim>
					<dim>28</dim>
				</port>
			</output>
		</layer>
		<layer id="177" name="Multiply_9085_compressed" type="Const" version="opset1">
			<data element_type="f16" shape="240, 40, 1, 1, 1" offset="200578" size="19200" />
			<output>
				<port id="0" precision="FP16">
					<dim>240</dim>
					<dim>40</dim>
					<dim>1</dim>
					<dim>1</dim>
					<dim>1</dim>
				</port>
			</output>
		</layer>
		<layer id="178" name="Multiply_9085" type="Convert" version="opset1">
			<data destination_type="f32" />
			<rt_info>
				<attribute name="decompression" version="0" />
			</rt_info>
			<input>
				<port id="0" precision="FP16">
					<dim>240</dim>
					<dim>40</dim>
					<dim>1</dim>
					<dim>1</dim>
					<dim>1</dim>
				</port>
			</input>
			<output>
				<port id="1" precision="FP32">
					<dim>240</dim>
					<dim>40</dim>
					<dim>1</dim>
					<dim>1</dim>
					<dim>1</dim>
				</port>
			</output>
		</layer>
		<layer id="179" name="Multiply_8717" type="Convolution" version="opset1">
			<data strides="1, 1, 1" dilations="1, 1, 1" pads_begin="0, 0, 0" pads_end="0, 0, 0" auto_pad="explicit" />
			<input>
				<port id="0" precision="FP32">
					<dim>1</dim>
					<dim>40</dim>
					<dim>8</dim>
					<dim>28</dim>
					<dim>28</dim>
				</port>
				<port id="1" precision="FP32">
					<dim>240</dim>
					<dim>40</dim>
					<dim>1</dim>
					<dim>1</dim>
					<dim>1</dim>
				</port>
			</input>
			<output>
				<port id="2" precision="FP32">
					<dim>1</dim>
					<dim>240</dim>
					<dim>8</dim>
					<dim>28</dim>
					<dim>28</dim>
				</port>
			</output>
		</layer>
		<layer id="180" name="Constant_8722_compressed" type="Const" version="opset1">
			<data element_type="f16" shape="1, 240, 1, 1, 1" offset="219778" size="480" />
			<output>
				<port id="0" precision="FP16">
					<dim>1</dim>
					<dim>240</dim>
					<dim>1</dim>
					<dim>1</dim>
					<dim>1</dim>
				</port>
			</output>
		</layer>
		<layer id="181" name="Constant_8722" type="Convert" version="opset1">
			<data destination_type="f32" />
			<rt_info>
				<attribute name="decompression" version="0" />
			</rt_info>
			<input>
				<port id="0" precision="FP16">
					<dim>1</dim>
					<dim>240</dim>
					<dim>1</dim>
					<dim>1</dim>
					<dim>1</dim>
				</port>
			</input>
			<output>
				<port id="1" precision="FP32">
					<dim>1</dim>
					<dim>240</dim>
					<dim>1</dim>
					<dim>1</dim>
					<dim>1</dim>
				</port>
			</output>
		</layer>
		<layer id="182" name="460" type="Add" version="opset1">
			<data auto_broadcast="numpy" />
			<input>
				<port id="0" precision="FP32">
					<dim>1</dim>
					<dim>240</dim>
					<dim>8</dim>
					<dim>28</dim>
					<dim>28</dim>
				</port>
				<port id="1" precision="FP32">
					<dim>1</dim>
					<dim>240</dim>
					<dim>1</dim>
					<dim>1</dim>
					<dim>1</dim>
				</port>
			</input>
			<output>
				<port id="2" precision="FP32" names="460">
					<dim>1</dim>
					<dim>240</dim>
					<dim>8</dim>
					<dim>28</dim>
					<dim>28</dim>
				</port>
			</output>
		</layer>
		<layer id="183" name="466" type="HSwish" version="opset4">
			<input>
				<port id="0" precision="FP32">
					<dim>1</dim>
					<dim>240</dim>
					<dim>8</dim>
					<dim>28</dim>
					<dim>28</dim>
				</port>
			</input>
			<output>
				<port id="1" precision="FP32" names="466">
					<dim>1</dim>
					<dim>240</dim>
					<dim>8</dim>
					<dim>28</dim>
					<dim>28</dim>
				</port>
			</output>
		</layer>
		<layer id="184" name="Multiply_9091_compressed" type="Const" version="opset1">
			<data element_type="f16" shape="240, 1, 1, 1, 3, 3" offset="220258" size="4320" />
			<output>
				<port id="0" precision="FP16">
					<dim>240</dim>
					<dim>1</dim>
					<dim>1</dim>
					<dim>1</dim>
					<dim>3</dim>
					<dim>3</dim>
				</port>
			</output>
		</layer>
		<layer id="185" name="Multiply_9091" type="Convert" version="opset1">
			<data destination_type="f32" />
			<rt_info>
				<attribute name="decompression" version="0" />
			</rt_info>
			<input>
				<port id="0" precision="FP16">
					<dim>240</dim>
					<dim>1</dim>
					<dim>1</dim>
					<dim>1</dim>
					<dim>3</dim>
					<dim>3</dim>
				</port>
			</input>
			<output>
				<port id="1" precision="FP32">
					<dim>240</dim>
					<dim>1</dim>
					<dim>1</dim>
					<dim>1</dim>
					<dim>3</dim>
					<dim>3</dim>
				</port>
			</output>
		</layer>
		<layer id="186" name="Multiply_8724" type="GroupConvolution" version="opset1">
			<data strides="1, 2, 2" pads_begin="0, 1, 1" pads_end="0, 1, 1" dilations="1, 1, 1" auto_pad="explicit" />
			<input>
				<port id="0" precision="FP32">
					<dim>1</dim>
					<dim>240</dim>
					<dim>8</dim>
					<dim>28</dim>
					<dim>28</dim>
				</port>
				<port id="1" precision="FP32">
					<dim>240</dim>
					<dim>1</dim>
					<dim>1</dim>
					<dim>1</dim>
					<dim>3</dim>
					<dim>3</dim>
				</port>
			</input>
			<output>
				<port id="2" precision="FP32" names="467">
					<dim>1</dim>
					<dim>240</dim>
					<dim>8</dim>
					<dim>14</dim>
					<dim>14</dim>
				</port>
			</output>
		</layer>
		<layer id="187" name="Constant_8729_compressed" type="Const" version="opset1">
			<data element_type="f16" shape="1, 240, 1, 1, 1" offset="224578" size="480" />
			<output>
				<port id="0" precision="FP16">
					<dim>1</dim>
					<dim>240</dim>
					<dim>1</dim>
					<dim>1</dim>
					<dim>1</dim>
				</port>
			</output>
		</layer>
		<layer id="188" name="Constant_8729" type="Convert" version="opset1">
			<data destination_type="f32" />
			<rt_info>
				<attribute name="decompression" version="0" />
			</rt_info>
			<input>
				<port id="0" precision="FP16">
					<dim>1</dim>
					<dim>240</dim>
					<dim>1</dim>
					<dim>1</dim>
					<dim>1</dim>
				</port>
			</input>
			<output>
				<port id="1" precision="FP32">
					<dim>1</dim>
					<dim>240</dim>
					<dim>1</dim>
					<dim>1</dim>
					<dim>1</dim>
				</port>
			</output>
		</layer>
		<layer id="189" name="468" type="Add" version="opset1">
			<data auto_broadcast="numpy" />
			<input>
				<port id="0" precision="FP32">
					<dim>1</dim>
					<dim>240</dim>
					<dim>8</dim>
					<dim>14</dim>
					<dim>14</dim>
				</port>
				<port id="1" precision="FP32">
					<dim>1</dim>
					<dim>240</dim>
					<dim>1</dim>
					<dim>1</dim>
					<dim>1</dim>
				</port>
			</input>
			<output>
				<port id="2" precision="FP32" names="468">
					<dim>1</dim>
					<dim>240</dim>
					<dim>8</dim>
					<dim>14</dim>
					<dim>14</dim>
				</port>
			</output>
		</layer>
		<layer id="190" name="474" type="HSwish" version="opset4">
			<input>
				<port id="0" precision="FP32">
					<dim>1</dim>
					<dim>240</dim>
					<dim>8</dim>
					<dim>14</dim>
					<dim>14</dim>
				</port>
			</input>
			<output>
				<port id="1" precision="FP32" names="474">
					<dim>1</dim>
					<dim>240</dim>
					<dim>8</dim>
					<dim>14</dim>
					<dim>14</dim>
				</port>
			</output>
		</layer>
		<layer id="191" name="Multiply_9096_compressed" type="Const" version="opset1">
			<data element_type="f16" shape="80, 240, 5, 1, 1" offset="225058" size="192000" />
			<output>
				<port id="0" precision="FP16">
					<dim>80</dim>
					<dim>240</dim>
					<dim>5</dim>
					<dim>1</dim>
					<dim>1</dim>
				</port>
			</output>
		</layer>
		<layer id="192" name="Multiply_9096" type="Convert" version="opset1">
			<data destination_type="f32" />
			<rt_info>
				<attribute name="decompression" version="0" />
			</rt_info>
			<input>
				<port id="0" precision="FP16">
					<dim>80</dim>
					<dim>240</dim>
					<dim>5</dim>
					<dim>1</dim>
					<dim>1</dim>
				</port>
			</input>
			<output>
				<port id="1" precision="FP32">
					<dim>80</dim>
					<dim>240</dim>
					<dim>5</dim>
					<dim>1</dim>
					<dim>1</dim>
				</port>
			</output>
		</layer>
		<layer id="193" name="Multiply_8731" type="Convolution" version="opset1">
			<data strides="1, 1, 1" dilations="1, 1, 1" pads_begin="2, 0, 0" pads_end="2, 0, 0" auto_pad="explicit" />
			<input>
				<port id="0" precision="FP32">
					<dim>1</dim>
					<dim>240</dim>
					<dim>8</dim>
					<dim>14</dim>
					<dim>14</dim>
				</port>
				<port id="1" precision="FP32">
					<dim>80</dim>
					<dim>240</dim>
					<dim>5</dim>
					<dim>1</dim>
					<dim>1</dim>
				</port>
			</input>
			<output>
				<port id="2" precision="FP32">
					<dim>1</dim>
					<dim>80</dim>
					<dim>8</dim>
					<dim>14</dim>
					<dim>14</dim>
				</port>
			</output>
		</layer>
		<layer id="194" name="Constant_8736_compressed" type="Const" version="opset1">
			<data element_type="f16" shape="1, 80, 1, 1, 1" offset="417058" size="160" />
			<output>
				<port id="0" precision="FP16">
					<dim>1</dim>
					<dim>80</dim>
					<dim>1</dim>
					<dim>1</dim>
					<dim>1</dim>
				</port>
			</output>
		</layer>
		<layer id="195" name="Constant_8736" type="Convert" version="opset1">
			<data destination_type="f32" />
			<rt_info>
				<attribute name="decompression" version="0" />
			</rt_info>
			<input>
				<port id="0" precision="FP16">
					<dim>1</dim>
					<dim>80</dim>
					<dim>1</dim>
					<dim>1</dim>
					<dim>1</dim>
				</port>
			</input>
			<output>
				<port id="1" precision="FP32">
					<dim>1</dim>
					<dim>80</dim>
					<dim>1</dim>
					<dim>1</dim>
					<dim>1</dim>
				</port>
			</output>
		</layer>
		<layer id="196" name="476" type="Add" version="opset1">
			<data auto_broadcast="numpy" />
			<input>
				<port id="0" precision="FP32">
					<dim>1</dim>
					<dim>80</dim>
					<dim>8</dim>
					<dim>14</dim>
					<dim>14</dim>
				</port>
				<port id="1" precision="FP32">
					<dim>1</dim>
					<dim>80</dim>
					<dim>1</dim>
					<dim>1</dim>
					<dim>1</dim>
				</port>
			</input>
			<output>
				<port id="2" precision="FP32" names="476">
					<dim>1</dim>
					<dim>80</dim>
					<dim>8</dim>
					<dim>14</dim>
					<dim>14</dim>
				</port>
			</output>
		</layer>
		<layer id="197" name="Multiply_9102_compressed" type="Const" version="opset1">
			<data element_type="f16" shape="200, 80, 1, 1, 1" offset="417218" size="32000" />
			<output>
				<port id="0" precision="FP16">
					<dim>200</dim>
					<dim>80</dim>
					<dim>1</dim>
					<dim>1</dim>
					<dim>1</dim>
				</port>
			</output>
		</layer>
		<layer id="198" name="Multiply_9102" type="Convert" version="opset1">
			<data destination_type="f32" />
			<rt_info>
				<attribute name="decompression" version="0" />
			</rt_info>
			<input>
				<port id="0" precision="FP16">
					<dim>200</dim>
					<dim>80</dim>
					<dim>1</dim>
					<dim>1</dim>
					<dim>1</dim>
				</port>
			</input>
			<output>
				<port id="1" precision="FP32">
					<dim>200</dim>
					<dim>80</dim>
					<dim>1</dim>
					<dim>1</dim>
					<dim>1</dim>
				</port>
			</output>
		</layer>
		<layer id="199" name="Multiply_8738" type="Convolution" version="opset1">
			<data strides="1, 1, 1" dilations="1, 1, 1" pads_begin="0, 0, 0" pads_end="0, 0, 0" auto_pad="explicit" />
			<input>
				<port id="0" precision="FP32">
					<dim>1</dim>
					<dim>80</dim>
					<dim>8</dim>
					<dim>14</dim>
					<dim>14</dim>
				</port>
				<port id="1" precision="FP32">
					<dim>200</dim>
					<dim>80</dim>
					<dim>1</dim>
					<dim>1</dim>
					<dim>1</dim>
				</port>
			</input>
			<output>
				<port id="2" precision="FP32">
					<dim>1</dim>
					<dim>200</dim>
					<dim>8</dim>
					<dim>14</dim>
					<dim>14</dim>
				</port>
			</output>
		</layer>
		<layer id="200" name="Constant_8743_compressed" type="Const" version="opset1">
			<data element_type="f16" shape="1, 200, 1, 1, 1" offset="449218" size="400" />
			<output>
				<port id="0" precision="FP16">
					<dim>1</dim>
					<dim>200</dim>
					<dim>1</dim>
					<dim>1</dim>
					<dim>1</dim>
				</port>
			</output>
		</layer>
		<layer id="201" name="Constant_8743" type="Convert" version="opset1">
			<data destination_type="f32" />
			<rt_info>
				<attribute name="decompression" version="0" />
			</rt_info>
			<input>
				<port id="0" precision="FP16">
					<dim>1</dim>
					<dim>200</dim>
					<dim>1</dim>
					<dim>1</dim>
					<dim>1</dim>
				</port>
			</input>
			<output>
				<port id="1" precision="FP32">
					<dim>1</dim>
					<dim>200</dim>
					<dim>1</dim>
					<dim>1</dim>
					<dim>1</dim>
				</port>
			</output>
		</layer>
		<layer id="202" name="478" type="Add" version="opset1">
			<data auto_broadcast="numpy" />
			<input>
				<port id="0" precision="FP32">
					<dim>1</dim>
					<dim>200</dim>
					<dim>8</dim>
					<dim>14</dim>
					<dim>14</dim>
				</port>
				<port id="1" precision="FP32">
					<dim>1</dim>
					<dim>200</dim>
					<dim>1</dim>
					<dim>1</dim>
					<dim>1</dim>
				</port>
			</input>
			<output>
				<port id="2" precision="FP32" names="478">
					<dim>1</dim>
					<dim>200</dim>
					<dim>8</dim>
					<dim>14</dim>
					<dim>14</dim>
				</port>
			</output>
		</layer>
		<layer id="203" name="484" type="HSwish" version="opset4">
			<input>
				<port id="0" precision="FP32">
					<dim>1</dim>
					<dim>200</dim>
					<dim>8</dim>
					<dim>14</dim>
					<dim>14</dim>
				</port>
			</input>
			<output>
				<port id="1" precision="FP32" names="484">
					<dim>1</dim>
					<dim>200</dim>
					<dim>8</dim>
					<dim>14</dim>
					<dim>14</dim>
				</port>
			</output>
		</layer>
		<layer id="204" name="Multiply_9108_compressed" type="Const" version="opset1">
			<data element_type="f16" shape="200, 1, 1, 1, 3, 3" offset="449618" size="3600" />
			<output>
				<port id="0" precision="FP16">
					<dim>200</dim>
					<dim>1</dim>
					<dim>1</dim>
					<dim>1</dim>
					<dim>3</dim>
					<dim>3</dim>
				</port>
			</output>
		</layer>
		<layer id="205" name="Multiply_9108" type="Convert" version="opset1">
			<data destination_type="f32" />
			<rt_info>
				<attribute name="decompression" version="0" />
			</rt_info>
			<input>
				<port id="0" precision="FP16">
					<dim>200</dim>
					<dim>1</dim>
					<dim>1</dim>
					<dim>1</dim>
					<dim>3</dim>
					<dim>3</dim>
				</port>
			</input>
			<output>
				<port id="1" precision="FP32">
					<dim>200</dim>
					<dim>1</dim>
					<dim>1</dim>
					<dim>1</dim>
					<dim>3</dim>
					<dim>3</dim>
				</port>
			</output>
		</layer>
		<layer id="206" name="Multiply_8745" type="GroupConvolution" version="opset1">
			<data strides="1, 1, 1" pads_begin="0, 1, 1" pads_end="0, 1, 1" dilations="1, 1, 1" auto_pad="explicit" />
			<input>
				<port id="0" precision="FP32">
					<dim>1</dim>
					<dim>200</dim>
					<dim>8</dim>
					<dim>14</dim>
					<dim>14</dim>
				</port>
				<port id="1" precision="FP32">
					<dim>200</dim>
					<dim>1</dim>
					<dim>1</dim>
					<dim>1</dim>
					<dim>3</dim>
					<dim>3</dim>
				</port>
			</input>
			<output>
				<port id="2" precision="FP32" names="485">
					<dim>1</dim>
					<dim>200</dim>
					<dim>8</dim>
					<dim>14</dim>
					<dim>14</dim>
				</port>
			</output>
		</layer>
		<layer id="207" name="Constant_8750_compressed" type="Const" version="opset1">
			<data element_type="f16" shape="1, 200, 1, 1, 1" offset="453218" size="400" />
			<output>
				<port id="0" precision="FP16">
					<dim>1</dim>
					<dim>200</dim>
					<dim>1</dim>
					<dim>1</dim>
					<dim>1</dim>
				</port>
			</output>
		</layer>
		<layer id="208" name="Constant_8750" type="Convert" version="opset1">
			<data destination_type="f32" />
			<rt_info>
				<attribute name="decompression" version="0" />
			</rt_info>
			<input>
				<port id="0" precision="FP16">
					<dim>1</dim>
					<dim>200</dim>
					<dim>1</dim>
					<dim>1</dim>
					<dim>1</dim>
				</port>
			</input>
			<output>
				<port id="1" precision="FP32">
					<dim>1</dim>
					<dim>200</dim>
					<dim>1</dim>
					<dim>1</dim>
					<dim>1</dim>
				</port>
			</output>
		</layer>
		<layer id="209" name="486" type="Add" version="opset1">
			<data auto_broadcast="numpy" />
			<input>
				<port id="0" precision="FP32">
					<dim>1</dim>
					<dim>200</dim>
					<dim>8</dim>
					<dim>14</dim>
					<dim>14</dim>
				</port>
				<port id="1" precision="FP32">
					<dim>1</dim>
					<dim>200</dim>
					<dim>1</dim>
					<dim>1</dim>
					<dim>1</dim>
				</port>
			</input>
			<output>
				<port id="2" precision="FP32" names="486">
					<dim>1</dim>
					<dim>200</dim>
					<dim>8</dim>
					<dim>14</dim>
					<dim>14</dim>
				</port>
			</output>
		</layer>
		<layer id="210" name="492" type="HSwish" version="opset4">
			<input>
				<port id="0" precision="FP32">
					<dim>1</dim>
					<dim>200</dim>
					<dim>8</dim>
					<dim>14</dim>
					<dim>14</dim>
				</port>
			</input>
			<output>
				<port id="1" precision="FP32" names="492">
					<dim>1</dim>
					<dim>200</dim>
					<dim>8</dim>
					<dim>14</dim>
					<dim>14</dim>
				</port>
			</output>
		</layer>
		<layer id="211" name="Multiply_9113_compressed" type="Const" version="opset1">
			<data element_type="f16" shape="80, 200, 3, 1, 1" offset="453618" size="96000" />
			<output>
				<port id="0" precision="FP16">
					<dim>80</dim>
					<dim>200</dim>
					<dim>3</dim>
					<dim>1</dim>
					<dim>1</dim>
				</port>
			</output>
		</layer>
		<layer id="212" name="Multiply_9113" type="Convert" version="opset1">
			<data destination_type="f32" />
			<rt_info>
				<attribute name="decompression" version="0" />
			</rt_info>
			<input>
				<port id="0" precision="FP16">
					<dim>80</dim>
					<dim>200</dim>
					<dim>3</dim>
					<dim>1</dim>
					<dim>1</dim>
				</port>
			</input>
			<output>
				<port id="1" precision="FP32">
					<dim>80</dim>
					<dim>200</dim>
					<dim>3</dim>
					<dim>1</dim>
					<dim>1</dim>
				</port>
			</output>
		</layer>
		<layer id="213" name="Multiply_8752" type="Convolution" version="opset1">
			<data strides="1, 1, 1" dilations="1, 1, 1" pads_begin="1, 0, 0" pads_end="1, 0, 0" auto_pad="explicit" />
			<input>
				<port id="0" precision="FP32">
					<dim>1</dim>
					<dim>200</dim>
					<dim>8</dim>
					<dim>14</dim>
					<dim>14</dim>
				</port>
				<port id="1" precision="FP32">
					<dim>80</dim>
					<dim>200</dim>
					<dim>3</dim>
					<dim>1</dim>
					<dim>1</dim>
				</port>
			</input>
			<output>
				<port id="2" precision="FP32">
					<dim>1</dim>
					<dim>80</dim>
					<dim>8</dim>
					<dim>14</dim>
					<dim>14</dim>
				</port>
			</output>
		</layer>
		<layer id="214" name="Constant_8757_compressed" type="Const" version="opset1">
			<data element_type="f16" shape="1, 80, 1, 1, 1" offset="549618" size="160" />
			<output>
				<port id="0" precision="FP16">
					<dim>1</dim>
					<dim>80</dim>
					<dim>1</dim>
					<dim>1</dim>
					<dim>1</dim>
				</port>
			</output>
		</layer>
		<layer id="215" name="Constant_8757" type="Convert" version="opset1">
			<data destination_type="f32" />
			<rt_info>
				<attribute name="decompression" version="0" />
			</rt_info>
			<input>
				<port id="0" precision="FP16">
					<dim>1</dim>
					<dim>80</dim>
					<dim>1</dim>
					<dim>1</dim>
					<dim>1</dim>
				</port>
			</input>
			<output>
				<port id="1" precision="FP32">
					<dim>1</dim>
					<dim>80</dim>
					<dim>1</dim>
					<dim>1</dim>
					<dim>1</dim>
				</port>
			</output>
		</layer>
		<layer id="216" name="494" type="Add" version="opset1">
			<data auto_broadcast="numpy" />
			<input>
				<port id="0" precision="FP32">
					<dim>1</dim>
					<dim>80</dim>
					<dim>8</dim>
					<dim>14</dim>
					<dim>14</dim>
				</port>
				<port id="1" precision="FP32">
					<dim>1</dim>
					<dim>80</dim>
					<dim>1</dim>
					<dim>1</dim>
					<dim>1</dim>
				</port>
			</input>
			<output>
				<port id="2" precision="FP32" names="494">
					<dim>1</dim>
					<dim>80</dim>
					<dim>8</dim>
					<dim>14</dim>
					<dim>14</dim>
				</port>
			</output>
		</layer>
		<layer id="217" name="495" type="Add" version="opset1">
			<data auto_broadcast="numpy" />
			<input>
				<port id="0" precision="FP32">
					<dim>1</dim>
					<dim>80</dim>
					<dim>8</dim>
					<dim>14</dim>
					<dim>14</dim>
				</port>
				<port id="1" precision="FP32">
					<dim>1</dim>
					<dim>80</dim>
					<dim>8</dim>
					<dim>14</dim>
					<dim>14</dim>
				</port>
			</input>
			<output>
				<port id="2" precision="FP32" names="495">
					<dim>1</dim>
					<dim>80</dim>
					<dim>8</dim>
					<dim>14</dim>
					<dim>14</dim>
				</port>
			</output>
		</layer>
		<layer id="218" name="Multiply_9119_compressed" type="Const" version="opset1">
			<data element_type="f16" shape="184, 80, 1, 1, 1" offset="549778" size="29440" />
			<output>
				<port id="0" precision="FP16">
					<dim>184</dim>
					<dim>80</dim>
					<dim>1</dim>
					<dim>1</dim>
					<dim>1</dim>
				</port>
			</output>
		</layer>
		<layer id="219" name="Multiply_9119" type="Convert" version="opset1">
			<data destination_type="f32" />
			<rt_info>
				<attribute name="decompression" version="0" />
			</rt_info>
			<input>
				<port id="0" precision="FP16">
					<dim>184</dim>
					<dim>80</dim>
					<dim>1</dim>
					<dim>1</dim>
					<dim>1</dim>
				</port>
			</input>
			<output>
				<port id="1" precision="FP32">
					<dim>184</dim>
					<dim>80</dim>
					<dim>1</dim>
					<dim>1</dim>
					<dim>1</dim>
				</port>
			</output>
		</layer>
		<layer id="220" name="Multiply_8759" type="Convolution" version="opset1">
			<data strides="1, 1, 1" dilations="1, 1, 1" pads_begin="0, 0, 0" pads_end="0, 0, 0" auto_pad="explicit" />
			<input>
				<port id="0" precision="FP32">
					<dim>1</dim>
					<dim>80</dim>
					<dim>8</dim>
					<dim>14</dim>
					<dim>14</dim>
				</port>
				<port id="1" precision="FP32">
					<dim>184</dim>
					<dim>80</dim>
					<dim>1</dim>
					<dim>1</dim>
					<dim>1</dim>
				</port>
			</input>
			<output>
				<port id="2" precision="FP32">
					<dim>1</dim>
					<dim>184</dim>
					<dim>8</dim>
					<dim>14</dim>
					<dim>14</dim>
				</port>
			</output>
		</layer>
		<layer id="221" name="Constant_8764_compressed" type="Const" version="opset1">
			<data element_type="f16" shape="1, 184, 1, 1, 1" offset="579218" size="368" />
			<output>
				<port id="0" precision="FP16">
					<dim>1</dim>
					<dim>184</dim>
					<dim>1</dim>
					<dim>1</dim>
					<dim>1</dim>
				</port>
			</output>
		</layer>
		<layer id="222" name="Constant_8764" type="Convert" version="opset1">
			<data destination_type="f32" />
			<rt_info>
				<attribute name="decompression" version="0" />
			</rt_info>
			<input>
				<port id="0" precision="FP16">
					<dim>1</dim>
					<dim>184</dim>
					<dim>1</dim>
					<dim>1</dim>
					<dim>1</dim>
				</port>
			</input>
			<output>
				<port id="1" precision="FP32">
					<dim>1</dim>
					<dim>184</dim>
					<dim>1</dim>
					<dim>1</dim>
					<dim>1</dim>
				</port>
			</output>
		</layer>
		<layer id="223" name="497" type="Add" version="opset1">
			<data auto_broadcast="numpy" />
			<input>
				<port id="0" precision="FP32">
					<dim>1</dim>
					<dim>184</dim>
					<dim>8</dim>
					<dim>14</dim>
					<dim>14</dim>
				</port>
				<port id="1" precision="FP32">
					<dim>1</dim>
					<dim>184</dim>
					<dim>1</dim>
					<dim>1</dim>
					<dim>1</dim>
				</port>
			</input>
			<output>
				<port id="2" precision="FP32" names="497">
					<dim>1</dim>
					<dim>184</dim>
					<dim>8</dim>
					<dim>14</dim>
					<dim>14</dim>
				</port>
			</output>
		</layer>
		<layer id="224" name="503" type="HSwish" version="opset4">
			<input>
				<port id="0" precision="FP32">
					<dim>1</dim>
					<dim>184</dim>
					<dim>8</dim>
					<dim>14</dim>
					<dim>14</dim>
				</port>
			</input>
			<output>
				<port id="1" precision="FP32" names="503">
					<dim>1</dim>
					<dim>184</dim>
					<dim>8</dim>
					<dim>14</dim>
					<dim>14</dim>
				</port>
			</output>
		</layer>
		<layer id="225" name="Multiply_9125_compressed" type="Const" version="opset1">
			<data element_type="f16" shape="184, 1, 1, 1, 3, 3" offset="579586" size="3312" />
			<output>
				<port id="0" precision="FP16">
					<dim>184</dim>
					<dim>1</dim>
					<dim>1</dim>
					<dim>1</dim>
					<dim>3</dim>
					<dim>3</dim>
				</port>
			</output>
		</layer>
		<layer id="226" name="Multiply_9125" type="Convert" version="opset1">
			<data destination_type="f32" />
			<rt_info>
				<attribute name="decompression" version="0" />
			</rt_info>
			<input>
				<port id="0" precision="FP16">
					<dim>184</dim>
					<dim>1</dim>
					<dim>1</dim>
					<dim>1</dim>
					<dim>3</dim>
					<dim>3</dim>
				</port>
			</input>
			<output>
				<port id="1" precision="FP32">
					<dim>184</dim>
					<dim>1</dim>
					<dim>1</dim>
					<dim>1</dim>
					<dim>3</dim>
					<dim>3</dim>
				</port>
			</output>
		</layer>
		<layer id="227" name="Multiply_8766" type="GroupConvolution" version="opset1">
			<data strides="1, 1, 1" pads_begin="0, 1, 1" pads_end="0, 1, 1" dilations="1, 1, 1" auto_pad="explicit" />
			<input>
				<port id="0" precision="FP32">
					<dim>1</dim>
					<dim>184</dim>
					<dim>8</dim>
					<dim>14</dim>
					<dim>14</dim>
				</port>
				<port id="1" precision="FP32">
					<dim>184</dim>
					<dim>1</dim>
					<dim>1</dim>
					<dim>1</dim>
					<dim>3</dim>
					<dim>3</dim>
				</port>
			</input>
			<output>
				<port id="2" precision="FP32" names="504">
					<dim>1</dim>
					<dim>184</dim>
					<dim>8</dim>
					<dim>14</dim>
					<dim>14</dim>
				</port>
			</output>
		</layer>
		<layer id="228" name="Constant_8771_compressed" type="Const" version="opset1">
			<data element_type="f16" shape="1, 184, 1, 1, 1" offset="582898" size="368" />
			<output>
				<port id="0" precision="FP16">
					<dim>1</dim>
					<dim>184</dim>
					<dim>1</dim>
					<dim>1</dim>
					<dim>1</dim>
				</port>
			</output>
		</layer>
		<layer id="229" name="Constant_8771" type="Convert" version="opset1">
			<data destination_type="f32" />
			<rt_info>
				<attribute name="decompression" version="0" />
			</rt_info>
			<input>
				<port id="0" precision="FP16">
					<dim>1</dim>
					<dim>184</dim>
					<dim>1</dim>
					<dim>1</dim>
					<dim>1</dim>
				</port>
			</input>
			<output>
				<port id="1" precision="FP32">
					<dim>1</dim>
					<dim>184</dim>
					<dim>1</dim>
					<dim>1</dim>
					<dim>1</dim>
				</port>
			</output>
		</layer>
		<layer id="230" name="505" type="Add" version="opset1">
			<data auto_broadcast="numpy" />
			<input>
				<port id="0" precision="FP32">
					<dim>1</dim>
					<dim>184</dim>
					<dim>8</dim>
					<dim>14</dim>
					<dim>14</dim>
				</port>
				<port id="1" precision="FP32">
					<dim>1</dim>
					<dim>184</dim>
					<dim>1</dim>
					<dim>1</dim>
					<dim>1</dim>
				</port>
			</input>
			<output>
				<port id="2" precision="FP32" names="505">
					<dim>1</dim>
					<dim>184</dim>
					<dim>8</dim>
					<dim>14</dim>
					<dim>14</dim>
				</port>
			</output>
		</layer>
		<layer id="231" name="511" type="HSwish" version="opset4">
			<input>
				<port id="0" precision="FP32">
					<dim>1</dim>
					<dim>184</dim>
					<dim>8</dim>
					<dim>14</dim>
					<dim>14</dim>
				</port>
			</input>
			<output>
				<port id="1" precision="FP32" names="511">
					<dim>1</dim>
					<dim>184</dim>
					<dim>8</dim>
					<dim>14</dim>
					<dim>14</dim>
				</port>
			</output>
		</layer>
		<layer id="232" name="Multiply_9130_compressed" type="Const" version="opset1">
			<data element_type="f16" shape="80, 184, 3, 1, 1" offset="583266" size="88320" />
			<output>
				<port id="0" precision="FP16">
					<dim>80</dim>
					<dim>184</dim>
					<dim>3</dim>
					<dim>1</dim>
					<dim>1</dim>
				</port>
			</output>
		</layer>
		<layer id="233" name="Multiply_9130" type="Convert" version="opset1">
			<data destination_type="f32" />
			<rt_info>
				<attribute name="decompression" version="0" />
			</rt_info>
			<input>
				<port id="0" precision="FP16">
					<dim>80</dim>
					<dim>184</dim>
					<dim>3</dim>
					<dim>1</dim>
					<dim>1</dim>
				</port>
			</input>
			<output>
				<port id="1" precision="FP32">
					<dim>80</dim>
					<dim>184</dim>
					<dim>3</dim>
					<dim>1</dim>
					<dim>1</dim>
				</port>
			</output>
		</layer>
		<layer id="234" name="Multiply_8773" type="Convolution" version="opset1">
			<data strides="1, 1, 1" dilations="1, 1, 1" pads_begin="1, 0, 0" pads_end="1, 0, 0" auto_pad="explicit" />
			<input>
				<port id="0" precision="FP32">
					<dim>1</dim>
					<dim>184</dim>
					<dim>8</dim>
					<dim>14</dim>
					<dim>14</dim>
				</port>
				<port id="1" precision="FP32">
					<dim>80</dim>
					<dim>184</dim>
					<dim>3</dim>
					<dim>1</dim>
					<dim>1</dim>
				</port>
			</input>
			<output>
				<port id="2" precision="FP32">
					<dim>1</dim>
					<dim>80</dim>
					<dim>8</dim>
					<dim>14</dim>
					<dim>14</dim>
				</port>
			</output>
		</layer>
		<layer id="235" name="Constant_8778_compressed" type="Const" version="opset1">
			<data element_type="f16" shape="1, 80, 1, 1, 1" offset="671586" size="160" />
			<output>
				<port id="0" precision="FP16">
					<dim>1</dim>
					<dim>80</dim>
					<dim>1</dim>
					<dim>1</dim>
					<dim>1</dim>
				</port>
			</output>
		</layer>
		<layer id="236" name="Constant_8778" type="Convert" version="opset1">
			<data destination_type="f32" />
			<rt_info>
				<attribute name="decompression" version="0" />
			</rt_info>
			<input>
				<port id="0" precision="FP16">
					<dim>1</dim>
					<dim>80</dim>
					<dim>1</dim>
					<dim>1</dim>
					<dim>1</dim>
				</port>
			</input>
			<output>
				<port id="1" precision="FP32">
					<dim>1</dim>
					<dim>80</dim>
					<dim>1</dim>
					<dim>1</dim>
					<dim>1</dim>
				</port>
			</output>
		</layer>
		<layer id="237" name="513" type="Add" version="opset1">
			<data auto_broadcast="numpy" />
			<input>
				<port id="0" precision="FP32">
					<dim>1</dim>
					<dim>80</dim>
					<dim>8</dim>
					<dim>14</dim>
					<dim>14</dim>
				</port>
				<port id="1" precision="FP32">
					<dim>1</dim>
					<dim>80</dim>
					<dim>1</dim>
					<dim>1</dim>
					<dim>1</dim>
				</port>
			</input>
			<output>
				<port id="2" precision="FP32" names="513">
					<dim>1</dim>
					<dim>80</dim>
					<dim>8</dim>
					<dim>14</dim>
					<dim>14</dim>
				</port>
			</output>
		</layer>
		<layer id="238" name="514" type="Add" version="opset1">
			<data auto_broadcast="numpy" />
			<input>
				<port id="0" precision="FP32">
					<dim>1</dim>
					<dim>80</dim>
					<dim>8</dim>
					<dim>14</dim>
					<dim>14</dim>
				</port>
				<port id="1" precision="FP32">
					<dim>1</dim>
					<dim>80</dim>
					<dim>8</dim>
					<dim>14</dim>
					<dim>14</dim>
				</port>
			</input>
			<output>
				<port id="2" precision="FP32" names="514">
					<dim>1</dim>
					<dim>80</dim>
					<dim>8</dim>
					<dim>14</dim>
					<dim>14</dim>
				</port>
			</output>
		</layer>
		<layer id="239" name="Multiply_9136_compressed" type="Const" version="opset1">
			<data element_type="f16" shape="184, 80, 1, 1, 1" offset="671746" size="29440" />
			<output>
				<port id="0" precision="FP16">
					<dim>184</dim>
					<dim>80</dim>
					<dim>1</dim>
					<dim>1</dim>
					<dim>1</dim>
				</port>
			</output>
		</layer>
		<layer id="240" name="Multiply_9136" type="Convert" version="opset1">
			<data destination_type="f32" />
			<rt_info>
				<attribute name="decompression" version="0" />
			</rt_info>
			<input>
				<port id="0" precision="FP16">
					<dim>184</dim>
					<dim>80</dim>
					<dim>1</dim>
					<dim>1</dim>
					<dim>1</dim>
				</port>
			</input>
			<output>
				<port id="1" precision="FP32">
					<dim>184</dim>
					<dim>80</dim>
					<dim>1</dim>
					<dim>1</dim>
					<dim>1</dim>
				</port>
			</output>
		</layer>
		<layer id="241" name="Multiply_8780" type="Convolution" version="opset1">
			<data strides="1, 1, 1" dilations="1, 1, 1" pads_begin="0, 0, 0" pads_end="0, 0, 0" auto_pad="explicit" />
			<input>
				<port id="0" precision="FP32">
					<dim>1</dim>
					<dim>80</dim>
					<dim>8</dim>
					<dim>14</dim>
					<dim>14</dim>
				</port>
				<port id="1" precision="FP32">
					<dim>184</dim>
					<dim>80</dim>
					<dim>1</dim>
					<dim>1</dim>
					<dim>1</dim>
				</port>
			</input>
			<output>
				<port id="2" precision="FP32">
					<dim>1</dim>
					<dim>184</dim>
					<dim>8</dim>
					<dim>14</dim>
					<dim>14</dim>
				</port>
			</output>
		</layer>
		<layer id="242" name="Constant_8785_compressed" type="Const" version="opset1">
			<data element_type="f16" shape="1, 184, 1, 1, 1" offset="701186" size="368" />
			<output>
				<port id="0" precision="FP16">
					<dim>1</dim>
					<dim>184</dim>
					<dim>1</dim>
					<dim>1</dim>
					<dim>1</dim>
				</port>
			</output>
		</layer>
		<layer id="243" name="Constant_8785" type="Convert" version="opset1">
			<data destination_type="f32" />
			<rt_info>
				<attribute name="decompression" version="0" />
			</rt_info>
			<input>
				<port id="0" precision="FP16">
					<dim>1</dim>
					<dim>184</dim>
					<dim>1</dim>
					<dim>1</dim>
					<dim>1</dim>
				</port>
			</input>
			<output>
				<port id="1" precision="FP32">
					<dim>1</dim>
					<dim>184</dim>
					<dim>1</dim>
					<dim>1</dim>
					<dim>1</dim>
				</port>
			</output>
		</layer>
		<layer id="244" name="516" type="Add" version="opset1">
			<data auto_broadcast="numpy" />
			<input>
				<port id="0" precision="FP32">
					<dim>1</dim>
					<dim>184</dim>
					<dim>8</dim>
					<dim>14</dim>
					<dim>14</dim>
				</port>
				<port id="1" precision="FP32">
					<dim>1</dim>
					<dim>184</dim>
					<dim>1</dim>
					<dim>1</dim>
					<dim>1</dim>
				</port>
			</input>
			<output>
				<port id="2" precision="FP32" names="516">
					<dim>1</dim>
					<dim>184</dim>
					<dim>8</dim>
					<dim>14</dim>
					<dim>14</dim>
				</port>
			</output>
		</layer>
		<layer id="245" name="522" type="HSwish" version="opset4">
			<input>
				<port id="0" precision="FP32">
					<dim>1</dim>
					<dim>184</dim>
					<dim>8</dim>
					<dim>14</dim>
					<dim>14</dim>
				</port>
			</input>
			<output>
				<port id="1" precision="FP32" names="522">
					<dim>1</dim>
					<dim>184</dim>
					<dim>8</dim>
					<dim>14</dim>
					<dim>14</dim>
				</port>
			</output>
		</layer>
		<layer id="246" name="Multiply_9142_compressed" type="Const" version="opset1">
			<data element_type="f16" shape="184, 1, 1, 1, 3, 3" offset="701554" size="3312" />
			<output>
				<port id="0" precision="FP16">
					<dim>184</dim>
					<dim>1</dim>
					<dim>1</dim>
					<dim>1</dim>
					<dim>3</dim>
					<dim>3</dim>
				</port>
			</output>
		</layer>
		<layer id="247" name="Multiply_9142" type="Convert" version="opset1">
			<data destination_type="f32" />
			<rt_info>
				<attribute name="decompression" version="0" />
			</rt_info>
			<input>
				<port id="0" precision="FP16">
					<dim>184</dim>
					<dim>1</dim>
					<dim>1</dim>
					<dim>1</dim>
					<dim>3</dim>
					<dim>3</dim>
				</port>
			</input>
			<output>
				<port id="1" precision="FP32">
					<dim>184</dim>
					<dim>1</dim>
					<dim>1</dim>
					<dim>1</dim>
					<dim>3</dim>
					<dim>3</dim>
				</port>
			</output>
		</layer>
		<layer id="248" name="Multiply_8787" type="GroupConvolution" version="opset1">
			<data strides="1, 1, 1" pads_begin="0, 1, 1" pads_end="0, 1, 1" dilations="1, 1, 1" auto_pad="explicit" />
			<input>
				<port id="0" precision="FP32">
					<dim>1</dim>
					<dim>184</dim>
					<dim>8</dim>
					<dim>14</dim>
					<dim>14</dim>
				</port>
				<port id="1" precision="FP32">
					<dim>184</dim>
					<dim>1</dim>
					<dim>1</dim>
					<dim>1</dim>
					<dim>3</dim>
					<dim>3</dim>
				</port>
			</input>
			<output>
				<port id="2" precision="FP32" names="523">
					<dim>1</dim>
					<dim>184</dim>
					<dim>8</dim>
					<dim>14</dim>
					<dim>14</dim>
				</port>
			</output>
		</layer>
		<layer id="249" name="Constant_8792_compressed" type="Const" version="opset1">
			<data element_type="f16" shape="1, 184, 1, 1, 1" offset="704866" size="368" />
			<output>
				<port id="0" precision="FP16">
					<dim>1</dim>
					<dim>184</dim>
					<dim>1</dim>
					<dim>1</dim>
					<dim>1</dim>
				</port>
			</output>
		</layer>
		<layer id="250" name="Constant_8792" type="Convert" version="opset1">
			<data destination_type="f32" />
			<rt_info>
				<attribute name="decompression" version="0" />
			</rt_info>
			<input>
				<port id="0" precision="FP16">
					<dim>1</dim>
					<dim>184</dim>
					<dim>1</dim>
					<dim>1</dim>
					<dim>1</dim>
				</port>
			</input>
			<output>
				<port id="1" precision="FP32">
					<dim>1</dim>
					<dim>184</dim>
					<dim>1</dim>
					<dim>1</dim>
					<dim>1</dim>
				</port>
			</output>
		</layer>
		<layer id="251" name="524" type="Add" version="opset1">
			<data auto_broadcast="numpy" />
			<input>
				<port id="0" precision="FP32">
					<dim>1</dim>
					<dim>184</dim>
					<dim>8</dim>
					<dim>14</dim>
					<dim>14</dim>
				</port>
				<port id="1" precision="FP32">
					<dim>1</dim>
					<dim>184</dim>
					<dim>1</dim>
					<dim>1</dim>
					<dim>1</dim>
				</port>
			</input>
			<output>
				<port id="2" precision="FP32" names="524">
					<dim>1</dim>
					<dim>184</dim>
					<dim>8</dim>
					<dim>14</dim>
					<dim>14</dim>
				</port>
			</output>
		</layer>
		<layer id="252" name="530" type="HSwish" version="opset4">
			<input>
				<port id="0" precision="FP32">
					<dim>1</dim>
					<dim>184</dim>
					<dim>8</dim>
					<dim>14</dim>
					<dim>14</dim>
				</port>
			</input>
			<output>
				<port id="1" precision="FP32" names="530">
					<dim>1</dim>
					<dim>184</dim>
					<dim>8</dim>
					<dim>14</dim>
					<dim>14</dim>
				</port>
			</output>
		</layer>
		<layer id="253" name="Multiply_9147_compressed" type="Const" version="opset1">
			<data element_type="f16" shape="80, 184, 5, 1, 1" offset="705234" size="147200" />
			<output>
				<port id="0" precision="FP16">
					<dim>80</dim>
					<dim>184</dim>
					<dim>5</dim>
					<dim>1</dim>
					<dim>1</dim>
				</port>
			</output>
		</layer>
		<layer id="254" name="Multiply_9147" type="Convert" version="opset1">
			<data destination_type="f32" />
			<rt_info>
				<attribute name="decompression" version="0" />
			</rt_info>
			<input>
				<port id="0" precision="FP16">
					<dim>80</dim>
					<dim>184</dim>
					<dim>5</dim>
					<dim>1</dim>
					<dim>1</dim>
				</port>
			</input>
			<output>
				<port id="1" precision="FP32">
					<dim>80</dim>
					<dim>184</dim>
					<dim>5</dim>
					<dim>1</dim>
					<dim>1</dim>
				</port>
			</output>
		</layer>
		<layer id="255" name="Multiply_8794" type="Convolution" version="opset1">
			<data strides="1, 1, 1" dilations="1, 1, 1" pads_begin="2, 0, 0" pads_end="2, 0, 0" auto_pad="explicit" />
			<input>
				<port id="0" precision="FP32">
					<dim>1</dim>
					<dim>184</dim>
					<dim>8</dim>
					<dim>14</dim>
					<dim>14</dim>
				</port>
				<port id="1" precision="FP32">
					<dim>80</dim>
					<dim>184</dim>
					<dim>5</dim>
					<dim>1</dim>
					<dim>1</dim>
				</port>
			</input>
			<output>
				<port id="2" precision="FP32">
					<dim>1</dim>
					<dim>80</dim>
					<dim>8</dim>
					<dim>14</dim>
					<dim>14</dim>
				</port>
			</output>
		</layer>
		<layer id="256" name="Constant_8799_compressed" type="Const" version="opset1">
			<data element_type="f16" shape="1, 80, 1, 1, 1" offset="852434" size="160" />
			<output>
				<port id="0" precision="FP16">
					<dim>1</dim>
					<dim>80</dim>
					<dim>1</dim>
					<dim>1</dim>
					<dim>1</dim>
				</port>
			</output>
		</layer>
		<layer id="257" name="Constant_8799" type="Convert" version="opset1">
			<data destination_type="f32" />
			<rt_info>
				<attribute name="decompression" version="0" />
			</rt_info>
			<input>
				<port id="0" precision="FP16">
					<dim>1</dim>
					<dim>80</dim>
					<dim>1</dim>
					<dim>1</dim>
					<dim>1</dim>
				</port>
			</input>
			<output>
				<port id="1" precision="FP32">
					<dim>1</dim>
					<dim>80</dim>
					<dim>1</dim>
					<dim>1</dim>
					<dim>1</dim>
				</port>
			</output>
		</layer>
		<layer id="258" name="532" type="Add" version="opset1">
			<data auto_broadcast="numpy" />
			<input>
				<port id="0" precision="FP32">
					<dim>1</dim>
					<dim>80</dim>
					<dim>8</dim>
					<dim>14</dim>
					<dim>14</dim>
				</port>
				<port id="1" precision="FP32">
					<dim>1</dim>
					<dim>80</dim>
					<dim>1</dim>
					<dim>1</dim>
					<dim>1</dim>
				</port>
			</input>
			<output>
				<port id="2" precision="FP32" names="532">
					<dim>1</dim>
					<dim>80</dim>
					<dim>8</dim>
					<dim>14</dim>
					<dim>14</dim>
				</port>
			</output>
		</layer>
		<layer id="259" name="533" type="Add" version="opset1">
			<data auto_broadcast="numpy" />
			<input>
				<port id="0" precision="FP32">
					<dim>1</dim>
					<dim>80</dim>
					<dim>8</dim>
					<dim>14</dim>
					<dim>14</dim>
				</port>
				<port id="1" precision="FP32">
					<dim>1</dim>
					<dim>80</dim>
					<dim>8</dim>
					<dim>14</dim>
					<dim>14</dim>
				</port>
			</input>
			<output>
				<port id="2" precision="FP32" names="533,544">
					<dim>1</dim>
					<dim>80</dim>
					<dim>8</dim>
					<dim>14</dim>
					<dim>14</dim>
				</port>
			</output>
		</layer>
		<layer id="260" name="Multiply_9153_compressed" type="Const" version="opset1">
			<data element_type="f16" shape="80, 1, 1, 1, 3, 3" offset="852594" size="1440" />
			<output>
				<port id="0" precision="FP16">
					<dim>80</dim>
					<dim>1</dim>
					<dim>1</dim>
					<dim>1</dim>
					<dim>3</dim>
					<dim>3</dim>
				</port>
			</output>
		</layer>
		<layer id="261" name="Multiply_9153" type="Convert" version="opset1">
			<data destination_type="f32" />
			<rt_info>
				<attribute name="decompression" version="0" />
			</rt_info>
			<input>
				<port id="0" precision="FP16">
					<dim>80</dim>
					<dim>1</dim>
					<dim>1</dim>
					<dim>1</dim>
					<dim>3</dim>
					<dim>3</dim>
				</port>
			</input>
			<output>
				<port id="1" precision="FP32">
					<dim>80</dim>
					<dim>1</dim>
					<dim>1</dim>
					<dim>1</dim>
					<dim>3</dim>
					<dim>3</dim>
				</port>
			</output>
		</layer>
		<layer id="262" name="Multiply_8801" type="GroupConvolution" version="opset1">
			<data strides="1, 1, 1" pads_begin="0, 1, 1" pads_end="0, 1, 1" dilations="1, 1, 1" auto_pad="explicit" />
			<input>
				<port id="0" precision="FP32">
					<dim>1</dim>
					<dim>80</dim>
					<dim>8</dim>
					<dim>14</dim>
					<dim>14</dim>
				</port>
				<port id="1" precision="FP32">
					<dim>80</dim>
					<dim>1</dim>
					<dim>1</dim>
					<dim>1</dim>
					<dim>3</dim>
					<dim>3</dim>
				</port>
			</input>
			<output>
				<port id="2" precision="FP32" names="534">
					<dim>1</dim>
					<dim>80</dim>
					<dim>8</dim>
					<dim>14</dim>
					<dim>14</dim>
				</port>
			</output>
		</layer>
		<layer id="263" name="Constant_8806_compressed" type="Const" version="opset1">
			<data element_type="f16" shape="1, 80, 1, 1, 1" offset="854034" size="160" />
			<output>
				<port id="0" precision="FP16">
					<dim>1</dim>
					<dim>80</dim>
					<dim>1</dim>
					<dim>1</dim>
					<dim>1</dim>
				</port>
			</output>
		</layer>
		<layer id="264" name="Constant_8806" type="Convert" version="opset1">
			<data destination_type="f32" />
			<rt_info>
				<attribute name="decompression" version="0" />
			</rt_info>
			<input>
				<port id="0" precision="FP16">
					<dim>1</dim>
					<dim>80</dim>
					<dim>1</dim>
					<dim>1</dim>
					<dim>1</dim>
				</port>
			</input>
			<output>
				<port id="1" precision="FP32">
					<dim>1</dim>
					<dim>80</dim>
					<dim>1</dim>
					<dim>1</dim>
					<dim>1</dim>
				</port>
			</output>
		</layer>
		<layer id="265" name="535" type="Add" version="opset1">
			<data auto_broadcast="numpy" />
			<input>
				<port id="0" precision="FP32">
					<dim>1</dim>
					<dim>80</dim>
					<dim>8</dim>
					<dim>14</dim>
					<dim>14</dim>
				</port>
				<port id="1" precision="FP32">
					<dim>1</dim>
					<dim>80</dim>
					<dim>1</dim>
					<dim>1</dim>
					<dim>1</dim>
				</port>
			</input>
			<output>
				<port id="2" precision="FP32" names="535">
					<dim>1</dim>
					<dim>80</dim>
					<dim>8</dim>
					<dim>14</dim>
					<dim>14</dim>
				</port>
			</output>
		</layer>
		<layer id="266" name="541" type="HSwish" version="opset4">
			<input>
				<port id="0" precision="FP32">
					<dim>1</dim>
					<dim>80</dim>
					<dim>8</dim>
					<dim>14</dim>
					<dim>14</dim>
				</port>
			</input>
			<output>
				<port id="1" precision="FP32" names="541">
					<dim>1</dim>
					<dim>80</dim>
					<dim>8</dim>
					<dim>14</dim>
					<dim>14</dim>
				</port>
			</output>
		</layer>
		<layer id="267" name="Multiply_9154_compressed" type="Const" version="opset1">
			<data element_type="f16" shape="1, 80, 1, 1, 1" offset="854194" size="160" />
			<output>
				<port id="0" precision="FP16">
					<dim>1</dim>
					<dim>80</dim>
					<dim>1</dim>
					<dim>1</dim>
					<dim>1</dim>
				</port>
			</output>
		</layer>
		<layer id="268" name="Multiply_9154" type="Convert" version="opset1">
			<data destination_type="f32" />
			<rt_info>
				<attribute name="decompression" version="0" />
			</rt_info>
			<input>
				<port id="0" precision="FP16">
					<dim>1</dim>
					<dim>80</dim>
					<dim>1</dim>
					<dim>1</dim>
					<dim>1</dim>
				</port>
			</input>
			<output>
				<port id="1" precision="FP32">
					<dim>1</dim>
					<dim>80</dim>
					<dim>1</dim>
					<dim>1</dim>
					<dim>1</dim>
				</port>
			</output>
		</layer>
		<layer id="269" name="Multiply_8808" type="Convolution" version="opset1">
			<data strides="1, 1, 1" dilations="1, 1, 1" pads_begin="0, 0, 0" pads_end="0, 0, 0" auto_pad="explicit" />
			<input>
				<port id="0" precision="FP32">
					<dim>1</dim>
					<dim>80</dim>
					<dim>8</dim>
					<dim>14</dim>
					<dim>14</dim>
				</port>
				<port id="1" precision="FP32">
					<dim>1</dim>
					<dim>80</dim>
					<dim>1</dim>
					<dim>1</dim>
					<dim>1</dim>
				</port>
			</input>
			<output>
				<port id="2" precision="FP32">
					<dim>1</dim>
					<dim>1</dim>
					<dim>8</dim>
					<dim>14</dim>
					<dim>14</dim>
				</port>
			</output>
		</layer>
		<layer id="270" name="Constant_8813_compressed" type="Const" version="opset1">
			<data element_type="f16" shape="1, 1, 1, 1, 1" offset="854354" size="2" />
			<output>
				<port id="0" precision="FP16">
					<dim>1</dim>
					<dim>1</dim>
					<dim>1</dim>
					<dim>1</dim>
					<dim>1</dim>
				</port>
			</output>
		</layer>
		<layer id="271" name="Constant_8813" type="Convert" version="opset1">
			<data destination_type="f32" />
			<rt_info>
				<attribute name="decompression" version="0" />
			</rt_info>
			<input>
				<port id="0" precision="FP16">
					<dim>1</dim>
					<dim>1</dim>
					<dim>1</dim>
					<dim>1</dim>
					<dim>1</dim>
				</port>
			</input>
			<output>
				<port id="1" precision="FP32">
					<dim>1</dim>
					<dim>1</dim>
					<dim>1</dim>
					<dim>1</dim>
					<dim>1</dim>
				</port>
			</output>
		</layer>
		<layer id="272" name="543" type="Add" version="opset1">
			<data auto_broadcast="numpy" />
			<input>
				<port id="0" precision="FP32">
					<dim>1</dim>
					<dim>1</dim>
					<dim>8</dim>
					<dim>14</dim>
					<dim>14</dim>
				</port>
				<port id="1" precision="FP32">
					<dim>1</dim>
					<dim>1</dim>
					<dim>1</dim>
					<dim>1</dim>
					<dim>1</dim>
				</port>
			</input>
			<output>
				<port id="2" precision="FP32" names="543">
					<dim>1</dim>
					<dim>1</dim>
					<dim>8</dim>
					<dim>14</dim>
					<dim>14</dim>
				</port>
			</output>
		</layer>
		<layer id="273" name="545" type="AvgPool" version="opset1">
			<data kernel="1, 14, 14" strides="1, 1, 1" pads_begin="0, 0, 0" pads_end="0, 0, 0" exclude-pad="true" auto_pad="explicit" rounding_type="floor" />
			<input>
				<port id="0" precision="FP32">
					<dim>1</dim>
					<dim>80</dim>
					<dim>8</dim>
					<dim>14</dim>
					<dim>14</dim>
				</port>
			</input>
			<output>
				<port id="1" precision="FP32" names="545">
					<dim>1</dim>
					<dim>80</dim>
					<dim>8</dim>
					<dim>1</dim>
					<dim>1</dim>
				</port>
			</output>
		</layer>
		<layer id="274" name="Multiply_9160_compressed" type="Const" version="opset1">
			<data element_type="f16" shape="80, 1, 1, 3, 1, 1" offset="854356" size="480" />
			<output>
				<port id="0" precision="FP16">
					<dim>80</dim>
					<dim>1</dim>
					<dim>1</dim>
					<dim>3</dim>
					<dim>1</dim>
					<dim>1</dim>
				</port>
			</output>
		</layer>
		<layer id="275" name="Multiply_9160" type="Convert" version="opset1">
			<data destination_type="f32" />
			<rt_info>
				<attribute name="decompression" version="0" />
			</rt_info>
			<input>
				<port id="0" precision="FP16">
					<dim>80</dim>
					<dim>1</dim>
					<dim>1</dim>
					<dim>3</dim>
					<dim>1</dim>
					<dim>1</dim>
				</port>
			</input>
			<output>
				<port id="1" precision="FP32">
					<dim>80</dim>
					<dim>1</dim>
					<dim>1</dim>
					<dim>3</dim>
					<dim>1</dim>
					<dim>1</dim>
				</port>
			</output>
		</layer>
		<layer id="276" name="Multiply_8815" type="GroupConvolution" version="opset1">
			<data strides="1, 1, 1" pads_begin="1, 0, 0" pads_end="1, 0, 0" dilations="1, 1, 1" auto_pad="explicit" />
			<input>
				<port id="0" precision="FP32">
					<dim>1</dim>
					<dim>80</dim>
					<dim>8</dim>
					<dim>1</dim>
					<dim>1</dim>
				</port>
				<port id="1" precision="FP32">
					<dim>80</dim>
					<dim>1</dim>
					<dim>1</dim>
					<dim>3</dim>
					<dim>1</dim>
					<dim>1</dim>
				</port>
			</input>
			<output>
				<port id="2" precision="FP32" names="546">
					<dim>1</dim>
					<dim>80</dim>
					<dim>8</dim>
					<dim>1</dim>
					<dim>1</dim>
				</port>
			</output>
		</layer>
		<layer id="277" name="Constant_8820_compressed" type="Const" version="opset1">
			<data element_type="f16" shape="1, 80, 1, 1, 1" offset="854836" size="160" />
			<output>
				<port id="0" precision="FP16">
					<dim>1</dim>
					<dim>80</dim>
					<dim>1</dim>
					<dim>1</dim>
					<dim>1</dim>
				</port>
			</output>
		</layer>
		<layer id="278" name="Constant_8820" type="Convert" version="opset1">
			<data destination_type="f32" />
			<rt_info>
				<attribute name="decompression" version="0" />
			</rt_info>
			<input>
				<port id="0" precision="FP16">
					<dim>1</dim>
					<dim>80</dim>
					<dim>1</dim>
					<dim>1</dim>
					<dim>1</dim>
				</port>
			</input>
			<output>
				<port id="1" precision="FP32">
					<dim>1</dim>
					<dim>80</dim>
					<dim>1</dim>
					<dim>1</dim>
					<dim>1</dim>
				</port>
			</output>
		</layer>
		<layer id="279" name="547" type="Add" version="opset1">
			<data auto_broadcast="numpy" />
			<input>
				<port id="0" precision="FP32">
					<dim>1</dim>
					<dim>80</dim>
					<dim>8</dim>
					<dim>1</dim>
					<dim>1</dim>
				</port>
				<port id="1" precision="FP32">
					<dim>1</dim>
					<dim>80</dim>
					<dim>1</dim>
					<dim>1</dim>
					<dim>1</dim>
				</port>
			</input>
			<output>
				<port id="2" precision="FP32" names="547">
					<dim>1</dim>
					<dim>80</dim>
					<dim>8</dim>
					<dim>1</dim>
					<dim>1</dim>
				</port>
			</output>
		</layer>
		<layer id="280" name="553" type="HSwish" version="opset4">
			<input>
				<port id="0" precision="FP32">
					<dim>1</dim>
					<dim>80</dim>
					<dim>8</dim>
					<dim>1</dim>
					<dim>1</dim>
				</port>
			</input>
			<output>
				<port id="1" precision="FP32" names="553">
					<dim>1</dim>
					<dim>80</dim>
					<dim>8</dim>
					<dim>1</dim>
					<dim>1</dim>
				</port>
			</output>
		</layer>
		<layer id="281" name="Multiply_9161_compressed" type="Const" version="opset1">
			<data element_type="f16" shape="1, 80, 1, 1, 1" offset="854996" size="160" />
			<output>
				<port id="0" precision="FP16">
					<dim>1</dim>
					<dim>80</dim>
					<dim>1</dim>
					<dim>1</dim>
					<dim>1</dim>
				</port>
			</output>
		</layer>
		<layer id="282" name="Multiply_9161" type="Convert" version="opset1">
			<data destination_type="f32" />
			<rt_info>
				<attribute name="decompression" version="0" />
			</rt_info>
			<input>
				<port id="0" precision="FP16">
					<dim>1</dim>
					<dim>80</dim>
					<dim>1</dim>
					<dim>1</dim>
					<dim>1</dim>
				</port>
			</input>
			<output>
				<port id="1" precision="FP32">
					<dim>1</dim>
					<dim>80</dim>
					<dim>1</dim>
					<dim>1</dim>
					<dim>1</dim>
				</port>
			</output>
		</layer>
		<layer id="283" name="Multiply_8822" type="Convolution" version="opset1">
			<data strides="1, 1, 1" dilations="1, 1, 1" pads_begin="0, 0, 0" pads_end="0, 0, 0" auto_pad="explicit" />
			<input>
				<port id="0" precision="FP32">
					<dim>1</dim>
					<dim>80</dim>
					<dim>8</dim>
					<dim>1</dim>
					<dim>1</dim>
				</port>
				<port id="1" precision="FP32">
					<dim>1</dim>
					<dim>80</dim>
					<dim>1</dim>
					<dim>1</dim>
					<dim>1</dim>
				</port>
			</input>
			<output>
				<port id="2" precision="FP32">
					<dim>1</dim>
					<dim>1</dim>
					<dim>8</dim>
					<dim>1</dim>
					<dim>1</dim>
				</port>
			</output>
		</layer>
		<layer id="284" name="Constant_8827_compressed" type="Const" version="opset1">
			<data element_type="f16" shape="1, 1, 1, 1, 1" offset="855156" size="2" />
			<output>
				<port id="0" precision="FP16">
					<dim>1</dim>
					<dim>1</dim>
					<dim>1</dim>
					<dim>1</dim>
					<dim>1</dim>
				</port>
			</output>
		</layer>
		<layer id="285" name="Constant_8827" type="Convert" version="opset1">
			<data destination_type="f32" />
			<rt_info>
				<attribute name="decompression" version="0" />
			</rt_info>
			<input>
				<port id="0" precision="FP16">
					<dim>1</dim>
					<dim>1</dim>
					<dim>1</dim>
					<dim>1</dim>
					<dim>1</dim>
				</port>
			</input>
			<output>
				<port id="1" precision="FP32">
					<dim>1</dim>
					<dim>1</dim>
					<dim>1</dim>
					<dim>1</dim>
					<dim>1</dim>
				</port>
			</output>
		</layer>
		<layer id="286" name="555" type="Add" version="opset1">
			<data auto_broadcast="numpy" />
			<input>
				<port id="0" precision="FP32">
					<dim>1</dim>
					<dim>1</dim>
					<dim>8</dim>
					<dim>1</dim>
					<dim>1</dim>
				</port>
				<port id="1" precision="FP32">
					<dim>1</dim>
					<dim>1</dim>
					<dim>1</dim>
					<dim>1</dim>
					<dim>1</dim>
				</port>
			</input>
			<output>
				<port id="2" precision="FP32" names="555">
					<dim>1</dim>
					<dim>1</dim>
					<dim>8</dim>
					<dim>1</dim>
					<dim>1</dim>
				</port>
			</output>
		</layer>
		<layer id="287" name="556" type="Add" version="opset1">
			<data auto_broadcast="numpy" />
			<input>
				<port id="0" precision="FP32">
					<dim>1</dim>
					<dim>1</dim>
					<dim>8</dim>
					<dim>14</dim>
					<dim>14</dim>
				</port>
				<port id="1" precision="FP32">
					<dim>1</dim>
					<dim>1</dim>
					<dim>8</dim>
					<dim>1</dim>
					<dim>1</dim>
				</port>
			</input>
			<output>
				<port id="2" precision="FP32" names="556">
					<dim>1</dim>
					<dim>1</dim>
					<dim>8</dim>
					<dim>14</dim>
					<dim>14</dim>
				</port>
			</output>
		</layer>
		<layer id="288" name="557" type="Sigmoid" version="opset1">
			<input>
				<port id="0" precision="FP32">
					<dim>1</dim>
					<dim>1</dim>
					<dim>8</dim>
					<dim>14</dim>
					<dim>14</dim>
				</port>
			</input>
			<output>
				<port id="1" precision="FP32" names="557">
					<dim>1</dim>
					<dim>1</dim>
					<dim>8</dim>
					<dim>14</dim>
					<dim>14</dim>
				</port>
			</output>
		</layer>
		<layer id="289" name="Constant_9548_compressed" type="Const" version="opset1">
			<data element_type="f16" shape="1, 1, 1, 1, 1" offset="855158" size="2" />
			<output>
				<port id="0" precision="FP16">
					<dim>1</dim>
					<dim>1</dim>
					<dim>1</dim>
					<dim>1</dim>
					<dim>1</dim>
				</port>
			</output>
		</layer>
		<layer id="290" name="Constant_9548" type="Convert" version="opset1">
			<data destination_type="f32" />
			<rt_info>
				<attribute name="decompression" version="0" />
			</rt_info>
			<input>
				<port id="0" precision="FP16">
					<dim>1</dim>
					<dim>1</dim>
					<dim>1</dim>
					<dim>1</dim>
					<dim>1</dim>
				</port>
			</input>
			<output>
				<port id="1" precision="FP32">
					<dim>1</dim>
					<dim>1</dim>
					<dim>1</dim>
					<dim>1</dim>
					<dim>1</dim>
				</port>
			</output>
		</layer>
		<layer id="291" name="559" type="Add" version="opset1">
			<data auto_broadcast="numpy" />
			<input>
				<port id="0" precision="FP32">
					<dim>1</dim>
					<dim>1</dim>
					<dim>8</dim>
					<dim>14</dim>
					<dim>14</dim>
				</port>
				<port id="1" precision="FP32">
					<dim>1</dim>
					<dim>1</dim>
					<dim>1</dim>
					<dim>1</dim>
					<dim>1</dim>
				</port>
			</input>
			<output>
				<port id="2" precision="FP32" names="559">
					<dim>1</dim>
					<dim>1</dim>
					<dim>8</dim>
					<dim>14</dim>
					<dim>14</dim>
				</port>
			</output>
		</layer>
		<layer id="292" name="560" type="Multiply" version="opset1">
			<data auto_broadcast="numpy" />
			<input>
				<port id="0" precision="FP32">
					<dim>1</dim>
					<dim>1</dim>
					<dim>8</dim>
					<dim>14</dim>
					<dim>14</dim>
				</port>
				<port id="1" precision="FP32">
					<dim>1</dim>
					<dim>80</dim>
					<dim>8</dim>
					<dim>14</dim>
					<dim>14</dim>
				</port>
			</input>
			<output>
				<port id="2" precision="FP32" names="560">
					<dim>1</dim>
					<dim>80</dim>
					<dim>8</dim>
					<dim>14</dim>
					<dim>14</dim>
				</port>
			</output>
		</layer>
		<layer id="293" name="Multiply_9167_compressed" type="Const" version="opset1">
			<data element_type="f16" shape="480, 80, 1, 1, 1" offset="855160" size="76800" />
			<output>
				<port id="0" precision="FP16">
					<dim>480</dim>
					<dim>80</dim>
					<dim>1</dim>
					<dim>1</dim>
					<dim>1</dim>
				</port>
			</output>
		</layer>
		<layer id="294" name="Multiply_9167" type="Convert" version="opset1">
			<data destination_type="f32" />
			<rt_info>
				<attribute name="decompression" version="0" />
			</rt_info>
			<input>
				<port id="0" precision="FP16">
					<dim>480</dim>
					<dim>80</dim>
					<dim>1</dim>
					<dim>1</dim>
					<dim>1</dim>
				</port>
			</input>
			<output>
				<port id="1" precision="FP32">
					<dim>480</dim>
					<dim>80</dim>
					<dim>1</dim>
					<dim>1</dim>
					<dim>1</dim>
				</port>
			</output>
		</layer>
		<layer id="295" name="Multiply_8829" type="Convolution" version="opset1">
			<data strides="1, 1, 1" dilations="1, 1, 1" pads_begin="0, 0, 0" pads_end="0, 0, 0" auto_pad="explicit" />
			<input>
				<port id="0" precision="FP32">
					<dim>1</dim>
					<dim>80</dim>
					<dim>8</dim>
					<dim>14</dim>
					<dim>14</dim>
				</port>
				<port id="1" precision="FP32">
					<dim>480</dim>
					<dim>80</dim>
					<dim>1</dim>
					<dim>1</dim>
					<dim>1</dim>
				</port>
			</input>
			<output>
				<port id="2" precision="FP32">
					<dim>1</dim>
					<dim>480</dim>
					<dim>8</dim>
					<dim>14</dim>
					<dim>14</dim>
				</port>
			</output>
		</layer>
		<layer id="296" name="Constant_8834_compressed" type="Const" version="opset1">
			<data element_type="f16" shape="1, 480, 1, 1, 1" offset="931960" size="960" />
			<output>
				<port id="0" precision="FP16">
					<dim>1</dim>
					<dim>480</dim>
					<dim>1</dim>
					<dim>1</dim>
					<dim>1</dim>
				</port>
			</output>
		</layer>
		<layer id="297" name="Constant_8834" type="Convert" version="opset1">
			<data destination_type="f32" />
			<rt_info>
				<attribute name="decompression" version="0" />
			</rt_info>
			<input>
				<port id="0" precision="FP16">
					<dim>1</dim>
					<dim>480</dim>
					<dim>1</dim>
					<dim>1</dim>
					<dim>1</dim>
				</port>
			</input>
			<output>
				<port id="1" precision="FP32">
					<dim>1</dim>
					<dim>480</dim>
					<dim>1</dim>
					<dim>1</dim>
					<dim>1</dim>
				</port>
			</output>
		</layer>
		<layer id="298" name="562" type="Add" version="opset1">
			<data auto_broadcast="numpy" />
			<input>
				<port id="0" precision="FP32">
					<dim>1</dim>
					<dim>480</dim>
					<dim>8</dim>
					<dim>14</dim>
					<dim>14</dim>
				</port>
				<port id="1" precision="FP32">
					<dim>1</dim>
					<dim>480</dim>
					<dim>1</dim>
					<dim>1</dim>
					<dim>1</dim>
				</port>
			</input>
			<output>
				<port id="2" precision="FP32" names="562">
					<dim>1</dim>
					<dim>480</dim>
					<dim>8</dim>
					<dim>14</dim>
					<dim>14</dim>
				</port>
			</output>
		</layer>
		<layer id="299" name="568" type="HSwish" version="opset4">
			<input>
				<port id="0" precision="FP32">
					<dim>1</dim>
					<dim>480</dim>
					<dim>8</dim>
					<dim>14</dim>
					<dim>14</dim>
				</port>
			</input>
			<output>
				<port id="1" precision="FP32" names="568">
					<dim>1</dim>
					<dim>480</dim>
					<dim>8</dim>
					<dim>14</dim>
					<dim>14</dim>
				</port>
			</output>
		</layer>
		<layer id="300" name="Multiply_9173_compressed" type="Const" version="opset1">
			<data element_type="f16" shape="480, 1, 1, 1, 3, 3" offset="932920" size="8640" />
			<output>
				<port id="0" precision="FP16">
					<dim>480</dim>
					<dim>1</dim>
					<dim>1</dim>
					<dim>1</dim>
					<dim>3</dim>
					<dim>3</dim>
				</port>
			</output>
		</layer>
		<layer id="301" name="Multiply_9173" type="Convert" version="opset1">
			<data destination_type="f32" />
			<rt_info>
				<attribute name="decompression" version="0" />
			</rt_info>
			<input>
				<port id="0" precision="FP16">
					<dim>480</dim>
					<dim>1</dim>
					<dim>1</dim>
					<dim>1</dim>
					<dim>3</dim>
					<dim>3</dim>
				</port>
			</input>
			<output>
				<port id="1" precision="FP32">
					<dim>480</dim>
					<dim>1</dim>
					<dim>1</dim>
					<dim>1</dim>
					<dim>3</dim>
					<dim>3</dim>
				</port>
…
					<dim>1</dim>
					<dim>960</dim>
					<dim>4</dim>
					<dim>7</dim>
					<dim>7</dim>
				</port>
			</input>
			<output>
				<port id="1" precision="FP32" names="746">
					<dim>1</dim>
					<dim>960</dim>
					<dim>1</dim>
					<dim>1</dim>
					<dim>1</dim>
				</port>
			</output>
		</layer>
		<layer id="517" name="Multiply_9272_compressed" type="Const" version="opset1">
			<data element_type="f16" shape="256, 960, 1, 1, 1" offset="7722044" size="491520" />
			<output>
				<port id="0" precision="FP16">
					<dim>256</dim>
					<dim>960</dim>
					<dim>1</dim>
					<dim>1</dim>
					<dim>1</dim>
				</port>
			</output>
		</layer>
		<layer id="518" name="Multiply_9272" type="Convert" version="opset1">
			<data destination_type="f32" />
			<rt_info>
				<attribute name="decompression" version="0" />
			</rt_info>
			<input>
				<port id="0" precision="FP16">
					<dim>256</dim>
					<dim>960</dim>
					<dim>1</dim>
					<dim>1</dim>
					<dim>1</dim>
				</port>
			</input>
			<output>
				<port id="1" precision="FP32">
					<dim>256</dim>
					<dim>960</dim>
					<dim>1</dim>
					<dim>1</dim>
					<dim>1</dim>
				</port>
			</output>
		</layer>
		<layer id="519" name="Multiply_8969" type="Convolution" version="opset1">
			<data strides="1, 1, 1" dilations="1, 1, 1" pads_begin="0, 0, 0" pads_end="0, 0, 0" auto_pad="explicit" />
			<input>
				<port id="0" precision="FP32">
					<dim>1</dim>
					<dim>960</dim>
					<dim>1</dim>
					<dim>1</dim>
					<dim>1</dim>
				</port>
				<port id="1" precision="FP32">
					<dim>256</dim>
					<dim>960</dim>
					<dim>1</dim>
					<dim>1</dim>
					<dim>1</dim>
				</port>
			</input>
			<output>
				<port id="2" precision="FP32">
					<dim>1</dim>
					<dim>256</dim>
					<dim>1</dim>
					<dim>1</dim>
					<dim>1</dim>
				</port>
			</output>
		</layer>
		<layer id="520" name="Constant_8974_compressed" type="Const" version="opset1">
			<data element_type="f16" shape="1, 256, 1, 1, 1" offset="8213564" size="512" />
			<output>
				<port id="0" precision="FP16">
					<dim>1</dim>
					<dim>256</dim>
					<dim>1</dim>
					<dim>1</dim>
					<dim>1</dim>
				</port>
			</output>
		</layer>
		<layer id="521" name="Constant_8974" type="Convert" version="opset1">
			<data destination_type="f32" />
			<rt_info>
				<attribute name="decompression" version="0" />
			</rt_info>
			<input>
				<port id="0" precision="FP16">
					<dim>1</dim>
					<dim>256</dim>
					<dim>1</dim>
					<dim>1</dim>
					<dim>1</dim>
				</port>
			</input>
			<output>
				<port id="1" precision="FP32">
					<dim>1</dim>
					<dim>256</dim>
					<dim>1</dim>
					<dim>1</dim>
					<dim>1</dim>
				</port>
			</output>
		</layer>
		<layer id="522" name="748" type="Add" version="opset1">
			<data auto_broadcast="numpy" />
			<input>
				<port id="0" precision="FP32">
					<dim>1</dim>
					<dim>256</dim>
					<dim>1</dim>
					<dim>1</dim>
					<dim>1</dim>
				</port>
				<port id="1" precision="FP32">
					<dim>1</dim>
					<dim>256</dim>
					<dim>1</dim>
					<dim>1</dim>
					<dim>1</dim>
				</port>
			</input>
			<output>
				<port id="2" precision="FP32" names="748">
					<dim>1</dim>
					<dim>256</dim>
					<dim>1</dim>
					<dim>1</dim>
					<dim>1</dim>
				</port>
			</output>
		</layer>
		<layer id="523" name="749" type="Const" version="opset1">
			<data element_type="i64" shape="2" offset="8214076" size="16" />
			<output>
				<port id="0" precision="I64" names="749">
					<dim>2</dim>
				</port>
			</output>
		</layer>
		<layer id="524" name="750" type="Reshape" version="opset1">
			<data special_zero="true" />
			<input>
				<port id="0" precision="FP32">
					<dim>1</dim>
					<dim>256</dim>
					<dim>1</dim>
					<dim>1</dim>
					<dim>1</dim>
				</port>
				<port id="1" precision="I64">
					<dim>2</dim>
				</port>
			</input>
			<output>
				<port id="2" precision="FP32" names="750">
					<dim>1</dim>
					<dim>256</dim>
				</port>
			</output>
		</layer>
		<layer id="525" name="Constant_9550_compressed" type="Const" version="opset1">
			<data element_type="f16" shape="1, 1" offset="8214092" size="2" />
			<output>
				<port id="0" precision="FP16">
					<dim>1</dim>
					<dim>1</dim>
				</port>
			</output>
		</layer>
		<layer id="526" name="Constant_9550" type="Convert" version="opset1">
			<data destination_type="f32" />
			<rt_info>
				<attribute name="decompression" version="0" />
			</rt_info>
			<input>
				<port id="0" precision="FP16">
					<dim>1</dim>
					<dim>1</dim>
				</port>
			</input>
			<output>
				<port id="1" precision="FP32">
					<dim>1</dim>
					<dim>1</dim>
				</port>
			</output>
		</layer>
		<layer id="527" name="Power_1986" type="Power" version="opset1">
			<data auto_broadcast="numpy" />
			<input>
				<port id="0" precision="FP32">
					<dim>1</dim>
					<dim>256</dim>
				</port>
				<port id="1" precision="FP32">
					<dim>1</dim>
					<dim>1</dim>
				</port>
			</input>
			<output>
				<port id="2" precision="FP32">
					<dim>1</dim>
					<dim>256</dim>
				</port>
			</output>
		</layer>
		<layer id="528" name="Constant_1984" type="Const" version="opset1">
			<data element_type="i64" shape="" offset="8214094" size="8" />
			<output>
				<port id="0" precision="I64" />
			</output>
		</layer>
		<layer id="529" name="ReduceSum_1987" type="ReduceSum" version="opset1">
			<data keep_dims="true" />
			<input>
				<port id="0" precision="FP32">
					<dim>1</dim>
					<dim>256</dim>
				</port>
				<port id="1" precision="I64" />
			</input>
			<output>
				<port id="2" precision="FP32">
					<dim>1</dim>
					<dim>1</dim>
				</port>
			</output>
		</layer>
		<layer id="530" name="Sqrt_1990" type="Sqrt" version="opset1">
			<input>
				<port id="0" precision="FP32">
					<dim>1</dim>
					<dim>1</dim>
				</port>
			</input>
			<output>
				<port id="1" precision="FP32">
					<dim>1</dim>
					<dim>1</dim>
				</port>
			</output>
		</layer>
		<layer id="531" name="751" type="Divide" version="opset1">
			<data auto_broadcast="numpy" m_pythondiv="true" />
			<input>
				<port id="0" precision="FP32">
					<dim>1</dim>
					<dim>256</dim>
				</port>
				<port id="1" precision="FP32">
					<dim>1</dim>
					<dim>1</dim>
				</port>
			</input>
			<output>
				<port id="2" precision="FP32" names="751">
					<dim>1</dim>
					<dim>256</dim>
				</port>
			</output>
		</layer>
		<layer id="532" name="Constant_2104" type="Const" version="opset1">
			<data element_type="i64" shape="1" offset="8214102" size="8" />
			<output>
				<port id="0" precision="I64">
					<dim>1</dim>
				</port>
			</output>
		</layer>
		<layer id="533" name="755_compressed" type="Const" version="opset1">
			<data element_type="f16" shape="256, 100" offset="8214110" size="51200" />
			<output>
				<port id="0" precision="FP16">
					<dim>256</dim>
					<dim>100</dim>
				</port>
			</output>
		</layer>
		<layer id="534" name="755" type="Convert" version="opset1">
			<data destination_type="f32" />
			<rt_info>
				<attribute name="decompression" version="0" />
			</rt_info>
			<input>
				<port id="0" precision="FP16">
					<dim>256</dim>
					<dim>100</dim>
				</port>
			</input>
			<output>
				<port id="1" precision="FP32" names="755">
					<dim>256</dim>
					<dim>100</dim>
				</port>
			</output>
		</layer>
		<layer id="535" name="ShapeOf_2102" type="ShapeOf" version="opset3">
			<data output_type="i64" />
			<input>
				<port id="0" precision="FP32">
					<dim>256</dim>
					<dim>100</dim>
				</port>
			</input>
			<output>
				<port id="1" precision="I64">
					<dim>2</dim>
				</port>
			</output>
		</layer>
		<layer id="536" name="Constant_2101" type="Const" version="opset1">
			<data element_type="i64" shape="1" offset="8265310" size="8" />
			<output>
				<port id="0" precision="I64">
					<dim>1</dim>
				</port>
			</output>
		</layer>
		<layer id="537" name="Constant_2100" type="Const" version="opset1">
			<data element_type="i64" shape="" offset="8265310" size="8" />
			<output>
				<port id="0" precision="I64" />
			</output>
		</layer>
		<layer id="538" name="Gather_2103" type="Gather" version="opset1">
			<input>
				<port id="0" precision="I64">
					<dim>2</dim>
				</port>
				<port id="1" precision="I64">
					<dim>1</dim>
				</port>
				<port id="2" precision="I64" />
			</input>
			<output>
				<port id="3" precision="I64">
					<dim>1</dim>
				</port>
			</output>
		</layer>
		<layer id="539" name="752" type="Concat" version="opset1">
			<data axis="0" />
			<input>
				<port id="0" precision="I64">
					<dim>1</dim>
				</port>
				<port id="1" precision="I64">
					<dim>1</dim>
				</port>
			</input>
			<output>
				<port id="2" precision="I64" names="752">
					<dim>2</dim>
				</port>
			</output>
		</layer>
		<layer id="540" name="753" type="Reshape" version="opset1">
			<data special_zero="true" />
			<input>
				<port id="0" precision="FP32">
					<dim>1</dim>
					<dim>256</dim>
				</port>
				<port id="1" precision="I64">
					<dim>2</dim>
				</port>
			</input>
			<output>
				<port id="2" precision="FP32" names="753">
					<dim>1</dim>
					<dim>256</dim>
				</port>
			</output>
		</layer>
		<layer id="541" name="Constant_4955_compressed" type="Const" version="opset1">
			<data element_type="f16" shape="100, 256" offset="8265318" size="51200" />
			<output>
				<port id="0" precision="FP16">
					<dim>100</dim>
					<dim>256</dim>
				</port>
			</output>
		</layer>
		<layer id="542" name="Constant_4955" type="Convert" version="opset1">
			<data destination_type="f32" />
			<rt_info>
				<attribute name="decompression" version="0" />
			</rt_info>
			<input>
				<port id="0" precision="FP16">
					<dim>100</dim>
					<dim>256</dim>
				</port>
			</input>
			<output>
				<port id="1" precision="FP32">
					<dim>100</dim>
					<dim>256</dim>
				</port>
			</output>
		</layer>
		<layer id="543" name="output" type="MatMul" version="opset1">
			<data transpose_a="false" transpose_b="true" />
			<input>
				<port id="0" precision="FP32">
					<dim>1</dim>
					<dim>256</dim>
				</port>
				<port id="1" precision="FP32">
					<dim>100</dim>
					<dim>256</dim>
				</port>
			</input>
			<output>
				<port id="2" precision="FP32" names="output">
					<dim>1</dim>
					<dim>100</dim>
				</port>
			</output>
		</layer>
		<layer id="544" name="output/sink_port_0" type="Result" version="opset1">
			<input>
				<port id="0" precision="FP32">
					<dim>1</dim>
					<dim>100</dim>
				</port>
			</input>
		</layer>
	</layers>
	<edges>
		<edge from-layer="0" from-port="0" to-layer="3" to-port="0" />
		<edge from-layer="1" from-port="0" to-layer="2" to-port="0" />
		<edge from-layer="2" from-port="1" to-layer="3" to-port="1" />
		<edge from-layer="3" from-port="2" to-layer="6" to-port="0" />
		<edge from-layer="4" from-port="0" to-layer="5" to-port="0" />
		<edge from-layer="5" from-port="1" to-layer="6" to-port="1" />
		<edge from-layer="6" from-port="2" to-layer="9" to-port="0" />
		<edge from-layer="7" from-port="0" to-layer="8" to-port="0" />
		<edge from-layer="8" from-port="1" to-layer="9" to-port="1" />
		<edge from-layer="9" from-port="2" to-layer="10" to-port="0" />
		<edge from-layer="10" from-port="1" to-layer="24" to-port="0" />
		<edge from-layer="10" from-port="1" to-layer="13" to-port="0" />
		<edge from-layer="11" from-port="0" to-layer="12" to-port="0" />
		<edge from-layer="12" from-port="1" to-layer="13" to-port="1" />
		<edge from-layer="13" from-port="2" to-layer="16" to-port="0" />
		<edge from-layer="14" from-port="0" to-layer="15" to-port="0" />
		<edge from-layer="15" from-port="1" to-layer="16" to-port="1" />
		<edge from-layer="16" from-port="2" to-layer="17" to-port="0" />
		<edge from-layer="17" from-port="1" to-layer="20" to-port="0" />
		<edge from-layer="18" from-port="0" to-layer="19" to-port="0" />
		<edge from-layer="19" from-port="1" to-layer="20" to-port="1" />
		<edge from-layer="20" from-port="2" to-layer="23" to-port="0" />
		<edge from-layer="21" from-port="0" to-layer="22" to-port="0" />
		<edge from-layer="22" from-port="1" to-layer="23" to-port="1" />
		<edge from-layer="23" from-port="2" to-layer="24" to-port="1" />
		<edge from-layer="24" from-port="2" to-layer="27" to-port="0" />
		<edge from-layer="25" from-port="0" to-layer="26" to-port="0" />
		<edge from-layer="26" from-port="1" to-layer="27" to-port="1" />
		<edge from-layer="27" from-port="2" to-layer="30" to-port="0" />
		<edge from-layer="28" from-port="0" to-layer="29" to-port="0" />
		<edge from-layer="29" from-port="1" to-layer="30" to-port="1" />
		<edge from-layer="30" from-port="2" to-layer="31" to-port="0" />
		<edge from-layer="31" from-port="1" to-layer="34" to-port="0" />
		<edge from-layer="32" from-port="0" to-layer="33" to-port="0" />
		<edge from-layer="33" from-port="1" to-layer="34" to-port="1" />
		<edge from-layer="34" from-port="2" to-layer="37" to-port="0" />
		<edge from-layer="35" from-port="0" to-layer="36" to-port="0" />
		<edge from-layer="36" from-port="1" to-layer="37" to-port="1" />
		<edge from-layer="37" from-port="2" to-layer="38" to-port="0" />
		<edge from-layer="38" from-port="1" to-layer="41" to-port="0" />
		<edge from-layer="39" from-port="0" to-layer="40" to-port="0" />
		<edge from-layer="40" from-port="1" to-layer="41" to-port="1" />
		<edge from-layer="41" from-port="2" to-layer="44" to-port="0" />
		<edge from-layer="42" from-port="0" to-layer="43" to-port="0" />
		<edge from-layer="43" from-port="1" to-layer="44" to-port="1" />
		<edge from-layer="44" from-port="2" to-layer="45" to-port="0" />
		<edge from-layer="45" from-port="1" to-layer="48" to-port="0" />
		<edge from-layer="45" from-port="1" to-layer="66" to-port="0" />
		<edge from-layer="46" from-port="0" to-layer="47" to-port="0" />
		<edge from-layer="47" from-port="1" to-layer="48" to-port="1" />
		<edge from-layer="48" from-port="2" to-layer="51" to-port="0" />
		<edge from-layer="49" from-port="0" to-layer="50" to-port="0" />
		<edge from-layer="50" from-port="1" to-layer="51" to-port="1" />
		<edge from-layer="51" from-port="2" to-layer="52" to-port="0" />
		<edge from-layer="52" from-port="1" to-layer="55" to-port="0" />
		<edge from-layer="53" from-port="0" to-layer="54" to-port="0" />
		<edge from-layer="54" from-port="1" to-layer="55" to-port="1" />
		<edge from-layer="55" from-port="2" to-layer="58" to-port="0" />
		<edge from-layer="56" from-port="0" to-layer="57" to-port="0" />
		<edge from-layer="57" from-port="1" to-layer="58" to-port="1" />
		<edge from-layer="58" from-port="2" to-layer="59" to-port="0" />
		<edge from-layer="59" from-port="1" to-layer="62" to-port="0" />
		<edge from-layer="60" from-port="0" to-layer="61" to-port="0" />
		<edge from-layer="61" from-port="1" to-layer="62" to-port="1" />
		<edge from-layer="62" from-port="2" to-layer="65" to-port="0" />
		<edge from-layer="63" from-port="0" to-layer="64" to-port="0" />
		<edge from-layer="64" from-port="1" to-layer="65" to-port="1" />
		<edge from-layer="65" from-port="2" to-layer="66" to-port="1" />
		<edge from-layer="66" from-port="2" to-layer="69" to-port="0" />
		<edge from-layer="67" from-port="0" to-layer="68" to-port="0" />
		<edge from-layer="68" from-port="1" to-layer="69" to-port="1" />
		<edge from-layer="69" from-port="2" to-layer="72" to-port="0" />
		<edge from-layer="70" from-port="0" to-layer="71" to-port="0" />
		<edge from-layer="71" from-port="1" to-layer="72" to-port="1" />
		<edge from-layer="72" from-port="2" to-layer="73" to-port="0" />
		<edge from-layer="73" from-port="1" to-layer="76" to-port="0" />
		<edge from-layer="74" from-port="0" to-layer="75" to-port="0" />
		<edge from-layer="75" from-port="1" to-layer="76" to-port="1" />
		<edge from-layer="76" from-port="2" to-layer="79" to-port="0" />
		<edge from-layer="77" from-port="0" to-layer="78" to-port="0" />
		<edge from-layer="78" from-port="1" to-layer="79" to-port="1" />
		<edge from-layer="79" from-port="2" to-layer="80" to-port="0" />
		<edge from-layer="79" from-port="2" to-layer="95" to-port="1" />
		<edge from-layer="80" from-port="1" to-layer="83" to-port="0" />
		<edge from-layer="81" from-port="0" to-layer="82" to-port="0" />
		<edge from-layer="82" from-port="1" to-layer="83" to-port="1" />
		<edge from-layer="83" from-port="2" to-layer="86" to-port="0" />
		<edge from-layer="84" from-port="0" to-layer="85" to-port="0" />
		<edge from-layer="85" from-port="1" to-layer="86" to-port="1" />
		<edge from-layer="86" from-port="2" to-layer="87" to-port="0" />
		<edge from-layer="87" from-port="1" to-layer="90" to-port="0" />
		<edge from-layer="88" from-port="0" to-layer="89" to-port="0" />
		<edge from-layer="89" from-port="1" to-layer="90" to-port="1" />
		<edge from-layer="90" from-port="2" to-layer="93" to-port="0" />
		<edge from-layer="91" from-port="0" to-layer="92" to-port="0" />
		<edge from-layer="92" from-port="1" to-layer="93" to-port="1" />
		<edge from-layer="93" from-port="2" to-layer="94" to-port="0" />
		<edge from-layer="94" from-port="1" to-layer="95" to-port="0" />
		<edge from-layer="95" from-port="2" to-layer="96" to-port="0" />
		<edge from-layer="96" from-port="1" to-layer="99" to-port="0" />
		<edge from-layer="97" from-port="0" to-layer="98" to-port="0" />
		<edge from-layer="98" from-port="1" to-layer="99" to-port="1" />
		<edge from-layer="99" from-port="2" to-layer="102" to-port="0" />
		<edge from-layer="100" from-port="0" to-layer="101" to-port="0" />
		<edge from-layer="101" from-port="1" to-layer="102" to-port="1" />
		<edge from-layer="102" from-port="2" to-layer="105" to-port="0" />
		<edge from-layer="102" from-port="2" to-layer="139" to-port="0" />
		<edge from-layer="103" from-port="0" to-layer="104" to-port="0" />
		<edge from-layer="104" from-port="1" to-layer="105" to-port="1" />
		<edge from-layer="105" from-port="2" to-layer="108" to-port="0" />
		<edge from-layer="106" from-port="0" to-layer="107" to-port="0" />
		<edge from-layer="107" from-port="1" to-layer="108" to-port="1" />
		<edge from-layer="108" from-port="2" to-layer="109" to-port="0" />
		<edge from-layer="109" from-port="1" to-layer="112" to-port="0" />
		<edge from-layer="110" from-port="0" to-layer="111" to-port="0" />
		<edge from-layer="111" from-port="1" to-layer="112" to-port="1" />
		<edge from-layer="112" from-port="2" to-layer="115" to-port="0" />
		<edge from-layer="113" from-port="0" to-layer="114" to-port="0" />
		<edge from-layer="114" from-port="1" to-layer="115" to-port="1" />
		<edge from-layer="115" from-port="2" to-layer="131" to-port="1" />
		<edge from-layer="115" from-port="2" to-layer="116" to-port="0" />
		<edge from-layer="116" from-port="1" to-layer="119" to-port="0" />
		<edge from-layer="117" from-port="0" to-layer="118" to-port="0" />
		<edge from-layer="118" from-port="1" to-layer="119" to-port="1" />
		<edge from-layer="119" from-port="2" to-layer="122" to-port="0" />
		<edge from-layer="120" from-port="0" to-layer="121" to-port="0" />
		<edge from-layer="121" from-port="1" to-layer="122" to-port="1" />
		<edge from-layer="122" from-port="2" to-layer="123" to-port="0" />
		<edge from-layer="123" from-port="1" to-layer="126" to-port="0" />
		<edge from-layer="124" from-port="0" to-layer="125" to-port="0" />
		<edge from-layer="125" from-port="1" to-layer="126" to-port="1" />
		<edge from-layer="126" from-port="2" to-layer="129" to-port="0" />
		<edge from-layer="127" from-port="0" to-layer="128" to-port="0" />
		<edge from-layer="128" from-port="1" to-layer="129" to-port="1" />
		<edge from-layer="129" from-port="2" to-layer="130" to-port="0" />
		<edge from-layer="130" from-port="1" to-layer="131" to-port="0" />
		<edge from-layer="131" from-port="2" to-layer="132" to-port="0" />
		<edge from-layer="132" from-port="1" to-layer="135" to-port="0" />
		<edge from-layer="133" from-port="0" to-layer="134" to-port="0" />
		<edge from-layer="134" from-port="1" to-layer="135" to-port="1" />
		<edge from-layer="135" from-port="2" to-layer="138" to-port="0" />
		<edge from-layer="136" from-port="0" to-layer="137" to-port="0" />
		<edge from-layer="137" from-port="1" to-layer="138" to-port="1" />
		<edge from-layer="138" from-port="2" to-layer="139" to-port="1" />
		<edge from-layer="139" from-port="2" to-layer="142" to-port="0" />
		<edge from-layer="139" from-port="2" to-layer="176" to-port="0" />
		<edge from-layer="140" from-port="0" to-layer="141" to-port="0" />
		<edge from-layer="141" from-port="1" to-layer="142" to-port="1" />
		<edge from-layer="142" from-port="2" to-layer="145" to-port="0" />
		<edge from-layer="143" from-port="0" to-layer="144" to-port="0" />
		<edge from-layer="144" from-port="1" to-layer="145" to-port="1" />
		<edge from-layer="145" from-port="2" to-layer="146" to-port="0" />
		<edge from-layer="146" from-port="1" to-layer="149" to-port="0" />
		<edge from-layer="147" from-port="0" to-layer="148" to-port="0" />
		<edge from-layer="148" from-port="1" to-layer="149" to-port="1" />
		<edge from-layer="149" from-port="2" to-layer="152" to-port="0" />
		<edge from-layer="150" from-port="0" to-layer="151" to-port="0" />
		<edge from-layer="151" from-port="1" to-layer="152" to-port="1" />
		<edge from-layer="152" from-port="2" to-layer="153" to-port="0" />
		<edge from-layer="152" from-port="2" to-layer="168" to-port="1" />
		<edge from-layer="153" from-port="1" to-layer="156" to-port="0" />
		<edge from-layer="154" from-port="0" to-layer="155" to-port="0" />
		<edge from-layer="155" from-port="1" to-layer="156" to-port="1" />
		<edge from-layer="156" from-port="2" to-layer="159" to-port="0" />
		<edge from-layer="157" from-port="0" to-layer="158" to-port="0" />
		<edge from-layer="158" from-port="1" to-layer="159" to-port="1" />
		<edge from-layer="159" from-port="2" to-layer="160" to-port="0" />
		<edge from-layer="160" from-port="1" to-layer="163" to-port="0" />
		<edge from-layer="161" from-port="0" to-layer="162" to-port="0" />
		<edge from-layer="162" from-port="1" to-layer="163" to-port="1" />
		<edge from-layer="163" from-port="2" to-layer="166" to-port="0" />
		<edge from-layer="164" from-port="0" to-layer="165" to-port="0" />
		<edge from-layer="165" from-port="1" to-layer="166" to-port="1" />
		<edge from-layer="166" from-port="2" to-layer="167" to-port="0" />
		<edge from-layer="167" from-port="1" to-layer="168" to-port="0" />
		<edge from-layer="168" from-port="2" to-layer="169" to-port="0" />
		<edge from-layer="169" from-port="1" to-layer="172" to-port="0" />
		<edge from-layer="170" from-port="0" to-layer="171" to-port="0" />
		<edge from-layer="171" from-port="1" to-layer="172" to-port="1" />
		<edge from-layer="172" from-port="2" to-layer="175" to-port="0" />
		<edge from-layer="173" from-port="0" to-layer="174" to-port="0" />
		<edge from-layer="174" from-port="1" to-layer="175" to-port="1" />
		<edge from-layer="175" from-port="2" to-layer="176" to-port="1" />
		<edge from-layer="176" from-port="2" to-layer="179" to-port="0" />
		<edge from-layer="177" from-port="0" to-layer="178" to-port="0" />
		<edge from-layer="178" from-port="1" to-layer="179" to-port="1" />
		<edge from-layer="179" from-port="2" to-layer="182" to-port="0" />
		<edge from-layer="180" from-port="0" to-layer="181" to-port="0" />
		<edge from-layer="181" from-port="1" to-layer="182" to-port="1" />
		<edge from-layer="182" from-port="2" to-layer="183" to-port="0" />
		<edge from-layer="183" from-port="1" to-layer="186" to-port="0" />
		<edge from-layer="184" from-port="0" to-layer="185" to-port="0" />
		<edge from-layer="185" from-port="1" to-layer="186" to-port="1" />
		<edge from-layer="186" from-port="2" to-layer="189" to-port="0" />
		<edge from-layer="187" from-port="0" to-layer="188" to-port="0" />
		<edge from-layer="188" from-port="1" to-layer="189" to-port="1" />
		<edge from-layer="189" from-port="2" to-layer="190" to-port="0" />
		<edge from-layer="190" from-port="1" to-layer="193" to-port="0" />
		<edge from-layer="191" from-port="0" to-layer="192" to-port="0" />
		<edge from-layer="192" from-port="1" to-layer="193" to-port="1" />
		<edge from-layer="193" from-port="2" to-layer="196" to-port="0" />
		<edge from-layer="194" from-port="0" to-layer="195" to-port="0" />
		<edge from-layer="195" from-port="1" to-layer="196" to-port="1" />
		<edge from-layer="196" from-port="2" to-layer="217" to-port="0" />
		<edge from-layer="196" from-port="2" to-layer="199" to-port="0" />
		<edge from-layer="197" from-port="0" to-layer="198" to-port="0" />
		<edge from-layer="198" from-port="1" to-layer="199" to-port="1" />
		<edge from-layer="199" from-port="2" to-layer="202" to-port="0" />
		<edge from-layer="200" from-port="0" to-layer="201" to-port="0" />
		<edge from-layer="201" from-port="1" to-layer="202" to-port="1" />
		<edge from-layer="202" from-port="2" to-layer="203" to-port="0" />
		<edge from-layer="203" from-port="1" to-layer="206" to-port="0" />
		<edge from-layer="204" from-port="0" to-layer="205" to-port="0" />
		<edge from-layer="205" from-port="1" to-layer="206" to-port="1" />
		<edge from-layer="206" from-port="2" to-layer="209" to-port="0" />
		<edge from-layer="207" from-port="0" to-layer="208" to-port="0" />
		<edge from-layer="208" from-port="1" to-layer="209" to-port="1" />
		<edge from-layer="209" from-port="2" to-layer="210" to-port="0" />
		<edge from-layer="210" from-port="1" to-layer="213" to-port="0" />
		<edge from-layer="211" from-port="0" to-layer="212" to-port="0" />
		<edge from-layer="212" from-port="1" to-layer="213" to-port="1" />
		<edge from-layer="213" from-port="2" to-layer="216" to-port="0" />
		<edge from-layer="214" from-port="0" to-layer="215" to-port="0" />
		<edge from-layer="215" from-port="1" to-layer="216" to-port="1" />
		<edge from-layer="216" from-port="2" to-layer="217" to-port="1" />
		<edge from-layer="217" from-port="2" to-layer="238" to-port="0" />
		<edge from-layer="217" from-port="2" to-layer="220" to-port="0" />
		<edge from-layer="218" from-port="0" to-layer="219" to-port="0" />
		<edge from-layer="219" from-port="1" to-layer="220" to-port="1" />
		<edge from-layer="220" from-port="2" to-layer="223" to-port="0" />
		<edge from-layer="221" from-port="0" to-layer="222" to-port="0" />
		<edge from-layer="222" from-port="1" to-layer="223" to-port="1" />
		<edge from-layer="223" from-port="2" to-layer="224" to-port="0" />
		<edge from-layer="224" from-port="1" to-layer="227" to-port="0" />
		<edge from-layer="225" from-port="0" to-layer="226" to-port="0" />
		<edge from-layer="226" from-port="1" to-layer="227" to-port="1" />
		<edge from-layer="227" from-port="2" to-layer="230" to-port="0" />
		<edge from-layer="228" from-port="0" to-layer="229" to-port="0" />
		<edge from-layer="229" from-port="1" to-layer="230" to-port="1" />
		<edge from-layer="230" from-port="2" to-layer="231" to-port="0" />
		<edge from-layer="231" from-port="1" to-layer="234" to-port="0" />
		<edge from-layer="232" from-port="0" to-layer="233" to-port="0" />
		<edge from-layer="233" from-port="1" to-layer="234" to-port="1" />
		<edge from-layer="234" from-port="2" to-layer="237" to-port="0" />
		<edge from-layer="235" from-port="0" to-layer="236" to-port="0" />
		<edge from-layer="236" from-port="1" to-layer="237" to-port="1" />
		<edge from-layer="237" from-port="2" to-layer="238" to-port="1" />
		<edge from-layer="238" from-port="2" to-layer="241" to-port="0" />
		<edge from-layer="238" from-port="2" to-layer="259" to-port="0" />
		<edge from-layer="239" from-port="0" to-layer="240" to-port="0" />
		<edge from-layer="240" from-port="1" to-layer="241" to-port="1" />
		<edge from-layer="241" from-port="2" to-layer="244" to-port="0" />
		<edge from-layer="242" from-port="0" to-layer="243" to-port="0" />
		<edge from-layer="243" from-port="1" to-layer="244" to-port="1" />
		<edge from-layer="244" from-port="2" to-layer="245" to-port="0" />
		<edge from-layer="245" from-port="1" to-layer="248" to-port="0" />
		<edge from-layer="246" from-port="0" to-layer="247" to-port="0" />
		<edge from-layer="247" from-port="1" to-layer="248" to-port="1" />
		<edge from-layer="248" from-port="2" to-layer="251" to-port="0" />
		<edge from-layer="249" from-port="0" to-layer="250" to-port="0" />
		<edge from-layer="250" from-port="1" to-layer="251" to-port="1" />
		<edge from-layer="251" from-port="2" to-layer="252" to-port="0" />
		<edge from-layer="252" from-port="1" to-layer="255" to-port="0" />
		<edge from-layer="253" from-port="0" to-layer="254" to-port="0" />
		<edge from-layer="254" from-port="1" to-layer="255" to-port="1" />
		<edge from-layer="255" from-port="2" to-layer="258" to-port="0" />
		<edge from-layer="256" from-port="0" to-layer="257" to-port="0" />
		<edge from-layer="257" from-port="1" to-layer="258" to-port="1" />
		<edge from-layer="258" from-port="2" to-layer="259" to-port="1" />
		<edge from-layer="259" from-port="2" to-layer="292" to-port="1" />
		<edge from-layer="259" from-port="2" to-layer="262" to-port="0" />
		<edge from-layer="259" from-port="2" to-layer="273" to-port="0" />
		<edge from-layer="260" from-port="0" to-layer="261" to-port="0" />
		<edge from-layer="261" from-port="1" to-layer="262" to-port="1" />
		<edge from-layer="262" from-port="2" to-layer="265" to-port="0" />
		<edge from-layer="263" from-port="0" to-layer="264" to-port="0" />
		<edge from-layer="264" from-port="1" to-layer="265" to-port="1" />
		<edge from-layer="265" from-port="2" to-layer="266" to-port="0" />
		<edge from-layer="266" from-port="1" to-layer="269" to-port="0" />
		<edge from-layer="267" from-port="0" to-layer="268" to-port="0" />
		<edge from-layer="268" from-port="1" to-layer="269" to-port="1" />
		<edge from-layer="269" from-port="2" to-layer="272" to-port="0" />
		<edge from-layer="270" from-port="0" to-layer="271" to-port="0" />
		<edge from-layer="271" from-port="1" to-layer="272" to-port="1" />
		<edge from-layer="272" from-port="2" to-layer="287" to-port="0" />
		<edge from-layer="273" from-port="1" to-layer="276" to-port="0" />
		<edge from-layer="274" from-port="0" to-layer="275" to-port="0" />
		<edge from-layer="275" from-port="1" to-layer="276" to-port="1" />
		<edge from-layer="276" from-port="2" to-layer="279" to-port="0" />
		<edge from-layer="277" from-port="0" to-layer="278" to-port="0" />
		<edge from-layer="278" from-port="1" to-layer="279" to-port="1" />
		<edge from-layer="279" from-port="2" to-layer="280" to-port="0" />
		<edge from-layer="280" from-port="1" to-layer="283" to-port="0" />
		<edge from-layer="281" from-port="0" to-layer="282" to-port="0" />
		<edge from-layer="282" from-port="1" to-layer="283" to-port="1" />
		<edge from-layer="283" from-port="2" to-layer="286" to-port="0" />
		<edge from-layer="284" from-port="0" to-layer="285" to-port="0" />
		<edge from-layer="285" from-port="1" to-layer="286" to-port="1" />
		<edge from-layer="286" from-port="2" to-layer="287" to-port="1" />
		<edge from-layer="287" from-port="2" to-layer="288" to-port="0" />
		<edge from-layer="288" from-port="1" to-layer="291" to-port="0" />
		<edge from-layer="289" from-port="0" to-layer="290" to-port="0" />
		<edge from-layer="290" from-port="1" to-layer="291" to-port="1" />
		<edge from-layer="291" from-port="2" to-layer="292" to-port="0" />
		<edge from-layer="292" from-port="2" to-layer="295" to-port="0" />
		<edge from-layer="293" from-port="0" to-layer="294" to-port="0" />
		<edge from-layer="294" from-port="1" to-layer="295" to-port="1" />
		<edge from-layer="295" from-port="2" to-layer="298" to-port="0" />
		<edge from-layer="296" from-port="0" to-layer="297" to-port="0" />
		<edge from-layer="297" from-port="1" to-layer="298" to-port="1" />
		<edge from-layer="298" from-port="2" to-layer="299" to-port="0" />
		<edge from-layer="299" from-port="1" to-layer="302" to-port="0" />
		<edge from-layer="300" from-port="0" to-layer="301" to-port="0" />
		<edge from-layer="301" from-port="1" to-layer="302" to-port="1" />
		<edge from-layer="302" from-port="2" to-layer="305" to-port="0" />
		<edge from-layer="303" from-port="0" to-layer="304" to-port="0" />
		<edge from-layer="304" from-port="1" to-layer="305" to-port="1" />
		<edge from-layer="305" from-port="2" to-layer="306" to-port="0" />
		<edge from-layer="305" from-port="2" to-layer="321" to-port="1" />
		<edge from-layer="306" from-port="1" to-layer="309" to-port="0" />
		<edge from-layer="307" from-port="0" to-layer="308" to-port="0" />
		<edge from-layer="308" from-port="1" to-layer="309" to-port="1" />
		<edge from-layer="309" from-port="2" to-layer="312" to-port="0" />
		<edge from-layer="310" from-port="0" to-layer="311" to-port="0" />
		<edge from-layer="311" from-port="1" to-layer="312" to-port="1" />
		<edge from-layer="312" from-port="2" to-layer="313" to-port="0" />
		<edge from-layer="313" from-port="1" to-layer="316" to-port="0" />
		<edge from-layer="314" from-port="0" to-layer="315" to-port="0" />
		<edge from-layer="315" from-port="1" to-layer="316" to-port="1" />
		<edge from-layer="316" from-port="2" to-layer="319" to-port="0" />
		<edge from-layer="317" from-port="0" to-layer="318" to-port="0" />
		<edge from-layer="318" from-port="1" to-layer="319" to-port="1" />
		<edge from-layer="319" from-port="2" to-layer="320" to-port="0" />
		<edge from-layer="320" from-port="1" to-layer="321" to-port="0" />
		<edge from-layer="321" from-port="2" to-layer="322" to-port="0" />
		<edge from-layer="322" from-port="1" to-layer="325" to-port="0" />
		<edge from-layer="323" from-port="0" to-layer="324" to-port="0" />
		<edge from-layer="324" from-port="1" to-layer="325" to-port="1" />
		<edge from-layer="325" from-port="2" to-layer="328" to-port="0" />
		<edge from-layer="326" from-port="0" to-layer="327" to-port="0" />
		<edge from-layer="327" from-port="1" to-layer="328" to-port="1" />
		<edge from-layer="328" from-port="2" to-layer="329" to-port="0" />
		<edge from-layer="329" from-port="1" to-layer="332" to-port="0" />
		<edge from-layer="329" from-port="1" to-layer="366" to-port="0" />
		<edge from-layer="330" from-port="0" to-layer="331" to-port="0" />
		<edge from-layer="331" from-port="1" to-layer="332" to-port="1" />
		<edge from-layer="332" from-port="2" to-layer="335" to-port="0" />
		<edge from-layer="333" from-port="0" to-layer="334" to-port="0" />
		<edge from-layer="334" from-port="1" to-layer="335" to-port="1" />
		<edge from-layer="335" from-port="2" to-layer="336" to-port="0" />
		<edge from-layer="336" from-port="1" to-layer="339" to-port="0" />
		<edge from-layer="337" from-port="0" to-layer="338" to-port="0" />
		<edge from-layer="338" from-port="1" to-layer="339" to-port="1" />
		<edge from-layer="339" from-port="2" to-layer="342" to-port="0" />
		<edge from-layer="340" from-port="0" to-layer="341" to-port="0" />
		<edge from-layer="341" from-port="1" to-layer="342" to-port="1" />
		<edge from-layer="342" from-port="2" to-layer="343" to-port="0" />
		<edge from-layer="342" from-port="2" to-layer="358" to-port="1" />
		<edge from-layer="343" from-port="1" to-layer="346" to-port="0" />
		<edge from-layer="344" from-port="0" to-layer="345" to-port="0" />
		<edge from-layer="345" from-port="1" to-layer="346" to-port="1" />
		<edge from-layer="346" from-port="2" to-layer="349" to-port="0" />
		<edge from-layer="347" from-port="0" to-layer="348" to-port="0" />
		<edge from-layer="348" from-port="1" to-layer="349" to-port="1" />
		<edge from-layer="349" from-port="2" to-layer="350" to-port="0" />
		<edge from-layer="350" from-port="1" to-layer="353" to-port="0" />
		<edge from-layer="351" from-port="0" to-layer="352" to-port="0" />
		<edge from-layer="352" from-port="1" to-layer="353" to-port="1" />
		<edge from-layer="353" from-port="2" to-layer="356" to-port="0" />
		<edge from-layer="354" from-port="0" to-layer="355" to-port="0" />
		<edge from-layer="355" from-port="1" to-layer="356" to-port="1" />
		<edge from-layer="356" from-port="2" to-layer="357" to-port="0" />
		<edge from-layer="357" from-port="1" to-layer="358" to-port="0" />
		<edge from-layer="358" from-port="2" to-layer="359" to-port="0" />
		<edge from-layer="359" from-port="1" to-layer="362" to-port="0" />
		<edge from-layer="360" from-port="0" to-layer="361" to-port="0" />
		<edge from-layer="361" from-port="1" to-layer="362" to-port="1" />
		<edge from-layer="362" from-port="2" to-layer="365" to-port="0" />
		<edge from-layer="363" from-port="0" to-layer="364" to-port="0" />
		<edge from-layer="364" from-port="1" to-layer="365" to-port="1" />
		<edge from-layer="365" from-port="2" to-layer="366" to-port="1" />
		<edge from-layer="366" from-port="2" to-layer="369" to-port="0" />
		<edge from-layer="367" from-port="0" to-layer="368" to-port="0" />
		<edge from-layer="368" from-port="1" to-layer="369" to-port="1" />
		<edge from-layer="369" from-port="2" to-layer="372" to-port="0" />
		<edge from-layer="370" from-port="0" to-layer="371" to-port="0" />
		<edge from-layer="371" from-port="1" to-layer="372" to-port="1" />
		<edge from-layer="372" from-port="2" to-layer="373" to-port="0" />
		<edge from-layer="373" from-port="1" to-layer="376" to-port="0" />
		<edge from-layer="374" from-port="0" to-layer="375" to-port="0" />
		<edge from-layer="375" from-port="1" to-layer="376" to-port="1" />
		<edge from-layer="376" from-port="2" to-layer="379" to-port="0" />
		<edge from-layer="377" from-port="0" to-layer="378" to-port="0" />
		<edge from-layer="378" from-port="1" to-layer="379" to-port="1" />
		<edge from-layer="379" from-port="2" to-layer="380" to-port="0" />
		<edge from-layer="379" from-port="2" to-layer="395" to-port="1" />
		<edge from-layer="380" from-port="1" to-layer="383" to-port="0" />
		<edge from-layer="381" from-port="0" to-layer="382" to-port="0" />
		<edge from-layer="382" from-port="1" to-layer="383" to-port="1" />
		<edge from-layer="383" from-port="2" to-layer="386" to-port="0" />
		<edge from-layer="384" from-port="0" to-layer="385" to-port="0" />
		<edge from-layer="385" from-port="1" to-layer="386" to-port="1" />
		<edge from-layer="386" from-port="2" to-layer="387" to-port="0" />
		<edge from-layer="387" from-port="1" to-layer="390" to-port="0" />
		<edge from-layer="388" from-port="0" to-layer="389" to-port="0" />
		<edge from-layer="389" from-port="1" to-layer="390" to-port="1" />
		<edge from-layer="390" from-port="2" to-layer="393" to-port="0" />
		<edge from-layer="391" from-port="0" to-layer="392" to-port="0" />
		<edge from-layer="392" from-port="1" to-layer="393" to-port="1" />
		<edge from-layer="393" from-port="2" to-layer="394" to-port="0" />
		<edge from-layer="394" from-port="1" to-layer="395" to-port="0" />
		<edge from-layer="395" from-port="2" to-layer="396" to-port="0" />
		<edge from-layer="396" from-port="1" to-layer="399" to-port="0" />
		<edge from-layer="397" from-port="0" to-layer="398" to-port="0" />
		<edge from-layer="398" from-port="1" to-layer="399" to-port="1" />
		<edge from-layer="399" from-port="2" to-layer="402" to-port="0" />
		<edge from-layer="400" from-port="0" to-layer="401" to-port="0" />
		<edge from-layer="401" from-port="1" to-layer="402" to-port="1" />
		<edge from-layer="402" from-port="2" to-layer="405" to-port="0" />
		<edge from-layer="402" from-port="2" to-layer="435" to-port="1" />
		<edge from-layer="402" from-port="2" to-layer="416" to-port="0" />
		<edge from-layer="403" from-port="0" to-layer="404" to-port="0" />
		<edge from-layer="404" from-port="1" to-layer="405" to-port="1" />
		<edge from-layer="405" from-port="2" to-layer="408" to-port="0" />
		<edge from-layer="406" from-port="0" to-layer="407" to-port="0" />
		<edge from-layer="407" from-port="1" to-layer="408" to-port="1" />
		<edge from-layer="408" from-port="2" to-layer="409" to-port="0" />
		<edge from-layer="409" from-port="1" to-layer="412" to-port="0" />
		<edge from-layer="410" from-port="0" to-layer="411" to-port="0" />
		<edge from-layer="411" from-port="1" to-layer="412" to-port="1" />
		<edge from-layer="412" from-port="2" to-layer="415" to-port="0" />
		<edge from-layer="413" from-port="0" to-layer="414" to-port="0" />
		<edge from-layer="414" from-port="1" to-layer="415" to-port="1" />
		<edge from-layer="415" from-port="2" to-layer="430" to-port="0" />
		<edge from-layer="416" from-port="1" to-layer="419" to-port="0" />
		<edge from-layer="417" from-port="0" to-layer="418" to-port="0" />
		<edge from-layer="418" from-port="1" to-layer="419" to-port="1" />
		<edge from-layer="419" from-port="2" to-layer="422" to-port="0" />
		<edge from-layer="420" from-port="0" to-layer="421" to-port="0" />
		<edge from-layer="421" from-port="1" to-layer="422" to-port="1" />
		<edge from-layer="422" from-port="2" to-layer="423" to-port="0" />
		<edge from-layer="423" from-port="1" to-layer="426" to-port="0" />
		<edge from-layer="424" from-port="0" to-layer="425" to-port="0" />
		<edge from-layer="425" from-port="1" to-layer="426" to-port="1" />
		<edge from-layer="426" from-port="2" to-layer="429" to-port="0" />
		<edge from-layer="427" from-port="0" to-layer="428" to-port="0" />
		<edge from-layer="428" from-port="1" to-layer="429" to-port="1" />
		<edge from-layer="429" from-port="2" to-layer="430" to-port="1" />
		<edge from-layer="430" from-port="2" to-layer="431" to-port="0" />
		<edge from-layer="431" from-port="1" to-layer="434" to-port="0" />
		<edge from-layer="432" from-port="0" to-layer="433" to-port="0" />
		<edge from-layer="433" from-port="1" to-layer="434" to-port="1" />
		<edge from-layer="434" from-port="2" to-layer="435" to-port="0" />
		<edge from-layer="435" from-port="2" to-layer="438" to-port="0" />
		<edge from-layer="436" from-port="0" to-layer="437" to-port="0" />
		<edge from-layer="437" from-port="1" to-layer="438" to-port="1" />
		<edge from-layer="438" from-port="2" to-layer="441" to-port="0" />
		<edge from-layer="439" from-port="0" to-layer="440" to-port="0" />
		<edge from-layer="440" from-port="1" to-layer="441" to-port="1" />
		<edge from-layer="441" from-port="2" to-layer="442" to-port="0" />
		<edge from-layer="442" from-port="1" to-layer="445" to-port="0" />
		<edge from-layer="443" from-port="0" to-layer="444" to-port="0" />
		<edge from-layer="444" from-port="1" to-layer="445" to-port="1" />
		<edge from-layer="445" from-port="2" to-layer="448" to-port="0" />
		<edge from-layer="446" from-port="0" to-layer="447" to-port="0" />
		<edge from-layer="447" from-port="1" to-layer="448" to-port="1" />
		<edge from-layer="448" from-port="2" to-layer="464" to-port="1" />
		<edge from-layer="448" from-port="2" to-layer="449" to-port="0" />
		<edge from-layer="449" from-port="1" to-layer="452" to-port="0" />
		<edge from-layer="450" from-port="0" to-layer="451" to-port="0" />
		<edge from-layer="451" from-port="1" to-layer="452" to-port="1" />
		<edge from-layer="452" from-port="2" to-layer="455" to-port="0" />
		<edge from-layer="453" from-port="0" to-layer="454" to-port="0" />
		<edge from-layer="454" from-port="1" to-layer="455" to-port="1" />
		<edge from-layer="455" from-port="2" to-layer="456" to-port="0" />
		<edge from-layer="456" from-port="1" to-layer="459" to-port="0" />
		<edge from-layer="457" from-port="0" to-layer="458" to-port="0" />
		<edge from-layer="458" from-port="1" to-layer="459" to-port="1" />
		<edge from-layer="459" from-port="2" to-layer="462" to-port="0" />
		<edge from-layer="460" from-port="0" to-layer="461" to-port="0" />
		<edge from-layer="461" from-port="1" to-layer="462" to-port="1" />
		<edge from-layer="462" from-port="2" to-layer="463" to-port="0" />
		<edge from-layer="463" from-port="1" to-layer="464" to-port="0" />
		<edge from-layer="464" from-port="2" to-layer="465" to-port="0" />
		<edge from-layer="465" from-port="1" to-layer="468" to-port="0" />
		<edge from-layer="466" from-port="0" to-layer="467" to-port="0" />
		<edge from-layer="467" from-port="1" to-layer="468" to-port="1" />
		<edge from-layer="468" from-port="2" to-layer="471" to-port="0" />
		<edge from-layer="469" from-port="0" to-layer="470" to-port="0" />
		<edge from-layer="470" from-port="1" to-layer="471" to-port="1" />
		<edge from-layer="471" from-port="2" to-layer="474" to-port="0" />
		<edge from-layer="471" from-port="2" to-layer="508" to-port="0" />
		<edge from-layer="472" from-port="0" to-layer="473" to-port="0" />
		<edge from-layer="473" from-port="1" to-layer="474" to-port="1" />
		<edge from-layer="474" from-port="2" to-layer="477" to-port="0" />
		<edge from-layer="475" from-port="0" to-layer="476" to-port="0" />
		<edge from-layer="476" from-port="1" to-layer="477" to-port="1" />
		<edge from-layer="477" from-port="2" to-layer="478" to-port="0" />
		<edge from-layer="478" from-port="1" to-layer="481" to-port="0" />
		<edge from-layer="479" from-port="0" to-layer="480" to-port="0" />
		<edge from-layer="480" from-port="1" to-layer="481" to-port="1" />
		<edge from-layer="481" from-port="2" to-layer="484" to-port="0" />
		<edge from-layer="482" from-port="0" to-layer="483" to-port="0" />
		<edge from-layer="483" from-port="1" to-layer="484" to-port="1" />
		<edge from-layer="484" from-port="2" to-layer="500" to-port="1" />
		<edge from-layer="484" from-port="2" to-layer="485" to-port="0" />
		<edge from-layer="485" from-port="1" to-layer="488" to-port="0" />
		<edge from-layer="486" from-port="0" to-layer="487" to-port="0" />
		<edge from-layer="487" from-port="1" to-layer="488" to-port="1" />
		<edge from-layer="488" from-port="2" to-layer="491" to-port="0" />
		<edge from-layer="489" from-port="0" to-layer="490" to-port="0" />
		<edge from-layer="490" from-port="1" to-layer="491" to-port="1" />
		<edge from-layer="491" from-port="2" to-layer="492" to-port="0" />
		<edge from-layer="492" from-port="1" to-layer="495" to-port="0" />
		<edge from-layer="493" from-port="0" to-layer="494" to-port="0" />
		<edge from-layer="494" from-port="1" to-layer="495" to-port="1" />
		<edge from-layer="495" from-port="2" to-layer="498" to-port="0" />
		<edge from-layer="496" from-port="0" to-layer="497" to-port="0" />
		<edge from-layer="497" from-port="1" to-layer="498" to-port="1" />
		<edge from-layer="498" from-port="2" to-layer="499" to-port="0" />
		<edge from-layer="499" from-port="1" to-layer="500" to-port="0" />
		<edge from-layer="500" from-port="2" to-layer="501" to-port="0" />
		<edge from-layer="501" from-port="1" to-layer="504" to-port="0" />
		<edge from-layer="502" from-port="0" to-layer="503" to-port="0" />
		<edge from-layer="503" from-port="1" to-layer="504" to-port="1" />
		<edge from-layer="504" from-port="2" to-layer="507" to-port="0" />
		<edge from-layer="505" from-port="0" to-layer="506" to-port="0" />
		<edge from-layer="506" from-port="1" to-layer="507" to-port="1" />
		<edge from-layer="507" from-port="2" to-layer="508" to-port="1" />
		<edge from-layer="508" from-port="2" to-layer="511" to-port="0" />
		<edge from-layer="509" from-port="0" to-layer="510" to-port="0" />
		<edge from-layer="510" from-port="1" to-layer="511" to-port="1" />
		<edge from-layer="511" from-port="2" to-layer="514" to-port="0" />
		<edge from-layer="512" from-port="0" to-layer="513" to-port="0" />
		<edge from-layer="513" from-port="1" to-layer="514" to-port="1" />
		<edge from-layer="514" from-port="2" to-layer="515" to-port="0" />
		<edge from-layer="515" from-port="1" to-layer="516" to-port="0" />
		<edge from-layer="516" from-port="1" to-layer="519" to-port="0" />
		<edge from-layer="517" from-port="0" to-layer="518" to-port="0" />
		<edge from-layer="518" from-port="1" to-layer="519" to-port="1" />
		<edge from-layer="519" from-port="2" to-layer="522" to-port="0" />
		<edge from-layer="520" from-port="0" to-layer="521" to-port="0" />
		<edge from-layer="521" from-port="1" to-layer="522" to-port="1" />
		<edge from-layer="522" from-port="2" to-layer="524" to-port="0" />
		<edge from-layer="523" from-port="0" to-layer="524" to-port="1" />
		<edge from-layer="524" from-port="2" to-layer="527" to-port="0" />
		<edge from-layer="524" from-port="2" to-layer="531" to-port="0" />
		<edge from-layer="525" from-port="0" to-layer="526" to-port="0" />
		<edge from-layer="526" from-port="1" to-layer="527" to-port="1" />
		<edge from-layer="527" from-port="2" to-layer="529" to-port="0" />
		<edge from-layer="528" from-port="0" to-layer="529" to-port="1" />
		<edge from-layer="529" from-port="2" to-layer="530" to-port="0" />
		<edge from-layer="530" from-port="1" to-layer="531" to-port="1" />
		<edge from-layer="531" from-port="2" to-layer="540" to-port="0" />
		<edge from-layer="532" from-port="0" to-layer="539" to-port="0" />
		<edge from-layer="533" from-port="0" to-layer="534" to-port="0" />
		<edge from-layer="534" from-port="1" to-layer="535" to-port="0" />
		<edge from-layer="535" from-port="1" to-layer="538" to-port="0" />
		<edge from-layer="536" from-port="0" to-layer="538" to-port="1" />
		<edge from-layer="537" from-port="0" to-layer="538" to-port="2" />
		<edge from-layer="538" from-port="3" to-layer="539" to-port="1" />
		<edge from-layer="539" from-port="2" to-layer="540" to-port="1" />
		<edge from-layer="540" from-port="2" to-layer="543" to-port="0" />
		<edge from-layer="541" from-port="0" to-layer="542" to-port="0" />
		<edge from-layer="542" from-port="1" to-layer="543" to-port="1" />
		<edge from-layer="543" from-port="2" to-layer="544" to-port="0" />
	</edges>
	<rt_info>
		<MO_version value="custom_HEAD_f6ee6e92f846a8c665e4a7089c51481f9689a3b5" />
		<Runtime_version value="2023.0.0-10521-f6ee6e92f84-HEAD" />
		<conversion_parameters>
			<framework value="onnx" />
			<input value="input" />
			<input_model value="DIR/v199_e34.onnx" />
			<input_shape value="[1,3,16,224,224]" />
			<layout value="input(ncdhw)" />
			<mean_values value="input[123.675,116.28,103.53]" />
			<model_name value="asl-recognition-0004" />
			<output value="output" />
			<output_dir value="DIR" />
			<scale_values value="input[58.39,57.12,57.38]" />
		</conversion_parameters>
		<legacy_frontend value="False" />
	</rt_info>
</net>
