<?xml version="1.0" ?>
<net name="torch-jit-export" version="11">
	<layers>
		<layer id="201" name="input" type="Parameter" version="opset1">
			<data shape="1,3,8,224,224" element_type="f32"/>
			<rt_info>
				<attribute name="old_api_map_element_type" version="0" value="f16"/>
			</rt_info>
			<output>
				<port id="0" precision="FP32" names="input">
					<dim>1</dim>
					<dim>3</dim>
					<dim>8</dim>
					<dim>224</dim>
					<dim>224</dim>
					<rt_info>
						<attribute name="layout" version="0" layout="[N,C,D,H,W]"/>
					</rt_info>
				</port>
			</output>
		</layer>
		<layer id="0" name="4102410614680" type="Const" version="opset1">
			<data offset="0" size="4" shape="" element_type="f32"/>
			<output>
				<port id="0" precision="FP32"/>
			</output>
		</layer>
		<layer id="1" name="4103410714263" type="Const" version="opset1">
			<data offset="4" size="4" shape="" element_type="f32"/>
			<output>
				<port id="0" precision="FP32"/>
			</output>
		</layer>
		<layer id="2" name="4104410814122" type="Const" version="opset1">
			<data offset="0" size="4" shape="" element_type="f32"/>
			<output>
				<port id="0" precision="FP32"/>
			</output>
		</layer>
		<layer id="3" name="4105410914089" type="Const" version="opset1">
			<data offset="4" size="4" shape="" element_type="f32"/>
			<output>
				<port id="0" precision="FP32"/>
			</output>
		</layer>
		<layer id="4" name="2857286114815" type="Const" version="opset1">
			<data offset="8" size="4" shape="" element_type="f32"/>
			<output>
				<port id="0" precision="FP32"/>
			</output>
		</layer>
		<layer id="5" name="2858286215631" type="Const" version="opset1">
			<data offset="12" size="4" shape="" element_type="f32"/>
			<output>
				<port id="0" precision="FP32"/>
			</output>
		</layer>
		<layer id="6" name="2859286315595" type="Const" version="opset1">
			<data offset="8" size="4" shape="" element_type="f32"/>
			<output>
				<port id="0" precision="FP32"/>
			</output>
		</layer>
		<layer id="7" name="2860286414929" type="Const" version="opset1">
			<data offset="12" size="4" shape="" element_type="f32"/>
			<output>
				<port id="0" precision="FP32"/>
			</output>
		</layer>
		<layer id="8" name="Constant_25193514623" type="Const" version="opset1">
			<data offset="16" size="16" shape="2" element_type="i64"/>
			<output>
				<port id="0" precision="I64" names="671">
					<dim>2</dim>
				</port>
			</output>
		</layer>
		<layer id="9" name="4082408614734" type="Const" version="opset1">
			<data offset="32" size="4" shape="" element_type="f32"/>
			<output>
				<port id="0" precision="FP32"/>
			</output>
		</layer>
		<layer id="10" name="4083408715784" type="Const" version="opset1">
			<data offset="36" size="4" shape="" element_type="f32"/>
			<output>
				<port id="0" precision="FP32"/>
			</output>
		</layer>
		<layer id="11" name="4084408814743" type="Const" version="opset1">
			<data offset="32" size="4" shape="" element_type="f32"/>
			<output>
				<port id="0" precision="FP32"/>
			</output>
		</layer>
		<layer id="12" name="4085408915274" type="Const" version="opset1">
			<data offset="36" size="4" shape="" element_type="f32"/>
			<output>
				<port id="0" precision="FP32"/>
			</output>
		</layer>
		<layer id="13" name="2407241114893" type="Const" version="opset1">
			<data offset="40" size="4" shape="" element_type="f32"/>
			<output>
				<port id="0" precision="FP32"/>
			</output>
		</layer>
		<layer id="14" name="2408241214836" type="Const" version="opset1">
			<data offset="44" size="4" shape="" element_type="f32"/>
			<output>
				<port id="0" precision="FP32"/>
			</output>
		</layer>
		<layer id="15" name="2409241314155" type="Const" version="opset1">
			<data offset="40" size="4" shape="" element_type="f32"/>
			<output>
				<port id="0" precision="FP32"/>
			</output>
		</layer>
		<layer id="16" name="2410241415658" type="Const" version="opset1">
			<data offset="44" size="4" shape="" element_type="f32"/>
			<output>
				<port id="0" precision="FP32"/>
			</output>
		</layer>
		<layer id="17" name="3017302115646" type="Const" version="opset1">
			<data offset="48" size="4" shape="" element_type="f32"/>
			<output>
				<port id="0" precision="FP32"/>
			</output>
		</layer>
		<layer id="18" name="3018302214137" type="Const" version="opset1">
			<data offset="52" size="4" shape="" element_type="f32"/>
			<output>
				<port id="0" precision="FP32"/>
			</output>
		</layer>
		<layer id="19" name="3019302315076" type="Const" version="opset1">
			<data offset="48" size="4" shape="" element_type="f32"/>
			<output>
				<port id="0" precision="FP32"/>
			</output>
		</layer>
		<layer id="20" name="3020302415331" type="Const" version="opset1">
			<data offset="52" size="4" shape="" element_type="f32"/>
			<output>
				<port id="0" precision="FP32"/>
			</output>
		</layer>
		<layer id="21" name="2787279115766" type="Const" version="opset1">
			<data offset="56" size="4" shape="" element_type="f32"/>
			<output>
				<port id="0" precision="FP32"/>
			</output>
		</layer>
		<layer id="22" name="2788279214704" type="Const" version="opset1">
			<data offset="60" size="4" shape="" element_type="f32"/>
			<output>
				<port id="0" precision="FP32"/>
			</output>
		</layer>
		<layer id="23" name="2789279315124" type="Const" version="opset1">
			<data offset="56" size="4" shape="" element_type="f32"/>
			<output>
				<port id="0" precision="FP32"/>
			</output>
		</layer>
		<layer id="24" name="2790279415802" type="Const" version="opset1">
			<data offset="60" size="4" shape="" element_type="f32"/>
			<output>
				<port id="0" precision="FP32"/>
			</output>
		</layer>
		<layer id="25" name="2547255114236" type="Const" version="opset1">
			<data offset="64" size="4" shape="" element_type="f32"/>
			<output>
				<port id="0" precision="FP32"/>
			</output>
		</layer>
		<layer id="26" name="2548255215019" type="Const" version="opset1">
			<data offset="68" size="4" shape="" element_type="f32"/>
			<output>
				<port id="0" precision="FP32"/>
			</output>
		</layer>
		<layer id="27" name="2549255314992" type="Const" version="opset1">
			<data offset="64" size="4" shape="" element_type="f32"/>
			<output>
				<port id="0" precision="FP32"/>
			</output>
		</layer>
		<layer id="28" name="2550255414095" type="Const" version="opset1">
			<data offset="68" size="4" shape="" element_type="f32"/>
			<output>
				<port id="0" precision="FP32"/>
			</output>
		</layer>
		<layer id="29" name="1537154114512" type="Const" version="opset1">
			<data offset="72" size="4" shape="" element_type="f32"/>
			<output>
				<port id="0" precision="FP32"/>
			</output>
		</layer>
		<layer id="30" name="1538154214515" type="Const" version="opset1">
			<data offset="76" size="4" shape="" element_type="f32"/>
			<output>
				<port id="0" precision="FP32"/>
			</output>
		</layer>
		<layer id="31" name="1539154315310" type="Const" version="opset1">
			<data offset="72" size="4" shape="" element_type="f32"/>
			<output>
				<port id="0" precision="FP32"/>
			</output>
		</layer>
		<layer id="32" name="1540154414806" type="Const" version="opset1">
			<data offset="76" size="4" shape="" element_type="f32"/>
			<output>
				<port id="0" precision="FP32"/>
			</output>
		</layer>
		<layer id="33" name="1997200115427" type="Const" version="opset1">
			<data offset="8" size="4" shape="" element_type="f32"/>
			<output>
				<port id="0" precision="FP32"/>
			</output>
		</layer>
		<layer id="34" name="1998200214446" type="Const" version="opset1">
			<data offset="80" size="4" shape="" element_type="f32"/>
			<output>
				<port id="0" precision="FP32"/>
			</output>
		</layer>
		<layer id="35" name="1999200314557" type="Const" version="opset1">
			<data offset="8" size="4" shape="" element_type="f32"/>
			<output>
				<port id="0" precision="FP32"/>
			</output>
		</layer>
		<layer id="36" name="2000200415241" type="Const" version="opset1">
			<data offset="80" size="4" shape="" element_type="f32"/>
			<output>
				<port id="0" precision="FP32"/>
			</output>
		</layer>
		<layer id="37" name="1517152115379" type="Const" version="opset1">
			<data offset="8" size="4" shape="" element_type="f32"/>
			<output>
				<port id="0" precision="FP32"/>
			</output>
		</layer>
		<layer id="38" name="1518152214167" type="Const" version="opset1">
			<data offset="84" size="4" shape="" element_type="f32"/>
			<output>
				<port id="0" precision="FP32"/>
			</output>
		</layer>
		<layer id="39" name="1519152315421" type="Const" version="opset1">
			<data offset="8" size="4" shape="" element_type="f32"/>
			<output>
				<port id="0" precision="FP32"/>
			</output>
		</layer>
		<layer id="40" name="1520152415796" type="Const" version="opset1">
			<data offset="84" size="4" shape="" element_type="f32"/>
			<output>
				<port id="0" precision="FP32"/>
			</output>
		</layer>
		<layer id="41" name="2807281114230" type="Const" version="opset1">
			<data offset="88" size="4" shape="" element_type="f32"/>
			<output>
				<port id="0" precision="FP32"/>
			</output>
		</layer>
		<layer id="42" name="2808281215505" type="Const" version="opset1">
			<data offset="92" size="4" shape="" element_type="f32"/>
			<output>
				<port id="0" precision="FP32"/>
			</output>
		</layer>
		<layer id="43" name="2809281314914" type="Const" version="opset1">
			<data offset="88" size="4" shape="" element_type="f32"/>
			<output>
				<port id="0" precision="FP32"/>
			</output>
		</layer>
		<layer id="44" name="2810281415268" type="Const" version="opset1">
			<data offset="92" size="4" shape="" element_type="f32"/>
			<output>
				<port id="0" precision="FP32"/>
			</output>
		</layer>
		<layer id="45" name="3027303115511" type="Const" version="opset1">
			<data offset="96" size="4" shape="" element_type="f32"/>
			<output>
				<port id="0" precision="FP32"/>
			</output>
		</layer>
		<layer id="46" name="3028303215049" type="Const" version="opset1">
			<data offset="100" size="4" shape="" element_type="f32"/>
			<output>
				<port id="0" precision="FP32"/>
			</output>
		</layer>
		<layer id="47" name="3029303315571" type="Const" version="opset1">
			<data offset="96" size="4" shape="" element_type="f32"/>
			<output>
				<port id="0" precision="FP32"/>
			</output>
		</layer>
		<layer id="48" name="3030303414671" type="Const" version="opset1">
			<data offset="100" size="4" shape="" element_type="f32"/>
			<output>
				<port id="0" precision="FP32"/>
			</output>
		</layer>
		<layer id="49" name="2587259114791" type="Const" version="opset1">
			<data offset="104" size="2688" shape="1,672,1,1,1" element_type="f32"/>
			<output>
				<port id="0" precision="FP32">
					<dim>1</dim>
					<dim>672</dim>
					<dim>1</dim>
					<dim>1</dim>
					<dim>1</dim>
				</port>
			</output>
		</layer>
		<layer id="50" name="2588259214422" type="Const" version="opset1">
			<data offset="2792" size="2688" shape="1,672,1,1,1" element_type="f32"/>
			<output>
				<port id="0" precision="FP32">
					<dim>1</dim>
					<dim>672</dim>
					<dim>1</dim>
					<dim>1</dim>
					<dim>1</dim>
				</port>
			</output>
		</layer>
		<layer id="51" name="2589259315052" type="Const" version="opset1">
			<data offset="104" size="2688" shape="1,672,1,1,1" element_type="f32"/>
			<output>
				<port id="0" precision="FP32">
					<dim>1</dim>
					<dim>672</dim>
					<dim>1</dim>
					<dim>1</dim>
					<dim>1</dim>
				</port>
			</output>
		</layer>
		<layer id="52" name="2590259414485" type="Const" version="opset1">
			<data offset="2792" size="2688" shape="1,672,1,1,1" element_type="f32"/>
			<output>
				<port id="0" precision="FP32">
					<dim>1</dim>
					<dim>672</dim>
					<dim>1</dim>
					<dim>1</dim>
					<dim>1</dim>
				</port>
			</output>
		</layer>
		<layer id="53" name="3037304115175" type="Const" version="opset1">
			<data offset="5480" size="4" shape="" element_type="f32"/>
			<output>
				<port id="0" precision="FP32"/>
			</output>
		</layer>
		<layer id="54" name="3038304215109" type="Const" version="opset1">
			<data offset="5484" size="4" shape="" element_type="f32"/>
			<output>
				<port id="0" precision="FP32"/>
			</output>
		</layer>
		<layer id="55" name="3039304314188" type="Const" version="opset1">
			<data offset="5480" size="4" shape="" element_type="f32"/>
			<output>
				<port id="0" precision="FP32"/>
			</output>
		</layer>
		<layer id="56" name="3040304414416" type="Const" version="opset1">
			<data offset="5484" size="4" shape="" element_type="f32"/>
			<output>
				<port id="0" precision="FP32"/>
			</output>
		</layer>
		<layer id="57" name="1497150114593" type="Const" version="opset1">
			<data offset="5488" size="4" shape="" element_type="f32"/>
			<output>
				<port id="0" precision="FP32"/>
			</output>
		</layer>
		<layer id="58" name="1498150214692" type="Const" version="opset1">
			<data offset="5492" size="4" shape="" element_type="f32"/>
			<output>
				<port id="0" precision="FP32"/>
			</output>
		</layer>
		<layer id="59" name="1499150315610" type="Const" version="opset1">
			<data offset="5488" size="4" shape="" element_type="f32"/>
			<output>
				<port id="0" precision="FP32"/>
			</output>
		</layer>
		<layer id="60" name="1500150414599" type="Const" version="opset1">
			<data offset="5492" size="4" shape="" element_type="f32"/>
			<output>
				<port id="0" precision="FP32"/>
			</output>
		</layer>
		<layer id="61" name="3137314115370" type="Const" version="opset1">
			<data offset="8" size="4" shape="" element_type="f32"/>
			<output>
				<port id="0" precision="FP32"/>
			</output>
		</layer>
		<layer id="62" name="3138314215118" type="Const" version="opset1">
			<data offset="5496" size="4" shape="" element_type="f32"/>
			<output>
				<port id="0" precision="FP32"/>
			</output>
		</layer>
		<layer id="63" name="3139314315547" type="Const" version="opset1">
			<data offset="8" size="4" shape="" element_type="f32"/>
			<output>
				<port id="0" precision="FP32"/>
			</output>
		</layer>
		<layer id="64" name="3140314414110" type="Const" version="opset1">
			<data offset="5496" size="4" shape="" element_type="f32"/>
			<output>
				<port id="0" precision="FP32"/>
			</output>
		</layer>
		<layer id="65" name="1697170114158" type="Const" version="opset1">
			<data offset="8" size="4" shape="" element_type="f32"/>
			<output>
				<port id="0" precision="FP32"/>
			</output>
		</layer>
		<layer id="66" name="1698170215781" type="Const" version="opset1">
			<data offset="5500" size="4" shape="" element_type="f32"/>
			<output>
				<port id="0" precision="FP32"/>
			</output>
		</layer>
		<layer id="67" name="1699170315070" type="Const" version="opset1">
			<data offset="8" size="4" shape="" element_type="f32"/>
			<output>
				<port id="0" precision="FP32"/>
			</output>
		</layer>
		<layer id="68" name="1700170415613" type="Const" version="opset1">
			<data offset="5500" size="4" shape="" element_type="f32"/>
			<output>
				<port id="0" precision="FP32"/>
			</output>
		</layer>
		<layer id="69" name="3157316114785" type="Const" version="opset1">
			<data offset="5504" size="4" shape="" element_type="f32"/>
			<output>
				<port id="0" precision="FP32"/>
			</output>
		</layer>
		<layer id="70" name="3158316214398" type="Const" version="opset1">
			<data offset="5508" size="4" shape="" element_type="f32"/>
			<output>
				<port id="0" precision="FP32"/>
			</output>
		</layer>
		<layer id="71" name="3159316314842" type="Const" version="opset1">
			<data offset="5504" size="4" shape="" element_type="f32"/>
			<output>
				<port id="0" precision="FP32"/>
			</output>
		</layer>
		<layer id="72" name="3160316415007" type="Const" version="opset1">
			<data offset="5508" size="4" shape="" element_type="f32"/>
			<output>
				<port id="0" precision="FP32"/>
			</output>
		</layer>
		<layer id="73" name="1717172115244" type="Const" version="opset1">
			<data offset="5512" size="4" shape="" element_type="f32"/>
			<output>
				<port id="0" precision="FP32"/>
			</output>
		</layer>
		<layer id="74" name="1718172214491" type="Const" version="opset1">
			<data offset="5516" size="4" shape="" element_type="f32"/>
			<output>
				<port id="0" precision="FP32"/>
			</output>
		</layer>
		<layer id="75" name="1719172314425" type="Const" version="opset1">
			<data offset="5512" size="4" shape="" element_type="f32"/>
			<output>
				<port id="0" precision="FP32"/>
			</output>
		</layer>
		<layer id="76" name="1720172414569" type="Const" version="opset1">
			<data offset="5516" size="4" shape="" element_type="f32"/>
			<output>
				<port id="0" precision="FP32"/>
			</output>
		</layer>
		<layer id="77" name="1867187115466" type="Const" version="opset1">
			<data offset="5520" size="2688" shape="1,672,1,1,1" element_type="f32"/>
			<output>
				<port id="0" precision="FP32">
					<dim>1</dim>
					<dim>672</dim>
					<dim>1</dim>
					<dim>1</dim>
					<dim>1</dim>
				</port>
			</output>
		</layer>
		<layer id="78" name="1868187215559" type="Const" version="opset1">
			<data offset="8208" size="2688" shape="1,672,1,1,1" element_type="f32"/>
			<output>
				<port id="0" precision="FP32">
					<dim>1</dim>
					<dim>672</dim>
					<dim>1</dim>
					<dim>1</dim>
					<dim>1</dim>
				</port>
			</output>
		</layer>
		<layer id="79" name="1869187315682" type="Const" version="opset1">
			<data offset="5520" size="2688" shape="1,672,1,1,1" element_type="f32"/>
			<output>
				<port id="0" precision="FP32">
					<dim>1</dim>
					<dim>672</dim>
					<dim>1</dim>
					<dim>1</dim>
					<dim>1</dim>
				</port>
			</output>
		</layer>
		<layer id="80" name="1870187414464" type="Const" version="opset1">
			<data offset="8208" size="2688" shape="1,672,1,1,1" element_type="f32"/>
			<output>
				<port id="0" precision="FP32">
					<dim>1</dim>
					<dim>672</dim>
					<dim>1</dim>
					<dim>1</dim>
					<dim>1</dim>
				</port>
			</output>
		</layer>
		<layer id="81" name="2427243115526" type="Const" version="opset1">
			<data offset="10896" size="4" shape="" element_type="f32"/>
			<output>
				<port id="0" precision="FP32"/>
			</output>
		</layer>
		<layer id="82" name="2428243214377" type="Const" version="opset1">
			<data offset="10900" size="4" shape="" element_type="f32"/>
			<output>
				<port id="0" precision="FP32"/>
			</output>
		</layer>
		<layer id="83" name="2429243315757" type="Const" version="opset1">
			<data offset="10896" size="4" shape="" element_type="f32"/>
			<output>
				<port id="0" precision="FP32"/>
			</output>
		</layer>
		<layer id="84" name="2430243415115" type="Const" version="opset1">
			<data offset="10900" size="4" shape="" element_type="f32"/>
			<output>
				<port id="0" precision="FP32"/>
			</output>
		</layer>
		<layer id="85" name="1577158114953" type="Const" version="opset1">
			<data offset="10904" size="4" shape="" element_type="f32"/>
			<output>
				<port id="0" precision="FP32"/>
			</output>
		</layer>
		<layer id="86" name="1578158214125" type="Const" version="opset1">
			<data offset="10908" size="4" shape="" element_type="f32"/>
			<output>
				<port id="0" precision="FP32"/>
			</output>
		</layer>
		<layer id="87" name="1579158314482" type="Const" version="opset1">
			<data offset="10904" size="4" shape="" element_type="f32"/>
			<output>
				<port id="0" precision="FP32"/>
			</output>
		</layer>
		<layer id="88" name="1580158415313" type="Const" version="opset1">
			<data offset="10908" size="4" shape="" element_type="f32"/>
			<output>
				<port id="0" precision="FP32"/>
			</output>
		</layer>
		<layer id="89" name="2947295114965" type="Const" version="opset1">
			<data offset="10912" size="4" shape="" element_type="f32"/>
			<output>
				<port id="0" precision="FP32"/>
			</output>
		</layer>
		<layer id="90" name="2948295215463" type="Const" version="opset1">
			<data offset="10916" size="4" shape="" element_type="f32"/>
			<output>
				<port id="0" precision="FP32"/>
			</output>
		</layer>
		<layer id="91" name="2949295314386" type="Const" version="opset1">
			<data offset="10912" size="4" shape="" element_type="f32"/>
			<output>
				<port id="0" precision="FP32"/>
			</output>
		</layer>
		<layer id="92" name="2950295415577" type="Const" version="opset1">
			<data offset="10916" size="4" shape="" element_type="f32"/>
			<output>
				<port id="0" precision="FP32"/>
			</output>
		</layer>
		<layer id="93" name="2507251115316" type="Const" version="opset1">
			<data offset="8" size="4" shape="" element_type="f32"/>
			<output>
				<port id="0" precision="FP32"/>
			</output>
		</layer>
		<layer id="94" name="2508251214542" type="Const" version="opset1">
			<data offset="10920" size="4" shape="" element_type="f32"/>
			<output>
				<port id="0" precision="FP32"/>
			</output>
		</layer>
		<layer id="95" name="2509251314299" type="Const" version="opset1">
			<data offset="8" size="4" shape="" element_type="f32"/>
			<output>
				<port id="0" precision="FP32"/>
			</output>
		</layer>
		<layer id="96" name="2510251415178" type="Const" version="opset1">
			<data offset="10920" size="4" shape="" element_type="f32"/>
			<output>
				<port id="0" precision="FP32"/>
			</output>
		</layer>
		<layer id="97" name="2927293115739" type="Const" version="opset1">
			<data offset="8" size="4" shape="" element_type="f32"/>
			<output>
				<port id="0" precision="FP32"/>
			</output>
		</layer>
		<layer id="98" name="2928293214710" type="Const" version="opset1">
			<data offset="10924" size="4" shape="" element_type="f32"/>
			<output>
				<port id="0" precision="FP32"/>
			</output>
		</layer>
		<layer id="99" name="2929293314998" type="Const" version="opset1">
			<data offset="8" size="4" shape="" element_type="f32"/>
			<output>
				<port id="0" precision="FP32"/>
			</output>
		</layer>
		<layer id="100" name="2930293414305" type="Const" version="opset1">
			<data offset="10924" size="4" shape="" element_type="f32"/>
			<output>
				<port id="0" precision="FP32"/>
			</output>
		</layer>
		<layer id="101" name="2527253115775" type="Const" version="opset1">
			<data offset="10928" size="4" shape="" element_type="f32"/>
			<output>
				<port id="0" precision="FP32"/>
			</output>
		</layer>
		<layer id="102" name="2528253215334" type="Const" version="opset1">
			<data offset="10932" size="4" shape="" element_type="f32"/>
			<output>
				<port id="0" precision="FP32"/>
			</output>
		</layer>
		<layer id="103" name="2529253314086" type="Const" version="opset1">
			<data offset="10928" size="4" shape="" element_type="f32"/>
			<output>
				<port id="0" precision="FP32"/>
			</output>
		</layer>
		<layer id="104" name="2530253414098" type="Const" version="opset1">
			<data offset="10932" size="4" shape="" element_type="f32"/>
			<output>
				<port id="0" precision="FP32"/>
			</output>
		</layer>
		<layer id="105" name="3007301114647" type="Const" version="opset1">
			<data offset="10936" size="4" shape="" element_type="f32"/>
			<output>
				<port id="0" precision="FP32"/>
			</output>
		</layer>
		<layer id="106" name="3008301214773" type="Const" version="opset1">
			<data offset="10940" size="4" shape="" element_type="f32"/>
			<output>
				<port id="0" precision="FP32"/>
			</output>
		</layer>
		<layer id="107" name="3009301315199" type="Const" version="opset1">
			<data offset="10936" size="4" shape="" element_type="f32"/>
			<output>
				<port id="0" precision="FP32"/>
			</output>
		</layer>
		<layer id="108" name="3010301414926" type="Const" version="opset1">
			<data offset="10940" size="4" shape="" element_type="f32"/>
			<output>
				<port id="0" precision="FP32"/>
			</output>
		</layer>
		<layer id="109" name="1827183115424" type="Const" version="opset1">
			<data offset="10944" size="1920" shape="1,480,1,1,1" element_type="f32"/>
			<output>
				<port id="0" precision="FP32">
					<dim>1</dim>
					<dim>480</dim>
					<dim>1</dim>
					<dim>1</dim>
					<dim>1</dim>
				</port>
			</output>
		</layer>
		<layer id="110" name="1828183214200" type="Const" version="opset1">
			<data offset="12864" size="1920" shape="1,480,1,1,1" element_type="f32"/>
			<output>
				<port id="0" precision="FP32">
					<dim>1</dim>
					<dim>480</dim>
					<dim>1</dim>
					<dim>1</dim>
					<dim>1</dim>
				</port>
			</output>
		</layer>
		<layer id="111" name="1829183315736" type="Const" version="opset1">
			<data offset="10944" size="1920" shape="1,480,1,1,1" element_type="f32"/>
			<output>
				<port id="0" precision="FP32">
					<dim>1</dim>
					<dim>480</dim>
					<dim>1</dim>
					<dim>1</dim>
					<dim>1</dim>
				</port>
			</output>
		</layer>
		<layer id="112" name="1830183415391" type="Const" version="opset1">
			<data offset="12864" size="1920" shape="1,480,1,1,1" element_type="f32"/>
			<output>
				<port id="0" precision="FP32">
					<dim>1</dim>
					<dim>480</dim>
					<dim>1</dim>
					<dim>1</dim>
					<dim>1</dim>
				</port>
			</output>
		</layer>
		<layer id="113" name="2367237114269" type="Const" version="opset1">
			<data offset="14784" size="4" shape="" element_type="f32"/>
			<output>
				<port id="0" precision="FP32"/>
			</output>
		</layer>
		<layer id="114" name="2368237214209" type="Const" version="opset1">
			<data offset="14788" size="4" shape="" element_type="f32"/>
			<output>
				<port id="0" precision="FP32"/>
			</output>
		</layer>
		<layer id="115" name="2369237314590" type="Const" version="opset1">
			<data offset="14784" size="4" shape="" element_type="f32"/>
			<output>
				<port id="0" precision="FP32"/>
			</output>
		</layer>
		<layer id="116" name="2370237414803" type="Const" version="opset1">
			<data offset="14788" size="4" shape="" element_type="f32"/>
			<output>
				<port id="0" precision="FP32"/>
			</output>
		</layer>
		<layer id="117" name="2097210114326" type="Const" version="opset1">
			<data offset="14792" size="4" shape="" element_type="f32"/>
			<output>
				<port id="0" precision="FP32"/>
			</output>
		</layer>
		<layer id="118" name="2098210214629" type="Const" version="opset1">
			<data offset="14796" size="4" shape="" element_type="f32"/>
			<output>
				<port id="0" precision="FP32"/>
			</output>
		</layer>
		<layer id="119" name="2099210314518" type="Const" version="opset1">
			<data offset="14792" size="4" shape="" element_type="f32"/>
			<output>
				<port id="0" precision="FP32"/>
			</output>
		</layer>
		<layer id="120" name="2100210415592" type="Const" version="opset1">
			<data offset="14796" size="4" shape="" element_type="f32"/>
			<output>
				<port id="0" precision="FP32"/>
			</output>
		</layer>
		<layer id="121" name="1887189114536" type="Const" version="opset1">
			<data offset="14800" size="4" shape="" element_type="f32"/>
			<output>
				<port id="0" precision="FP32"/>
			</output>
		</layer>
		<layer id="122" name="1888189215457" type="Const" version="opset1">
			<data offset="14804" size="4" shape="" element_type="f32"/>
			<output>
				<port id="0" precision="FP32"/>
			</output>
		</layer>
		<layer id="123" name="1889189315529" type="Const" version="opset1">
			<data offset="14800" size="4" shape="" element_type="f32"/>
			<output>
				<port id="0" precision="FP32"/>
			</output>
		</layer>
		<layer id="124" name="1890189414128" type="Const" version="opset1">
			<data offset="14804" size="4" shape="" element_type="f32"/>
			<output>
				<port id="0" precision="FP32"/>
			</output>
		</layer>
		<layer id="125" name="1657166115502" type="Const" version="opset1">
			<data offset="14808" size="4" shape="" element_type="f32"/>
			<output>
				<port id="0" precision="FP32"/>
			</output>
		</layer>
		<layer id="126" name="1658166215103" type="Const" version="opset1">
			<data offset="14812" size="4" shape="" element_type="f32"/>
			<output>
				<port id="0" precision="FP32"/>
			</output>
		</layer>
		<layer id="127" name="1659166314452" type="Const" version="opset1">
			<data offset="14808" size="4" shape="" element_type="f32"/>
			<output>
				<port id="0" precision="FP32"/>
			</output>
		</layer>
		<layer id="128" name="1660166415769" type="Const" version="opset1">
			<data offset="14812" size="4" shape="" element_type="f32"/>
			<output>
				<port id="0" precision="FP32"/>
			</output>
		</layer>
		<layer id="129" name="1757176115598" type="Const" version="opset1">
			<data offset="14816" size="4" shape="" element_type="f32"/>
			<output>
				<port id="0" precision="FP32"/>
			</output>
		</layer>
		<layer id="130" name="1758176215250" type="Const" version="opset1">
			<data offset="14820" size="4" shape="" element_type="f32"/>
			<output>
				<port id="0" precision="FP32"/>
			</output>
		</layer>
		<layer id="131" name="1759176315655" type="Const" version="opset1">
			<data offset="14816" size="4" shape="" element_type="f32"/>
			<output>
				<port id="0" precision="FP32"/>
			</output>
		</layer>
		<layer id="132" name="1760176414917" type="Const" version="opset1">
			<data offset="14820" size="4" shape="" element_type="f32"/>
			<output>
				<port id="0" precision="FP32"/>
			</output>
		</layer>
		<layer id="133" name="1957196115181" type="Const" version="opset1">
			<data offset="14824" size="960" shape="1,240,1,1,1" element_type="f32"/>
			<output>
				<port id="0" precision="FP32">
					<dim>1</dim>
					<dim>240</dim>
					<dim>1</dim>
					<dim>1</dim>
					<dim>1</dim>
				</port>
			</output>
		</layer>
		<layer id="134" name="1958196214182" type="Const" version="opset1">
			<data offset="15784" size="960" shape="1,240,1,1,1" element_type="f32"/>
			<output>
				<port id="0" precision="FP32">
					<dim>1</dim>
					<dim>240</dim>
					<dim>1</dim>
					<dim>1</dim>
					<dim>1</dim>
				</port>
			</output>
		</layer>
		<layer id="135" name="1959196314962" type="Const" version="opset1">
			<data offset="14824" size="960" shape="1,240,1,1,1" element_type="f32"/>
			<output>
				<port id="0" precision="FP32">
					<dim>1</dim>
					<dim>240</dim>
					<dim>1</dim>
					<dim>1</dim>
					<dim>1</dim>
				</port>
			</output>
		</layer>
		<layer id="136" name="1960196415724" type="Const" version="opset1">
			<data offset="15784" size="960" shape="1,240,1,1,1" element_type="f32"/>
			<output>
				<port id="0" precision="FP32">
					<dim>1</dim>
					<dim>240</dim>
					<dim>1</dim>
					<dim>1</dim>
					<dim>1</dim>
				</port>
			</output>
		</layer>
		<layer id="137" name="2157216115259" type="Const" version="opset1">
			<data offset="16744" size="4" shape="" element_type="f32"/>
			<output>
				<port id="0" precision="FP32"/>
			</output>
		</layer>
		<layer id="138" name="2158216214776" type="Const" version="opset1">
			<data offset="16748" size="4" shape="" element_type="f32"/>
			<output>
				<port id="0" precision="FP32"/>
			</output>
		</layer>
		<layer id="139" name="2159216314467" type="Const" version="opset1">
			<data offset="16744" size="4" shape="" element_type="f32"/>
			<output>
				<port id="0" precision="FP32"/>
			</output>
		</layer>
		<layer id="140" name="2160216415340" type="Const" version="opset1">
			<data offset="16748" size="4" shape="" element_type="f32"/>
			<output>
				<port id="0" precision="FP32"/>
			</output>
		</layer>
		<layer id="141" name="2077208115025" type="Const" version="opset1">
			<data offset="16752" size="4" shape="" element_type="f32"/>
			<output>
				<port id="0" precision="FP32"/>
			</output>
		</layer>
		<layer id="142" name="2078208215286" type="Const" version="opset1">
			<data offset="16756" size="4" shape="" element_type="f32"/>
			<output>
				<port id="0" precision="FP32"/>
			</output>
		</layer>
		<layer id="143" name="2079208314461" type="Const" version="opset1">
			<data offset="16752" size="4" shape="" element_type="f32"/>
			<output>
				<port id="0" precision="FP32"/>
			</output>
		</layer>
		<layer id="144" name="2080208414626" type="Const" version="opset1">
			<data offset="16756" size="4" shape="" element_type="f32"/>
			<output>
				<port id="0" precision="FP32"/>
			</output>
		</layer>
		<layer id="145" name="2677268115652" type="Const" version="opset1">
			<data offset="16760" size="4" shape="" element_type="f32"/>
			<output>
				<port id="0" precision="FP32"/>
			</output>
		</layer>
		<layer id="146" name="2678268214632" type="Const" version="opset1">
			<data offset="16764" size="4" shape="" element_type="f32"/>
			<output>
				<port id="0" precision="FP32"/>
			</output>
		</layer>
		<layer id="147" name="2679268314662" type="Const" version="opset1">
			<data offset="16760" size="4" shape="" element_type="f32"/>
			<output>
				<port id="0" precision="FP32"/>
			</output>
		</layer>
		<layer id="148" name="2680268414419" type="Const" version="opset1">
			<data offset="16764" size="4" shape="" element_type="f32"/>
			<output>
				<port id="0" precision="FP32"/>
			</output>
		</layer>
		<layer id="149" name="2387239115385" type="Const" version="opset1">
			<data offset="8" size="4" shape="" element_type="f32"/>
			<output>
				<port id="0" precision="FP32"/>
			</output>
		</layer>
		<layer id="150" name="2388239214650" type="Const" version="opset1">
			<data offset="16768" size="4" shape="" element_type="f32"/>
			<output>
				<port id="0" precision="FP32"/>
			</output>
		</layer>
		<layer id="151" name="2389239314428" type="Const" version="opset1">
			<data offset="8" size="4" shape="" element_type="f32"/>
			<output>
				<port id="0" precision="FP32"/>
			</output>
		</layer>
		<layer id="152" name="2390239414458" type="Const" version="opset1">
			<data offset="16768" size="4" shape="" element_type="f32"/>
			<output>
				<port id="0" precision="FP32"/>
			</output>
		</layer>
		<layer id="153" name="2967297114278" type="Const" version="opset1">
			<data offset="8" size="4" shape="" element_type="f32"/>
			<output>
				<port id="0" precision="FP32"/>
			</output>
		</layer>
		<layer id="154" name="2968297214983" type="Const" version="opset1">
			<data offset="16772" size="4" shape="" element_type="f32"/>
			<output>
				<port id="0" precision="FP32"/>
			</output>
		</layer>
		<layer id="155" name="2969297314479" type="Const" version="opset1">
			<data offset="8" size="4" shape="" element_type="f32"/>
			<output>
				<port id="0" precision="FP32"/>
			</output>
		</layer>
		<layer id="156" name="2970297414374" type="Const" version="opset1">
			<data offset="16772" size="4" shape="" element_type="f32"/>
			<output>
				<port id="0" precision="FP32"/>
			</output>
		</layer>
		<layer id="157" name="3217322114212" type="Const" version="opset1">
			<data offset="8" size="4" shape="" element_type="f32"/>
			<output>
				<port id="0" precision="FP32"/>
			</output>
		</layer>
		<layer id="158" name="3218322215667" type="Const" version="opset1">
			<data offset="16776" size="4" shape="" element_type="f32"/>
			<output>
				<port id="0" precision="FP32"/>
			</output>
		</layer>
		<layer id="159" name="3219322315082" type="Const" version="opset1">
			<data offset="8" size="4" shape="" element_type="f32"/>
			<output>
				<port id="0" precision="FP32"/>
			</output>
		</layer>
		<layer id="160" name="3220322415361" type="Const" version="opset1">
			<data offset="16776" size="4" shape="" element_type="f32"/>
			<output>
				<port id="0" precision="FP32"/>
			</output>
		</layer>
		<layer id="161" name="2827283115550" type="Const" version="opset1">
			<data offset="16780" size="4" shape="" element_type="f32"/>
			<output>
				<port id="0" precision="FP32"/>
			</output>
		</layer>
		<layer id="162" name="2828283214938" type="Const" version="opset1">
			<data offset="16784" size="4" shape="" element_type="f32"/>
			<output>
				<port id="0" precision="FP32"/>
			</output>
		</layer>
		<layer id="163" name="2829283315061" type="Const" version="opset1">
			<data offset="16780" size="4" shape="" element_type="f32"/>
			<output>
				<port id="0" precision="FP32"/>
			</output>
		</layer>
		<layer id="164" name="2830283414359" type="Const" version="opset1">
			<data offset="16784" size="4" shape="" element_type="f32"/>
			<output>
				<port id="0" precision="FP32"/>
			</output>
		</layer>
		<layer id="165" name="2667267115793" type="Const" version="opset1">
			<data offset="16788" size="4" shape="" element_type="f32"/>
			<output>
				<port id="0" precision="FP32"/>
			</output>
		</layer>
		<layer id="166" name="2668267215043" type="Const" version="opset1">
			<data offset="16792" size="4" shape="" element_type="f32"/>
			<output>
				<port id="0" precision="FP32"/>
			</output>
		</layer>
		<layer id="167" name="2669267314497" type="Const" version="opset1">
			<data offset="16788" size="4" shape="" element_type="f32"/>
			<output>
				<port id="0" precision="FP32"/>
			</output>
		</layer>
		<layer id="168" name="2670267414566" type="Const" version="opset1">
			<data offset="16792" size="4" shape="" element_type="f32"/>
			<output>
				<port id="0" precision="FP32"/>
			</output>
		</layer>
		<layer id="169" name="1637164115733" type="Const" version="opset1">
			<data offset="16796" size="288" shape="1,72,1,1,1" element_type="f32"/>
			<output>
				<port id="0" precision="FP32">
					<dim>1</dim>
					<dim>72</dim>
					<dim>1</dim>
					<dim>1</dim>
					<dim>1</dim>
				</port>
			</output>
		</layer>
		<layer id="170" name="1638164215772" type="Const" version="opset1">
			<data offset="17084" size="288" shape="1,72,1,1,1" element_type="f32"/>
			<output>
				<port id="0" precision="FP32">
					<dim>1</dim>
					<dim>72</dim>
					<dim>1</dim>
					<dim>1</dim>
					<dim>1</dim>
				</port>
			</output>
		</layer>
		<layer id="171" name="1639164315121" type="Const" version="opset1">
			<data offset="16796" size="288" shape="1,72,1,1,1" element_type="f32"/>
			<output>
				<port id="0" precision="FP32">
					<dim>1</dim>
					<dim>72</dim>
					<dim>1</dim>
					<dim>1</dim>
					<dim>1</dim>
				</port>
			</output>
		</layer>
		<layer id="172" name="1640164415079" type="Const" version="opset1">
			<data offset="17084" size="288" shape="1,72,1,1,1" element_type="f32"/>
			<output>
				<port id="0" precision="FP32">
					<dim>1</dim>
					<dim>72</dim>
					<dim>1</dim>
					<dim>1</dim>
					<dim>1</dim>
				</port>
			</output>
		</layer>
		<layer id="173" name="2137214115073" type="Const" version="opset1">
			<data offset="17372" size="4" shape="" element_type="f32"/>
			<output>
				<port id="0" precision="FP32"/>
			</output>
		</layer>
		<layer id="174" name="2138214214449" type="Const" version="opset1">
			<data offset="17376" size="4" shape="" element_type="f32"/>
			<output>
				<port id="0" precision="FP32"/>
			</output>
		</layer>
		<layer id="175" name="2139214314281" type="Const" version="opset1">
			<data offset="17372" size="4" shape="" element_type="f32"/>
			<output>
				<port id="0" precision="FP32"/>
			</output>
		</layer>
		<layer id="176" name="2140214415487" type="Const" version="opset1">
			<data offset="17376" size="4" shape="" element_type="f32"/>
			<output>
				<port id="0" precision="FP32"/>
			</output>
		</layer>
		<layer id="177" name="1597160114584" type="Const" version="opset1">
			<data offset="17380" size="4" shape="" element_type="f32"/>
			<output>
				<port id="0" precision="FP32"/>
			</output>
		</layer>
		<layer id="178" name="1598160215235" type="Const" version="opset1">
			<data offset="17384" size="4" shape="" element_type="f32"/>
			<output>
				<port id="0" precision="FP32"/>
			</output>
		</layer>
		<layer id="179" name="1599160315469" type="Const" version="opset1">
			<data offset="17380" size="4" shape="" element_type="f32"/>
			<output>
				<port id="0" precision="FP32"/>
			</output>
		</layer>
		<layer id="180" name="1600160414152" type="Const" version="opset1">
			<data offset="17384" size="4" shape="" element_type="f32"/>
			<output>
				<port id="0" precision="FP32"/>
			</output>
		</layer>
		<layer id="181" name="1797180115187" type="Const" version="opset1">
			<data offset="17388" size="4" shape="" element_type="f32"/>
			<output>
				<port id="0" precision="FP32"/>
			</output>
		</layer>
		<layer id="182" name="1798180215760" type="Const" version="opset1">
			<data offset="17392" size="4" shape="" element_type="f32"/>
			<output>
				<port id="0" precision="FP32"/>
			</output>
		</layer>
		<layer id="183" name="1799180314146" type="Const" version="opset1">
			<data offset="17388" size="4" shape="" element_type="f32"/>
			<output>
				<port id="0" precision="FP32"/>
			</output>
		</layer>
		<layer id="184" name="1800180415406" type="Const" version="opset1">
			<data offset="17392" size="4" shape="" element_type="f32"/>
			<output>
				<port id="0" precision="FP32"/>
			</output>
		</layer>
		<layer id="185" name="2017202114977" type="Const" version="opset1">
			<data offset="8" size="4" shape="" element_type="f32"/>
			<output>
				<port id="0" precision="FP32"/>
			</output>
		</layer>
		<layer id="186" name="2018202214521" type="Const" version="opset1">
			<data offset="17396" size="4" shape="" element_type="f32"/>
			<output>
				<port id="0" precision="FP32"/>
			</output>
		</layer>
		<layer id="187" name="2019202315691" type="Const" version="opset1">
			<data offset="8" size="4" shape="" element_type="f32"/>
			<output>
				<port id="0" precision="FP32"/>
			</output>
		</layer>
		<layer id="188" name="2020202414104" type="Const" version="opset1">
			<data offset="17396" size="4" shape="" element_type="f32"/>
			<output>
				<port id="0" precision="FP32"/>
			</output>
		</layer>
		<layer id="189" name="1677168115544" type="Const" version="opset1">
			<data offset="17400" size="256" shape="1,64,1,1,1" element_type="f32"/>
			<output>
				<port id="0" precision="FP32">
					<dim>1</dim>
					<dim>64</dim>
					<dim>1</dim>
					<dim>1</dim>
					<dim>1</dim>
				</port>
			</output>
		</layer>
		<layer id="190" name="1678168215553" type="Const" version="opset1">
			<data offset="17656" size="256" shape="1,64,1,1,1" element_type="f32"/>
			<output>
				<port id="0" precision="FP32">
					<dim>1</dim>
					<dim>64</dim>
					<dim>1</dim>
					<dim>1</dim>
					<dim>1</dim>
				</port>
			</output>
		</layer>
		<layer id="191" name="1679168315304" type="Const" version="opset1">
			<data offset="17400" size="256" shape="1,64,1,1,1" element_type="f32"/>
			<output>
				<port id="0" precision="FP32">
					<dim>1</dim>
					<dim>64</dim>
					<dim>1</dim>
					<dim>1</dim>
					<dim>1</dim>
				</port>
			</output>
		</layer>
		<layer id="192" name="1680168414857" type="Const" version="opset1">
			<data offset="17656" size="256" shape="1,64,1,1,1" element_type="f32"/>
			<output>
				<port id="0" precision="FP32">
					<dim>1</dim>
					<dim>64</dim>
					<dim>1</dim>
					<dim>1</dim>
					<dim>1</dim>
				</port>
			</output>
		</layer>
		<layer id="193" name="2187219114074" type="Const" version="opset1">
			<data offset="17912" size="4" shape="" element_type="f32"/>
			<output>
				<port id="0" precision="FP32"/>
			</output>
		</layer>
		<layer id="194" name="2188219215280" type="Const" version="opset1">
			<data offset="17916" size="4" shape="" element_type="f32"/>
			<output>
				<port id="0" precision="FP32"/>
			</output>
		</layer>
		<layer id="195" name="2189219315253" type="Const" version="opset1">
			<data offset="17912" size="4" shape="" element_type="f32"/>
			<output>
				<port id="0" precision="FP32"/>
			</output>
		</layer>
		<layer id="196" name="2190219415223" type="Const" version="opset1">
			<data offset="17916" size="4" shape="" element_type="f32"/>
			<output>
				<port id="0" precision="FP32"/>
			</output>
		</layer>
		<layer id="197" name="2327233115094" type="Const" version="opset1">
			<data offset="17920" size="4" shape="" element_type="f32"/>
			<output>
				<port id="0" precision="FP32"/>
			</output>
		</layer>
		<layer id="198" name="2328233214854" type="Const" version="opset1">
			<data offset="17924" size="4" shape="" element_type="f32"/>
			<output>
				<port id="0" precision="FP32"/>
			</output>
		</layer>
		<layer id="199" name="2329233315328" type="Const" version="opset1">
			<data offset="17920" size="4" shape="" element_type="f32"/>
			<output>
				<port id="0" precision="FP32"/>
			</output>
		</layer>
		<layer id="200" name="2330233414440" type="Const" version="opset1">
			<data offset="17924" size="4" shape="" element_type="f32"/>
			<output>
				<port id="0" precision="FP32"/>
			</output>
		</layer>
		<layer id="202" name="Constant_175848115238" type="Const" version="opset1">
			<data offset="17928" size="6" shape="1,3,1,1,1" element_type="f16"/>
			<output>
				<port id="0" precision="FP16">
					<dim>1</dim>
					<dim>3</dim>
					<dim>1</dim>
					<dim>1</dim>
					<dim>1</dim>
				</port>
			</output>
		</layer>
		<layer id="203" name="Constant_17584817994/restored_convert" type="Convert" version="opset1">
			<data destination_type="f32"/>
			<rt_info>
				<attribute name="decompression" version="0"/>
			</rt_info>
			<input>
				<port id="0">
					<dim>1</dim>
					<dim>3</dim>
					<dim>1</dim>
					<dim>1</dim>
					<dim>1</dim>
				</port>
			</input>
			<output>
				<port id="1" precision="FP32">
					<dim>1</dim>
					<dim>3</dim>
					<dim>1</dim>
					<dim>1</dim>
					<dim>1</dim>
				</port>
			</output>
		</layer>
		<layer id="204" name="Subtract_1759" type="Subtract" version="opset1">
			<data auto_broadcast="numpy"/>
			<rt_info>
				<attribute name="preprocessing" version="0"/>
			</rt_info>
			<input>
				<port id="0">
					<dim>1</dim>
					<dim>3</dim>
					<dim>8</dim>
					<dim>224</dim>
					<dim>224</dim>
				</port>
				<port id="1">
					<dim>1</dim>
					<dim>3</dim>
					<dim>1</dim>
					<dim>1</dim>
					<dim>1</dim>
				</port>
			</input>
			<output>
				<port id="2" precision="FP32">
					<dim>1</dim>
					<dim>3</dim>
					<dim>8</dim>
					<dim>224</dim>
					<dim>224</dim>
				</port>
			</output>
		</layer>
		<layer id="205" name="Conv_0/WithoutBiases/fq_input_0" type="FakeQuantize" version="opset1">
			<data levels="256" auto_broadcast="numpy"/>
			<input>
				<port id="0">
					<dim>1</dim>
					<dim>3</dim>
					<dim>8</dim>
					<dim>224</dim>
					<dim>224</dim>
				</port>
				<port id="1"/>
				<port id="2"/>
				<port id="3"/>
				<port id="4"/>
			</input>
			<output>
				<port id="5" precision="FP32">
					<dim>1</dim>
					<dim>3</dim>
					<dim>8</dim>
					<dim>224</dim>
					<dim>224</dim>
				</port>
			</output>
		</layer>
		<layer id="206" name="Conv_0/WithoutBiases/fq_weights_1/scale1076015607" type="Const" version="opset1">
			<data offset="17934" size="64" shape="16,1,1,1,1" element_type="f32"/>
			<output>
				<port id="0" precision="FP32">
					<dim>16</dim>
					<dim>1</dim>
					<dim>1</dim>
					<dim>1</dim>
					<dim>1</dim>
				</port>
			</output>
		</layer>
		<layer id="207" name="Constant_43264847995/restored_convert/quantized1075214674" type="Const" version="opset1">
			<data offset="17998" size="432" shape="16,3,1,3,3" element_type="i8"/>
			<output>
				<port id="0" precision="I8">
					<dim>16</dim>
					<dim>3</dim>
					<dim>1</dim>
					<dim>3</dim>
					<dim>3</dim>
				</port>
			</output>
		</layer>
		<layer id="208" name="Constant_43264847995/restored_convert/quantized/to_f32" type="Convert" version="opset1">
			<data destination_type="f32"/>
			<input>
				<port id="0">
					<dim>16</dim>
					<dim>3</dim>
					<dim>1</dim>
					<dim>3</dim>
					<dim>3</dim>
				</port>
			</input>
			<output>
				<port id="1" precision="FP32">
					<dim>16</dim>
					<dim>3</dim>
					<dim>1</dim>
					<dim>3</dim>
					<dim>3</dim>
				</port>
			</output>
		</layer>
		<layer id="209" name="Conv_0/WithoutBiases/fq_weights_1/mulpiply_by_scale" type="Multiply" version="opset1">
			<data auto_broadcast="numpy"/>
			<input>
				<port id="0">
					<dim>16</dim>
					<dim>3</dim>
					<dim>1</dim>
					<dim>3</dim>
					<dim>3</dim>
				</port>
				<port id="1">
					<dim>16</dim>
					<dim>1</dim>
					<dim>1</dim>
					<dim>1</dim>
					<dim>1</dim>
				</port>
			</input>
			<output>
				<port id="2" precision="FP32">
					<dim>16</dim>
					<dim>3</dim>
					<dim>1</dim>
					<dim>3</dim>
					<dim>3</dim>
				</port>
			</output>
		</layer>
		<layer id="210" name="Conv_0/WithoutBiases" type="Convolution" version="opset1">
			<data auto_pad="explicit" strides="1,2,2" dilations="1,1,1" pads_begin="0,1,1" pads_end="0,1,1"/>
			<rt_info>
				<attribute name="preprocessing" version="0"/>
			</rt_info>
			<input>
				<port id="0">
					<dim>1</dim>
					<dim>3</dim>
					<dim>8</dim>
					<dim>224</dim>
					<dim>224</dim>
				</port>
				<port id="1">
					<dim>16</dim>
					<dim>3</dim>
					<dim>1</dim>
					<dim>3</dim>
					<dim>3</dim>
				</port>
			</input>
			<output>
				<port id="2" precision="FP32">
					<dim>1</dim>
					<dim>16</dim>
					<dim>8</dim>
					<dim>112</dim>
					<dim>112</dim>
				</port>
			</output>
		</layer>
		<layer id="211" name="Reshape_16848714329" type="Const" version="opset1">
			<data offset="18430" size="32" shape="1,16,1,1,1" element_type="f16"/>
			<output>
				<port id="0" precision="FP16">
					<dim>1</dim>
					<dim>16</dim>
					<dim>1</dim>
					<dim>1</dim>
					<dim>1</dim>
				</port>
			</output>
		</layer>
		<layer id="212" name="Reshape_1684877996/restored_convert" type="Convert" version="opset1">
			<data destination_type="f32"/>
			<rt_info>
				<attribute name="decompression" version="0"/>
			</rt_info>
			<input>
				<port id="0">
					<dim>1</dim>
					<dim>16</dim>
					<dim>1</dim>
					<dim>1</dim>
					<dim>1</dim>
				</port>
			</input>
			<output>
				<port id="1" precision="FP32">
					<dim>1</dim>
					<dim>16</dim>
					<dim>1</dim>
					<dim>1</dim>
					<dim>1</dim>
				</port>
			</output>
		</layer>
		<layer id="213" name="Conv_0" type="Add" version="opset1">
			<data auto_broadcast="numpy"/>
			<input>
				<port id="0">
					<dim>1</dim>
					<dim>16</dim>
					<dim>8</dim>
					<dim>112</dim>
					<dim>112</dim>
				</port>
				<port id="1">
					<dim>1</dim>
					<dim>16</dim>
					<dim>1</dim>
					<dim>1</dim>
					<dim>1</dim>
				</port>
			</input>
			<output>
				<port id="2" precision="FP32" names="681">
					<dim>1</dim>
					<dim>16</dim>
					<dim>8</dim>
					<dim>112</dim>
					<dim>112</dim>
				</port>
			</output>
		</layer>
		<layer id="214" name="Mul_5" type="HSwish" version="opset4">
			<input>
				<port id="0">
					<dim>1</dim>
					<dim>16</dim>
					<dim>8</dim>
					<dim>112</dim>
					<dim>112</dim>
				</port>
			</input>
			<output>
				<port id="1" precision="FP32" names="325">
					<dim>1</dim>
					<dim>16</dim>
					<dim>8</dim>
					<dim>112</dim>
					<dim>112</dim>
				</port>
			</output>
		</layer>
		<layer id="215" name="2447245115367" type="Const" version="opset1">
			<data offset="8" size="4" shape="" element_type="f32"/>
			<output>
				<port id="0" precision="FP32"/>
			</output>
		</layer>
		<layer id="216" name="2448245214767" type="Const" version="opset1">
			<data offset="18462" size="4" shape="" element_type="f32"/>
			<output>
				<port id="0" precision="FP32"/>
			</output>
		</layer>
		<layer id="217" name="2449245314371" type="Const" version="opset1">
			<data offset="8" size="4" shape="" element_type="f32"/>
			<output>
				<port id="0" precision="FP32"/>
			</output>
		</layer>
		<layer id="218" name="2450245415157" type="Const" version="opset1">
			<data offset="18462" size="4" shape="" element_type="f32"/>
			<output>
				<port id="0" precision="FP32"/>
			</output>
		</layer>
		<layer id="219" name="Conv_6/WithoutBiases/weights_shape1266215214" type="Const" version="opset1">
			<data offset="18466" size="48" shape="6" element_type="i64"/>
			<output>
				<port id="0" precision="I64">
					<dim>6</dim>
				</port>
			</output>
		</layer>
		<layer id="220" name="Conv_6/WithoutBiases/fq_weights_12625" type="Const" version="opset1">
			<data offset="18514" size="288" shape="16,1,1,3,3" element_type="f16"/>
			<output>
				<port id="0" precision="FP16">
					<dim>16</dim>
					<dim>1</dim>
					<dim>1</dim>
					<dim>3</dim>
					<dim>3</dim>
				</port>
			</output>
		</layer>
		<layer id="221" name="Conv_6/WithoutBiases/fq_weights_12625/restored_convert" type="Convert" version="opset1">
			<data destination_type="f32"/>
			<rt_info>
				<attribute name="decompression" version="0"/>
			</rt_info>
			<input>
				<port id="0">
					<dim>16</dim>
					<dim>1</dim>
					<dim>1</dim>
					<dim>3</dim>
					<dim>3</dim>
				</port>
			</input>
			<output>
				<port id="1" precision="FP32">
					<dim>16</dim>
					<dim>1</dim>
					<dim>1</dim>
					<dim>3</dim>
					<dim>3</dim>
				</port>
			</output>
		</layer>
		<layer id="222" name="12661" type="Reshape" version="opset1">
			<data special_zero="true"/>
			<input>
				<port id="0">
					<dim>16</dim>
					<dim>1</dim>
					<dim>1</dim>
					<dim>3</dim>
					<dim>3</dim>
				</port>
				<port id="1">
					<dim>6</dim>
				</port>
			</input>
			<output>
				<port id="2" precision="FP32">
					<dim>16</dim>
					<dim>1</dim>
					<dim>1</dim>
					<dim>1</dim>
					<dim>3</dim>
					<dim>3</dim>
				</port>
			</output>
		</layer>
		<layer id="223" name="Conv_6/WithoutBiases" type="GroupConvolution" version="opset1">
			<data auto_pad="explicit" strides="1,1,1" dilations="1,1,1" pads_begin="0,1,1" pads_end="0,1,1"/>
			<input>
				<port id="0">
					<dim>1</dim>
					<dim>16</dim>
					<dim>8</dim>
					<dim>112</dim>
					<dim>112</dim>
				</port>
				<port id="1">
					<dim>16</dim>
					<dim>1</dim>
					<dim>1</dim>
					<dim>1</dim>
					<dim>3</dim>
					<dim>3</dim>
				</port>
			</input>
			<output>
				<port id="2" precision="FP32">
					<dim>1</dim>
					<dim>16</dim>
					<dim>8</dim>
					<dim>112</dim>
					<dim>112</dim>
				</port>
			</output>
		</layer>
		<layer id="224" name="Reshape_21549414245" type="Const" version="opset1">
			<data offset="18802" size="32" shape="1,16,1,1,1" element_type="f16"/>
			<output>
				<port id="0" precision="FP16">
					<dim>1</dim>
					<dim>16</dim>
					<dim>1</dim>
					<dim>1</dim>
					<dim>1</dim>
				</port>
			</output>
		</layer>
		<layer id="225" name="Reshape_2154947998/restored_convert" type="Convert" version="opset1">
			<data destination_type="f32"/>
			<rt_info>
				<attribute name="decompression" version="0"/>
			</rt_info>
			<input>
				<port id="0">
					<dim>1</dim>
					<dim>16</dim>
					<dim>1</dim>
					<dim>1</dim>
					<dim>1</dim>
				</port>
			</input>
			<output>
				<port id="1" precision="FP32">
					<dim>1</dim>
					<dim>16</dim>
					<dim>1</dim>
					<dim>1</dim>
					<dim>1</dim>
				</port>
			</output>
		</layer>
		<layer id="226" name="Conv_6" type="Add" version="opset1">
			<data auto_broadcast="numpy"/>
			<input>
				<port id="0">
					<dim>1</dim>
					<dim>16</dim>
					<dim>8</dim>
					<dim>112</dim>
					<dim>112</dim>
				</port>
				<port id="1">
					<dim>1</dim>
					<dim>16</dim>
					<dim>1</dim>
					<dim>1</dim>
					<dim>1</dim>
				</port>
			</input>
			<output>
				<port id="2" precision="FP32" names="684">
					<dim>1</dim>
					<dim>16</dim>
					<dim>8</dim>
					<dim>112</dim>
					<dim>112</dim>
				</port>
			</output>
		</layer>
		<layer id="227" name="Relu_7" type="ReLU" version="opset1">
			<input>
				<port id="0">
					<dim>1</dim>
					<dim>16</dim>
					<dim>8</dim>
					<dim>112</dim>
					<dim>112</dim>
				</port>
			</input>
			<output>
				<port id="1" precision="FP32" names="328">
					<dim>1</dim>
					<dim>16</dim>
					<dim>8</dim>
					<dim>112</dim>
					<dim>112</dim>
				</port>
			</output>
		</layer>
		<layer id="228" name="Conv_8/WithoutBiases/fq_input_0" type="FakeQuantize" version="opset1">
			<data levels="256" auto_broadcast="numpy"/>
			<input>
				<port id="0">
					<dim>1</dim>
					<dim>16</dim>
					<dim>8</dim>
					<dim>112</dim>
					<dim>112</dim>
				</port>
				<port id="1"/>
				<port id="2"/>
				<port id="3"/>
				<port id="4"/>
			</input>
			<output>
				<port id="5" precision="FP32">
					<dim>1</dim>
					<dim>16</dim>
					<dim>8</dim>
					<dim>112</dim>
					<dim>112</dim>
				</port>
			</output>
		</layer>
		<layer id="229" name="Conv_8/WithoutBiases/fq_weights_1/scale1043014875" type="Const" version="opset1">
			<data offset="18834" size="64" shape="16,1,1,1,1" element_type="f32"/>
			<output>
				<port id="0" precision="FP32">
					<dim>16</dim>
					<dim>1</dim>
					<dim>1</dim>
					<dim>1</dim>
					<dim>1</dim>
				</port>
			</output>
		</layer>
		<layer id="230" name="6884987999/restored_convert/quantized1042215679" type="Const" version="opset1">
			<data offset="18898" size="1280" shape="16,16,5,1,1" element_type="i8"/>
			<output>
				<port id="0" precision="I8">
					<dim>16</dim>
					<dim>16</dim>
					<dim>5</dim>
					<dim>1</dim>
					<dim>1</dim>
				</port>
			</output>
		</layer>
		<layer id="231" name="6884987999/restored_convert/quantized/to_f32" type="Convert" version="opset1">
			<data destination_type="f32"/>
			<input>
				<port id="0">
					<dim>16</dim>
					<dim>16</dim>
					<dim>5</dim>
					<dim>1</dim>
					<dim>1</dim>
				</port>
			</input>
			<output>
				<port id="1" precision="FP32">
					<dim>16</dim>
					<dim>16</dim>
					<dim>5</dim>
					<dim>1</dim>
					<dim>1</dim>
				</port>
			</output>
		</layer>
		<layer id="232" name="Conv_8/WithoutBiases/fq_weights_1/mulpiply_by_scale" type="Multiply" version="opset1">
			<data auto_broadcast="numpy"/>
			<input>
				<port id="0">
					<dim>16</dim>
					<dim>16</dim>
					<dim>5</dim>
					<dim>1</dim>
					<dim>1</dim>
				</port>
				<port id="1">
					<dim>16</dim>
					<dim>1</dim>
					<dim>1</dim>
					<dim>1</dim>
					<dim>1</dim>
				</port>
			</input>
			<output>
				<port id="2" precision="FP32">
					<dim>16</dim>
					<dim>16</dim>
					<dim>5</dim>
					<dim>1</dim>
					<dim>1</dim>
				</port>
			</output>
		</layer>
		<layer id="233" name="Conv_8/WithoutBiases" type="Convolution" version="opset1">
			<data auto_pad="explicit" strides="1,1,1" dilations="1,1,1" pads_begin="2,0,0" pads_end="2,0,0"/>
			<input>
				<port id="0">
					<dim>1</dim>
					<dim>16</dim>
					<dim>8</dim>
					<dim>112</dim>
					<dim>112</dim>
				</port>
				<port id="1">
					<dim>16</dim>
					<dim>16</dim>
					<dim>5</dim>
					<dim>1</dim>
					<dim>1</dim>
				</port>
			</input>
			<output>
				<port id="2" precision="FP32">
					<dim>1</dim>
					<dim>16</dim>
					<dim>8</dim>
					<dim>112</dim>
					<dim>112</dim>
				</port>
			</output>
		</layer>
		<layer id="234" name="Reshape_23150114176" type="Const" version="opset1">
			<data offset="20178" size="32" shape="1,16,1,1,1" element_type="f16"/>
			<output>
				<port id="0" precision="FP16">
					<dim>1</dim>
					<dim>16</dim>
					<dim>1</dim>
					<dim>1</dim>
					<dim>1</dim>
				</port>
			</output>
		</layer>
		<layer id="235" name="Reshape_2315018000/restored_convert" type="Convert" version="opset1">
			<data destination_type="f32"/>
			<rt_info>
				<attribute name="decompression" version="0"/>
			</rt_info>
			<input>
				<port id="0">
					<dim>1</dim>
					<dim>16</dim>
					<dim>1</dim>
					<dim>1</dim>
					<dim>1</dim>
				</port>
			</input>
			<output>
				<port id="1" precision="FP32">
					<dim>1</dim>
					<dim>16</dim>
					<dim>1</dim>
					<dim>1</dim>
					<dim>1</dim>
				</port>
			</output>
		</layer>
		<layer id="236" name="Conv_8" type="Add" version="opset1">
			<data auto_broadcast="numpy"/>
			<input>
				<port id="0">
					<dim>1</dim>
					<dim>16</dim>
					<dim>8</dim>
					<dim>112</dim>
					<dim>112</dim>
				</port>
				<port id="1">
					<dim>1</dim>
					<dim>16</dim>
					<dim>1</dim>
					<dim>1</dim>
					<dim>1</dim>
				</port>
			</input>
			<output>
				<port id="2" precision="FP32" names="687">
					<dim>1</dim>
					<dim>16</dim>
					<dim>8</dim>
					<dim>112</dim>
					<dim>112</dim>
				</port>
			</output>
		</layer>
		<layer id="237" name="Add_9" type="Add" version="opset1">
			<data auto_broadcast="numpy"/>
			<input>
				<port id="0">
					<dim>1</dim>
					<dim>16</dim>
					<dim>8</dim>
					<dim>112</dim>
					<dim>112</dim>
				</port>
				<port id="1">
					<dim>1</dim>
					<dim>16</dim>
					<dim>8</dim>
					<dim>112</dim>
					<dim>112</dim>
				</port>
			</input>
			<output>
				<port id="2" precision="FP32" names="331">
					<dim>1</dim>
					<dim>16</dim>
					<dim>8</dim>
					<dim>112</dim>
					<dim>112</dim>
				</port>
			</output>
		</layer>
		<layer id="238" name="Conv_10/WithoutBiases/fq_input_0" type="FakeQuantize" version="opset1">
			<data levels="256" auto_broadcast="numpy"/>
			<input>
				<port id="0">
					<dim>1</dim>
					<dim>16</dim>
					<dim>8</dim>
					<dim>112</dim>
					<dim>112</dim>
				</port>
				<port id="1"/>
				<port id="2"/>
				<port id="3"/>
				<port id="4"/>
			</input>
			<output>
				<port id="5" precision="FP32">
					<dim>1</dim>
					<dim>16</dim>
					<dim>8</dim>
					<dim>112</dim>
					<dim>112</dim>
				</port>
			</output>
		</layer>
		<layer id="239" name="Conv_10/WithoutBiases/fq_weights_1/scale1079015130" type="Const" version="opset1">
			<data offset="20210" size="256" shape="64,1,1,1,1" element_type="f32"/>
			<output>
				<port id="0" precision="FP32">
					<dim>64</dim>
					<dim>1</dim>
					<dim>1</dim>
					<dim>1</dim>
					<dim>1</dim>
				</port>
			</output>
		</layer>
		<layer id="240" name="6915058001/restored_convert/quantized1078215013" type="Const" version="opset1">
			<data offset="20466" size="1024" shape="64,16,1,1,1" element_type="i8"/>
			<output>
				<port id="0" precision="I8">
					<dim>64</dim>
					<dim>16</dim>
					<dim>1</dim>
					<dim>1</dim>
					<dim>1</dim>
				</port>
			</output>
		</layer>
		<layer id="241" name="6915058001/restored_convert/quantized/to_f32" type="Convert" version="opset1">
			<data destination_type="f32"/>
			<input>
				<port id="0">
					<dim>64</dim>
					<dim>16</dim>
					<dim>1</dim>
					<dim>1</dim>
					<dim>1</dim>
				</port>
			</input>
			<output>
				<port id="1" precision="FP32">
					<dim>64</dim>
					<dim>16</dim>
					<dim>1</dim>
					<dim>1</dim>
					<dim>1</dim>
				</port>
			</output>
		</layer>
		<layer id="242" name="Conv_10/WithoutBiases/fq_weights_1/mulpiply_by_scale" type="Multiply" version="opset1">
			<data auto_broadcast="numpy"/>
			<input>
				<port id="0">
					<dim>64</dim>
					<dim>16</dim>
					<dim>1</dim>
					<dim>1</dim>
					<dim>1</dim>
				</port>
				<port id="1">
					<dim>64</dim>
					<dim>1</dim>
					<dim>1</dim>
					<dim>1</dim>
					<dim>1</dim>
				</port>
			</input>
			<output>
				<port id="2" precision="FP32">
					<dim>64</dim>
					<dim>16</dim>
					<dim>1</dim>
					<dim>1</dim>
					<dim>1</dim>
				</port>
			</output>
		</layer>
		<layer id="243" name="Conv_10/WithoutBiases" type="Convolution" version="opset1">
			<data auto_pad="explicit" strides="1,1,1" dilations="1,1,1" pads_begin="0,0,0" pads_end="0,0,0"/>
			<input>
				<port id="0">
					<dim>1</dim>
					<dim>16</dim>
					<dim>8</dim>
					<dim>112</dim>
					<dim>112</dim>
				</port>
				<port id="1">
					<dim>64</dim>
					<dim>16</dim>
					<dim>1</dim>
					<dim>1</dim>
					<dim>1</dim>
				</port>
			</input>
			<output>
				<port id="2" precision="FP32">
					<dim>1</dim>
					<dim>64</dim>
					<dim>8</dim>
					<dim>112</dim>
					<dim>112</dim>
				</port>
			</output>
		</layer>
		<layer id="244" name="Reshape_24750815085" type="Const" version="opset1">
			<data offset="21490" size="128" shape="1,64,1,1,1" element_type="f16"/>
			<output>
				<port id="0" precision="FP16">
					<dim>1</dim>
					<dim>64</dim>
					<dim>1</dim>
					<dim>1</dim>
					<dim>1</dim>
				</port>
			</output>
		</layer>
		<layer id="245" name="Reshape_2475088002/restored_convert" type="Convert" version="opset1">
			<data destination_type="f32"/>
			<rt_info>
				<attribute name="decompression" version="0"/>
			</rt_info>
			<input>
				<port id="0">
					<dim>1</dim>
					<dim>64</dim>
					<dim>1</dim>
					<dim>1</dim>
					<dim>1</dim>
				</port>
			</input>
			<output>
				<port id="1" precision="FP32">
					<dim>1</dim>
					<dim>64</dim>
					<dim>1</dim>
					<dim>1</dim>
					<dim>1</dim>
				</port>
			</output>
		</layer>
		<layer id="246" name="Conv_10" type="Add" version="opset1">
			<data auto_broadcast="numpy"/>
			<input>
				<port id="0">
					<dim>1</dim>
					<dim>64</dim>
					<dim>8</dim>
					<dim>112</dim>
					<dim>112</dim>
				</port>
				<port id="1">
					<dim>1</dim>
					<dim>64</dim>
					<dim>1</dim>
					<dim>1</dim>
					<dim>1</dim>
				</port>
			</input>
			<output>
				<port id="2" precision="FP32" names="690">
					<dim>1</dim>
					<dim>64</dim>
					<dim>8</dim>
					<dim>112</dim>
					<dim>112</dim>
				</port>
			</output>
		</layer>
		<layer id="247" name="Relu_11" type="ReLU" version="opset1">
			<input>
				<port id="0">
					<dim>1</dim>
					<dim>64</dim>
					<dim>8</dim>
					<dim>112</dim>
					<dim>112</dim>
				</port>
			</input>
			<output>
				<port id="1" precision="FP32" names="334">
					<dim>1</dim>
					<dim>64</dim>
					<dim>8</dim>
					<dim>112</dim>
					<dim>112</dim>
				</port>
			</output>
		</layer>
		<layer id="248" name="Conv_12/WithoutBiases/fq_input_0" type="FakeQuantize" version="opset1">
			<data levels="256" auto_broadcast="numpy"/>
			<input>
				<port id="0">
					<dim>1</dim>
					<dim>64</dim>
					<dim>8</dim>
					<dim>112</dim>
					<dim>112</dim>
				</port>
				<port id="1">
					<dim>1</dim>
					<dim>64</dim>
					<dim>1</dim>
					<dim>1</dim>
					<dim>1</dim>
				</port>
				<port id="2">
					<dim>1</dim>
					<dim>64</dim>
					<dim>1</dim>
					<dim>1</dim>
					<dim>1</dim>
				</port>
				<port id="3">
					<dim>1</dim>
					<dim>64</dim>
					<dim>1</dim>
					<dim>1</dim>
					<dim>1</dim>
				</port>
				<port id="4">
					<dim>1</dim>
					<dim>64</dim>
					<dim>1</dim>
					<dim>1</dim>
					<dim>1</dim>
				</port>
			</input>
			<output>
				<port id="5" precision="FP32">
					<dim>1</dim>
					<dim>64</dim>
					<dim>8</dim>
					<dim>112</dim>
					<dim>112</dim>
				</port>
			</output>
		</layer>
		<layer id="249" name="Conv_12/WithoutBiases/weights_shape1267615622" type="Const" version="opset1">
			<data offset="21618" size="48" shape="6" element_type="i64"/>
			<output>
				<port id="0" precision="I64">
					<dim>6</dim>
				</port>
			</output>
		</layer>
		<layer id="250" name="Conv_12/WithoutBiases/fq_weights_1/scale998015067" type="Const" version="opset1">
			<data offset="21666" size="256" shape="64,1,1,1,1" element_type="f32"/>
			<output>
				<port id="0" precision="FP32">
					<dim>64</dim>
					<dim>1</dim>
					<dim>1</dim>
					<dim>1</dim>
					<dim>1</dim>
				</port>
			</output>
		</layer>
		<layer id="251" name="Reshape_2595128003/restored_convert/quantized997215145" type="Const" version="opset1">
			<data offset="21922" size="576" shape="64,1,1,3,3" element_type="i8"/>
			<output>
				<port id="0" precision="I8">
					<dim>64</dim>
					<dim>1</dim>
					<dim>1</dim>
					<dim>3</dim>
					<dim>3</dim>
				</port>
			</output>
		</layer>
		<layer id="252" name="Reshape_2595128003/restored_convert/quantized/to_f32" type="Convert" version="opset1">
			<data destination_type="f32"/>
			<input>
				<port id="0">
					<dim>64</dim>
					<dim>1</dim>
					<dim>1</dim>
					<dim>3</dim>
					<dim>3</dim>
				</port>
			</input>
			<output>
				<port id="1" precision="FP32">
					<dim>64</dim>
					<dim>1</dim>
					<dim>1</dim>
					<dim>3</dim>
					<dim>3</dim>
				</port>
			</output>
		</layer>
		<layer id="253" name="Conv_12/WithoutBiases/fq_weights_1/mulpiply_by_scale" type="Multiply" version="opset1">
			<data auto_broadcast="numpy"/>
			<input>
				<port id="0">
					<dim>64</dim>
					<dim>1</dim>
					<dim>1</dim>
					<dim>3</dim>
					<dim>3</dim>
				</port>
				<port id="1">
					<dim>64</dim>
					<dim>1</dim>
					<dim>1</dim>
					<dim>1</dim>
					<dim>1</dim>
				</port>
			</input>
			<output>
				<port id="2" precision="FP32">
					<dim>64</dim>
					<dim>1</dim>
					<dim>1</dim>
					<dim>3</dim>
					<dim>3</dim>
				</port>
			</output>
		</layer>
		<layer id="254" name="12675" type="Reshape" version="opset1">
			<data special_zero="true"/>
			<input>
				<port id="0">
					<dim>64</dim>
					<dim>1</dim>
					<dim>1</dim>
					<dim>3</dim>
					<dim>3</dim>
				</port>
				<port id="1">
					<dim>6</dim>
				</port>
			</input>
			<output>
				<port id="2" precision="FP32">
					<dim>64</dim>
					<dim>1</dim>
					<dim>1</dim>
					<dim>1</dim>
					<dim>3</dim>
					<dim>3</dim>
				</port>
			</output>
		</layer>
		<layer id="255" name="Conv_12/WithoutBiases" type="GroupConvolution" version="opset1">
			<data auto_pad="explicit" strides="1,2,2" dilations="1,1,1" pads_begin="0,1,1" pads_end="0,1,1"/>
			<input>
				<port id="0">
					<dim>1</dim>
					<dim>64</dim>
					<dim>8</dim>
					<dim>112</dim>
					<dim>112</dim>
				</port>
				<port id="1">
					<dim>64</dim>
					<dim>1</dim>
					<dim>1</dim>
					<dim>1</dim>
					<dim>3</dim>
					<dim>3</dim>
				</port>
			</input>
			<output>
				<port id="2" precision="FP32">
					<dim>1</dim>
					<dim>64</dim>
					<dim>8</dim>
					<dim>56</dim>
					<dim>56</dim>
				</port>
			</output>
		</layer>
		<layer id="256" name="Reshape_29051515448" type="Const" version="opset1">
			<data offset="22498" size="128" shape="1,64,1,1,1" element_type="f16"/>
			<output>
				<port id="0" precision="FP16">
					<dim>1</dim>
					<dim>64</dim>
					<dim>1</dim>
					<dim>1</dim>
					<dim>1</dim>
				</port>
			</output>
		</layer>
		<layer id="257" name="Reshape_2905158004/restored_convert" type="Convert" version="opset1">
			<data destination_type="f32"/>
			<rt_info>
				<attribute name="decompression" version="0"/>
			</rt_info>
			<input>
				<port id="0">
					<dim>1</dim>
					<dim>64</dim>
					<dim>1</dim>
					<dim>1</dim>
					<dim>1</dim>
				</port>
			</input>
			<output>
				<port id="1" precision="FP32">
					<dim>1</dim>
					<dim>64</dim>
					<dim>1</dim>
					<dim>1</dim>
					<dim>1</dim>
				</port>
			</output>
		</layer>
		<layer id="258" name="Conv_12" type="Add" version="opset1">
			<data auto_broadcast="numpy"/>
			<input>
				<port id="0">
					<dim>1</dim>
					<dim>64</dim>
					<dim>8</dim>
					<dim>56</dim>
					<dim>56</dim>
				</port>
				<port id="1">
					<dim>1</dim>
					<dim>64</dim>
					<dim>1</dim>
					<dim>1</dim>
					<dim>1</dim>
				</port>
			</input>
			<output>
				<port id="2" precision="FP32" names="693">
					<dim>1</dim>
					<dim>64</dim>
					<dim>8</dim>
					<dim>56</dim>
					<dim>56</dim>
				</port>
			</output>
		</layer>
		<layer id="259" name="Relu_13" type="ReLU" version="opset1">
			<input>
				<port id="0">
					<dim>1</dim>
					<dim>64</dim>
					<dim>8</dim>
					<dim>56</dim>
					<dim>56</dim>
				</port>
			</input>
			<output>
				<port id="1" precision="FP32" names="337">
					<dim>1</dim>
					<dim>64</dim>
					<dim>8</dim>
					<dim>56</dim>
					<dim>56</dim>
				</port>
			</output>
		</layer>
		<layer id="260" name="Conv_14/WithoutBiases/fq_input_0" type="FakeQuantize" version="opset1">
			<data levels="256" auto_broadcast="numpy"/>
			<input>
				<port id="0">
					<dim>1</dim>
					<dim>64</dim>
					<dim>8</dim>
					<dim>56</dim>
					<dim>56</dim>
				</port>
				<port id="1"/>
				<port id="2"/>
				<port id="3"/>
				<port id="4"/>
			</input>
			<output>
				<port id="5" precision="FP32">
					<dim>1</dim>
					<dim>64</dim>
					<dim>8</dim>
					<dim>56</dim>
					<dim>56</dim>
				</port>
			</output>
		</layer>
		<layer id="261" name="Conv_14/WithoutBiases/fq_weights_1/scale1007014722" type="Const" version="opset1">
			<data offset="22626" size="96" shape="24,1,1,1,1" element_type="f32"/>
			<output>
				<port id="0" precision="FP32">
					<dim>24</dim>
					<dim>1</dim>
					<dim>1</dim>
					<dim>1</dim>
					<dim>1</dim>
				</port>
			</output>
		</layer>
		<layer id="262" name="6975198005/restored_convert/quantized1006215625" type="Const" version="opset1">
			<data offset="22722" size="4608" shape="24,64,3,1,1" element_type="i8"/>
			<output>
				<port id="0" precision="I8">
					<dim>24</dim>
					<dim>64</dim>
					<dim>3</dim>
					<dim>1</dim>
					<dim>1</dim>
				</port>
			</output>
		</layer>
		<layer id="263" name="6975198005/restored_convert/quantized/to_f32" type="Convert" version="opset1">
			<data destination_type="f32"/>
			<input>
				<port id="0">
					<dim>24</dim>
					<dim>64</dim>
					<dim>3</dim>
					<dim>1</dim>
					<dim>1</dim>
				</port>
			</input>
			<output>
				<port id="1" precision="FP32">
					<dim>24</dim>
					<dim>64</dim>
					<dim>3</dim>
					<dim>1</dim>
					<dim>1</dim>
				</port>
			</output>
		</layer>
		<layer id="264" name="Conv_14/WithoutBiases/fq_weights_1/mulpiply_by_scale" type="Multiply" version="opset1">
			<data auto_broadcast="numpy"/>
			<input>
				<port id="0">
					<dim>24</dim>
					<dim>64</dim>
					<dim>3</dim>
					<dim>1</dim>
					<dim>1</dim>
				</port>
				<port id="1">
					<dim>24</dim>
					<dim>1</dim>
					<dim>1</dim>
					<dim>1</dim>
					<dim>1</dim>
				</port>
			</input>
			<output>
				<port id="2" precision="FP32">
					<dim>24</dim>
					<dim>64</dim>
					<dim>3</dim>
					<dim>1</dim>
					<dim>1</dim>
				</port>
			</output>
		</layer>
		<layer id="265" name="Conv_14/WithoutBiases" type="Convolution" version="opset1">
			<data auto_pad="explicit" strides="1,1,1" dilations="1,1,1" pads_begin="1,0,0" pads_end="1,0,0"/>
			<input>
				<port id="0">
					<dim>1</dim>
					<dim>64</dim>
					<dim>8</dim>
					<dim>56</dim>
					<dim>56</dim>
				</port>
				<port id="1">
					<dim>24</dim>
					<dim>64</dim>
					<dim>3</dim>
					<dim>1</dim>
					<dim>1</dim>
				</port>
			</input>
			<output>
				<port id="2" precision="FP32">
					<dim>1</dim>
					<dim>24</dim>
					<dim>8</dim>
					<dim>56</dim>
					<dim>56</dim>
				</port>
			</output>
		</layer>
		<layer id="266" name="Reshape_30652214317" type="Const" version="opset1">
			<data offset="27330" size="48" shape="1,24,1,1,1" element_type="f16"/>
			<output>
				<port id="0" precision="FP16">
					<dim>1</dim>
					<dim>24</dim>
					<dim>1</dim>
					<dim>1</dim>
					<dim>1</dim>
				</port>
			</output>
		</layer>
		<layer id="267" name="Reshape_3065228006/restored_convert" type="Convert" version="opset1">
			<data destination_type="f32"/>
			<rt_info>
				<attribute name="decompression" version="0"/>
			</rt_info>
			<input>
				<port id="0">
					<dim>1</dim>
					<dim>24</dim>
					<dim>1</dim>
					<dim>1</dim>
					<dim>1</dim>
				</port>
			</input>
			<output>
				<port id="1" precision="FP32">
					<dim>1</dim>
					<dim>24</dim>
					<dim>1</dim>
					<dim>1</dim>
					<dim>1</dim>
				</port>
			</output>
		</layer>
		<layer id="268" name="Conv_14" type="Add" version="opset1">
			<data auto_broadcast="numpy"/>
			<input>
				<port id="0">
					<dim>1</dim>
					<dim>24</dim>
					<dim>8</dim>
					<dim>56</dim>
					<dim>56</dim>
				</port>
				<port id="1">
					<dim>1</dim>
					<dim>24</dim>
					<dim>1</dim>
					<dim>1</dim>
					<dim>1</dim>
				</port>
			</input>
			<output>
				<port id="2" precision="FP32" names="340,696">
					<dim>1</dim>
					<dim>24</dim>
					<dim>8</dim>
					<dim>56</dim>
					<dim>56</dim>
				</port>
			</output>
		</layer>
		<layer id="269" name="AveragePool_16/fq_input_0" type="FakeQuantize" version="opset1">
			<data levels="256" auto_broadcast="numpy"/>
			<input>
				<port id="0">
					<dim>1</dim>
					<dim>24</dim>
					<dim>8</dim>
					<dim>56</dim>
					<dim>56</dim>
				</port>
				<port id="1"/>
				<port id="2"/>
				<port id="3"/>
				<port id="4"/>
			</input>
			<output>
				<port id="5" precision="FP32">
					<dim>1</dim>
					<dim>24</dim>
					<dim>8</dim>
					<dim>56</dim>
					<dim>56</dim>
				</port>
			</output>
		</layer>
		<layer id="270" name="AveragePool_16" type="AvgPool" version="opset1">
			<data strides="2,1,1" kernel="2,1,1" pads_begin="0,0,0" pads_end="0,0,0" exclude-pad="true" rounding_type="floor" auto_pad="explicit"/>
			<input>
				<port id="0">
					<dim>1</dim>
					<dim>24</dim>
					<dim>8</dim>
					<dim>56</dim>
					<dim>56</dim>
				</port>
			</input>
			<output>
				<port id="1" precision="FP32" names="341">
					<dim>1</dim>
					<dim>24</dim>
					<dim>4</dim>
					<dim>56</dim>
					<dim>56</dim>
				</port>
			</output>
		</layer>
		<layer id="271" name="Add_22/fq_input_0" type="FakeQuantize" version="opset1">
			<data levels="256" auto_broadcast="numpy"/>
			<input>
				<port id="0">
					<dim>1</dim>
					<dim>24</dim>
					<dim>4</dim>
					<dim>56</dim>
					<dim>56</dim>
				</port>
				<port id="1"/>
				<port id="2"/>
				<port id="3"/>
				<port id="4"/>
			</input>
			<output>
				<port id="5" precision="FP32">
					<dim>1</dim>
					<dim>24</dim>
					<dim>4</dim>
					<dim>56</dim>
					<dim>56</dim>
				</port>
			</output>
		</layer>
		<layer id="272" name="1607161114431" type="Const" version="opset1">
			<data offset="27378" size="4" shape="" element_type="f32"/>
			<output>
				<port id="0" precision="FP32"/>
			</output>
		</layer>
		<layer id="273" name="1608161214617" type="Const" version="opset1">
			<data offset="27382" size="4" shape="" element_type="f32"/>
			<output>
				<port id="0" precision="FP32"/>
			</output>
		</layer>
		<layer id="274" name="1609161315583" type="Const" version="opset1">
			<data offset="27378" size="4" shape="" element_type="f32"/>
			<output>
				<port id="0" precision="FP32"/>
			</output>
		</layer>
		<layer id="275" name="1610161414113" type="Const" version="opset1">
			<data offset="27382" size="4" shape="" element_type="f32"/>
			<output>
				<port id="0" precision="FP32"/>
			</output>
		</layer>
		<layer id="276" name="2287229115685" type="Const" version="opset1">
			<data offset="8" size="4" shape="" element_type="f32"/>
			<output>
				<port id="0" precision="FP32"/>
			</output>
		</layer>
		<layer id="277" name="2288229214959" type="Const" version="opset1">
			<data offset="27386" size="4" shape="" element_type="f32"/>
			<output>
				<port id="0" precision="FP32"/>
			</output>
		</layer>
		<layer id="278" name="2289229314587" type="Const" version="opset1">
			<data offset="8" size="4" shape="" element_type="f32"/>
			<output>
				<port id="0" precision="FP32"/>
			</output>
		</layer>
		<layer id="279" name="2290229414332" type="Const" version="opset1">
			<data offset="27386" size="4" shape="" element_type="f32"/>
			<output>
				<port id="0" precision="FP32"/>
			</output>
		</layer>
		<layer id="280" name="1937194114260" type="Const" version="opset1">
			<data offset="16796" size="288" shape="1,72,1,1,1" element_type="f32"/>
			<output>
				<port id="0" precision="FP32">
					<dim>1</dim>
					<dim>72</dim>
					<dim>1</dim>
					<dim>1</dim>
					<dim>1</dim>
				</port>
			</output>
		</layer>
		<layer id="281" name="1938194214203" type="Const" version="opset1">
			<data offset="27390" size="288" shape="1,72,1,1,1" element_type="f32"/>
			<output>
				<port id="0" precision="FP32">
					<dim>1</dim>
					<dim>72</dim>
					<dim>1</dim>
					<dim>1</dim>
					<dim>1</dim>
				</port>
			</output>
		</layer>
		<layer id="282" name="1939194314788" type="Const" version="opset1">
			<data offset="16796" size="288" shape="1,72,1,1,1" element_type="f32"/>
			<output>
				<port id="0" precision="FP32">
					<dim>1</dim>
					<dim>72</dim>
					<dim>1</dim>
					<dim>1</dim>
					<dim>1</dim>
				</port>
			</output>
		</layer>
		<layer id="283" name="1940194415574" type="Const" version="opset1">
			<data offset="27390" size="288" shape="1,72,1,1,1" element_type="f32"/>
			<output>
				<port id="0" precision="FP32">
					<dim>1</dim>
					<dim>72</dim>
					<dim>1</dim>
					<dim>1</dim>
					<dim>1</dim>
				</port>
			</output>
		</layer>
		<layer id="284" name="Conv_17/WithoutBiases/fq_weights_1/scale947014353" type="Const" version="opset1">
			<data offset="27678" size="288" shape="72,1,1,1,1" element_type="f32"/>
			<output>
				<port id="0" precision="FP32">
					<dim>72</dim>
					<dim>1</dim>
					<dim>1</dim>
					<dim>1</dim>
					<dim>1</dim>
				</port>
			</output>
		</layer>
		<layer id="285" name="7005268007/restored_convert/quantized946214920" type="Const" version="opset1">
			<data offset="27966" size="1728" shape="72,24,1,1,1" element_type="i8"/>
			<output>
				<port id="0" precision="I8">
					<dim>72</dim>
					<dim>24</dim>
					<dim>1</dim>
					<dim>1</dim>
					<dim>1</dim>
				</port>
			</output>
		</layer>
		<layer id="286" name="7005268007/restored_convert/quantized/to_f32" type="Convert" version="opset1">
			<data destination_type="f32"/>
			<input>
				<port id="0">
					<dim>72</dim>
					<dim>24</dim>
					<dim>1</dim>
					<dim>1</dim>
					<dim>1</dim>
				</port>
			</input>
			<output>
				<port id="1" precision="FP32">
					<dim>72</dim>
					<dim>24</dim>
					<dim>1</dim>
					<dim>1</dim>
					<dim>1</dim>
				</port>
			</output>
		</layer>
		<layer id="287" name="Conv_17/WithoutBiases/fq_weights_1/mulpiply_by_scale" type="Multiply" version="opset1">
			<data auto_broadcast="numpy"/>
			<input>
				<port id="0">
					<dim>72</dim>
					<dim>24</dim>
					<dim>1</dim>
					<dim>1</dim>
					<dim>1</dim>
				</port>
				<port id="1">
					<dim>72</dim>
					<dim>1</dim>
					<dim>1</dim>
					<dim>1</dim>
					<dim>1</dim>
				</port>
			</input>
			<output>
				<port id="2" precision="FP32">
					<dim>72</dim>
					<dim>24</dim>
					<dim>1</dim>
					<dim>1</dim>
					<dim>1</dim>
				</port>
			</output>
		</layer>
		<layer id="288" name="Conv_17/WithoutBiases" type="Convolution" version="opset1">
			<data auto_pad="explicit" strides="1,1,1" dilations="1,1,1" pads_begin="0,0,0" pads_end="0,0,0"/>
			<input>
				<port id="0">
					<dim>1</dim>
					<dim>24</dim>
					<dim>4</dim>
					<dim>56</dim>
					<dim>56</dim>
				</port>
				<port id="1">
					<dim>72</dim>
					<dim>24</dim>
					<dim>1</dim>
					<dim>1</dim>
					<dim>1</dim>
				</port>
			</input>
			<output>
				<port id="2" precision="FP32">
					<dim>1</dim>
					<dim>72</dim>
					<dim>4</dim>
					<dim>56</dim>
					<dim>56</dim>
				</port>
			</output>
		</layer>
		<layer id="289" name="Reshape_32652915754" type="Const" version="opset1">
			<data offset="29694" size="144" shape="1,72,1,1,1" element_type="f16"/>
			<output>
				<port id="0" precision="FP16">
					<dim>1</dim>
					<dim>72</dim>
					<dim>1</dim>
					<dim>1</dim>
					<dim>1</dim>
				</port>
			</output>
		</layer>
		<layer id="290" name="Reshape_3265298008/restored_convert" type="Convert" version="opset1">
			<data destination_type="f32"/>
			<rt_info>
				<attribute name="decompression" version="0"/>
			</rt_info>
			<input>
				<port id="0">
					<dim>1</dim>
					<dim>72</dim>
					<dim>1</dim>
					<dim>1</dim>
					<dim>1</dim>
				</port>
			</input>
			<output>
				<port id="1" precision="FP32">
					<dim>1</dim>
					<dim>72</dim>
					<dim>1</dim>
					<dim>1</dim>
					<dim>1</dim>
				</port>
			</output>
		</layer>
		<layer id="291" name="Conv_17" type="Add" version="opset1">
			<data auto_broadcast="numpy"/>
			<input>
				<port id="0">
					<dim>1</dim>
					<dim>72</dim>
					<dim>4</dim>
					<dim>56</dim>
					<dim>56</dim>
				</port>
				<port id="1">
					<dim>1</dim>
					<dim>72</dim>
					<dim>1</dim>
					<dim>1</dim>
					<dim>1</dim>
				</port>
			</input>
			<output>
				<port id="2" precision="FP32" names="699">
					<dim>1</dim>
					<dim>72</dim>
					<dim>4</dim>
					<dim>56</dim>
					<dim>56</dim>
				</port>
			</output>
		</layer>
		<layer id="292" name="Relu_18" type="ReLU" version="opset1">
			<input>
				<port id="0">
					<dim>1</dim>
					<dim>72</dim>
					<dim>4</dim>
					<dim>56</dim>
					<dim>56</dim>
				</port>
			</input>
			<output>
				<port id="1" precision="FP32" names="344">
					<dim>1</dim>
					<dim>72</dim>
					<dim>4</dim>
					<dim>56</dim>
					<dim>56</dim>
				</port>
			</output>
		</layer>
		<layer id="293" name="Conv_19/WithoutBiases/fq_input_0" type="FakeQuantize" version="opset1">
			<data levels="256" auto_broadcast="numpy"/>
			<input>
				<port id="0">
					<dim>1</dim>
					<dim>72</dim>
					<dim>4</dim>
					<dim>56</dim>
					<dim>56</dim>
				</port>
				<port id="1">
					<dim>1</dim>
					<dim>72</dim>
					<dim>1</dim>
					<dim>1</dim>
					<dim>1</dim>
				</port>
				<port id="2">
					<dim>1</dim>
					<dim>72</dim>
					<dim>1</dim>
					<dim>1</dim>
					<dim>1</dim>
				</port>
				<port id="3">
					<dim>1</dim>
					<dim>72</dim>
					<dim>1</dim>
					<dim>1</dim>
					<dim>1</dim>
				</port>
				<port id="4">
					<dim>1</dim>
					<dim>72</dim>
					<dim>1</dim>
					<dim>1</dim>
					<dim>1</dim>
				</port>
			</input>
			<output>
				<port id="5" precision="FP32">
					<dim>1</dim>
					<dim>72</dim>
					<dim>4</dim>
					<dim>56</dim>
					<dim>56</dim>
				</port>
			</output>
		</layer>
		<layer id="294" name="Conv_19/WithoutBiases/weights_shape1269015634" type="Const" version="opset1">
			<data offset="29838" size="48" shape="6" element_type="i64"/>
			<output>
				<port id="0" precision="I64">
					<dim>6</dim>
				</port>
			</output>
		</layer>
		<layer id="295" name="Conv_19/WithoutBiases/fq_weights_1/scale914014884" type="Const" version="opset1">
			<data offset="29886" size="288" shape="72,1,1,1,1" element_type="f32"/>
			<output>
				<port id="0" precision="FP32">
					<dim>72</dim>
					<dim>1</dim>
					<dim>1</dim>
					<dim>1</dim>
					<dim>1</dim>
				</port>
			</output>
		</layer>
		<layer id="296" name="Reshape_3385338009/restored_convert/quantized913214335" type="Const" version="opset1">
			<data offset="30174" size="648" shape="72,1,1,3,3" element_type="i8"/>
			<output>
				<port id="0" precision="I8">
					<dim>72</dim>
					<dim>1</dim>
					<dim>1</dim>
					<dim>3</dim>
					<dim>3</dim>
				</port>
			</output>
		</layer>
		<layer id="297" name="Reshape_3385338009/restored_convert/quantized/to_f32" type="Convert" version="opset1">
			<data destination_type="f32"/>
			<input>
				<port id="0">
					<dim>72</dim>
					<dim>1</dim>
					<dim>1</dim>
					<dim>3</dim>
					<dim>3</dim>
				</port>
			</input>
			<output>
				<port id="1" precision="FP32">
					<dim>72</dim>
					<dim>1</dim>
					<dim>1</dim>
					<dim>3</dim>
					<dim>3</dim>
				</port>
			</output>
		</layer>
		<layer id="298" name="Conv_19/WithoutBiases/fq_weights_1/mulpiply_by_scale" type="Multiply" version="opset1">
			<data auto_broadcast="numpy"/>
			<input>
				<port id="0">
					<dim>72</dim>
					<dim>1</dim>
					<dim>1</dim>
					<dim>3</dim>
					<dim>3</dim>
				</port>
				<port id="1">
					<dim>72</dim>
					<dim>1</dim>
					<dim>1</dim>
					<dim>1</dim>
					<dim>1</dim>
				</port>
			</input>
			<output>
				<port id="2" precision="FP32">
					<dim>72</dim>
					<dim>1</dim>
					<dim>1</dim>
					<dim>3</dim>
					<dim>3</dim>
				</port>
			</output>
		</layer>
		<layer id="299" name="12689" type="Reshape" version="opset1">
			<data special_zero="true"/>
			<input>
				<port id="0">
					<dim>72</dim>
					<dim>1</dim>
					<dim>1</dim>
					<dim>3</dim>
					<dim>3</dim>
				</port>
				<port id="1">
					<dim>6</dim>
				</port>
			</input>
			<output>
				<port id="2" precision="FP32">
					<dim>72</dim>
					<dim>1</dim>
					<dim>1</dim>
					<dim>1</dim>
					<dim>3</dim>
					<dim>3</dim>
				</port>
			</output>
		</layer>
		<layer id="300" name="Conv_19/WithoutBiases" type="GroupConvolution" version="opset1">
			<data auto_pad="explicit" strides="1,1,1" dilations="1,1,1" pads_begin="0,1,1" pads_end="0,1,1"/>
			<input>
				<port id="0">
					<dim>1</dim>
					<dim>72</dim>
					<dim>4</dim>
					<dim>56</dim>
					<dim>56</dim>
				</port>
				<port id="1">
					<dim>72</dim>
					<dim>1</dim>
					<dim>1</dim>
					<dim>1</dim>
					<dim>3</dim>
					<dim>3</dim>
				</port>
			</input>
			<output>
				<port id="2" precision="FP32">
					<dim>1</dim>
					<dim>72</dim>
					<dim>4</dim>
					<dim>56</dim>
					<dim>56</dim>
				</port>
			</output>
		</layer>
		<layer id="301" name="Reshape_36953614320" type="Const" version="opset1">
			<data offset="30822" size="144" shape="1,72,1,1,1" element_type="f16"/>
			<output>
				<port id="0" precision="FP16">
					<dim>1</dim>
					<dim>72</dim>
					<dim>1</dim>
					<dim>1</dim>
					<dim>1</dim>
				</port>
			</output>
		</layer>
		<layer id="302" name="Reshape_3695368010/restored_convert" type="Convert" version="opset1">
			<data destination_type="f32"/>
			<rt_info>
				<attribute name="decompression" version="0"/>
			</rt_info>
			<input>
				<port id="0">
					<dim>1</dim>
					<dim>72</dim>
					<dim>1</dim>
					<dim>1</dim>
					<dim>1</dim>
				</port>
			</input>
			<output>
				<port id="1" precision="FP32">
					<dim>1</dim>
					<dim>72</dim>
					<dim>1</dim>
					<dim>1</dim>
					<dim>1</dim>
				</port>
			</output>
		</layer>
		<layer id="303" name="Conv_19" type="Add" version="opset1">
			<data auto_broadcast="numpy"/>
			<input>
				<port id="0">
					<dim>1</dim>
					<dim>72</dim>
					<dim>4</dim>
					<dim>56</dim>
					<dim>56</dim>
				</port>
				<port id="1">
					<dim>1</dim>
					<dim>72</dim>
					<dim>1</dim>
					<dim>1</dim>
					<dim>1</dim>
				</port>
			</input>
			<output>
				<port id="2" precision="FP32" names="702">
					<dim>1</dim>
					<dim>72</dim>
					<dim>4</dim>
					<dim>56</dim>
					<dim>56</dim>
				</port>
			</output>
		</layer>
		<layer id="304" name="Relu_20" type="ReLU" version="opset1">
			<input>
				<port id="0">
					<dim>1</dim>
					<dim>72</dim>
					<dim>4</dim>
					<dim>56</dim>
					<dim>56</dim>
				</port>
			</input>
			<output>
				<port id="1" precision="FP32" names="347">
					<dim>1</dim>
					<dim>72</dim>
					<dim>4</dim>
					<dim>56</dim>
					<dim>56</dim>
				</port>
			</output>
		</layer>
		<layer id="305" name="Conv_21/WithoutBiases/fq_input_0" type="FakeQuantize" version="opset1">
			<data levels="256" auto_broadcast="numpy"/>
			<input>
				<port id="0">
					<dim>1</dim>
					<dim>72</dim>
					<dim>4</dim>
					<dim>56</dim>
					<dim>56</dim>
				</port>
				<port id="1"/>
				<port id="2"/>
				<port id="3"/>
				<port id="4"/>
			</input>
			<output>
				<port id="5" precision="FP32">
					<dim>1</dim>
					<dim>72</dim>
					<dim>4</dim>
					<dim>56</dim>
					<dim>56</dim>
				</port>
			</output>
		</layer>
		<layer id="306" name="Conv_21/WithoutBiases/fq_weights_1/scale1082014413" type="Const" version="opset1">
			<data offset="30966" size="96" shape="24,1,1,1,1" element_type="f32"/>
			<output>
				<port id="0" precision="FP32">
					<dim>24</dim>
					<dim>1</dim>
					<dim>1</dim>
					<dim>1</dim>
					<dim>1</dim>
				</port>
			</output>
		</layer>
		<layer id="307" name="7065408011/restored_convert/quantized1081214683" type="Const" version="opset1">
			<data offset="31062" size="5184" shape="24,72,3,1,1" element_type="i8"/>
			<output>
				<port id="0" precision="I8">
					<dim>24</dim>
					<dim>72</dim>
					<dim>3</dim>
					<dim>1</dim>
					<dim>1</dim>
				</port>
			</output>
		</layer>
		<layer id="308" name="7065408011/restored_convert/quantized/to_f32" type="Convert" version="opset1">
			<data destination_type="f32"/>
			<input>
				<port id="0">
					<dim>24</dim>
					<dim>72</dim>
					<dim>3</dim>
					<dim>1</dim>
					<dim>1</dim>
				</port>
			</input>
			<output>
				<port id="1" precision="FP32">
					<dim>24</dim>
					<dim>72</dim>
					<dim>3</dim>
					<dim>1</dim>
					<dim>1</dim>
				</port>
			</output>
		</layer>
		<layer id="309" name="Conv_21/WithoutBiases/fq_weights_1/mulpiply_by_scale" type="Multiply" version="opset1">
			<data auto_broadcast="numpy"/>
			<input>
				<port id="0">
					<dim>24</dim>
					<dim>72</dim>
					<dim>3</dim>
					<dim>1</dim>
					<dim>1</dim>
				</port>
				<port id="1">
					<dim>24</dim>
					<dim>1</dim>
					<dim>1</dim>
					<dim>1</dim>
					<dim>1</dim>
				</port>
			</input>
			<output>
				<port id="2" precision="FP32">
					<dim>24</dim>
					<dim>72</dim>
					<dim>3</dim>
					<dim>1</dim>
					<dim>1</dim>
				</port>
			</output>
		</layer>
		<layer id="310" name="Conv_21/WithoutBiases" type="Convolution" version="opset1">
			<data auto_pad="explicit" strides="1,1,1" dilations="1,1,1" pads_begin="1,0,0" pads_end="1,0,0"/>
			<input>
				<port id="0">
					<dim>1</dim>
					<dim>72</dim>
					<dim>4</dim>
					<dim>56</dim>
					<dim>56</dim>
				</port>
				<port id="1">
					<dim>24</dim>
					<dim>72</dim>
					<dim>3</dim>
					<dim>1</dim>
					<dim>1</dim>
				</port>
			</input>
			<output>
				<port id="2" precision="FP32">
					<dim>1</dim>
					<dim>24</dim>
					<dim>4</dim>
					<dim>56</dim>
					<dim>56</dim>
				</port>
			</output>
		</layer>
		<layer id="311" name="Reshape_38554315700" type="Const" version="opset1">
			<data offset="36246" size="48" shape="1,24,1,1,1" element_type="f16"/>
			<output>
				<port id="0" precision="FP16">
					<dim>1</dim>
					<dim>24</dim>
					<dim>1</dim>
					<dim>1</dim>
					<dim>1</dim>
				</port>
			</output>
		</layer>
		<layer id="312" name="Reshape_3855438012/restored_convert" type="Convert" version="opset1">
			<data destination_type="f32"/>
			<rt_info>
				<attribute name="decompression" version="0"/>
			</rt_info>
			<input>
				<port id="0">
					<dim>1</dim>
					<dim>24</dim>
					<dim>1</dim>
					<dim>1</dim>
					<dim>1</dim>
				</port>
			</input>
			<output>
				<port id="1" precision="FP32">
					<dim>1</dim>
					<dim>24</dim>
					<dim>1</dim>
					<dim>1</dim>
					<dim>1</dim>
				</port>
			</output>
		</layer>
		<layer id="313" name="Conv_21" type="Add" version="opset1">
			<data auto_broadcast="numpy"/>
			<input>
				<port id="0">
					<dim>1</dim>
					<dim>24</dim>
					<dim>4</dim>
					<dim>56</dim>
					<dim>56</dim>
				</port>
				<port id="1">
					<dim>1</dim>
					<dim>24</dim>
					<dim>1</dim>
					<dim>1</dim>
					<dim>1</dim>
				</port>
			</input>
			<output>
				<port id="2" precision="FP32" names="705">
					<dim>1</dim>
					<dim>24</dim>
					<dim>4</dim>
					<dim>56</dim>
					<dim>56</dim>
				</port>
			</output>
		</layer>
		<layer id="314" name="Add_22/fq_input_1" type="FakeQuantize" version="opset1">
			<data levels="256" auto_broadcast="numpy"/>
			<input>
				<port id="0">
					<dim>1</dim>
					<dim>24</dim>
					<dim>4</dim>
					<dim>56</dim>
					<dim>56</dim>
				</port>
				<port id="1"/>
				<port id="2"/>
				<port id="3"/>
				<port id="4"/>
			</input>
			<output>
				<port id="5" precision="FP32">
					<dim>1</dim>
					<dim>24</dim>
					<dim>4</dim>
					<dim>56</dim>
					<dim>56</dim>
				</port>
			</output>
		</layer>
		<layer id="315" name="Add_22" type="Add" version="opset1">
			<data auto_broadcast="numpy"/>
			<input>
				<port id="0">
					<dim>1</dim>
					<dim>24</dim>
					<dim>4</dim>
					<dim>56</dim>
					<dim>56</dim>
				</port>
				<port id="1">
					<dim>1</dim>
					<dim>24</dim>
					<dim>4</dim>
					<dim>56</dim>
					<dim>56</dim>
				</port>
			</input>
			<output>
				<port id="2" precision="FP32" names="350">
					<dim>1</dim>
					<dim>24</dim>
					<dim>4</dim>
					<dim>56</dim>
					<dim>56</dim>
				</port>
			</output>
		</layer>
		<layer id="316" name="Conv_23/WithoutBiases/fq_input_0" type="FakeQuantize" version="opset1">
			<data levels="256" auto_broadcast="numpy"/>
			<input>
				<port id="0">
					<dim>1</dim>
					<dim>24</dim>
					<dim>4</dim>
					<dim>56</dim>
					<dim>56</dim>
				</port>
				<port id="1"/>
				<port id="2"/>
				<port id="3"/>
				<port id="4"/>
			</input>
			<output>
				<port id="5" precision="FP32">
					<dim>1</dim>
					<dim>24</dim>
					<dim>4</dim>
					<dim>56</dim>
					<dim>56</dim>
				</port>
			</output>
		</layer>
		<layer id="317" name="Conv_23/WithoutBiases/fq_weights_1/scale1016014116" type="Const" version="opset1">
			<data offset="36294" size="288" shape="72,1,1,1,1" element_type="f32"/>
			<output>
				<port id="0" precision="FP32">
					<dim>72</dim>
					<dim>1</dim>
					<dim>1</dim>
					<dim>1</dim>
					<dim>1</dim>
				</port>
			</output>
		</layer>
		<layer id="318" name="7095478013/restored_convert/quantized1015214971" type="Const" version="opset1">
			<data offset="36582" size="1728" shape="72,24,1,1,1" element_type="i8"/>
			<output>
				<port id="0" precision="I8">
					<dim>72</dim>
					<dim>24</dim>
					<dim>1</dim>
					<dim>1</dim>
					<dim>1</dim>
				</port>
			</output>
		</layer>
		<layer id="319" name="7095478013/restored_convert/quantized/to_f32" type="Convert" version="opset1">
			<data destination_type="f32"/>
			<input>
				<port id="0">
					<dim>72</dim>
					<dim>24</dim>
					<dim>1</dim>
					<dim>1</dim>
					<dim>1</dim>
				</port>
			</input>
			<output>
				<port id="1" precision="FP32">
					<dim>72</dim>
					<dim>24</dim>
					<dim>1</dim>
					<dim>1</dim>
					<dim>1</dim>
				</port>
			</output>
		</layer>
		<layer id="320" name="Conv_23/WithoutBiases/fq_weights_1/mulpiply_by_scale" type="Multiply" version="opset1">
			<data auto_broadcast="numpy"/>
			<input>
				<port id="0">
					<dim>72</dim>
					<dim>24</dim>
					<dim>1</dim>
					<dim>1</dim>
					<dim>1</dim>
				</port>
				<port id="1">
					<dim>72</dim>
					<dim>1</dim>
					<dim>1</dim>
					<dim>1</dim>
					<dim>1</dim>
				</port>
			</input>
			<output>
				<port id="2" precision="FP32">
					<dim>72</dim>
					<dim>24</dim>
					<dim>1</dim>
					<dim>1</dim>
					<dim>1</dim>
				</port>
			</output>
		</layer>
		<layer id="321" name="Conv_23/WithoutBiases" type="Convolution" version="opset1">
			<data auto_pad="explicit" strides="1,1,1" dilations="1,1,1" pads_begin="0,0,0" pads_end="0,0,0"/>
			<input>
				<port id="0">
					<dim>1</dim>
					<dim>24</dim>
					<dim>4</dim>
					<dim>56</dim>
					<dim>56</dim>
				</port>
				<port id="1">
					<dim>72</dim>
					<dim>24</dim>
					<dim>1</dim>
					<dim>1</dim>
					<dim>1</dim>
				</port>
			</input>
			<output>
				<port id="2" precision="FP32">
					<dim>1</dim>
					<dim>72</dim>
					<dim>4</dim>
					<dim>56</dim>
					<dim>56</dim>
				</port>
			</output>
		</layer>
		<layer id="322" name="Reshape_40155015433" type="Const" version="opset1">
			<data offset="38310" size="144" shape="1,72,1,1,1" element_type="f16"/>
			<output>
				<port id="0" precision="FP16">
					<dim>1</dim>
					<dim>72</dim>
					<dim>1</dim>
					<dim>1</dim>
					<dim>1</dim>
				</port>
			</output>
		</layer>
		<layer id="323" name="Reshape_4015508014/restored_convert" type="Convert" version="opset1">
			<data destination_type="f32"/>
			<rt_info>
				<attribute name="decompression" version="0"/>
			</rt_info>
			<input>
				<port id="0">
					<dim>1</dim>
					<dim>72</dim>
					<dim>1</dim>
					<dim>1</dim>
					<dim>1</dim>
				</port>
			</input>
			<output>
				<port id="1" precision="FP32">
					<dim>1</dim>
					<dim>72</dim>
					<dim>1</dim>
					<dim>1</dim>
					<dim>1</dim>
				</port>
			</output>
		</layer>
		<layer id="324" name="Conv_23" type="Add" version="opset1">
			<data auto_broadcast="numpy"/>
			<input>
				<port id="0">
					<dim>1</dim>
					<dim>72</dim>
					<dim>4</dim>
					<dim>56</dim>
					<dim>56</dim>
				</port>
				<port id="1">
					<dim>1</dim>
					<dim>72</dim>
					<dim>1</dim>
					<dim>1</dim>
					<dim>1</dim>
				</port>
			</input>
			<output>
				<port id="2" precision="FP32" names="708">
					<dim>1</dim>
					<dim>72</dim>
					<dim>4</dim>
					<dim>56</dim>
					<dim>56</dim>
				</port>
			</output>
		</layer>
		<layer id="325" name="Relu_24" type="ReLU" version="opset1">
			<input>
				<port id="0">
					<dim>1</dim>
					<dim>72</dim>
					<dim>4</dim>
					<dim>56</dim>
					<dim>56</dim>
				</port>
			</input>
			<output>
				<port id="1" precision="FP32" names="353">
					<dim>1</dim>
					<dim>72</dim>
					<dim>4</dim>
					<dim>56</dim>
					<dim>56</dim>
				</port>
			</output>
		</layer>
		<layer id="326" name="Conv_25/WithoutBiases/fq_input_0" type="FakeQuantize" version="opset1">
			<data levels="256" auto_broadcast="numpy"/>
			<input>
				<port id="0">
					<dim>1</dim>
					<dim>72</dim>
					<dim>4</dim>
					<dim>56</dim>
					<dim>56</dim>
				</port>
				<port id="1">
					<dim>1</dim>
					<dim>72</dim>
					<dim>1</dim>
					<dim>1</dim>
					<dim>1</dim>
				</port>
				<port id="2">
					<dim>1</dim>
					<dim>72</dim>
					<dim>1</dim>
					<dim>1</dim>
					<dim>1</dim>
				</port>
				<port id="3">
					<dim>1</dim>
					<dim>72</dim>
					<dim>1</dim>
					<dim>1</dim>
					<dim>1</dim>
				</port>
				<port id="4">
					<dim>1</dim>
					<dim>72</dim>
					<dim>1</dim>
					<dim>1</dim>
					<dim>1</dim>
				</port>
			</input>
			<output>
				<port id="5" precision="FP32">
					<dim>1</dim>
					<dim>72</dim>
					<dim>4</dim>
					<dim>56</dim>
					<dim>56</dim>
				</port>
			</output>
		</layer>
		<layer id="327" name="Conv_25/WithoutBiases/weights_shape1270415091" type="Const" version="opset1">
			<data offset="38454" size="48" shape="6" element_type="i64"/>
			<output>
				<port id="0" precision="I64">
					<dim>6</dim>
				</port>
			</output>
		</layer>
		<layer id="328" name="Conv_25/WithoutBiases/fq_weights_1/scale941015445" type="Const" version="opset1">
			<data offset="38502" size="288" shape="72,1,1,1,1" element_type="f32"/>
			<output>
				<port id="0" precision="FP32">
					<dim>72</dim>
					<dim>1</dim>
					<dim>1</dim>
					<dim>1</dim>
					<dim>1</dim>
				</port>
			</output>
		</layer>
		<layer id="329" name="Reshape_4135548015/restored_convert/quantized940215226" type="Const" version="opset1">
			<data offset="38790" size="1800" shape="72,1,1,5,5" element_type="i8"/>
			<output>
				<port id="0" precision="I8">
					<dim>72</dim>
					<dim>1</dim>
					<dim>1</dim>
					<dim>5</dim>
					<dim>5</dim>
				</port>
			</output>
		</layer>
		<layer id="330" name="Reshape_4135548015/restored_convert/quantized/to_f32" type="Convert" version="opset1">
			<data destination_type="f32"/>
			<input>
				<port id="0">
					<dim>72</dim>
					<dim>1</dim>
					<dim>1</dim>
					<dim>5</dim>
					<dim>5</dim>
				</port>
			</input>
			<output>
				<port id="1" precision="FP32">
					<dim>72</dim>
					<dim>1</dim>
					<dim>1</dim>
					<dim>5</dim>
					<dim>5</dim>
				</port>
			</output>
		</layer>
		<layer id="331" name="Conv_25/WithoutBiases/fq_weights_1/mulpiply_by_scale" type="Multiply" version="opset1">
			<data auto_broadcast="numpy"/>
			<input>
				<port id="0">
					<dim>72</dim>
					<dim>1</dim>
					<dim>1</dim>
					<dim>5</dim>
					<dim>5</dim>
				</port>
				<port id="1">
					<dim>72</dim>
					<dim>1</dim>
					<dim>1</dim>
					<dim>1</dim>
					<dim>1</dim>
				</port>
			</input>
			<output>
				<port id="2" precision="FP32">
					<dim>72</dim>
					<dim>1</dim>
					<dim>1</dim>
					<dim>5</dim>
					<dim>5</dim>
				</port>
			</output>
		</layer>
		<layer id="332" name="12703" type="Reshape" version="opset1">
			<data special_zero="true"/>
			<input>
				<port id="0">
					<dim>72</dim>
					<dim>1</dim>
					<dim>1</dim>
					<dim>5</dim>
					<dim>5</dim>
				</port>
				<port id="1">
					<dim>6</dim>
				</port>
			</input>
			<output>
				<port id="2" precision="FP32">
					<dim>72</dim>
					<dim>1</dim>
					<dim>1</dim>
					<dim>1</dim>
					<dim>5</dim>
					<dim>5</dim>
				</port>
			</output>
		</layer>
		<layer id="333" name="Conv_25/WithoutBiases" type="GroupConvolution" version="opset1">
			<data auto_pad="explicit" strides="1,2,2" dilations="1,1,1" pads_begin="0,2,2" pads_end="0,2,2"/>
			<input>
				<port id="0">
					<dim>1</dim>
					<dim>72</dim>
					<dim>4</dim>
					<dim>56</dim>
					<dim>56</dim>
				</port>
				<port id="1">
					<dim>72</dim>
					<dim>1</dim>
					<dim>1</dim>
					<dim>1</dim>
					<dim>5</dim>
					<dim>5</dim>
				</port>
			</input>
			<output>
				<port id="2" precision="FP32">
					<dim>1</dim>
					<dim>72</dim>
					<dim>4</dim>
					<dim>28</dim>
					<dim>28</dim>
				</port>
			</output>
		</layer>
		<layer id="334" name="Reshape_44455714368" type="Const" version="opset1">
			<data offset="40590" size="144" shape="1,72,1,1,1" element_type="f16"/>
			<output>
				<port id="0" precision="FP16">
					<dim>1</dim>
					<dim>72</dim>
					<dim>1</dim>
					<dim>1</dim>
					<dim>1</dim>
				</port>
			</output>
		</layer>
		<layer id="335" name="Reshape_4445578016/restored_convert" type="Convert" version="opset1">
			<data destination_type="f32"/>
			<rt_info>
				<attribute name="decompression" version="0"/>
			</rt_info>
			<input>
				<port id="0">
					<dim>1</dim>
					<dim>72</dim>
					<dim>1</dim>
					<dim>1</dim>
					<dim>1</dim>
				</port>
			</input>
			<output>
				<port id="1" precision="FP32">
					<dim>1</dim>
					<dim>72</dim>
					<dim>1</dim>
					<dim>1</dim>
					<dim>1</dim>
				</port>
			</output>
		</layer>
		<layer id="336" name="Conv_25" type="Add" version="opset1">
			<data auto_broadcast="numpy"/>
			<input>
				<port id="0">
					<dim>1</dim>
					<dim>72</dim>
					<dim>4</dim>
					<dim>28</dim>
					<dim>28</dim>
				</port>
				<port id="1">
					<dim>1</dim>
					<dim>72</dim>
					<dim>1</dim>
					<dim>1</dim>
					<dim>1</dim>
				</port>
			</input>
			<output>
				<port id="2" precision="FP32" names="356,711">
					<dim>1</dim>
					<dim>72</dim>
					<dim>4</dim>
					<dim>28</dim>
					<dim>28</dim>
				</port>
			</output>
		</layer>
		<layer id="337" name="AveragePool_27/fq_input_0" type="FakeQuantize" version="opset1">
			<data levels="256" auto_broadcast="numpy"/>
			<input>
				<port id="0">
					<dim>1</dim>
					<dim>72</dim>
					<dim>4</dim>
					<dim>28</dim>
					<dim>28</dim>
				</port>
				<port id="1"/>
				<port id="2"/>
				<port id="3"/>
				<port id="4"/>
			</input>
			<output>
				<port id="5" precision="FP32">
					<dim>1</dim>
					<dim>72</dim>
					<dim>4</dim>
					<dim>28</dim>
					<dim>28</dim>
				</port>
			</output>
		</layer>
		<layer id="338" name="AveragePool_27" type="AvgPool" version="opset1">
			<data strides="1,1,1" kernel="1,28,28" pads_begin="0,0,0" pads_end="0,0,0" exclude-pad="true" rounding_type="floor" auto_pad="explicit"/>
			<input>
				<port id="0">
					<dim>1</dim>
					<dim>72</dim>
					<dim>4</dim>
					<dim>28</dim>
					<dim>28</dim>
				</port>
			</input>
			<output>
				<port id="1" precision="FP32" names="357">
					<dim>1</dim>
					<dim>72</dim>
					<dim>4</dim>
					<dim>1</dim>
					<dim>1</dim>
				</port>
			</output>
		</layer>
		<layer id="339" name="Conv_28/WithoutBiases/fq_input_0" type="FakeQuantize" version="opset1">
			<data levels="256" auto_broadcast="numpy"/>
			<input>
				<port id="0">
					<dim>1</dim>
					<dim>72</dim>
					<dim>4</dim>
					<dim>1</dim>
					<dim>1</dim>
				</port>
				<port id="1"/>
				<port id="2"/>
				<port id="3"/>
				<port id="4"/>
			</input>
			<output>
				<port id="5" precision="FP32">
					<dim>1</dim>
					<dim>72</dim>
					<dim>4</dim>
					<dim>1</dim>
					<dim>1</dim>
				</port>
			</output>
		</layer>
		<layer id="340" name="Conv_28/WithoutBiases/fq_weights_1/scale917014551" type="Const" version="opset1">
			<data offset="40734" size="72" shape="18,1,1,1,1" element_type="f32"/>
			<output>
				<port id="0" precision="FP32">
					<dim>18</dim>
					<dim>1</dim>
					<dim>1</dim>
					<dim>1</dim>
					<dim>1</dim>
				</port>
			</output>
		</layer>
		<layer id="341" name="backbone.features.4.conv.5.fc.0.weight5618017/restored_convert/quantized916215016" type="Const" version="opset1">
			<data offset="40806" size="1296" shape="18,72,1,1,1" element_type="i8"/>
			<output>
				<port id="0" precision="I8">
					<dim>18</dim>
					<dim>72</dim>
					<dim>1</dim>
					<dim>1</dim>
					<dim>1</dim>
				</port>
			</output>
		</layer>
		<layer id="342" name="backbone.features.4.conv.5.fc.0.weight5618017/restored_convert/quantized/to_f32" type="Convert" version="opset1">
			<data destination_type="f32"/>
			<input>
				<port id="0">
					<dim>18</dim>
					<dim>72</dim>
					<dim>1</dim>
					<dim>1</dim>
					<dim>1</dim>
				</port>
			</input>
			<output>
				<port id="1" precision="FP32">
					<dim>18</dim>
					<dim>72</dim>
					<dim>1</dim>
					<dim>1</dim>
					<dim>1</dim>
				</port>
			</output>
		</layer>
		<layer id="343" name="Conv_28/WithoutBiases/fq_weights_1/mulpiply_by_scale" type="Multiply" version="opset1">
			<data auto_broadcast="numpy"/>
			<input>
				<port id="0">
					<dim>18</dim>
					<dim>72</dim>
					<dim>1</dim>
					<dim>1</dim>
					<dim>1</dim>
				</port>
				<port id="1">
					<dim>18</dim>
					<dim>1</dim>
					<dim>1</dim>
					<dim>1</dim>
					<dim>1</dim>
				</port>
			</input>
			<output>
				<port id="2" precision="FP32">
					<dim>18</dim>
					<dim>72</dim>
					<dim>1</dim>
					<dim>1</dim>
					<dim>1</dim>
				</port>
			</output>
		</layer>
		<layer id="344" name="Conv_28/WithoutBiases" type="Convolution" version="opset1">
			<data auto_pad="explicit" strides="1,1,1" dilations="1,1,1" pads_begin="0,0,0" pads_end="0,0,0"/>
			<input>
				<port id="0">
					<dim>1</dim>
					<dim>72</dim>
					<dim>4</dim>
					<dim>1</dim>
					<dim>1</dim>
				</port>
				<port id="1">
					<dim>18</dim>
					<dim>72</dim>
					<dim>1</dim>
					<dim>1</dim>
					<dim>1</dim>
				</port>
			</input>
			<output>
				<port id="2" precision="FP32">
					<dim>1</dim>
					<dim>18</dim>
					<dim>4</dim>
					<dim>1</dim>
					<dim>1</dim>
				</port>
			</output>
		</layer>
		<layer id="345" name="Reshape_46456414173" type="Const" version="opset1">
			<data offset="42102" size="36" shape="1,18,1,1,1" element_type="f16"/>
			<output>
				<port id="0" precision="FP16">
					<dim>1</dim>
					<dim>18</dim>
					<dim>1</dim>
					<dim>1</dim>
					<dim>1</dim>
				</port>
			</output>
		</layer>
		<layer id="346" name="Reshape_4645648018/restored_convert" type="Convert" version="opset1">
			<data destination_type="f32"/>
			<rt_info>
				<attribute name="decompression" version="0"/>
			</rt_info>
			<input>
				<port id="0">
					<dim>1</dim>
					<dim>18</dim>
					<dim>1</dim>
					<dim>1</dim>
					<dim>1</dim>
				</port>
			</input>
			<output>
				<port id="1" precision="FP32">
					<dim>1</dim>
					<dim>18</dim>
					<dim>1</dim>
					<dim>1</dim>
					<dim>1</dim>
				</port>
			</output>
		</layer>
		<layer id="347" name="Conv_28" type="Add" version="opset1">
			<data auto_broadcast="numpy"/>
			<input>
				<port id="0">
					<dim>1</dim>
					<dim>18</dim>
					<dim>4</dim>
					<dim>1</dim>
					<dim>1</dim>
				</port>
				<port id="1">
					<dim>1</dim>
					<dim>18</dim>
					<dim>1</dim>
					<dim>1</dim>
					<dim>1</dim>
				</port>
			</input>
			<output>
				<port id="2" precision="FP32" names="358">
					<dim>1</dim>
					<dim>18</dim>
					<dim>4</dim>
					<dim>1</dim>
					<dim>1</dim>
				</port>
			</output>
		</layer>
		<layer id="348" name="Relu_29" type="ReLU" version="opset1">
			<input>
				<port id="0">
					<dim>1</dim>
					<dim>18</dim>
					<dim>4</dim>
					<dim>1</dim>
					<dim>1</dim>
				</port>
			</input>
			<output>
				<port id="1" precision="FP32" names="359">
					<dim>1</dim>
					<dim>18</dim>
					<dim>4</dim>
					<dim>1</dim>
					<dim>1</dim>
				</port>
			</output>
		</layer>
		<layer id="349" name="Conv_30/WithoutBiases/fq_input_0" type="FakeQuantize" version="opset1">
			<data levels="256" auto_broadcast="numpy"/>
			<input>
				<port id="0">
					<dim>1</dim>
					<dim>18</dim>
					<dim>4</dim>
					<dim>1</dim>
					<dim>1</dim>
				</port>
				<port id="1"/>
				<port id="2"/>
				<port id="3"/>
				<port id="4"/>
			</input>
			<output>
				<port id="5" precision="FP32">
					<dim>1</dim>
					<dim>18</dim>
					<dim>4</dim>
					<dim>1</dim>
					<dim>1</dim>
				</port>
			</output>
		</layer>
		<layer id="350" name="Conv_30/WithoutBiases/fq_weights_1/scale920014170" type="Const" version="opset1">
			<data offset="42138" size="288" shape="72,1,1,1,1" element_type="f32"/>
			<output>
				<port id="0" precision="FP32">
					<dim>72</dim>
					<dim>1</dim>
					<dim>1</dim>
					<dim>1</dim>
					<dim>1</dim>
				</port>
			</output>
		</layer>
		<layer id="351" name="backbone.features.4.conv.5.fc.2.weight5688019/restored_convert/quantized919215778" type="Const" version="opset1">
			<data offset="42426" size="1296" shape="72,18,1,1,1" element_type="i8"/>
			<output>
				<port id="0" precision="I8">
					<dim>72</dim>
					<dim>18</dim>
					<dim>1</dim>
					<dim>1</dim>
					<dim>1</dim>
				</port>
			</output>
		</layer>
		<layer id="352" name="backbone.features.4.conv.5.fc.2.weight5688019/restored_convert/quantized/to_f32" type="Convert" version="opset1">
			<data destination_type="f32"/>
			<input>
				<port id="0">
					<dim>72</dim>
					<dim>18</dim>
					<dim>1</dim>
					<dim>1</dim>
					<dim>1</dim>
				</port>
			</input>
			<output>
				<port id="1" precision="FP32">
					<dim>72</dim>
					<dim>18</dim>
					<dim>1</dim>
					<dim>1</dim>
					<dim>1</dim>
				</port>
			</output>
		</layer>
		<layer id="353" name="Conv_30/WithoutBiases/fq_weights_1/mulpiply_by_scale" type="Multiply" version="opset1">
			<data auto_broadcast="numpy"/>
			<input>
				<port id="0">
					<dim>72</dim>
					<dim>18</dim>
					<dim>1</dim>
					<dim>1</dim>
					<dim>1</dim>
				</port>
				<port id="1">
					<dim>72</dim>
					<dim>1</dim>
					<dim>1</dim>
					<dim>1</dim>
					<dim>1</dim>
				</port>
			</input>
			<output>
				<port id="2" precision="FP32">
					<dim>72</dim>
					<dim>18</dim>
					<dim>1</dim>
					<dim>1</dim>
					<dim>1</dim>
				</port>
			</output>
		</layer>
		<layer id="354" name="Conv_30/WithoutBiases" type="Convolution" version="opset1">
			<data auto_pad="explicit" strides="1,1,1" dilations="1,1,1" pads_begin="0,0,0" pads_end="0,0,0"/>
			<input>
				<port id="0">
					<dim>1</dim>
					<dim>18</dim>
					<dim>4</dim>
					<dim>1</dim>
					<dim>1</dim>
				</port>
				<port id="1">
					<dim>72</dim>
					<dim>18</dim>
					<dim>1</dim>
					<dim>1</dim>
					<dim>1</dim>
				</port>
			</input>
			<output>
				<port id="2" precision="FP32">
					<dim>1</dim>
					<dim>72</dim>
					<dim>4</dim>
					<dim>1</dim>
					<dim>1</dim>
				</port>
			</output>
		</layer>
		<layer id="355" name="Reshape_48057114500" type="Const" version="opset1">
			<data offset="43722" size="144" shape="1,72,1,1,1" element_type="f16"/>
			<output>
				<port id="0" precision="FP16">
					<dim>1</dim>
					<dim>72</dim>
					<dim>1</dim>
					<dim>1</dim>
					<dim>1</dim>
				</port>
			</output>
		</layer>
		<layer id="356" name="Reshape_4805718020/restored_convert" type="Convert" version="opset1">
			<data destination_type="f32"/>
			<rt_info>
				<attribute name="decompression" version="0"/>
			</rt_info>
			<input>
				<port id="0">
					<dim>1</dim>
					<dim>72</dim>
					<dim>1</dim>
					<dim>1</dim>
					<dim>1</dim>
				</port>
			</input>
			<output>
				<port id="1" precision="FP32">
					<dim>1</dim>
					<dim>72</dim>
					<dim>1</dim>
					<dim>1</dim>
					<dim>1</dim>
				</port>
			</output>
		</layer>
		<layer id="357" name="Conv_30" type="Add" version="opset1">
			<data auto_broadcast="numpy"/>
			<input>
				<port id="0">
					<dim>1</dim>
					<dim>72</dim>
					<dim>4</dim>
					<dim>1</dim>
					<dim>1</dim>
				</port>
				<port id="1">
					<dim>1</dim>
					<dim>72</dim>
					<dim>1</dim>
					<dim>1</dim>
					<dim>1</dim>
				</port>
			</input>
			<output>
				<port id="2" precision="FP32" names="360">
					<dim>1</dim>
					<dim>72</dim>
					<dim>4</dim>
					<dim>1</dim>
					<dim>1</dim>
				</port>
			</output>
		</layer>
		<layer id="358" name="Div_34" type="HSigmoid" version="opset5">
			<input>
				<port id="0">
					<dim>1</dim>
					<dim>72</dim>
					<dim>4</dim>
					<dim>1</dim>
					<dim>1</dim>
				</port>
			</input>
			<output>
				<port id="1" precision="FP32" names="366">
					<dim>1</dim>
					<dim>72</dim>
					<dim>4</dim>
					<dim>1</dim>
					<dim>1</dim>
				</port>
			</output>
		</layer>
		<layer id="359" name="Mul_35/fq_input_0" type="FakeQuantize" version="opset1">
			<data levels="256" auto_broadcast="numpy"/>
			<input>
				<port id="0">
					<dim>1</dim>
					<dim>72</dim>
					<dim>4</dim>
					<dim>1</dim>
					<dim>1</dim>
				</port>
				<port id="1"/>
				<port id="2"/>
				<port id="3"/>
				<port id="4"/>
			</input>
			<output>
				<port id="5" precision="FP32">
					<dim>1</dim>
					<dim>72</dim>
					<dim>4</dim>
					<dim>1</dim>
					<dim>1</dim>
				</port>
			</output>
		</layer>
		<layer id="360" name="Mul_35" type="Multiply" version="opset1">
			<data auto_broadcast="numpy"/>
			<input>
				<port id="0">
					<dim>1</dim>
					<dim>72</dim>
					<dim>4</dim>
					<dim>1</dim>
					<dim>1</dim>
				</port>
				<port id="1">
					<dim>1</dim>
					<dim>72</dim>
					<dim>4</dim>
					<dim>28</dim>
					<dim>28</dim>
				</port>
			</input>
			<output>
				<port id="2" precision="FP32" names="367">
					<dim>1</dim>
					<dim>72</dim>
					<dim>4</dim>
					<dim>28</dim>
					<dim>28</dim>
				</port>
			</output>
		</layer>
		<layer id="361" name="Relu_36" type="ReLU" version="opset1">
			<input>
				<port id="0">
					<dim>1</dim>
					<dim>72</dim>
					<dim>4</dim>
					<dim>28</dim>
					<dim>28</dim>
				</port>
			</input>
			<output>
				<port id="1" precision="FP32" names="368">
					<dim>1</dim>
					<dim>72</dim>
					<dim>4</dim>
					<dim>28</dim>
					<dim>28</dim>
				</port>
			</output>
		</layer>
		<layer id="362" name="Conv_37/WithoutBiases/fq_input_0" type="FakeQuantize" version="opset1">
			<data levels="256" auto_broadcast="numpy"/>
			<input>
				<port id="0">
					<dim>1</dim>
					<dim>72</dim>
					<dim>4</dim>
					<dim>28</dim>
					<dim>28</dim>
				</port>
				<port id="1"/>
				<port id="2"/>
				<port id="3"/>
				<port id="4"/>
			</input>
			<output>
				<port id="5" precision="FP32">
					<dim>1</dim>
					<dim>72</dim>
					<dim>4</dim>
					<dim>28</dim>
					<dim>28</dim>
				</port>
			</output>
		</layer>
		<layer id="363" name="Conv_37/WithoutBiases/fq_weights_1/scale992014383" type="Const" version="opset1">
			<data offset="43866" size="160" shape="40,1,1,1,1" element_type="f32"/>
			<output>
				<port id="0" precision="FP32">
					<dim>40</dim>
					<dim>1</dim>
					<dim>1</dim>
					<dim>1</dim>
					<dim>1</dim>
				</port>
			</output>
		</layer>
		<layer id="364" name="7155778021/restored_convert/quantized991214995" type="Const" version="opset1">
			<data offset="44026" size="8640" shape="40,72,3,1,1" element_type="i8"/>
			<output>
				<port id="0" precision="I8">
					<dim>40</dim>
					<dim>72</dim>
					<dim>3</dim>
					<dim>1</dim>
					<dim>1</dim>
				</port>
			</output>
		</layer>
		<layer id="365" name="7155778021/restored_convert/quantized/to_f32" type="Convert" version="opset1">
			<data destination_type="f32"/>
			<input>
				<port id="0">
					<dim>40</dim>
					<dim>72</dim>
					<dim>3</dim>
					<dim>1</dim>
					<dim>1</dim>
				</port>
			</input>
			<output>
				<port id="1" precision="FP32">
					<dim>40</dim>
					<dim>72</dim>
					<dim>3</dim>
					<dim>1</dim>
					<dim>1</dim>
				</port>
			</output>
		</layer>
		<layer id="366" name="Conv_37/WithoutBiases/fq_weights_1/mulpiply_by_scale" type="Multiply" version="opset1">
			<data auto_broadcast="numpy"/>
			<input>
				<port id="0">
					<dim>40</dim>
					<dim>72</dim>
					<dim>3</dim>
					<dim>1</dim>
					<dim>1</dim>
				</port>
				<port id="1">
					<dim>40</dim>
					<dim>1</dim>
					<dim>1</dim>
					<dim>1</dim>
					<dim>1</dim>
				</port>
			</input>
			<output>
				<port id="2" precision="FP32">
					<dim>40</dim>
					<dim>72</dim>
					<dim>3</dim>
					<dim>1</dim>
					<dim>1</dim>
				</port>
			</output>
		</layer>
		<layer id="367" name="Conv_37/WithoutBiases" type="Convolution" version="opset1">
			<data auto_pad="explicit" strides="1,1,1" dilations="1,1,1" pads_begin="1,0,0" pads_end="1,0,0"/>
			<input>
				<port id="0">
					<dim>1</dim>
					<dim>72</dim>
					<dim>4</dim>
					<dim>28</dim>
					<dim>28</dim>
				</port>
				<port id="1">
					<dim>40</dim>
					<dim>72</dim>
					<dim>3</dim>
					<dim>1</dim>
					<dim>1</dim>
				</port>
			</input>
			<output>
				<port id="2" precision="FP32">
					<dim>1</dim>
					<dim>40</dim>
					<dim>4</dim>
					<dim>28</dim>
					<dim>28</dim>
				</port>
			</output>
		</layer>
		<layer id="368" name="Reshape_50158015568" type="Const" version="opset1">
			<data offset="52666" size="80" shape="1,40,1,1,1" element_type="f16"/>
			<output>
				<port id="0" precision="FP16">
					<dim>1</dim>
					<dim>40</dim>
					<dim>1</dim>
					<dim>1</dim>
					<dim>1</dim>
				</port>
			</output>
		</layer>
		<layer id="369" name="Reshape_5015808022/restored_convert" type="Convert" version="opset1">
			<data destination_type="f32"/>
			<rt_info>
				<attribute name="decompression" version="0"/>
			</rt_info>
			<input>
				<port id="0">
					<dim>1</dim>
					<dim>40</dim>
					<dim>1</dim>
					<dim>1</dim>
					<dim>1</dim>
				</port>
			</input>
			<output>
				<port id="1" precision="FP32">
					<dim>1</dim>
					<dim>40</dim>
					<dim>1</dim>
					<dim>1</dim>
					<dim>1</dim>
				</port>
			</output>
		</layer>
		<layer id="370" name="Conv_37" type="Add" version="opset1">
			<data auto_broadcast="numpy"/>
			<input>
				<port id="0">
					<dim>1</dim>
					<dim>40</dim>
					<dim>4</dim>
					<dim>28</dim>
					<dim>28</dim>
				</port>
				<port id="1">
					<dim>1</dim>
					<dim>40</dim>
					<dim>1</dim>
					<dim>1</dim>
					<dim>1</dim>
				</port>
			</input>
			<output>
				<port id="2" precision="FP32" names="714">
					<dim>1</dim>
					<dim>40</dim>
					<dim>4</dim>
					<dim>28</dim>
					<dim>28</dim>
				</port>
			</output>
		</layer>
		<layer id="371" name="Add_53/fq_input_0" type="FakeQuantize" version="opset1">
			<data levels="256" auto_broadcast="numpy"/>
			<input>
				<port id="0">
					<dim>1</dim>
					<dim>40</dim>
					<dim>4</dim>
					<dim>28</dim>
					<dim>28</dim>
				</port>
				<port id="1"/>
				<port id="2"/>
				<port id="3"/>
				<port id="4"/>
			</input>
			<output>
				<port id="5" precision="FP32">
					<dim>1</dim>
					<dim>40</dim>
					<dim>4</dim>
					<dim>28</dim>
					<dim>28</dim>
				</port>
			</output>
		</layer>
		<layer id="372" name="2687269114737" type="Const" version="opset1">
			<data offset="52746" size="4" shape="" element_type="f32"/>
			<output>
				<port id="0" precision="FP32"/>
			</output>
		</layer>
		<layer id="373" name="2688269215298" type="Const" version="opset1">
			<data offset="52750" size="4" shape="" element_type="f32"/>
			<output>
				<port id="0" precision="FP32"/>
			</output>
		</layer>
		<layer id="374" name="2689269314881" type="Const" version="opset1">
			<data offset="52746" size="4" shape="" element_type="f32"/>
			<output>
				<port id="0" precision="FP32"/>
			</output>
		</layer>
		<layer id="375" name="2690269415364" type="Const" version="opset1">
			<data offset="52750" size="4" shape="" element_type="f32"/>
			<output>
				<port id="0" precision="FP32"/>
			</output>
		</layer>
		<layer id="376" name="3097310115307" type="Const" version="opset1">
			<data offset="8" size="4" shape="" element_type="f32"/>
			<output>
				<port id="0" precision="FP32"/>
			</output>
		</layer>
		<layer id="377" name="3098310214233" type="Const" version="opset1">
			<data offset="52754" size="4" shape="" element_type="f32"/>
			<output>
				<port id="0" precision="FP32"/>
			</output>
		</layer>
		<layer id="378" name="3099310314872" type="Const" version="opset1">
			<data offset="8" size="4" shape="" element_type="f32"/>
			<output>
				<port id="0" precision="FP32"/>
			</output>
		</layer>
		<layer id="379" name="3100310414902" type="Const" version="opset1">
			<data offset="52754" size="4" shape="" element_type="f32"/>
			<output>
				<port id="0" precision="FP32"/>
			</output>
		</layer>
		<layer id="380" name="3197320114989" type="Const" version="opset1">
			<data offset="8" size="4" shape="" element_type="f32"/>
			<output>
				<port id="0" precision="FP32"/>
			</output>
		</layer>
		<layer id="381" name="3198320215616" type="Const" version="opset1">
			<data offset="52758" size="4" shape="" element_type="f32"/>
			<output>
				<port id="0" precision="FP32"/>
			</output>
		</layer>
		<layer id="382" name="3199320315481" type="Const" version="opset1">
			<data offset="8" size="4" shape="" element_type="f32"/>
			<output>
				<port id="0" precision="FP32"/>
			</output>
		</layer>
		<layer id="383" name="3200320414923" type="Const" version="opset1">
			<data offset="52758" size="4" shape="" element_type="f32"/>
			<output>
				<port id="0" precision="FP32"/>
			</output>
		</layer>
		<layer id="384" name="1557156114830" type="Const" version="opset1">
			<data offset="8" size="4" shape="" element_type="f32"/>
			<output>
				<port id="0" precision="FP32"/>
			</output>
		</layer>
		<layer id="385" name="1558156215490" type="Const" version="opset1">
			<data offset="52762" size="4" shape="" element_type="f32"/>
			<output>
				<port id="0" precision="FP32"/>
			</output>
		</layer>
		<layer id="386" name="1559156315721" type="Const" version="opset1">
			<data offset="8" size="4" shape="" element_type="f32"/>
			<output>
				<port id="0" precision="FP32"/>
			</output>
		</layer>
		<layer id="387" name="1560156415517" type="Const" version="opset1">
			<data offset="52762" size="4" shape="" element_type="f32"/>
			<output>
				<port id="0" precision="FP32"/>
			</output>
		</layer>
		<layer id="388" name="1847185115451" type="Const" version="opset1">
			<data offset="52766" size="4" shape="" element_type="f32"/>
			<output>
				<port id="0" precision="FP32"/>
			</output>
		</layer>
		<layer id="389" name="1848185215601" type="Const" version="opset1">
			<data offset="52770" size="4" shape="" element_type="f32"/>
			<output>
				<port id="0" precision="FP32"/>
			</output>
		</layer>
		<layer id="390" name="1849185314752" type="Const" version="opset1">
			<data offset="52766" size="4" shape="" element_type="f32"/>
			<output>
				<port id="0" precision="FP32"/>
			</output>
		</layer>
		<layer id="391" name="1850185415211" type="Const" version="opset1">
			<data offset="52770" size="4" shape="" element_type="f32"/>
			<output>
				<port id="0" precision="FP32"/>
			</output>
		</layer>
		<layer id="392" name="1747175115322" type="Const" version="opset1">
			<data offset="52774" size="4" shape="" element_type="f32"/>
			<output>
				<port id="0" precision="FP32"/>
			</output>
		</layer>
		<layer id="393" name="1748175214509" type="Const" version="opset1">
			<data offset="52778" size="4" shape="" element_type="f32"/>
			<output>
				<port id="0" precision="FP32"/>
			</output>
		</layer>
		<layer id="394" name="1749175315040" type="Const" version="opset1">
			<data offset="52774" size="4" shape="" element_type="f32"/>
			<output>
				<port id="0" precision="FP32"/>
			</output>
		</layer>
		<layer id="395" name="1750175415412" type="Const" version="opset1">
			<data offset="52778" size="4" shape="" element_type="f32"/>
			<output>
				<port id="0" precision="FP32"/>
			</output>
		</layer>
		<layer id="396" name="2307231115562" type="Const" version="opset1">
			<data offset="52782" size="480" shape="1,120,1,1,1" element_type="f32"/>
			<output>
				<port id="0" precision="FP32">
					<dim>1</dim>
					<dim>120</dim>
					<dim>1</dim>
					<dim>1</dim>
					<dim>1</dim>
				</port>
			</output>
		</layer>
		<layer id="397" name="2308231214575" type="Const" version="opset1">
			<data offset="53262" size="480" shape="1,120,1,1,1" element_type="f32"/>
			<output>
				<port id="0" precision="FP32">
					<dim>1</dim>
					<dim>120</dim>
					<dim>1</dim>
					<dim>1</dim>
					<dim>1</dim>
				</port>
			</output>
		</layer>
		<layer id="398" name="2309231314860" type="Const" version="opset1">
			<data offset="52782" size="480" shape="1,120,1,1,1" element_type="f32"/>
			<output>
				<port id="0" precision="FP32">
					<dim>1</dim>
					<dim>120</dim>
					<dim>1</dim>
					<dim>1</dim>
					<dim>1</dim>
				</port>
			</output>
		</layer>
		<layer id="399" name="2310231415619" type="Const" version="opset1">
			<data offset="53262" size="480" shape="1,120,1,1,1" element_type="f32"/>
			<output>
				<port id="0" precision="FP32">
					<dim>1</dim>
					<dim>120</dim>
					<dim>1</dim>
					<dim>1</dim>
					<dim>1</dim>
				</port>
			</output>
		</layer>
		<layer id="400" name="Conv_38/WithoutBiases/fq_weights_1/scale929015319" type="Const" version="opset1">
			<data offset="53742" size="480" shape="120,1,1,1,1" element_type="f32"/>
			<output>
				<port id="0" precision="FP32">
					<dim>120</dim>
					<dim>1</dim>
					<dim>1</dim>
					<dim>1</dim>
					<dim>1</dim>
				</port>
			</output>
		</layer>
		<layer id="401" name="7185838023/restored_convert/quantized928214131" type="Const" version="opset1">
			<data offset="54222" size="4800" shape="120,40,1,1,1" element_type="i8"/>
			<output>
				<port id="0" precision="I8">
					<dim>120</dim>
					<dim>40</dim>
					<dim>1</dim>
					<dim>1</dim>
					<dim>1</dim>
				</port>
			</output>
		</layer>
		<layer id="402" name="7185838023/restored_convert/quantized/to_f32" type="Convert" version="opset1">
			<data destination_type="f32"/>
			<input>
				<port id="0">
					<dim>120</dim>
					<dim>40</dim>
					<dim>1</dim>
					<dim>1</dim>
					<dim>1</dim>
				</port>
			</input>
			<output>
				<port id="1" precision="FP32">
					<dim>120</dim>
					<dim>40</dim>
					<dim>1</dim>
					<dim>1</dim>
					<dim>1</dim>
				</port>
			</output>
		</layer>
		<layer id="403" name="Conv_38/WithoutBiases/fq_weights_1/mulpiply_by_scale" type="Multiply" version="opset1">
			<data auto_broadcast="numpy"/>
			<input>
				<port id="0">
					<dim>120</dim>
					<dim>40</dim>
					<dim>1</dim>
					<dim>1</dim>
					<dim>1</dim>
				</port>
				<port id="1">
					<dim>120</dim>
					<dim>1</dim>
					<dim>1</dim>
					<dim>1</dim>
					<dim>1</dim>
				</port>
			</input>
			<output>
				<port id="2" precision="FP32">
					<dim>120</dim>
					<dim>40</dim>
					<dim>1</dim>
					<dim>1</dim>
					<dim>1</dim>
				</port>
			</output>
		</layer>
		<layer id="404" name="Conv_38/WithoutBiases" type="Convolution" version="opset1">
			<data auto_pad="explicit" strides="1,1,1" dilations="1,1,1" pads_begin="0,0,0" pads_end="0,0,0"/>
			<input>
				<port id="0">
					<dim>1</dim>
					<dim>40</dim>
					<dim>4</dim>
					<dim>28</dim>
					<dim>28</dim>
				</port>
				<port id="1">
					<dim>120</dim>
					<dim>40</dim>
					<dim>1</dim>
					<dim>1</dim>
					<dim>1</dim>
				</port>
			</input>
			<output>
				<port id="2" precision="FP32">
					<dim>1</dim>
					<dim>120</dim>
					<dim>4</dim>
					<dim>28</dim>
					<dim>28</dim>
				</port>
			</output>
		</layer>
		<layer id="405" name="Reshape_51658615055" type="Const" version="opset1">
			<data offset="59022" size="240" shape="1,120,1,1,1" element_type="f16"/>
			<output>
				<port id="0" precision="FP16">
					<dim>1</dim>
					<dim>120</dim>
					<dim>1</dim>
					<dim>1</dim>
					<dim>1</dim>
				</port>
			</output>
		</layer>
		<layer id="406" name="Reshape_5165868024/restored_convert" type="Convert" version="opset1">
			<data destination_type="f32"/>
			<rt_info>
				<attribute name="decompression" version="0"/>
			</rt_info>
			<input>
				<port id="0">
					<dim>1</dim>
					<dim>120</dim>
					<dim>1</dim>
					<dim>1</dim>
					<dim>1</dim>
				</port>
			</input>
			<output>
				<port id="1" precision="FP32">
					<dim>1</dim>
					<dim>120</dim>
					<dim>1</dim>
					<dim>1</dim>
					<dim>1</dim>
				</port>
			</output>
		</layer>
		<layer id="407" name="Conv_38" type="Add" version="opset1">
			<data auto_broadcast="numpy"/>
			<input>
				<port id="0">
					<dim>1</dim>
					<dim>120</dim>
					<dim>4</dim>
					<dim>28</dim>
					<dim>28</dim>
				</port>
				<port id="1">
					<dim>1</dim>
					<dim>120</dim>
					<dim>1</dim>
					<dim>1</dim>
					<dim>1</dim>
				</port>
			</input>
			<output>
				<port id="2" precision="FP32" names="717">
					<dim>1</dim>
					<dim>120</dim>
					<dim>4</dim>
					<dim>28</dim>
					<dim>28</dim>
				</port>
			</output>
		</layer>
		<layer id="408" name="Relu_39" type="ReLU" version="opset1">
			<input>
				<port id="0">
					<dim>1</dim>
					<dim>120</dim>
					<dim>4</dim>
					<dim>28</dim>
					<dim>28</dim>
				</port>
			</input>
			<output>
				<port id="1" precision="FP32" names="373">
					<dim>1</dim>
					<dim>120</dim>
					<dim>4</dim>
					<dim>28</dim>
					<dim>28</dim>
				</port>
			</output>
		</layer>
		<layer id="409" name="Conv_40/WithoutBiases/fq_input_0" type="FakeQuantize" version="opset1">
			<data levels="256" auto_broadcast="numpy"/>
			<input>
				<port id="0">
					<dim>1</dim>
					<dim>120</dim>
					<dim>4</dim>
					<dim>28</dim>
					<dim>28</dim>
				</port>
				<port id="1">
					<dim>1</dim>
					<dim>120</dim>
					<dim>1</dim>
					<dim>1</dim>
					<dim>1</dim>
				</port>
				<port id="2">
					<dim>1</dim>
					<dim>120</dim>
					<dim>1</dim>
					<dim>1</dim>
					<dim>1</dim>
				</port>
				<port id="3">
					<dim>1</dim>
					<dim>120</dim>
					<dim>1</dim>
					<dim>1</dim>
					<dim>1</dim>
				</port>
				<port id="4">
					<dim>1</dim>
					<dim>120</dim>
					<dim>1</dim>
					<dim>1</dim>
					<dim>1</dim>
				</port>
			</input>
			<output>
				<port id="5" precision="FP32">
					<dim>1</dim>
					<dim>120</dim>
					<dim>4</dim>
					<dim>28</dim>
					<dim>28</dim>
				</port>
			</output>
		</layer>
		<layer id="410" name="Conv_40/WithoutBiases/weights_shape1271815154" type="Const" version="opset1">
			<data offset="59262" size="48" shape="6" element_type="i64"/>
			<output>
				<port id="0" precision="I64">
					<dim>6</dim>
				</port>
			</output>
		</layer>
		<layer id="411" name="Conv_40/WithoutBiases/fq_weights_1/scale977015790" type="Const" version="opset1">
			<data offset="59310" size="480" shape="120,1,1,1,1" element_type="f32"/>
			<output>
				<port id="0" precision="FP32">
					<dim>120</dim>
					<dim>1</dim>
					<dim>1</dim>
					<dim>1</dim>
					<dim>1</dim>
				</port>
			</output>
		</layer>
		<layer id="412" name="Reshape_5285908025/restored_convert/quantized976215064" type="Const" version="opset1">
			<data offset="59790" size="3000" shape="120,1,1,5,5" element_type="i8"/>
			<output>
				<port id="0" precision="I8">
					<dim>120</dim>
					<dim>1</dim>
					<dim>1</dim>
					<dim>5</dim>
					<dim>5</dim>
				</port>
			</output>
		</layer>
		<layer id="413" name="Reshape_5285908025/restored_convert/quantized/to_f32" type="Convert" version="opset1">
			<data destination_type="f32"/>
			<input>
				<port id="0">
					<dim>120</dim>
					<dim>1</dim>
					<dim>1</dim>
					<dim>5</dim>
					<dim>5</dim>
				</port>
			</input>
			<output>
				<port id="1" precision="FP32">
					<dim>120</dim>
					<dim>1</dim>
					<dim>1</dim>
					<dim>5</dim>
					<dim>5</dim>
				</port>
			</output>
		</layer>
		<layer id="414" name="Conv_40/WithoutBiases/fq_weights_1/mulpiply_by_scale" type="Multiply" version="opset1">
			<data auto_broadcast="numpy"/>
			<input>
				<port id="0">
					<dim>120</dim>
					<dim>1</dim>
					<dim>1</dim>
					<dim>5</dim>
					<dim>5</dim>
				</port>
				<port id="1">
					<dim>120</dim>
					<dim>1</dim>
					<dim>1</dim>
					<dim>1</dim>
					<dim>1</dim>
				</port>
			</input>
			<output>
				<port id="2" precision="FP32">
					<dim>120</dim>
					<dim>1</dim>
					<dim>1</dim>
					<dim>5</dim>
					<dim>5</dim>
				</port>
			</output>
		</layer>
		<layer id="415" name="12717" type="Reshape" version="opset1">
			<data special_zero="true"/>
			<input>
				<port id="0">
					<dim>120</dim>
					<dim>1</dim>
					<dim>1</dim>
					<dim>5</dim>
					<dim>5</dim>
				</port>
				<port id="1">
					<dim>6</dim>
				</port>
			</input>
			<output>
				<port id="2" precision="FP32">
					<dim>120</dim>
					<dim>1</dim>
					<dim>1</dim>
					<dim>1</dim>
					<dim>5</dim>
					<dim>5</dim>
				</port>
			</output>
		</layer>
		<layer id="416" name="Conv_40/WithoutBiases" type="GroupConvolution" version="opset1">
			<data auto_pad="explicit" strides="1,1,1" dilations="1,1,1" pads_begin="0,2,2" pads_end="0,2,2"/>
			<input>
				<port id="0">
					<dim>1</dim>
					<dim>120</dim>
					<dim>4</dim>
					<dim>28</dim>
					<dim>28</dim>
				</port>
				<port id="1">
					<dim>120</dim>
					<dim>1</dim>
					<dim>1</dim>
					<dim>1</dim>
					<dim>5</dim>
					<dim>5</dim>
				</port>
			</input>
			<output>
				<port id="2" precision="FP32">
					<dim>1</dim>
					<dim>120</dim>
					<dim>4</dim>
					<dim>28</dim>
					<dim>28</dim>
				</port>
			</output>
		</layer>
		<layer id="417" name="Reshape_55959315580" type="Const" version="opset1">
			<data offset="62790" size="240" shape="1,120,1,1,1" element_type="f16"/>
			<output>
				<port id="0" precision="FP16">
					<dim>1</dim>
					<dim>120</dim>
					<dim>1</dim>
					<dim>1</dim>
					<dim>1</dim>
				</port>
			</output>
		</layer>
		<layer id="418" name="Reshape_5595938026/restored_convert" type="Convert" version="opset1">
			<data destination_type="f32"/>
			<rt_info>
				<attribute name="decompression" version="0"/>
			</rt_info>
			<input>
				<port id="0">
					<dim>1</dim>
					<dim>120</dim>
					<dim>1</dim>
					<dim>1</dim>
					<dim>1</dim>
				</port>
			</input>
			<output>
				<port id="1" precision="FP32">
					<dim>1</dim>
					<dim>120</dim>
					<dim>1</dim>
					<dim>1</dim>
					<dim>1</dim>
				</port>
			</output>
		</layer>
		<layer id="419" name="Conv_40" type="Add" version="opset1">
			<data auto_broadcast="numpy"/>
			<input>
				<port id="0">
					<dim>1</dim>
					<dim>120</dim>
					<dim>4</dim>
					<dim>28</dim>
					<dim>28</dim>
				</port>
				<port id="1">
					<dim>1</dim>
					<dim>120</dim>
					<dim>1</dim>
					<dim>1</dim>
					<dim>1</dim>
				</port>
			</input>
			<output>
				<port id="2" precision="FP32" names="376,720">
					<dim>1</dim>
					<dim>120</dim>
					<dim>4</dim>
					<dim>28</dim>
					<dim>28</dim>
				</port>
			</output>
		</layer>
		<layer id="420" name="AveragePool_42/fq_input_0" type="FakeQuantize" version="opset1">
			<data levels="256" auto_broadcast="numpy"/>
			<input>
				<port id="0">
					<dim>1</dim>
					<dim>120</dim>
					<dim>4</dim>
					<dim>28</dim>
					<dim>28</dim>
				</port>
				<port id="1"/>
				<port id="2"/>
				<port id="3"/>
				<port id="4"/>
			</input>
			<output>
				<port id="5" precision="FP32">
					<dim>1</dim>
					<dim>120</dim>
					<dim>4</dim>
					<dim>28</dim>
					<dim>28</dim>
				</port>
			</output>
		</layer>
		<layer id="421" name="AveragePool_42" type="AvgPool" version="opset1">
			<data strides="1,1,1" kernel="1,28,28" pads_begin="0,0,0" pads_end="0,0,0" exclude-pad="true" rounding_type="floor" auto_pad="explicit"/>
			<input>
				<port id="0">
					<dim>1</dim>
					<dim>120</dim>
					<dim>4</dim>
					<dim>28</dim>
					<dim>28</dim>
				</port>
			</input>
			<output>
				<port id="1" precision="FP32" names="377">
					<dim>1</dim>
					<dim>120</dim>
					<dim>4</dim>
					<dim>1</dim>
					<dim>1</dim>
				</port>
			</output>
		</layer>
		<layer id="422" name="Conv_43/WithoutBiases/fq_input_0" type="FakeQuantize" version="opset1">
			<data levels="256" auto_broadcast="numpy"/>
			<input>
				<port id="0">
					<dim>1</dim>
					<dim>120</dim>
					<dim>4</dim>
					<dim>1</dim>
					<dim>1</dim>
				</port>
				<port id="1"/>
				<port id="2"/>
				<port id="3"/>
				<port id="4"/>
			</input>
			<output>
				<port id="5" precision="FP32">
					<dim>1</dim>
					<dim>120</dim>
					<dim>4</dim>
					<dim>1</dim>
					<dim>1</dim>
				</port>
			</output>
		</layer>
		<layer id="423" name="Conv_43/WithoutBiases/fq_weights_1/scale1001014311" type="Const" version="opset1">
			<data offset="63030" size="120" shape="30,1,1,1,1" element_type="f32"/>
			<output>
				<port id="0" precision="FP32">
					<dim>30</dim>
					<dim>1</dim>
					<dim>1</dim>
					<dim>1</dim>
					<dim>1</dim>
				</port>
			</output>
		</layer>
		<layer id="424" name="backbone.features.5.conv.5.fc.0.weight5978027/restored_convert/quantized1000214758" type="Const" version="opset1">
			<data offset="63150" size="3600" shape="30,120,1,1,1" element_type="i8"/>
			<output>
				<port id="0" precision="I8">
					<dim>30</dim>
					<dim>120</dim>
					<dim>1</dim>
					<dim>1</dim>
					<dim>1</dim>
				</port>
			</output>
		</layer>
		<layer id="425" name="backbone.features.5.conv.5.fc.0.weight5978027/restored_convert/quantized/to_f32" type="Convert" version="opset1">
			<data destination_type="f32"/>
			<input>
				<port id="0">
					<dim>30</dim>
					<dim>120</dim>
					<dim>1</dim>
					<dim>1</dim>
					<dim>1</dim>
				</port>
			</input>
			<output>
				<port id="1" precision="FP32">
					<dim>30</dim>
					<dim>120</dim>
					<dim>1</dim>
					<dim>1</dim>
					<dim>1</dim>
				</port>
			</output>
		</layer>
		<layer id="426" name="Conv_43/WithoutBiases/fq_weights_1/mulpiply_by_scale" type="Multiply" version="opset1">
			<data auto_broadcast="numpy"/>
			<input>
				<port id="0">
					<dim>30</dim>
					<dim>120</dim>
					<dim>1</dim>
					<dim>1</dim>
					<dim>1</dim>
				</port>
				<port id="1">
					<dim>30</dim>
					<dim>1</dim>
					<dim>1</dim>
					<dim>1</dim>
					<dim>1</dim>
				</port>
			</input>
			<output>
				<port id="2" precision="FP32">
					<dim>30</dim>
					<dim>120</dim>
					<dim>1</dim>
					<dim>1</dim>
					<dim>1</dim>
				</port>
			</output>
		</layer>
		<layer id="427" name="Conv_43/WithoutBiases" type="Convolution" version="opset1">
			<data auto_pad="explicit" strides="1,1,1" dilations="1,1,1" pads_begin="0,0,0" pads_end="0,0,0"/>
			<input>
				<port id="0">
					<dim>1</dim>
					<dim>120</dim>
					<dim>4</dim>
					<dim>1</dim>
					<dim>1</dim>
				</port>
				<port id="1">
					<dim>30</dim>
					<dim>120</dim>
					<dim>1</dim>
					<dim>1</dim>
					<dim>1</dim>
				</port>
			</input>
			<output>
				<port id="2" precision="FP32">
					<dim>1</dim>
					<dim>30</dim>
					<dim>4</dim>
					<dim>1</dim>
					<dim>1</dim>
				</port>
			</output>
		</layer>
		<layer id="428" name="Reshape_57960015442" type="Const" version="opset1">
			<data offset="66750" size="60" shape="1,30,1,1,1" element_type="f16"/>
			<output>
				<port id="0" precision="FP16">
					<dim>1</dim>
					<dim>30</dim>
					<dim>1</dim>
					<dim>1</dim>
					<dim>1</dim>
				</port>
			</output>
		</layer>
		<layer id="429" name="Reshape_5796008028/restored_convert" type="Convert" version="opset1">
			<data destination_type="f32"/>
			<rt_info>
				<attribute name="decompression" version="0"/>
			</rt_info>
			<input>
				<port id="0">
					<dim>1</dim>
					<dim>30</dim>
					<dim>1</dim>
					<dim>1</dim>
					<dim>1</dim>
				</port>
			</input>
			<output>
				<port id="1" precision="FP32">
					<dim>1</dim>
					<dim>30</dim>
					<dim>1</dim>
					<dim>1</dim>
					<dim>1</dim>
				</port>
			</output>
		</layer>
		<layer id="430" name="Conv_43" type="Add" version="opset1">
			<data auto_broadcast="numpy"/>
			<input>
				<port id="0">
					<dim>1</dim>
					<dim>30</dim>
					<dim>4</dim>
					<dim>1</dim>
					<dim>1</dim>
				</port>
				<port id="1">
					<dim>1</dim>
					<dim>30</dim>
					<dim>1</dim>
					<dim>1</dim>
					<dim>1</dim>
				</port>
			</input>
			<output>
				<port id="2" precision="FP32" names="378">
					<dim>1</dim>
					<dim>30</dim>
					<dim>4</dim>
					<dim>1</dim>
					<dim>1</dim>
				</port>
			</output>
		</layer>
		<layer id="431" name="Relu_44" type="ReLU" version="opset1">
			<input>
				<port id="0">
					<dim>1</dim>
					<dim>30</dim>
					<dim>4</dim>
					<dim>1</dim>
					<dim>1</dim>
				</port>
			</input>
			<output>
				<port id="1" precision="FP32" names="379">
					<dim>1</dim>
					<dim>30</dim>
					<dim>4</dim>
					<dim>1</dim>
					<dim>1</dim>
				</port>
			</output>
		</layer>
		<layer id="432" name="Conv_45/WithoutBiases/fq_input_0" type="FakeQuantize" version="opset1">
			<data levels="256" auto_broadcast="numpy"/>
			<input>
				<port id="0">
					<dim>1</dim>
					<dim>30</dim>
					<dim>4</dim>
					<dim>1</dim>
					<dim>1</dim>
				</port>
				<port id="1"/>
				<port id="2"/>
				<port id="3"/>
				<port id="4"/>
			</input>
			<output>
				<port id="5" precision="FP32">
					<dim>1</dim>
					<dim>30</dim>
					<dim>4</dim>
					<dim>1</dim>
					<dim>1</dim>
				</port>
			</output>
		</layer>
		<layer id="433" name="Conv_45/WithoutBiases/fq_weights_1/scale989014506" type="Const" version="opset1">
			<data offset="66810" size="480" shape="120,1,1,1,1" element_type="f32"/>
			<output>
				<port id="0" precision="FP32">
					<dim>120</dim>
					<dim>1</dim>
					<dim>1</dim>
					<dim>1</dim>
					<dim>1</dim>
				</port>
			</output>
		</layer>
		<layer id="434" name="backbone.features.5.conv.5.fc.2.weight6048029/restored_convert/quantized988215565" type="Const" version="opset1">
			<data offset="67290" size="3600" shape="120,30,1,1,1" element_type="i8"/>
			<output>
				<port id="0" precision="I8">
					<dim>120</dim>
					<dim>30</dim>
					<dim>1</dim>
					<dim>1</dim>
					<dim>1</dim>
				</port>
			</output>
		</layer>
		<layer id="435" name="backbone.features.5.conv.5.fc.2.weight6048029/restored_convert/quantized/to_f32" type="Convert" version="opset1">
			<data destination_type="f32"/>
			<input>
				<port id="0">
					<dim>120</dim>
					<dim>30</dim>
					<dim>1</dim>
					<dim>1</dim>
					<dim>1</dim>
				</port>
			</input>
			<output>
				<port id="1" precision="FP32">
					<dim>120</dim>
					<dim>30</dim>
					<dim>1</dim>
					<dim>1</dim>
					<dim>1</dim>
				</port>
			</output>
		</layer>
		<layer id="436" name="Conv_45/WithoutBiases/fq_weights_1/mulpiply_by_scale" type="Multiply" version="opset1">
			<data auto_broadcast="numpy"/>
			<input>
				<port id="0">
					<dim>120</dim>
					<dim>30</dim>
					<dim>1</dim>
					<dim>1</dim>
					<dim>1</dim>
				</port>
				<port id="1">
					<dim>120</dim>
					<dim>1</dim>
					<dim>1</dim>
					<dim>1</dim>
					<dim>1</dim>
				</port>
			</input>
			<output>
				<port id="2" precision="FP32">
					<dim>120</dim>
					<dim>30</dim>
					<dim>1</dim>
					<dim>1</dim>
					<dim>1</dim>
				</port>
			</output>
		</layer>
		<layer id="437" name="Conv_45/WithoutBiases" type="Convolution" version="opset1">
			<data auto_pad="explicit" strides="1,1,1" dilations="1,1,1" pads_begin="0,0,0" pads_end="0,0,0"/>
			<input>
				<port id="0">
					<dim>1</dim>
					<dim>30</dim>
					<dim>4</dim>
					<dim>1</dim>
					<dim>1</dim>
				</port>
				<port id="1">
					<dim>120</dim>
					<dim>30</dim>
					<dim>1</dim>
					<dim>1</dim>
					<dim>1</dim>
				</port>
			</input>
			<output>
				<port id="2" precision="FP32">
					<dim>1</dim>
					<dim>120</dim>
					<dim>4</dim>
					<dim>1</dim>
					<dim>1</dim>
				</port>
			</output>
		</layer>
		<layer id="438" name="Reshape_59560715022" type="Const" version="opset1">
			<data offset="70890" size="240" shape="1,120,1,1,1" element_type="f16"/>
			<output>
				<port id="0" precision="FP16">
					<dim>1</dim>
					<dim>120</dim>
					<dim>1</dim>
					<dim>1</dim>
					<dim>1</dim>
				</port>
			</output>
		</layer>
		<layer id="439" name="Reshape_5956078030/restored_convert" type="Convert" version="opset1">
			<data destination_type="f32"/>
			<rt_info>
				<attribute name="decompression" version="0"/>
			</rt_info>
			<input>
				<port id="0">
					<dim>1</dim>
					<dim>120</dim>
					<dim>1</dim>
					<dim>1</dim>
					<dim>1</dim>
				</port>
			</input>
			<output>
				<port id="1" precision="FP32">
					<dim>1</dim>
					<dim>120</dim>
					<dim>1</dim>
					<dim>1</dim>
					<dim>1</dim>
				</port>
			</output>
		</layer>
		<layer id="440" name="Conv_45" type="Add" version="opset1">
			<data auto_broadcast="numpy"/>
			<input>
				<port id="0">
					<dim>1</dim>
					<dim>120</dim>
					<dim>4</dim>
					<dim>1</dim>
					<dim>1</dim>
				</port>
				<port id="1">
					<dim>1</dim>
					<dim>120</dim>
					<dim>1</dim>
					<dim>1</dim>
					<dim>1</dim>
				</port>
			</input>
			<output>
				<port id="2" precision="FP32" names="380">
					<dim>1</dim>
					<dim>120</dim>
					<dim>4</dim>
					<dim>1</dim>
					<dim>1</dim>
				</port>
			</output>
		</layer>
		<layer id="441" name="Div_49" type="HSigmoid" version="opset5">
			<input>
				<port id="0">
					<dim>1</dim>
					<dim>120</dim>
					<dim>4</dim>
					<dim>1</dim>
					<dim>1</dim>
				</port>
			</input>
			<output>
				<port id="1" precision="FP32" names="386">
					<dim>1</dim>
					<dim>120</dim>
					<dim>4</dim>
					<dim>1</dim>
					<dim>1</dim>
				</port>
			</output>
		</layer>
		<layer id="442" name="Mul_50/fq_input_0" type="FakeQuantize" version="opset1">
			<data levels="256" auto_broadcast="numpy"/>
			<input>
				<port id="0">
					<dim>1</dim>
					<dim>120</dim>
					<dim>4</dim>
					<dim>1</dim>
					<dim>1</dim>
				</port>
				<port id="1"/>
				<port id="2"/>
				<port id="3"/>
				<port id="4"/>
			</input>
			<output>
				<port id="5" precision="FP32">
					<dim>1</dim>
					<dim>120</dim>
					<dim>4</dim>
					<dim>1</dim>
					<dim>1</dim>
				</port>
			</output>
		</layer>
		<layer id="443" name="Mul_50" type="Multiply" version="opset1">
			<data auto_broadcast="numpy"/>
			<input>
				<port id="0">
					<dim>1</dim>
					<dim>120</dim>
					<dim>4</dim>
					<dim>1</dim>
					<dim>1</dim>
				</port>
				<port id="1">
					<dim>1</dim>
					<dim>120</dim>
					<dim>4</dim>
					<dim>28</dim>
					<dim>28</dim>
				</port>
			</input>
			<output>
				<port id="2" precision="FP32" names="387">
					<dim>1</dim>
…
		<edge from-layer="125" from-port="0" to-layer="572" to-port="1"/>
		<edge from-layer="126" from-port="0" to-layer="572" to-port="2"/>
		<edge from-layer="127" from-port="0" to-layer="572" to-port="3"/>
		<edge from-layer="128" from-port="0" to-layer="572" to-port="4"/>
		<edge from-layer="586" from-port="0" to-layer="587" to-port="0"/>
		<edge from-layer="587" from-port="1" to-layer="588" to-port="0"/>
		<edge from-layer="585" from-port="0" to-layer="588" to-port="1"/>
		<edge from-layer="572" from-port="5" to-layer="589" to-port="0"/>
		<edge from-layer="588" from-port="2" to-layer="589" to-port="1"/>
		<edge from-layer="590" from-port="0" to-layer="591" to-port="0"/>
		<edge from-layer="589" from-port="2" to-layer="592" to-port="0"/>
		<edge from-layer="591" from-port="1" to-layer="592" to-port="1"/>
		<edge from-layer="592" from-port="2" to-layer="593" to-port="0"/>
		<edge from-layer="593" from-port="1" to-layer="594" to-port="0"/>
		<edge from-layer="581" from-port="0" to-layer="594" to-port="1"/>
		<edge from-layer="582" from-port="0" to-layer="594" to-port="2"/>
		<edge from-layer="583" from-port="0" to-layer="594" to-port="3"/>
		<edge from-layer="584" from-port="0" to-layer="594" to-port="4"/>
		<edge from-layer="597" from-port="0" to-layer="598" to-port="0"/>
		<edge from-layer="598" from-port="1" to-layer="599" to-port="0"/>
		<edge from-layer="596" from-port="0" to-layer="599" to-port="1"/>
		<edge from-layer="599" from-port="2" to-layer="600" to-port="0"/>
		<edge from-layer="595" from-port="0" to-layer="600" to-port="1"/>
		<edge from-layer="594" from-port="5" to-layer="601" to-port="0"/>
		<edge from-layer="600" from-port="2" to-layer="601" to-port="1"/>
		<edge from-layer="602" from-port="0" to-layer="603" to-port="0"/>
		<edge from-layer="601" from-port="2" to-layer="604" to-port="0"/>
		<edge from-layer="603" from-port="1" to-layer="604" to-port="1"/>
		<edge from-layer="604" from-port="2" to-layer="605" to-port="0"/>
		<edge from-layer="605" from-port="1" to-layer="606" to-port="0"/>
		<edge from-layer="577" from-port="0" to-layer="606" to-port="1"/>
		<edge from-layer="578" from-port="0" to-layer="606" to-port="2"/>
		<edge from-layer="579" from-port="0" to-layer="606" to-port="3"/>
		<edge from-layer="580" from-port="0" to-layer="606" to-port="4"/>
		<edge from-layer="608" from-port="0" to-layer="609" to-port="0"/>
		<edge from-layer="609" from-port="1" to-layer="610" to-port="0"/>
		<edge from-layer="607" from-port="0" to-layer="610" to-port="1"/>
		<edge from-layer="606" from-port="5" to-layer="611" to-port="0"/>
		<edge from-layer="610" from-port="2" to-layer="611" to-port="1"/>
		<edge from-layer="612" from-port="0" to-layer="613" to-port="0"/>
		<edge from-layer="611" from-port="2" to-layer="614" to-port="0"/>
		<edge from-layer="613" from-port="1" to-layer="614" to-port="1"/>
		<edge from-layer="614" from-port="2" to-layer="615" to-port="0"/>
		<edge from-layer="573" from-port="0" to-layer="615" to-port="1"/>
		<edge from-layer="574" from-port="0" to-layer="615" to-port="2"/>
		<edge from-layer="575" from-port="0" to-layer="615" to-port="3"/>
		<edge from-layer="576" from-port="0" to-layer="615" to-port="4"/>
		<edge from-layer="572" from-port="5" to-layer="616" to-port="0"/>
		<edge from-layer="615" from-port="5" to-layer="616" to-port="1"/>
		<edge from-layer="616" from-port="2" to-layer="617" to-port="0"/>
		<edge from-layer="121" from-port="0" to-layer="617" to-port="1"/>
		<edge from-layer="122" from-port="0" to-layer="617" to-port="2"/>
		<edge from-layer="123" from-port="0" to-layer="617" to-port="3"/>
		<edge from-layer="124" from-port="0" to-layer="617" to-port="4"/>
		<edge from-layer="631" from-port="0" to-layer="632" to-port="0"/>
		<edge from-layer="632" from-port="1" to-layer="633" to-port="0"/>
		<edge from-layer="630" from-port="0" to-layer="633" to-port="1"/>
		<edge from-layer="617" from-port="5" to-layer="634" to-port="0"/>
		<edge from-layer="633" from-port="2" to-layer="634" to-port="1"/>
		<edge from-layer="635" from-port="0" to-layer="636" to-port="0"/>
		<edge from-layer="634" from-port="2" to-layer="637" to-port="0"/>
		<edge from-layer="636" from-port="1" to-layer="637" to-port="1"/>
		<edge from-layer="637" from-port="2" to-layer="638" to-port="0"/>
		<edge from-layer="638" from-port="1" to-layer="639" to-port="0"/>
		<edge from-layer="626" from-port="0" to-layer="639" to-port="1"/>
		<edge from-layer="627" from-port="0" to-layer="639" to-port="2"/>
		<edge from-layer="628" from-port="0" to-layer="639" to-port="3"/>
		<edge from-layer="629" from-port="0" to-layer="639" to-port="4"/>
		<edge from-layer="642" from-port="0" to-layer="643" to-port="0"/>
		<edge from-layer="643" from-port="1" to-layer="644" to-port="0"/>
		<edge from-layer="641" from-port="0" to-layer="644" to-port="1"/>
		<edge from-layer="644" from-port="2" to-layer="645" to-port="0"/>
		<edge from-layer="640" from-port="0" to-layer="645" to-port="1"/>
		<edge from-layer="639" from-port="5" to-layer="646" to-port="0"/>
		<edge from-layer="645" from-port="2" to-layer="646" to-port="1"/>
		<edge from-layer="647" from-port="0" to-layer="648" to-port="0"/>
		<edge from-layer="646" from-port="2" to-layer="649" to-port="0"/>
		<edge from-layer="648" from-port="1" to-layer="649" to-port="1"/>
		<edge from-layer="649" from-port="2" to-layer="650" to-port="0"/>
		<edge from-layer="650" from-port="1" to-layer="651" to-port="0"/>
		<edge from-layer="622" from-port="0" to-layer="651" to-port="1"/>
		<edge from-layer="623" from-port="0" to-layer="651" to-port="2"/>
		<edge from-layer="624" from-port="0" to-layer="651" to-port="3"/>
		<edge from-layer="625" from-port="0" to-layer="651" to-port="4"/>
		<edge from-layer="653" from-port="0" to-layer="654" to-port="0"/>
		<edge from-layer="654" from-port="1" to-layer="655" to-port="0"/>
		<edge from-layer="652" from-port="0" to-layer="655" to-port="1"/>
		<edge from-layer="651" from-port="5" to-layer="656" to-port="0"/>
		<edge from-layer="655" from-port="2" to-layer="656" to-port="1"/>
		<edge from-layer="657" from-port="0" to-layer="658" to-port="0"/>
		<edge from-layer="656" from-port="2" to-layer="659" to-port="0"/>
		<edge from-layer="658" from-port="1" to-layer="659" to-port="1"/>
		<edge from-layer="659" from-port="2" to-layer="660" to-port="0"/>
		<edge from-layer="618" from-port="0" to-layer="660" to-port="1"/>
		<edge from-layer="619" from-port="0" to-layer="660" to-port="2"/>
		<edge from-layer="620" from-port="0" to-layer="660" to-port="3"/>
		<edge from-layer="621" from-port="0" to-layer="660" to-port="4"/>
		<edge from-layer="617" from-port="5" to-layer="661" to-port="0"/>
		<edge from-layer="660" from-port="5" to-layer="661" to-port="1"/>
		<edge from-layer="661" from-port="2" to-layer="662" to-port="0"/>
		<edge from-layer="117" from-port="0" to-layer="662" to-port="1"/>
		<edge from-layer="118" from-port="0" to-layer="662" to-port="2"/>
		<edge from-layer="119" from-port="0" to-layer="662" to-port="3"/>
		<edge from-layer="120" from-port="0" to-layer="662" to-port="4"/>
		<edge from-layer="676" from-port="0" to-layer="677" to-port="0"/>
		<edge from-layer="677" from-port="1" to-layer="678" to-port="0"/>
		<edge from-layer="675" from-port="0" to-layer="678" to-port="1"/>
		<edge from-layer="662" from-port="5" to-layer="679" to-port="0"/>
		<edge from-layer="678" from-port="2" to-layer="679" to-port="1"/>
		<edge from-layer="680" from-port="0" to-layer="681" to-port="0"/>
		<edge from-layer="679" from-port="2" to-layer="682" to-port="0"/>
		<edge from-layer="681" from-port="1" to-layer="682" to-port="1"/>
		<edge from-layer="682" from-port="2" to-layer="683" to-port="0"/>
		<edge from-layer="683" from-port="1" to-layer="684" to-port="0"/>
		<edge from-layer="671" from-port="0" to-layer="684" to-port="1"/>
		<edge from-layer="672" from-port="0" to-layer="684" to-port="2"/>
		<edge from-layer="673" from-port="0" to-layer="684" to-port="3"/>
		<edge from-layer="674" from-port="0" to-layer="684" to-port="4"/>
		<edge from-layer="687" from-port="0" to-layer="688" to-port="0"/>
		<edge from-layer="688" from-port="1" to-layer="689" to-port="0"/>
		<edge from-layer="686" from-port="0" to-layer="689" to-port="1"/>
		<edge from-layer="689" from-port="2" to-layer="690" to-port="0"/>
		<edge from-layer="685" from-port="0" to-layer="690" to-port="1"/>
		<edge from-layer="684" from-port="5" to-layer="691" to-port="0"/>
		<edge from-layer="690" from-port="2" to-layer="691" to-port="1"/>
		<edge from-layer="692" from-port="0" to-layer="693" to-port="0"/>
		<edge from-layer="691" from-port="2" to-layer="694" to-port="0"/>
		<edge from-layer="693" from-port="1" to-layer="694" to-port="1"/>
		<edge from-layer="694" from-port="2" to-layer="695" to-port="0"/>
		<edge from-layer="695" from-port="1" to-layer="696" to-port="0"/>
		<edge from-layer="667" from-port="0" to-layer="696" to-port="1"/>
		<edge from-layer="668" from-port="0" to-layer="696" to-port="2"/>
		<edge from-layer="669" from-port="0" to-layer="696" to-port="3"/>
		<edge from-layer="670" from-port="0" to-layer="696" to-port="4"/>
		<edge from-layer="698" from-port="0" to-layer="699" to-port="0"/>
		<edge from-layer="699" from-port="1" to-layer="700" to-port="0"/>
		<edge from-layer="697" from-port="0" to-layer="700" to-port="1"/>
		<edge from-layer="696" from-port="5" to-layer="701" to-port="0"/>
		<edge from-layer="700" from-port="2" to-layer="701" to-port="1"/>
		<edge from-layer="702" from-port="0" to-layer="703" to-port="0"/>
		<edge from-layer="701" from-port="2" to-layer="704" to-port="0"/>
		<edge from-layer="703" from-port="1" to-layer="704" to-port="1"/>
		<edge from-layer="704" from-port="2" to-layer="705" to-port="0"/>
		<edge from-layer="663" from-port="0" to-layer="705" to-port="1"/>
		<edge from-layer="664" from-port="0" to-layer="705" to-port="2"/>
		<edge from-layer="665" from-port="0" to-layer="705" to-port="3"/>
		<edge from-layer="666" from-port="0" to-layer="705" to-port="4"/>
		<edge from-layer="662" from-port="5" to-layer="706" to-port="0"/>
		<edge from-layer="705" from-port="5" to-layer="706" to-port="1"/>
		<edge from-layer="706" from-port="2" to-layer="707" to-port="0"/>
		<edge from-layer="113" from-port="0" to-layer="707" to-port="1"/>
		<edge from-layer="114" from-port="0" to-layer="707" to-port="2"/>
		<edge from-layer="115" from-port="0" to-layer="707" to-port="3"/>
		<edge from-layer="116" from-port="0" to-layer="707" to-port="4"/>
		<edge from-layer="709" from-port="0" to-layer="710" to-port="0"/>
		<edge from-layer="710" from-port="1" to-layer="711" to-port="0"/>
		<edge from-layer="708" from-port="0" to-layer="711" to-port="1"/>
		<edge from-layer="707" from-port="5" to-layer="712" to-port="0"/>
		<edge from-layer="711" from-port="2" to-layer="712" to-port="1"/>
		<edge from-layer="713" from-port="0" to-layer="714" to-port="0"/>
		<edge from-layer="712" from-port="2" to-layer="715" to-port="0"/>
		<edge from-layer="714" from-port="1" to-layer="715" to-port="1"/>
		<edge from-layer="715" from-port="2" to-layer="716" to-port="0"/>
		<edge from-layer="716" from-port="1" to-layer="717" to-port="0"/>
		<edge from-layer="109" from-port="0" to-layer="717" to-port="1"/>
		<edge from-layer="110" from-port="0" to-layer="717" to-port="2"/>
		<edge from-layer="111" from-port="0" to-layer="717" to-port="3"/>
		<edge from-layer="112" from-port="0" to-layer="717" to-port="4"/>
		<edge from-layer="720" from-port="0" to-layer="721" to-port="0"/>
		<edge from-layer="721" from-port="1" to-layer="722" to-port="0"/>
		<edge from-layer="719" from-port="0" to-layer="722" to-port="1"/>
		<edge from-layer="722" from-port="2" to-layer="723" to-port="0"/>
		<edge from-layer="718" from-port="0" to-layer="723" to-port="1"/>
		<edge from-layer="717" from-port="5" to-layer="724" to-port="0"/>
		<edge from-layer="723" from-port="2" to-layer="724" to-port="1"/>
		<edge from-layer="725" from-port="0" to-layer="726" to-port="0"/>
		<edge from-layer="724" from-port="2" to-layer="727" to-port="0"/>
		<edge from-layer="726" from-port="1" to-layer="727" to-port="1"/>
		<edge from-layer="727" from-port="2" to-layer="728" to-port="0"/>
		<edge from-layer="105" from-port="0" to-layer="728" to-port="1"/>
		<edge from-layer="106" from-port="0" to-layer="728" to-port="2"/>
		<edge from-layer="107" from-port="0" to-layer="728" to-port="3"/>
		<edge from-layer="108" from-port="0" to-layer="728" to-port="4"/>
		<edge from-layer="728" from-port="5" to-layer="729" to-port="0"/>
		<edge from-layer="729" from-port="1" to-layer="730" to-port="0"/>
		<edge from-layer="101" from-port="0" to-layer="730" to-port="1"/>
		<edge from-layer="102" from-port="0" to-layer="730" to-port="2"/>
		<edge from-layer="103" from-port="0" to-layer="730" to-port="3"/>
		<edge from-layer="104" from-port="0" to-layer="730" to-port="4"/>
		<edge from-layer="732" from-port="0" to-layer="733" to-port="0"/>
		<edge from-layer="733" from-port="1" to-layer="734" to-port="0"/>
		<edge from-layer="731" from-port="0" to-layer="734" to-port="1"/>
		<edge from-layer="730" from-port="5" to-layer="735" to-port="0"/>
		<edge from-layer="734" from-port="2" to-layer="735" to-port="1"/>
		<edge from-layer="736" from-port="0" to-layer="737" to-port="0"/>
		<edge from-layer="735" from-port="2" to-layer="738" to-port="0"/>
		<edge from-layer="737" from-port="1" to-layer="738" to-port="1"/>
		<edge from-layer="738" from-port="2" to-layer="739" to-port="0"/>
		<edge from-layer="739" from-port="1" to-layer="740" to-port="0"/>
		<edge from-layer="97" from-port="0" to-layer="740" to-port="1"/>
		<edge from-layer="98" from-port="0" to-layer="740" to-port="2"/>
		<edge from-layer="99" from-port="0" to-layer="740" to-port="3"/>
		<edge from-layer="100" from-port="0" to-layer="740" to-port="4"/>
		<edge from-layer="742" from-port="0" to-layer="743" to-port="0"/>
		<edge from-layer="743" from-port="1" to-layer="744" to-port="0"/>
		<edge from-layer="741" from-port="0" to-layer="744" to-port="1"/>
		<edge from-layer="740" from-port="5" to-layer="745" to-port="0"/>
		<edge from-layer="744" from-port="2" to-layer="745" to-port="1"/>
		<edge from-layer="746" from-port="0" to-layer="747" to-port="0"/>
		<edge from-layer="745" from-port="2" to-layer="748" to-port="0"/>
		<edge from-layer="747" from-port="1" to-layer="748" to-port="1"/>
		<edge from-layer="748" from-port="2" to-layer="749" to-port="0"/>
		<edge from-layer="749" from-port="1" to-layer="750" to-port="0"/>
		<edge from-layer="93" from-port="0" to-layer="750" to-port="1"/>
		<edge from-layer="94" from-port="0" to-layer="750" to-port="2"/>
		<edge from-layer="95" from-port="0" to-layer="750" to-port="3"/>
		<edge from-layer="96" from-port="0" to-layer="750" to-port="4"/>
		<edge from-layer="750" from-port="5" to-layer="751" to-port="0"/>
		<edge from-layer="728" from-port="5" to-layer="751" to-port="1"/>
		<edge from-layer="751" from-port="2" to-layer="752" to-port="0"/>
		<edge from-layer="752" from-port="1" to-layer="753" to-port="0"/>
		<edge from-layer="89" from-port="0" to-layer="753" to-port="1"/>
		<edge from-layer="90" from-port="0" to-layer="753" to-port="2"/>
		<edge from-layer="91" from-port="0" to-layer="753" to-port="3"/>
		<edge from-layer="92" from-port="0" to-layer="753" to-port="4"/>
		<edge from-layer="755" from-port="0" to-layer="756" to-port="0"/>
		<edge from-layer="756" from-port="1" to-layer="757" to-port="0"/>
		<edge from-layer="754" from-port="0" to-layer="757" to-port="1"/>
		<edge from-layer="753" from-port="5" to-layer="758" to-port="0"/>
		<edge from-layer="757" from-port="2" to-layer="758" to-port="1"/>
		<edge from-layer="759" from-port="0" to-layer="760" to-port="0"/>
		<edge from-layer="758" from-port="2" to-layer="761" to-port="0"/>
		<edge from-layer="760" from-port="1" to-layer="761" to-port="1"/>
		<edge from-layer="761" from-port="2" to-layer="762" to-port="0"/>
		<edge from-layer="85" from-port="0" to-layer="762" to-port="1"/>
		<edge from-layer="86" from-port="0" to-layer="762" to-port="2"/>
		<edge from-layer="87" from-port="0" to-layer="762" to-port="3"/>
		<edge from-layer="88" from-port="0" to-layer="762" to-port="4"/>
		<edge from-layer="792" from-port="0" to-layer="793" to-port="0"/>
		<edge from-layer="793" from-port="1" to-layer="794" to-port="0"/>
		<edge from-layer="791" from-port="0" to-layer="794" to-port="1"/>
		<edge from-layer="762" from-port="5" to-layer="795" to-port="0"/>
		<edge from-layer="794" from-port="2" to-layer="795" to-port="1"/>
		<edge from-layer="796" from-port="0" to-layer="797" to-port="0"/>
		<edge from-layer="795" from-port="2" to-layer="798" to-port="0"/>
		<edge from-layer="797" from-port="1" to-layer="798" to-port="1"/>
		<edge from-layer="798" from-port="2" to-layer="799" to-port="0"/>
		<edge from-layer="799" from-port="1" to-layer="800" to-port="0"/>
		<edge from-layer="787" from-port="0" to-layer="800" to-port="1"/>
		<edge from-layer="788" from-port="0" to-layer="800" to-port="2"/>
		<edge from-layer="789" from-port="0" to-layer="800" to-port="3"/>
		<edge from-layer="790" from-port="0" to-layer="800" to-port="4"/>
		<edge from-layer="803" from-port="0" to-layer="804" to-port="0"/>
		<edge from-layer="804" from-port="1" to-layer="805" to-port="0"/>
		<edge from-layer="802" from-port="0" to-layer="805" to-port="1"/>
		<edge from-layer="805" from-port="2" to-layer="806" to-port="0"/>
		<edge from-layer="801" from-port="0" to-layer="806" to-port="1"/>
		<edge from-layer="800" from-port="5" to-layer="807" to-port="0"/>
		<edge from-layer="806" from-port="2" to-layer="807" to-port="1"/>
		<edge from-layer="808" from-port="0" to-layer="809" to-port="0"/>
		<edge from-layer="807" from-port="2" to-layer="810" to-port="0"/>
		<edge from-layer="809" from-port="1" to-layer="810" to-port="1"/>
		<edge from-layer="810" from-port="2" to-layer="811" to-port="0"/>
		<edge from-layer="783" from-port="0" to-layer="811" to-port="1"/>
		<edge from-layer="784" from-port="0" to-layer="811" to-port="2"/>
		<edge from-layer="785" from-port="0" to-layer="811" to-port="3"/>
		<edge from-layer="786" from-port="0" to-layer="811" to-port="4"/>
		<edge from-layer="811" from-port="5" to-layer="812" to-port="0"/>
		<edge from-layer="812" from-port="1" to-layer="813" to-port="0"/>
		<edge from-layer="779" from-port="0" to-layer="813" to-port="1"/>
		<edge from-layer="780" from-port="0" to-layer="813" to-port="2"/>
		<edge from-layer="781" from-port="0" to-layer="813" to-port="3"/>
		<edge from-layer="782" from-port="0" to-layer="813" to-port="4"/>
		<edge from-layer="815" from-port="0" to-layer="816" to-port="0"/>
		<edge from-layer="816" from-port="1" to-layer="817" to-port="0"/>
		<edge from-layer="814" from-port="0" to-layer="817" to-port="1"/>
		<edge from-layer="813" from-port="5" to-layer="818" to-port="0"/>
		<edge from-layer="817" from-port="2" to-layer="818" to-port="1"/>
		<edge from-layer="819" from-port="0" to-layer="820" to-port="0"/>
		<edge from-layer="818" from-port="2" to-layer="821" to-port="0"/>
		<edge from-layer="820" from-port="1" to-layer="821" to-port="1"/>
		<edge from-layer="821" from-port="2" to-layer="822" to-port="0"/>
		<edge from-layer="822" from-port="1" to-layer="823" to-port="0"/>
		<edge from-layer="775" from-port="0" to-layer="823" to-port="1"/>
		<edge from-layer="776" from-port="0" to-layer="823" to-port="2"/>
		<edge from-layer="777" from-port="0" to-layer="823" to-port="3"/>
		<edge from-layer="778" from-port="0" to-layer="823" to-port="4"/>
		<edge from-layer="825" from-port="0" to-layer="826" to-port="0"/>
		<edge from-layer="826" from-port="1" to-layer="827" to-port="0"/>
		<edge from-layer="824" from-port="0" to-layer="827" to-port="1"/>
		<edge from-layer="823" from-port="5" to-layer="828" to-port="0"/>
		<edge from-layer="827" from-port="2" to-layer="828" to-port="1"/>
		<edge from-layer="829" from-port="0" to-layer="830" to-port="0"/>
		<edge from-layer="828" from-port="2" to-layer="831" to-port="0"/>
		<edge from-layer="830" from-port="1" to-layer="831" to-port="1"/>
		<edge from-layer="831" from-port="2" to-layer="832" to-port="0"/>
		<edge from-layer="832" from-port="1" to-layer="833" to-port="0"/>
		<edge from-layer="771" from-port="0" to-layer="833" to-port="1"/>
		<edge from-layer="772" from-port="0" to-layer="833" to-port="2"/>
		<edge from-layer="773" from-port="0" to-layer="833" to-port="3"/>
		<edge from-layer="774" from-port="0" to-layer="833" to-port="4"/>
		<edge from-layer="833" from-port="5" to-layer="834" to-port="0"/>
		<edge from-layer="811" from-port="5" to-layer="834" to-port="1"/>
		<edge from-layer="834" from-port="2" to-layer="835" to-port="0"/>
		<edge from-layer="835" from-port="1" to-layer="836" to-port="0"/>
		<edge from-layer="767" from-port="0" to-layer="836" to-port="1"/>
		<edge from-layer="768" from-port="0" to-layer="836" to-port="2"/>
		<edge from-layer="769" from-port="0" to-layer="836" to-port="3"/>
		<edge from-layer="770" from-port="0" to-layer="836" to-port="4"/>
		<edge from-layer="838" from-port="0" to-layer="839" to-port="0"/>
		<edge from-layer="839" from-port="1" to-layer="840" to-port="0"/>
		<edge from-layer="837" from-port="0" to-layer="840" to-port="1"/>
		<edge from-layer="836" from-port="5" to-layer="841" to-port="0"/>
		<edge from-layer="840" from-port="2" to-layer="841" to-port="1"/>
		<edge from-layer="842" from-port="0" to-layer="843" to-port="0"/>
		<edge from-layer="841" from-port="2" to-layer="844" to-port="0"/>
		<edge from-layer="843" from-port="1" to-layer="844" to-port="1"/>
		<edge from-layer="844" from-port="2" to-layer="845" to-port="0"/>
		<edge from-layer="763" from-port="0" to-layer="845" to-port="1"/>
		<edge from-layer="764" from-port="0" to-layer="845" to-port="2"/>
		<edge from-layer="765" from-port="0" to-layer="845" to-port="3"/>
		<edge from-layer="766" from-port="0" to-layer="845" to-port="4"/>
		<edge from-layer="762" from-port="5" to-layer="846" to-port="0"/>
		<edge from-layer="845" from-port="5" to-layer="846" to-port="1"/>
		<edge from-layer="846" from-port="2" to-layer="847" to-port="0"/>
		<edge from-layer="81" from-port="0" to-layer="847" to-port="1"/>
		<edge from-layer="82" from-port="0" to-layer="847" to-port="2"/>
		<edge from-layer="83" from-port="0" to-layer="847" to-port="3"/>
		<edge from-layer="84" from-port="0" to-layer="847" to-port="4"/>
		<edge from-layer="849" from-port="0" to-layer="850" to-port="0"/>
		<edge from-layer="850" from-port="1" to-layer="851" to-port="0"/>
		<edge from-layer="848" from-port="0" to-layer="851" to-port="1"/>
		<edge from-layer="847" from-port="5" to-layer="852" to-port="0"/>
		<edge from-layer="851" from-port="2" to-layer="852" to-port="1"/>
		<edge from-layer="853" from-port="0" to-layer="854" to-port="0"/>
		<edge from-layer="852" from-port="2" to-layer="855" to-port="0"/>
		<edge from-layer="854" from-port="1" to-layer="855" to-port="1"/>
		<edge from-layer="855" from-port="2" to-layer="856" to-port="0"/>
		<edge from-layer="856" from-port="1" to-layer="857" to-port="0"/>
		<edge from-layer="77" from-port="0" to-layer="857" to-port="1"/>
		<edge from-layer="78" from-port="0" to-layer="857" to-port="2"/>
		<edge from-layer="79" from-port="0" to-layer="857" to-port="3"/>
		<edge from-layer="80" from-port="0" to-layer="857" to-port="4"/>
		<edge from-layer="860" from-port="0" to-layer="861" to-port="0"/>
		<edge from-layer="861" from-port="1" to-layer="862" to-port="0"/>
		<edge from-layer="859" from-port="0" to-layer="862" to-port="1"/>
		<edge from-layer="862" from-port="2" to-layer="863" to-port="0"/>
		<edge from-layer="858" from-port="0" to-layer="863" to-port="1"/>
		<edge from-layer="857" from-port="5" to-layer="864" to-port="0"/>
		<edge from-layer="863" from-port="2" to-layer="864" to-port="1"/>
		<edge from-layer="865" from-port="0" to-layer="866" to-port="0"/>
		<edge from-layer="864" from-port="2" to-layer="867" to-port="0"/>
		<edge from-layer="866" from-port="1" to-layer="867" to-port="1"/>
		<edge from-layer="867" from-port="2" to-layer="868" to-port="0"/>
		<edge from-layer="73" from-port="0" to-layer="868" to-port="1"/>
		<edge from-layer="74" from-port="0" to-layer="868" to-port="2"/>
		<edge from-layer="75" from-port="0" to-layer="868" to-port="3"/>
		<edge from-layer="76" from-port="0" to-layer="868" to-port="4"/>
		<edge from-layer="868" from-port="5" to-layer="869" to-port="0"/>
		<edge from-layer="869" from-port="1" to-layer="870" to-port="0"/>
		<edge from-layer="69" from-port="0" to-layer="870" to-port="1"/>
		<edge from-layer="70" from-port="0" to-layer="870" to-port="2"/>
		<edge from-layer="71" from-port="0" to-layer="870" to-port="3"/>
		<edge from-layer="72" from-port="0" to-layer="870" to-port="4"/>
		<edge from-layer="872" from-port="0" to-layer="873" to-port="0"/>
		<edge from-layer="873" from-port="1" to-layer="874" to-port="0"/>
		<edge from-layer="871" from-port="0" to-layer="874" to-port="1"/>
		<edge from-layer="870" from-port="5" to-layer="875" to-port="0"/>
		<edge from-layer="874" from-port="2" to-layer="875" to-port="1"/>
		<edge from-layer="876" from-port="0" to-layer="877" to-port="0"/>
		<edge from-layer="875" from-port="2" to-layer="878" to-port="0"/>
		<edge from-layer="877" from-port="1" to-layer="878" to-port="1"/>
		<edge from-layer="878" from-port="2" to-layer="879" to-port="0"/>
		<edge from-layer="879" from-port="1" to-layer="880" to-port="0"/>
		<edge from-layer="65" from-port="0" to-layer="880" to-port="1"/>
		<edge from-layer="66" from-port="0" to-layer="880" to-port="2"/>
		<edge from-layer="67" from-port="0" to-layer="880" to-port="3"/>
		<edge from-layer="68" from-port="0" to-layer="880" to-port="4"/>
		<edge from-layer="882" from-port="0" to-layer="883" to-port="0"/>
		<edge from-layer="883" from-port="1" to-layer="884" to-port="0"/>
		<edge from-layer="881" from-port="0" to-layer="884" to-port="1"/>
		<edge from-layer="880" from-port="5" to-layer="885" to-port="0"/>
		<edge from-layer="884" from-port="2" to-layer="885" to-port="1"/>
		<edge from-layer="886" from-port="0" to-layer="887" to-port="0"/>
		<edge from-layer="885" from-port="2" to-layer="888" to-port="0"/>
		<edge from-layer="887" from-port="1" to-layer="888" to-port="1"/>
		<edge from-layer="888" from-port="2" to-layer="889" to-port="0"/>
		<edge from-layer="889" from-port="1" to-layer="890" to-port="0"/>
		<edge from-layer="61" from-port="0" to-layer="890" to-port="1"/>
		<edge from-layer="62" from-port="0" to-layer="890" to-port="2"/>
		<edge from-layer="63" from-port="0" to-layer="890" to-port="3"/>
		<edge from-layer="64" from-port="0" to-layer="890" to-port="4"/>
		<edge from-layer="890" from-port="5" to-layer="891" to-port="0"/>
		<edge from-layer="868" from-port="5" to-layer="891" to-port="1"/>
		<edge from-layer="891" from-port="2" to-layer="892" to-port="0"/>
		<edge from-layer="892" from-port="1" to-layer="893" to-port="0"/>
		<edge from-layer="57" from-port="0" to-layer="893" to-port="1"/>
		<edge from-layer="58" from-port="0" to-layer="893" to-port="2"/>
		<edge from-layer="59" from-port="0" to-layer="893" to-port="3"/>
		<edge from-layer="60" from-port="0" to-layer="893" to-port="4"/>
		<edge from-layer="895" from-port="0" to-layer="896" to-port="0"/>
		<edge from-layer="896" from-port="1" to-layer="897" to-port="0"/>
		<edge from-layer="894" from-port="0" to-layer="897" to-port="1"/>
		<edge from-layer="893" from-port="5" to-layer="898" to-port="0"/>
		<edge from-layer="897" from-port="2" to-layer="898" to-port="1"/>
		<edge from-layer="899" from-port="0" to-layer="900" to-port="0"/>
		<edge from-layer="898" from-port="2" to-layer="901" to-port="0"/>
		<edge from-layer="900" from-port="1" to-layer="901" to-port="1"/>
		<edge from-layer="901" from-port="2" to-layer="902" to-port="0"/>
		<edge from-layer="53" from-port="0" to-layer="902" to-port="1"/>
		<edge from-layer="54" from-port="0" to-layer="902" to-port="2"/>
		<edge from-layer="55" from-port="0" to-layer="902" to-port="3"/>
		<edge from-layer="56" from-port="0" to-layer="902" to-port="4"/>
		<edge from-layer="904" from-port="0" to-layer="905" to-port="0"/>
		<edge from-layer="905" from-port="1" to-layer="906" to-port="0"/>
		<edge from-layer="903" from-port="0" to-layer="906" to-port="1"/>
		<edge from-layer="902" from-port="5" to-layer="907" to-port="0"/>
		<edge from-layer="906" from-port="2" to-layer="907" to-port="1"/>
		<edge from-layer="908" from-port="0" to-layer="909" to-port="0"/>
		<edge from-layer="907" from-port="2" to-layer="910" to-port="0"/>
		<edge from-layer="909" from-port="1" to-layer="910" to-port="1"/>
		<edge from-layer="910" from-port="2" to-layer="911" to-port="0"/>
		<edge from-layer="911" from-port="1" to-layer="912" to-port="0"/>
		<edge from-layer="49" from-port="0" to-layer="912" to-port="1"/>
		<edge from-layer="50" from-port="0" to-layer="912" to-port="2"/>
		<edge from-layer="51" from-port="0" to-layer="912" to-port="3"/>
		<edge from-layer="52" from-port="0" to-layer="912" to-port="4"/>
		<edge from-layer="915" from-port="0" to-layer="916" to-port="0"/>
		<edge from-layer="916" from-port="1" to-layer="917" to-port="0"/>
		<edge from-layer="914" from-port="0" to-layer="917" to-port="1"/>
		<edge from-layer="917" from-port="2" to-layer="918" to-port="0"/>
		<edge from-layer="913" from-port="0" to-layer="918" to-port="1"/>
		<edge from-layer="912" from-port="5" to-layer="919" to-port="0"/>
		<edge from-layer="918" from-port="2" to-layer="919" to-port="1"/>
		<edge from-layer="920" from-port="0" to-layer="921" to-port="0"/>
		<edge from-layer="919" from-port="2" to-layer="922" to-port="0"/>
		<edge from-layer="921" from-port="1" to-layer="922" to-port="1"/>
		<edge from-layer="922" from-port="2" to-layer="923" to-port="0"/>
		<edge from-layer="45" from-port="0" to-layer="923" to-port="1"/>
		<edge from-layer="46" from-port="0" to-layer="923" to-port="2"/>
		<edge from-layer="47" from-port="0" to-layer="923" to-port="3"/>
		<edge from-layer="48" from-port="0" to-layer="923" to-port="4"/>
		<edge from-layer="923" from-port="5" to-layer="924" to-port="0"/>
		<edge from-layer="924" from-port="1" to-layer="925" to-port="0"/>
		<edge from-layer="41" from-port="0" to-layer="925" to-port="1"/>
		<edge from-layer="42" from-port="0" to-layer="925" to-port="2"/>
		<edge from-layer="43" from-port="0" to-layer="925" to-port="3"/>
		<edge from-layer="44" from-port="0" to-layer="925" to-port="4"/>
		<edge from-layer="927" from-port="0" to-layer="928" to-port="0"/>
		<edge from-layer="928" from-port="1" to-layer="929" to-port="0"/>
		<edge from-layer="926" from-port="0" to-layer="929" to-port="1"/>
		<edge from-layer="925" from-port="5" to-layer="930" to-port="0"/>
		<edge from-layer="929" from-port="2" to-layer="930" to-port="1"/>
		<edge from-layer="931" from-port="0" to-layer="932" to-port="0"/>
		<edge from-layer="930" from-port="2" to-layer="933" to-port="0"/>
		<edge from-layer="932" from-port="1" to-layer="933" to-port="1"/>
		<edge from-layer="933" from-port="2" to-layer="934" to-port="0"/>
		<edge from-layer="934" from-port="1" to-layer="935" to-port="0"/>
		<edge from-layer="37" from-port="0" to-layer="935" to-port="1"/>
		<edge from-layer="38" from-port="0" to-layer="935" to-port="2"/>
		<edge from-layer="39" from-port="0" to-layer="935" to-port="3"/>
		<edge from-layer="40" from-port="0" to-layer="935" to-port="4"/>
		<edge from-layer="937" from-port="0" to-layer="938" to-port="0"/>
		<edge from-layer="938" from-port="1" to-layer="939" to-port="0"/>
		<edge from-layer="936" from-port="0" to-layer="939" to-port="1"/>
		<edge from-layer="935" from-port="5" to-layer="940" to-port="0"/>
		<edge from-layer="939" from-port="2" to-layer="940" to-port="1"/>
		<edge from-layer="941" from-port="0" to-layer="942" to-port="0"/>
		<edge from-layer="940" from-port="2" to-layer="943" to-port="0"/>
		<edge from-layer="942" from-port="1" to-layer="943" to-port="1"/>
		<edge from-layer="943" from-port="2" to-layer="944" to-port="0"/>
		<edge from-layer="944" from-port="1" to-layer="945" to-port="0"/>
		<edge from-layer="33" from-port="0" to-layer="945" to-port="1"/>
		<edge from-layer="34" from-port="0" to-layer="945" to-port="2"/>
		<edge from-layer="35" from-port="0" to-layer="945" to-port="3"/>
		<edge from-layer="36" from-port="0" to-layer="945" to-port="4"/>
		<edge from-layer="945" from-port="5" to-layer="946" to-port="0"/>
		<edge from-layer="923" from-port="5" to-layer="946" to-port="1"/>
		<edge from-layer="946" from-port="2" to-layer="947" to-port="0"/>
		<edge from-layer="947" from-port="1" to-layer="948" to-port="0"/>
		<edge from-layer="29" from-port="0" to-layer="948" to-port="1"/>
		<edge from-layer="30" from-port="0" to-layer="948" to-port="2"/>
		<edge from-layer="31" from-port="0" to-layer="948" to-port="3"/>
		<edge from-layer="32" from-port="0" to-layer="948" to-port="4"/>
		<edge from-layer="950" from-port="0" to-layer="951" to-port="0"/>
		<edge from-layer="951" from-port="1" to-layer="952" to-port="0"/>
		<edge from-layer="949" from-port="0" to-layer="952" to-port="1"/>
		<edge from-layer="948" from-port="5" to-layer="953" to-port="0"/>
		<edge from-layer="952" from-port="2" to-layer="953" to-port="1"/>
		<edge from-layer="954" from-port="0" to-layer="955" to-port="0"/>
		<edge from-layer="953" from-port="2" to-layer="956" to-port="0"/>
		<edge from-layer="955" from-port="1" to-layer="956" to-port="1"/>
		<edge from-layer="956" from-port="2" to-layer="957" to-port="0"/>
		<edge from-layer="25" from-port="0" to-layer="957" to-port="1"/>
		<edge from-layer="26" from-port="0" to-layer="957" to-port="2"/>
		<edge from-layer="27" from-port="0" to-layer="957" to-port="3"/>
		<edge from-layer="28" from-port="0" to-layer="957" to-port="4"/>
		<edge from-layer="987" from-port="0" to-layer="988" to-port="0"/>
		<edge from-layer="988" from-port="1" to-layer="989" to-port="0"/>
		<edge from-layer="986" from-port="0" to-layer="989" to-port="1"/>
		<edge from-layer="957" from-port="5" to-layer="990" to-port="0"/>
		<edge from-layer="989" from-port="2" to-layer="990" to-port="1"/>
		<edge from-layer="991" from-port="0" to-layer="992" to-port="0"/>
		<edge from-layer="990" from-port="2" to-layer="993" to-port="0"/>
		<edge from-layer="992" from-port="1" to-layer="993" to-port="1"/>
		<edge from-layer="993" from-port="2" to-layer="994" to-port="0"/>
		<edge from-layer="994" from-port="1" to-layer="995" to-port="0"/>
		<edge from-layer="982" from-port="0" to-layer="995" to-port="1"/>
		<edge from-layer="983" from-port="0" to-layer="995" to-port="2"/>
		<edge from-layer="984" from-port="0" to-layer="995" to-port="3"/>
		<edge from-layer="985" from-port="0" to-layer="995" to-port="4"/>
		<edge from-layer="998" from-port="0" to-layer="999" to-port="0"/>
		<edge from-layer="999" from-port="1" to-layer="1000" to-port="0"/>
		<edge from-layer="997" from-port="0" to-layer="1000" to-port="1"/>
		<edge from-layer="1000" from-port="2" to-layer="1001" to-port="0"/>
		<edge from-layer="996" from-port="0" to-layer="1001" to-port="1"/>
		<edge from-layer="995" from-port="5" to-layer="1002" to-port="0"/>
		<edge from-layer="1001" from-port="2" to-layer="1002" to-port="1"/>
		<edge from-layer="1003" from-port="0" to-layer="1004" to-port="0"/>
		<edge from-layer="1002" from-port="2" to-layer="1005" to-port="0"/>
		<edge from-layer="1004" from-port="1" to-layer="1005" to-port="1"/>
		<edge from-layer="1005" from-port="2" to-layer="1006" to-port="0"/>
		<edge from-layer="978" from-port="0" to-layer="1006" to-port="1"/>
		<edge from-layer="979" from-port="0" to-layer="1006" to-port="2"/>
		<edge from-layer="980" from-port="0" to-layer="1006" to-port="3"/>
		<edge from-layer="981" from-port="0" to-layer="1006" to-port="4"/>
		<edge from-layer="1006" from-port="5" to-layer="1007" to-port="0"/>
		<edge from-layer="1007" from-port="1" to-layer="1008" to-port="0"/>
		<edge from-layer="974" from-port="0" to-layer="1008" to-port="1"/>
		<edge from-layer="975" from-port="0" to-layer="1008" to-port="2"/>
		<edge from-layer="976" from-port="0" to-layer="1008" to-port="3"/>
		<edge from-layer="977" from-port="0" to-layer="1008" to-port="4"/>
		<edge from-layer="1010" from-port="0" to-layer="1011" to-port="0"/>
		<edge from-layer="1011" from-port="1" to-layer="1012" to-port="0"/>
		<edge from-layer="1009" from-port="0" to-layer="1012" to-port="1"/>
		<edge from-layer="1008" from-port="5" to-layer="1013" to-port="0"/>
		<edge from-layer="1012" from-port="2" to-layer="1013" to-port="1"/>
		<edge from-layer="1014" from-port="0" to-layer="1015" to-port="0"/>
		<edge from-layer="1013" from-port="2" to-layer="1016" to-port="0"/>
		<edge from-layer="1015" from-port="1" to-layer="1016" to-port="1"/>
		<edge from-layer="1016" from-port="2" to-layer="1017" to-port="0"/>
		<edge from-layer="1017" from-port="1" to-layer="1018" to-port="0"/>
		<edge from-layer="970" from-port="0" to-layer="1018" to-port="1"/>
		<edge from-layer="971" from-port="0" to-layer="1018" to-port="2"/>
		<edge from-layer="972" from-port="0" to-layer="1018" to-port="3"/>
		<edge from-layer="973" from-port="0" to-layer="1018" to-port="4"/>
		<edge from-layer="1020" from-port="0" to-layer="1021" to-port="0"/>
		<edge from-layer="1021" from-port="1" to-layer="1022" to-port="0"/>
		<edge from-layer="1019" from-port="0" to-layer="1022" to-port="1"/>
		<edge from-layer="1018" from-port="5" to-layer="1023" to-port="0"/>
		<edge from-layer="1022" from-port="2" to-layer="1023" to-port="1"/>
		<edge from-layer="1024" from-port="0" to-layer="1025" to-port="0"/>
		<edge from-layer="1023" from-port="2" to-layer="1026" to-port="0"/>
		<edge from-layer="1025" from-port="1" to-layer="1026" to-port="1"/>
		<edge from-layer="1026" from-port="2" to-layer="1027" to-port="0"/>
		<edge from-layer="1027" from-port="1" to-layer="1028" to-port="0"/>
		<edge from-layer="966" from-port="0" to-layer="1028" to-port="1"/>
		<edge from-layer="967" from-port="0" to-layer="1028" to-port="2"/>
		<edge from-layer="968" from-port="0" to-layer="1028" to-port="3"/>
		<edge from-layer="969" from-port="0" to-layer="1028" to-port="4"/>
		<edge from-layer="1028" from-port="5" to-layer="1029" to-port="0"/>
		<edge from-layer="1006" from-port="5" to-layer="1029" to-port="1"/>
		<edge from-layer="1029" from-port="2" to-layer="1030" to-port="0"/>
		<edge from-layer="1030" from-port="1" to-layer="1031" to-port="0"/>
		<edge from-layer="962" from-port="0" to-layer="1031" to-port="1"/>
		<edge from-layer="963" from-port="0" to-layer="1031" to-port="2"/>
		<edge from-layer="964" from-port="0" to-layer="1031" to-port="3"/>
		<edge from-layer="965" from-port="0" to-layer="1031" to-port="4"/>
		<edge from-layer="1033" from-port="0" to-layer="1034" to-port="0"/>
		<edge from-layer="1034" from-port="1" to-layer="1035" to-port="0"/>
		<edge from-layer="1032" from-port="0" to-layer="1035" to-port="1"/>
		<edge from-layer="1031" from-port="5" to-layer="1036" to-port="0"/>
		<edge from-layer="1035" from-port="2" to-layer="1036" to-port="1"/>
		<edge from-layer="1037" from-port="0" to-layer="1038" to-port="0"/>
		<edge from-layer="1036" from-port="2" to-layer="1039" to-port="0"/>
		<edge from-layer="1038" from-port="1" to-layer="1039" to-port="1"/>
		<edge from-layer="1039" from-port="2" to-layer="1040" to-port="0"/>
		<edge from-layer="958" from-port="0" to-layer="1040" to-port="1"/>
		<edge from-layer="959" from-port="0" to-layer="1040" to-port="2"/>
		<edge from-layer="960" from-port="0" to-layer="1040" to-port="3"/>
		<edge from-layer="961" from-port="0" to-layer="1040" to-port="4"/>
		<edge from-layer="957" from-port="5" to-layer="1041" to-port="0"/>
		<edge from-layer="1040" from-port="5" to-layer="1041" to-port="1"/>
		<edge from-layer="1041" from-port="2" to-layer="1042" to-port="0"/>
		<edge from-layer="21" from-port="0" to-layer="1042" to-port="1"/>
		<edge from-layer="22" from-port="0" to-layer="1042" to-port="2"/>
		<edge from-layer="23" from-port="0" to-layer="1042" to-port="3"/>
		<edge from-layer="24" from-port="0" to-layer="1042" to-port="4"/>
		<edge from-layer="1044" from-port="0" to-layer="1045" to-port="0"/>
		<edge from-layer="1045" from-port="1" to-layer="1046" to-port="0"/>
		<edge from-layer="1043" from-port="0" to-layer="1046" to-port="1"/>
		<edge from-layer="1042" from-port="5" to-layer="1047" to-port="0"/>
		<edge from-layer="1046" from-port="2" to-layer="1047" to-port="1"/>
		<edge from-layer="1048" from-port="0" to-layer="1049" to-port="0"/>
		<edge from-layer="1047" from-port="2" to-layer="1050" to-port="0"/>
		<edge from-layer="1049" from-port="1" to-layer="1050" to-port="1"/>
		<edge from-layer="1050" from-port="2" to-layer="1051" to-port="0"/>
		<edge from-layer="1051" from-port="1" to-layer="1052" to-port="0"/>
		<edge from-layer="17" from-port="0" to-layer="1052" to-port="1"/>
		<edge from-layer="18" from-port="0" to-layer="1052" to-port="2"/>
		<edge from-layer="19" from-port="0" to-layer="1052" to-port="3"/>
		<edge from-layer="20" from-port="0" to-layer="1052" to-port="4"/>
		<edge from-layer="1052" from-port="5" to-layer="1053" to-port="0"/>
		<edge from-layer="1053" from-port="1" to-layer="1054" to-port="0"/>
		<edge from-layer="13" from-port="0" to-layer="1054" to-port="1"/>
		<edge from-layer="14" from-port="0" to-layer="1054" to-port="2"/>
		<edge from-layer="15" from-port="0" to-layer="1054" to-port="3"/>
		<edge from-layer="16" from-port="0" to-layer="1054" to-port="4"/>
		<edge from-layer="1056" from-port="0" to-layer="1057" to-port="0"/>
		<edge from-layer="1057" from-port="1" to-layer="1058" to-port="0"/>
		<edge from-layer="1055" from-port="0" to-layer="1058" to-port="1"/>
		<edge from-layer="1054" from-port="5" to-layer="1059" to-port="0"/>
		<edge from-layer="1058" from-port="2" to-layer="1059" to-port="1"/>
		<edge from-layer="1060" from-port="0" to-layer="1061" to-port="0"/>
		<edge from-layer="1059" from-port="2" to-layer="1062" to-port="0"/>
		<edge from-layer="1061" from-port="1" to-layer="1062" to-port="1"/>
		<edge from-layer="1062" from-port="2" to-layer="1063" to-port="0"/>
		<edge from-layer="9" from-port="0" to-layer="1063" to-port="1"/>
		<edge from-layer="10" from-port="0" to-layer="1063" to-port="2"/>
		<edge from-layer="11" from-port="0" to-layer="1063" to-port="3"/>
		<edge from-layer="12" from-port="0" to-layer="1063" to-port="4"/>
		<edge from-layer="1063" from-port="5" to-layer="1064" to-port="0"/>
		<edge from-layer="8" from-port="0" to-layer="1064" to-port="1"/>
		<edge from-layer="1065" from-port="0" to-layer="1066" to-port="0"/>
		<edge from-layer="1064" from-port="2" to-layer="1067" to-port="0"/>
		<edge from-layer="1066" from-port="1" to-layer="1067" to-port="1"/>
		<edge from-layer="1067" from-port="2" to-layer="1069" to-port="0"/>
		<edge from-layer="1068" from-port="0" to-layer="1069" to-port="1"/>
		<edge from-layer="1069" from-port="2" to-layer="1070" to-port="0"/>
		<edge from-layer="1070" from-port="1" to-layer="1071" to-port="0"/>
		<edge from-layer="4" from-port="0" to-layer="1071" to-port="1"/>
		<edge from-layer="5" from-port="0" to-layer="1071" to-port="2"/>
		<edge from-layer="6" from-port="0" to-layer="1071" to-port="3"/>
		<edge from-layer="7" from-port="0" to-layer="1071" to-port="4"/>
		<edge from-layer="1064" from-port="2" to-layer="1072" to-port="0"/>
		<edge from-layer="1071" from-port="5" to-layer="1072" to-port="1"/>
		<edge from-layer="1072" from-port="2" to-layer="1073" to-port="0"/>
		<edge from-layer="0" from-port="0" to-layer="1073" to-port="1"/>
		<edge from-layer="1" from-port="0" to-layer="1073" to-port="2"/>
		<edge from-layer="2" from-port="0" to-layer="1073" to-port="3"/>
		<edge from-layer="3" from-port="0" to-layer="1073" to-port="4"/>
		<edge from-layer="1075" from-port="0" to-layer="1076" to-port="0"/>
		<edge from-layer="1076" from-port="1" to-layer="1077" to-port="0"/>
		<edge from-layer="1077" from-port="1" to-layer="1080" to-port="0"/>
		<edge from-layer="1078" from-port="0" to-layer="1080" to-port="1"/>
		<edge from-layer="1079" from-port="0" to-layer="1080" to-port="2"/>
		<edge from-layer="1074" from-port="0" to-layer="1081" to-port="0"/>
		<edge from-layer="1080" from-port="3" to-layer="1081" to-port="1"/>
		<edge from-layer="1073" from-port="5" to-layer="1082" to-port="0"/>
		<edge from-layer="1081" from-port="2" to-layer="1082" to-port="1"/>
		<edge from-layer="1084" from-port="0" to-layer="1085" to-port="0"/>
		<edge from-layer="1085" from-port="1" to-layer="1086" to-port="0"/>
		<edge from-layer="1083" from-port="0" to-layer="1086" to-port="1"/>
		<edge from-layer="1082" from-port="2" to-layer="1087" to-port="0"/>
		<edge from-layer="1086" from-port="2" to-layer="1087" to-port="1"/>
		<edge from-layer="1087" from-port="2" to-layer="1088" to-port="0"/>
	</edges>
	<rt_info>
		<MO_version value="custom_HEAD_0250f62d11102ae97a35803756f079090876ddc1"/>
		<Runtime_version value="2023.0.0-10367-0250f62d111-HEAD"/>
		<conversion_parameters>
			<framework value="onnx"/>
			<input value="input"/>
			<input_model value="DIR/v36_e65.onnx"/>
			<input_shape value="[1,3,8,224,224]"/>
			<layout value="input(ncdhw)"/>
			<mean_values value="input[123.675,116.28,103.53]"/>
			<model_name value="common-sign-language-0002"/>
			<output value="output"/>
			<output_dir value="DIR"/>
			<scale_values value="input[58.395,57.12,57.375]"/>
		</conversion_parameters>
		<legacy_frontend value="False"/>
		<quantization_parameters>
			<cli_params>
				<ac_config value="None"/>
				<data_source value="None"/>
				<direct_dump value="True"/>
				<engine value="None"/>
				<evaluate value="False"/>
				<keep_uncompressed_weights value="False"/>
				<log_level value="INFO"/>
				<max_drop value="None"/>
				<model value="None"/>
				<name value="None"/>
				<output_dir value="PATH"/>
				<pbar value="False"/>
				<preset value="None"/>
				<quantize value="None"/>
				<stream_output value="False"/>
				<weights value="None"/>
			</cli_params>
			<config value="{
		'compression': {
			'algorithms': [
				{
					'name': 'AccuracyAwareQuantization',
					'params': {
						'drop_type': 'relative',
						'max_iter_num': 20,
						'maximal_drop': 0.01,
						'metric_subset_ratio': 0.2,
						'preset': 'performance',
						'stat_subset_size': 300,
						'tune_hyperparams': true
					}
				}
			],
			'dump_intermediate_model': true,
			'target_device': 'ANY'
		},
		'engine': {
			'models': [
				{
					'name': 'common-sign-language-0002',
					'launchers': [
						{
							'framework': 'openvino',
							'adapter': 'classification',
							'inputs': [
								{
									'type': 'INPUT',
									'name': 'input',
									'layout': 'NCDHW'
								}
							],
							'device': 'cpu'
						}
					],
					'datasets': [
						{
							'name': 'common_sign_language_gestures',
							'data_source': 'PATH',
							'annotation_conversion': {
								'converter': 'continuous_clip_action_recognition',
								'annotation_file': 'PATH',
								'data_dir': 'PATH',
								'out_fps': 15,
								'clip_length': 8,
								'img_prefix': ''
							},
							'annotation': 'PATH',
							'preprocessing': [
								{
									'type': 'resize',
									'size': 256,
									'aspect_ratio_scale': 'greater'
								},
								{
									'type': 'crop',
									'size': 224
								},
								{
									'type': 'bgr_to_rgb'
								}
							],
							'metrics': [
								{
									'type': 'accuracy',
									'name': 'rank@1',
									'top_k': 1,
									'reference': 0.98
								}
							],
							'_command_line_mapping': {
								'annotation_file': 'PATH',
								'data_dir': 'PATH'
							}
						}
					]
				}
			],
			'stat_requests_number': null,
			'eval_requests_number': null,
			'type': 'accuracy_checker'
		}
	}"/>
			<version value="invalid version"/>
		</quantization_parameters>
	</rt_info>
	<quantization_parameters>
		<config>{
		'compression': {
			'algorithms': [
				{
					'name': 'AccuracyAwareQuantization',
					'params': {
						'drop_type': 'relative',
						'max_iter_num': 20,
						'maximal_drop': 0.01,
						'metric_subset_ratio': 0.2,
						'preset': 'performance',
						'stat_subset_size': 300,
						'tune_hyperparams': true
					}
				}
			],
			'dump_intermediate_model': true,
			'target_device': 'ANY'
		},
		'engine': {
			'models': [
				{
					'name': 'common-sign-language-0002',
					'launchers': [
						{
							'framework': 'openvino',
							'adapter': 'classification',
							'inputs': [
								{
									'type': 'INPUT',
									'name': 'input',
									'layout': 'NCDHW'
								}
							],
							'device': 'cpu'
						}
					],
					'datasets': [
						{
							'name': 'common_sign_language_gestures',
							'data_source': 'PATH',
							'annotation_conversion': {
								'converter': 'continuous_clip_action_recognition',
								'annotation_file': 'PATH',
								'data_dir': 'PATH',
								'out_fps': 15,
								'clip_length': 8,
								'img_prefix': ''
							},
							'annotation': 'PATH',
							'preprocessing': [
								{
									'type': 'resize',
									'size': 256,
									'aspect_ratio_scale': 'greater'
								},
								{
									'type': 'crop',
									'size': 224
								},
								{
									'type': 'bgr_to_rgb'
								}
							],
							'metrics': [
								{
									'type': 'accuracy',
									'name': 'rank@1',
									'top_k': 1,
									'reference': 0.98
								}
							],
							'_command_line_mapping': {
								'annotation_file': 'PATH',
								'data_dir': 'PATH'
							}
						}
					]
				}
			],
			'stat_requests_number': null,
			'eval_requests_number': null,
			'type': 'accuracy_checker'
		}
	}</config>
		<version value="invalid version"/>
		<cli_params value="{'quantize': None, 'preset': None, 'model': None, 'weights': None, 'name': None, 'engine': None, 'ac_config': None, 'max_drop': None, 'evaluate': False, 'output_dir': 'PATH', 'direct_dump': True, 'log_level': 'INFO', 'pbar': False, 'stream_output': False, 'keep_uncompressed_weights': False, 'data_source': None}"/>
	</quantization_parameters>
</net>
