<?xml version="1.0" ?>
<net name="torch-jit-export" version="11">
	<layers>
		<layer id="114" name="image" type="Parameter" version="opset1">
			<data shape="1,3,320,320" element_type="f32"/>
			<rt_info>
				<attribute name="old_api_map_element_type" version="0" value="f16"/>
			</rt_info>
			<output>
				<port id="0" precision="FP32" names="image">
					<dim>1</dim>
					<dim>3</dim>
					<dim>320</dim>
					<dim>320</dim>
					<rt_info>
						<attribute name="layout" version="0" layout="[N,C,H,W]"/>
					</rt_info>
				</port>
			</output>
		</layer>
		<layer id="0" name="8398840236505" type="Const" version="opset1">
			<data offset="0" size="4" shape="" element_type="f32"/>
			<output>
				<port id="0" precision="FP32"/>
			</output>
		</layer>
		<layer id="1" name="8399840337699" type="Const" version="opset1">
			<data offset="4" size="4" shape="" element_type="f32"/>
			<output>
				<port id="0" precision="FP32"/>
			</output>
		</layer>
		<layer id="2" name="8400840436223" type="Const" version="opset1">
			<data offset="0" size="4" shape="" element_type="f32"/>
			<output>
				<port id="0" precision="FP32"/>
			</output>
		</layer>
		<layer id="3" name="8401840536703" type="Const" version="opset1">
			<data offset="4" size="4" shape="" element_type="f32"/>
			<output>
				<port id="0" precision="FP32"/>
			</output>
		</layer>
		<layer id="4" name="Constant_6737274537195" type="Const" version="opset1">
			<data offset="8" size="16" shape="2" element_type="i64"/>
			<output>
				<port id="0" precision="I64">
					<dim>2</dim>
				</port>
			</output>
		</layer>
		<layer id="5" name="8388839240030" type="Const" version="opset1">
			<data offset="24" size="4" shape="" element_type="f32"/>
			<output>
				<port id="0" precision="FP32"/>
			</output>
		</layer>
		<layer id="6" name="8389839337894" type="Const" version="opset1">
			<data offset="28" size="4" shape="" element_type="f32"/>
			<output>
				<port id="0" precision="FP32"/>
			</output>
		</layer>
		<layer id="7" name="8390839438677" type="Const" version="opset1">
			<data offset="24" size="4" shape="" element_type="f32"/>
			<output>
				<port id="0" precision="FP32"/>
			</output>
		</layer>
		<layer id="8" name="8391839537540" type="Const" version="opset1">
			<data offset="28" size="4" shape="" element_type="f32"/>
			<output>
				<port id="0" precision="FP32"/>
			</output>
		</layer>
		<layer id="9" name="5277527939460" type="Const" version="opset1">
			<data offset="32" size="128" shape="1,32,1,1" element_type="f32"/>
			<output>
				<port id="0" precision="FP32">
					<dim>1</dim>
					<dim>32</dim>
					<dim>1</dim>
					<dim>1</dim>
				</port>
			</output>
		</layer>
		<layer id="10" name="7168717239874" type="Const" version="opset1">
			<data offset="0" size="4" shape="" element_type="f32"/>
			<output>
				<port id="0" precision="FP32"/>
			</output>
		</layer>
		<layer id="11" name="7169717338446" type="Const" version="opset1">
			<data offset="160" size="4" shape="" element_type="f32"/>
			<output>
				<port id="0" precision="FP32"/>
			</output>
		</layer>
		<layer id="12" name="7170717439559" type="Const" version="opset1">
			<data offset="0" size="4" shape="" element_type="f32"/>
			<output>
				<port id="0" precision="FP32"/>
			</output>
		</layer>
		<layer id="13" name="7171717538782" type="Const" version="opset1">
			<data offset="160" size="4" shape="" element_type="f32"/>
			<output>
				<port id="0" precision="FP32"/>
			</output>
		</layer>
		<layer id="14" name="Constant_6640273339325" type="Const" version="opset1">
			<data offset="8" size="16" shape="2" element_type="i64"/>
			<output>
				<port id="0" precision="I64">
					<dim>2</dim>
				</port>
			</output>
		</layer>
		<layer id="15" name="7908791238770" type="Const" version="opset1">
			<data offset="164" size="4" shape="" element_type="f32"/>
			<output>
				<port id="0" precision="FP32"/>
			</output>
		</layer>
		<layer id="16" name="7909791338323" type="Const" version="opset1">
			<data offset="168" size="4" shape="" element_type="f32"/>
			<output>
				<port id="0" precision="FP32"/>
			</output>
		</layer>
		<layer id="17" name="7910791436787" type="Const" version="opset1">
			<data offset="164" size="4" shape="" element_type="f32"/>
			<output>
				<port id="0" precision="FP32"/>
			</output>
		</layer>
		<layer id="18" name="7911791538311" type="Const" version="opset1">
			<data offset="168" size="4" shape="" element_type="f32"/>
			<output>
				<port id="0" precision="FP32"/>
			</output>
		</layer>
		<layer id="19" name="5273527537033" type="Const" version="opset1">
			<data offset="32" size="128" shape="1,32,1,1" element_type="f32"/>
			<output>
				<port id="0" precision="FP32">
					<dim>1</dim>
					<dim>32</dim>
					<dim>1</dim>
					<dim>1</dim>
				</port>
			</output>
		</layer>
		<layer id="20" name="8928893237240" type="Const" version="opset1">
			<data offset="0" size="4" shape="" element_type="f32"/>
			<output>
				<port id="0" precision="FP32"/>
			</output>
		</layer>
		<layer id="21" name="8929893340303" type="Const" version="opset1">
			<data offset="172" size="4" shape="" element_type="f32"/>
			<output>
				<port id="0" precision="FP32"/>
			</output>
		</layer>
		<layer id="22" name="8930893437177" type="Const" version="opset1">
			<data offset="0" size="4" shape="" element_type="f32"/>
			<output>
				<port id="0" precision="FP32"/>
			</output>
		</layer>
		<layer id="23" name="8931893537654" type="Const" version="opset1">
			<data offset="172" size="4" shape="" element_type="f32"/>
			<output>
				<port id="0" precision="FP32"/>
			</output>
		</layer>
		<layer id="24" name="Constant_6543272136700" type="Const" version="opset1">
			<data offset="8" size="16" shape="2" element_type="i64"/>
			<output>
				<port id="0" precision="I64">
					<dim>2</dim>
				</port>
			</output>
		</layer>
		<layer id="25" name="9068907237270" type="Const" version="opset1">
			<data offset="176" size="4" shape="" element_type="f32"/>
			<output>
				<port id="0" precision="FP32"/>
			</output>
		</layer>
		<layer id="26" name="9069907337339" type="Const" version="opset1">
			<data offset="180" size="4" shape="" element_type="f32"/>
			<output>
				<port id="0" precision="FP32"/>
			</output>
		</layer>
		<layer id="27" name="9070907440000" type="Const" version="opset1">
			<data offset="176" size="4" shape="" element_type="f32"/>
			<output>
				<port id="0" precision="FP32"/>
			</output>
		</layer>
		<layer id="28" name="9071907540291" type="Const" version="opset1">
			<data offset="180" size="4" shape="" element_type="f32"/>
			<output>
				<port id="0" precision="FP32"/>
			</output>
		</layer>
		<layer id="29" name="5269527139868" type="Const" version="opset1">
			<data offset="32" size="128" shape="1,32,1,1" element_type="f32"/>
			<output>
				<port id="0" precision="FP32">
					<dim>1</dim>
					<dim>32</dim>
					<dim>1</dim>
					<dim>1</dim>
				</port>
			</output>
		</layer>
		<layer id="30" name="7528753237252" type="Const" version="opset1">
			<data offset="0" size="4" shape="" element_type="f32"/>
			<output>
				<port id="0" precision="FP32"/>
			</output>
		</layer>
		<layer id="31" name="7529753338752" type="Const" version="opset1">
			<data offset="184" size="4" shape="" element_type="f32"/>
			<output>
				<port id="0" precision="FP32"/>
			</output>
		</layer>
		<layer id="32" name="7530753438635" type="Const" version="opset1">
			<data offset="0" size="4" shape="" element_type="f32"/>
			<output>
				<port id="0" precision="FP32"/>
			</output>
		</layer>
		<layer id="33" name="7531753536796" type="Const" version="opset1">
			<data offset="184" size="4" shape="" element_type="f32"/>
			<output>
				<port id="0" precision="FP32"/>
			</output>
		</layer>
		<layer id="34" name="Constant_6446270937768" type="Const" version="opset1">
			<data offset="8" size="16" shape="2" element_type="i64"/>
			<output>
				<port id="0" precision="I64">
					<dim>2</dim>
				</port>
			</output>
		</layer>
		<layer id="35" name="8338834239277" type="Const" version="opset1">
			<data offset="188" size="4" shape="" element_type="f32"/>
			<output>
				<port id="0" precision="FP32"/>
			</output>
		</layer>
		<layer id="36" name="8339834337672" type="Const" version="opset1">
			<data offset="192" size="4" shape="" element_type="f32"/>
			<output>
				<port id="0" precision="FP32"/>
			</output>
		</layer>
		<layer id="37" name="8340834436841" type="Const" version="opset1">
			<data offset="188" size="4" shape="" element_type="f32"/>
			<output>
				<port id="0" precision="FP32"/>
			</output>
		</layer>
		<layer id="38" name="8341834537003" type="Const" version="opset1">
			<data offset="192" size="4" shape="" element_type="f32"/>
			<output>
				<port id="0" precision="FP32"/>
			</output>
		</layer>
		<layer id="39" name="5265526736517" type="Const" version="opset1">
			<data offset="32" size="128" shape="1,32,1,1" element_type="f32"/>
			<output>
				<port id="0" precision="FP32">
					<dim>1</dim>
					<dim>32</dim>
					<dim>1</dim>
					<dim>1</dim>
				</port>
			</output>
		</layer>
		<layer id="40" name="7688769238896" type="Const" version="opset1">
			<data offset="196" size="4" shape="" element_type="f32"/>
			<output>
				<port id="0" precision="FP32"/>
			</output>
		</layer>
		<layer id="41" name="7689769337237" type="Const" version="opset1">
			<data offset="200" size="4" shape="" element_type="f32"/>
			<output>
				<port id="0" precision="FP32"/>
			</output>
		</layer>
		<layer id="42" name="7690769437174" type="Const" version="opset1">
			<data offset="196" size="4" shape="" element_type="f32"/>
			<output>
				<port id="0" precision="FP32"/>
			</output>
		</layer>
		<layer id="43" name="7691769538668" type="Const" version="opset1">
			<data offset="200" size="4" shape="" element_type="f32"/>
			<output>
				<port id="0" precision="FP32"/>
			</output>
		</layer>
		<layer id="44" name="9488949240096" type="Const" version="opset1">
			<data offset="204" size="4" shape="" element_type="f32"/>
			<output>
				<port id="0" precision="FP32"/>
			</output>
		</layer>
		<layer id="45" name="9489949338485" type="Const" version="opset1">
			<data offset="208" size="4" shape="" element_type="f32"/>
			<output>
				<port id="0" precision="FP32"/>
			</output>
		</layer>
		<layer id="46" name="9490949438245" type="Const" version="opset1">
			<data offset="204" size="4" shape="" element_type="f32"/>
			<output>
				<port id="0" precision="FP32"/>
			</output>
		</layer>
		<layer id="47" name="9491949539061" type="Const" version="opset1">
			<data offset="208" size="4" shape="" element_type="f32"/>
			<output>
				<port id="0" precision="FP32"/>
			</output>
		</layer>
		<layer id="48" name="7258726237087" type="Const" version="opset1">
			<data offset="212" size="4" shape="" element_type="f32"/>
			<output>
				<port id="0" precision="FP32"/>
			</output>
		</layer>
		<layer id="49" name="7259726337267" type="Const" version="opset1">
			<data offset="216" size="4" shape="" element_type="f32"/>
			<output>
				<port id="0" precision="FP32"/>
			</output>
		</layer>
		<layer id="50" name="7260726437309" type="Const" version="opset1">
			<data offset="212" size="4" shape="" element_type="f32"/>
			<output>
				<port id="0" precision="FP32"/>
			</output>
		</layer>
		<layer id="51" name="7261726537774" type="Const" version="opset1">
			<data offset="216" size="4" shape="" element_type="f32"/>
			<output>
				<port id="0" precision="FP32"/>
			</output>
		</layer>
		<layer id="52" name="117271173137840" type="Const" version="opset1">
			<data offset="0" size="4" shape="" element_type="f32"/>
			<output>
				<port id="0" precision="FP32"/>
			</output>
		</layer>
		<layer id="53" name="117281173240390" type="Const" version="opset1">
			<data offset="220" size="4" shape="" element_type="f32"/>
			<output>
				<port id="0" precision="FP32"/>
			</output>
		</layer>
		<layer id="54" name="117291173340228" type="Const" version="opset1">
			<data offset="0" size="4" shape="" element_type="f32"/>
			<output>
				<port id="0" precision="FP32"/>
			</output>
		</layer>
		<layer id="55" name="117301173438332" type="Const" version="opset1">
			<data offset="220" size="4" shape="" element_type="f32"/>
			<output>
				<port id="0" precision="FP32"/>
			</output>
		</layer>
		<layer id="56" name="8908891239073" type="Const" version="opset1">
			<data offset="224" size="4" shape="" element_type="f32"/>
			<output>
				<port id="0" precision="FP32"/>
			</output>
		</layer>
		<layer id="57" name="8909891336268" type="Const" version="opset1">
			<data offset="228" size="4" shape="" element_type="f32"/>
			<output>
				<port id="0" precision="FP32"/>
			</output>
		</layer>
		<layer id="58" name="8910891440324" type="Const" version="opset1">
			<data offset="224" size="4" shape="" element_type="f32"/>
			<output>
				<port id="0" precision="FP32"/>
			</output>
		</layer>
		<layer id="59" name="8911891537933" type="Const" version="opset1">
			<data offset="228" size="4" shape="" element_type="f32"/>
			<output>
				<port id="0" precision="FP32"/>
			</output>
		</layer>
		<layer id="60" name="9198920237387" type="Const" version="opset1">
			<data offset="232" size="232" shape="1,58,1,1" element_type="f32"/>
			<output>
				<port id="0" precision="FP32">
					<dim>1</dim>
					<dim>58</dim>
					<dim>1</dim>
					<dim>1</dim>
				</port>
			</output>
		</layer>
		<layer id="61" name="9199920338665" type="Const" version="opset1">
			<data offset="464" size="232" shape="1,58,1,1" element_type="f32"/>
			<output>
				<port id="0" precision="FP32">
					<dim>1</dim>
					<dim>58</dim>
					<dim>1</dim>
					<dim>1</dim>
				</port>
			</output>
		</layer>
		<layer id="62" name="9200920438482" type="Const" version="opset1">
			<data offset="232" size="232" shape="1,58,1,1" element_type="f32"/>
			<output>
				<port id="0" precision="FP32">
					<dim>1</dim>
					<dim>58</dim>
					<dim>1</dim>
					<dim>1</dim>
				</port>
			</output>
		</layer>
		<layer id="63" name="9201920536832" type="Const" version="opset1">
			<data offset="464" size="232" shape="1,58,1,1" element_type="f32"/>
			<output>
				<port id="0" precision="FP32">
					<dim>1</dim>
					<dim>58</dim>
					<dim>1</dim>
					<dim>1</dim>
				</port>
			</output>
		</layer>
		<layer id="64" name="Constant_1360203939088" type="Const" version="opset1">
			<data offset="696" size="8" shape="" element_type="i64"/>
			<output>
				<port id="0" precision="I64"/>
			</output>
		</layer>
		<layer id="65" name="Constant_1361204037006" type="Const" version="opset1">
			<data offset="704" size="16" shape="2" element_type="i64"/>
			<output>
				<port id="0" precision="I64">
					<dim>2</dim>
				</port>
			</output>
		</layer>
		<layer id="66" name="117871179137990" type="Const" version="opset1">
			<data offset="0" size="4" shape="" element_type="f32"/>
			<output>
				<port id="0" precision="FP32"/>
			</output>
		</layer>
		<layer id="67" name="117881179236889" type="Const" version="opset1">
			<data offset="720" size="4" shape="" element_type="f32"/>
			<output>
				<port id="0" precision="FP32"/>
			</output>
		</layer>
		<layer id="68" name="117891179337048" type="Const" version="opset1">
			<data offset="0" size="4" shape="" element_type="f32"/>
			<output>
				<port id="0" precision="FP32"/>
			</output>
		</layer>
		<layer id="69" name="117901179439322" type="Const" version="opset1">
			<data offset="720" size="4" shape="" element_type="f32"/>
			<output>
				<port id="0" precision="FP32"/>
			</output>
		</layer>
		<layer id="70" name="7278728237027" type="Const" version="opset1">
			<data offset="724" size="4" shape="" element_type="f32"/>
			<output>
				<port id="0" precision="FP32"/>
			</output>
		</layer>
		<layer id="71" name="7279728339856" type="Const" version="opset1">
			<data offset="728" size="4" shape="" element_type="f32"/>
			<output>
				<port id="0" precision="FP32"/>
			</output>
		</layer>
		<layer id="72" name="7280728437300" type="Const" version="opset1">
			<data offset="724" size="4" shape="" element_type="f32"/>
			<output>
				<port id="0" precision="FP32"/>
			</output>
		</layer>
		<layer id="73" name="7281728537081" type="Const" version="opset1">
			<data offset="728" size="4" shape="" element_type="f32"/>
			<output>
				<port id="0" precision="FP32"/>
			</output>
		</layer>
		<layer id="74" name="9218922236391" type="Const" version="opset1">
			<data offset="232" size="232" shape="1,58,1,1" element_type="f32"/>
			<output>
				<port id="0" precision="FP32">
					<dim>1</dim>
					<dim>58</dim>
					<dim>1</dim>
					<dim>1</dim>
				</port>
			</output>
		</layer>
		<layer id="75" name="9219922340153" type="Const" version="opset1">
			<data offset="732" size="232" shape="1,58,1,1" element_type="f32"/>
			<output>
				<port id="0" precision="FP32">
					<dim>1</dim>
					<dim>58</dim>
					<dim>1</dim>
					<dim>1</dim>
				</port>
			</output>
		</layer>
		<layer id="76" name="9220922438836" type="Const" version="opset1">
			<data offset="232" size="232" shape="1,58,1,1" element_type="f32"/>
			<output>
				<port id="0" precision="FP32">
					<dim>1</dim>
					<dim>58</dim>
					<dim>1</dim>
					<dim>1</dim>
				</port>
			</output>
		</layer>
		<layer id="77" name="9221922538785" type="Const" version="opset1">
			<data offset="732" size="232" shape="1,58,1,1" element_type="f32"/>
			<output>
				<port id="0" precision="FP32">
					<dim>1</dim>
					<dim>58</dim>
					<dim>1</dim>
					<dim>1</dim>
				</port>
			</output>
		</layer>
		<layer id="78" name="Constant_1043199638560" type="Const" version="opset1">
			<data offset="696" size="8" shape="" element_type="i64"/>
			<output>
				<port id="0" precision="I64"/>
			</output>
		</layer>
		<layer id="79" name="Constant_1044199737762" type="Const" version="opset1">
			<data offset="704" size="16" shape="2" element_type="i64"/>
			<output>
				<port id="0" precision="I64">
					<dim>2</dim>
				</port>
			</output>
		</layer>
		<layer id="80" name="118471185136574" type="Const" version="opset1">
			<data offset="0" size="4" shape="" element_type="f32"/>
			<output>
				<port id="0" precision="FP32"/>
			</output>
		</layer>
		<layer id="81" name="118481185237579" type="Const" version="opset1">
			<data offset="964" size="4" shape="" element_type="f32"/>
			<output>
				<port id="0" precision="FP32"/>
			</output>
		</layer>
		<layer id="82" name="118491185336466" type="Const" version="opset1">
			<data offset="0" size="4" shape="" element_type="f32"/>
			<output>
				<port id="0" precision="FP32"/>
			</output>
		</layer>
		<layer id="83" name="118501185437633" type="Const" version="opset1">
			<data offset="964" size="4" shape="" element_type="f32"/>
			<output>
				<port id="0" precision="FP32"/>
			</output>
		</layer>
		<layer id="84" name="8978898238845" type="Const" version="opset1">
			<data offset="968" size="4" shape="" element_type="f32"/>
			<output>
				<port id="0" precision="FP32"/>
			</output>
		</layer>
		<layer id="85" name="8979898338980" type="Const" version="opset1">
			<data offset="972" size="4" shape="" element_type="f32"/>
			<output>
				<port id="0" precision="FP32"/>
			</output>
		</layer>
		<layer id="86" name="8980898438776" type="Const" version="opset1">
			<data offset="968" size="4" shape="" element_type="f32"/>
			<output>
				<port id="0" precision="FP32"/>
			</output>
		</layer>
		<layer id="87" name="8981898536754" type="Const" version="opset1">
			<data offset="972" size="4" shape="" element_type="f32"/>
			<output>
				<port id="0" precision="FP32"/>
			</output>
		</layer>
		<layer id="88" name="7978798240594" type="Const" version="opset1">
			<data offset="232" size="232" shape="1,58,1,1" element_type="f32"/>
			<output>
				<port id="0" precision="FP32">
					<dim>1</dim>
					<dim>58</dim>
					<dim>1</dim>
					<dim>1</dim>
				</port>
			</output>
		</layer>
		<layer id="89" name="7979798340063" type="Const" version="opset1">
			<data offset="976" size="232" shape="1,58,1,1" element_type="f32"/>
			<output>
				<port id="0" precision="FP32">
					<dim>1</dim>
					<dim>58</dim>
					<dim>1</dim>
					<dim>1</dim>
				</port>
			</output>
		</layer>
		<layer id="90" name="7980798440018" type="Const" version="opset1">
			<data offset="232" size="232" shape="1,58,1,1" element_type="f32"/>
			<output>
				<port id="0" precision="FP32">
					<dim>1</dim>
					<dim>58</dim>
					<dim>1</dim>
					<dim>1</dim>
				</port>
			</output>
		</layer>
		<layer id="91" name="7981798538383" type="Const" version="opset1">
			<data offset="976" size="232" shape="1,58,1,1" element_type="f32"/>
			<output>
				<port id="0" precision="FP32">
					<dim>1</dim>
					<dim>58</dim>
					<dim>1</dim>
					<dim>1</dim>
				</port>
			</output>
		</layer>
		<layer id="92" name="Constant_726195338584" type="Const" version="opset1">
			<data offset="696" size="8" shape="" element_type="i64"/>
			<output>
				<port id="0" precision="I64"/>
			</output>
		</layer>
		<layer id="93" name="Constant_727195436382" type="Const" version="opset1">
			<data offset="704" size="16" shape="2" element_type="i64"/>
			<output>
				<port id="0" precision="I64">
					<dim>2</dim>
				</port>
			</output>
		</layer>
		<layer id="94" name="119071191139826" type="Const" version="opset1">
			<data offset="0" size="4" shape="" element_type="f32"/>
			<output>
				<port id="0" precision="FP32"/>
			</output>
		</layer>
		<layer id="95" name="119081191237393" type="Const" version="opset1">
			<data offset="1208" size="4" shape="" element_type="f32"/>
			<output>
				<port id="0" precision="FP32"/>
			</output>
		</layer>
		<layer id="96" name="119091191339067" type="Const" version="opset1">
			<data offset="0" size="4" shape="" element_type="f32"/>
			<output>
				<port id="0" precision="FP32"/>
			</output>
		</layer>
		<layer id="97" name="119101191437609" type="Const" version="opset1">
			<data offset="1208" size="4" shape="" element_type="f32"/>
			<output>
				<port id="0" precision="FP32"/>
			</output>
		</layer>
		<layer id="98" name="8948895238959" type="Const" version="opset1">
			<data offset="1212" size="4" shape="" element_type="f32"/>
			<output>
				<port id="0" precision="FP32"/>
			</output>
		</layer>
		<layer id="99" name="8949895340447" type="Const" version="opset1">
			<data offset="1216" size="4" shape="" element_type="f32"/>
			<output>
				<port id="0" precision="FP32"/>
			</output>
		</layer>
		<layer id="100" name="8950895439850" type="Const" version="opset1">
			<data offset="1212" size="4" shape="" element_type="f32"/>
			<output>
				<port id="0" precision="FP32"/>
			</output>
		</layer>
		<layer id="101" name="8951895539400" type="Const" version="opset1">
			<data offset="1216" size="4" shape="" element_type="f32"/>
			<output>
				<port id="0" precision="FP32"/>
			</output>
		</layer>
		<layer id="102" name="7938794237102" type="Const" version="opset1">
			<data offset="232" size="232" shape="1,58,1,1" element_type="f32"/>
			<output>
				<port id="0" precision="FP32">
					<dim>1</dim>
					<dim>58</dim>
					<dim>1</dim>
					<dim>1</dim>
				</port>
			</output>
		</layer>
		<layer id="103" name="7939794338926" type="Const" version="opset1">
			<data offset="1220" size="232" shape="1,58,1,1" element_type="f32"/>
			<output>
				<port id="0" precision="FP32">
					<dim>1</dim>
					<dim>58</dim>
					<dim>1</dim>
					<dim>1</dim>
				</port>
			</output>
		</layer>
		<layer id="104" name="7940794439703" type="Const" version="opset1">
			<data offset="232" size="232" shape="1,58,1,1" element_type="f32"/>
			<output>
				<port id="0" precision="FP32">
					<dim>1</dim>
					<dim>58</dim>
					<dim>1</dim>
					<dim>1</dim>
				</port>
			</output>
		</layer>
		<layer id="105" name="7941794538599" type="Const" version="opset1">
			<data offset="1220" size="232" shape="1,58,1,1" element_type="f32"/>
			<output>
				<port id="0" precision="FP32">
					<dim>1</dim>
					<dim>58</dim>
					<dim>1</dim>
					<dim>1</dim>
				</port>
			</output>
		</layer>
		<layer id="106" name="126171262136175" type="Const" version="opset1">
			<data offset="0" size="4" shape="" element_type="f32"/>
			<output>
				<port id="0" precision="FP32"/>
			</output>
		</layer>
		<layer id="107" name="126181262236910" type="Const" version="opset1">
			<data offset="1452" size="4" shape="" element_type="f32"/>
			<output>
				<port id="0" precision="FP32"/>
			</output>
		</layer>
		<layer id="108" name="126191262338488" type="Const" version="opset1">
			<data offset="0" size="4" shape="" element_type="f32"/>
			<output>
				<port id="0" precision="FP32"/>
			</output>
		</layer>
		<layer id="109" name="126201262440672" type="Const" version="opset1">
			<data offset="1452" size="4" shape="" element_type="f32"/>
			<output>
				<port id="0" precision="FP32"/>
			</output>
		</layer>
		<layer id="110" name="7038704237750" type="Const" version="opset1">
			<data offset="1456" size="4" shape="" element_type="f32"/>
			<output>
				<port id="0" precision="FP32"/>
			</output>
		</layer>
		<layer id="111" name="7039704338881" type="Const" version="opset1">
			<data offset="1460" size="4" shape="" element_type="f32"/>
			<output>
				<port id="0" precision="FP32"/>
			</output>
		</layer>
		<layer id="112" name="7040704439142" type="Const" version="opset1">
			<data offset="1456" size="4" shape="" element_type="f32"/>
			<output>
				<port id="0" precision="FP32"/>
			</output>
		</layer>
		<layer id="113" name="7041704539355" type="Const" version="opset1">
			<data offset="1460" size="4" shape="" element_type="f32"/>
			<output>
				<port id="0" precision="FP32"/>
			</output>
		</layer>
		<layer id="115" name="Gather_58811189139313" type="Const" version="opset1">
			<data offset="1464" size="6" shape="1,3,1,1" element_type="f16"/>
			<output>
				<port id="0" precision="FP16">
					<dim>1</dim>
					<dim>3</dim>
					<dim>1</dim>
					<dim>1</dim>
				</port>
			</output>
		</layer>
		<layer id="116" name="Gather_58811189123365/restored_convert" type="Convert" version="opset1">
			<data destination_type="f32"/>
			<rt_info>
				<attribute name="decompression" version="0"/>
			</rt_info>
			<input>
				<port id="0">
					<dim>1</dim>
					<dim>3</dim>
					<dim>1</dim>
					<dim>1</dim>
				</port>
			</input>
			<output>
				<port id="1" precision="FP32">
					<dim>1</dim>
					<dim>3</dim>
					<dim>1</dim>
					<dim>1</dim>
				</port>
			</output>
		</layer>
		<layer id="117" name="Subtract_12291" type="Subtract" version="opset1">
			<data auto_broadcast="numpy"/>
			<rt_info>
				<attribute name="preprocessing" version="0"/>
			</rt_info>
			<input>
				<port id="0">
					<dim>1</dim>
					<dim>3</dim>
					<dim>320</dim>
					<dim>320</dim>
				</port>
				<port id="1">
					<dim>1</dim>
					<dim>3</dim>
					<dim>1</dim>
					<dim>1</dim>
				</port>
			</input>
			<output>
				<port id="2" precision="FP32">
					<dim>1</dim>
					<dim>3</dim>
					<dim>320</dim>
					<dim>320</dim>
				</port>
			</output>
		</layer>
		<layer id="118" name="Multiply_56702/fq_input_0" type="FakeQuantize" version="opset1">
			<data levels="256" auto_broadcast="numpy"/>
			<input>
				<port id="0">
					<dim>1</dim>
					<dim>3</dim>
					<dim>320</dim>
					<dim>320</dim>
				</port>
				<port id="1"/>
				<port id="2"/>
				<port id="3"/>
				<port id="4"/>
			</input>
			<output>
				<port id="5" precision="FP32">
					<dim>1</dim>
					<dim>3</dim>
					<dim>320</dim>
					<dim>320</dim>
				</port>
			</output>
		</layer>
		<layer id="119" name="Multiply_56702/fq_weights_1/scale2695638734" type="Const" version="opset1">
			<data offset="1470" size="96" shape="24,1,1,1" element_type="f32"/>
			<output>
				<port id="0" precision="FP32">
					<dim>24</dim>
					<dim>1</dim>
					<dim>1</dim>
					<dim>1</dim>
				</port>
			</output>
		</layer>
		<layer id="120" name="Gather_58814189423366/restored_convert/quantized2694837162" type="Const" version="opset1">
			<data offset="1566" size="648" shape="24,3,3,3" element_type="i8"/>
			<output>
				<port id="0" precision="I8">
					<dim>24</dim>
					<dim>3</dim>
					<dim>3</dim>
					<dim>3</dim>
				</port>
			</output>
		</layer>
		<layer id="121" name="Gather_58814189423366/restored_convert/quantized/to_f32" type="Convert" version="opset1">
			<data destination_type="f32"/>
			<input>
				<port id="0">
					<dim>24</dim>
					<dim>3</dim>
					<dim>3</dim>
					<dim>3</dim>
				</port>
			</input>
			<output>
				<port id="1" precision="FP32">
					<dim>24</dim>
					<dim>3</dim>
					<dim>3</dim>
					<dim>3</dim>
				</port>
			</output>
		</layer>
		<layer id="122" name="Multiply_56702/fq_weights_1/mulpiply_by_scale" type="Multiply" version="opset1">
			<data auto_broadcast="numpy"/>
			<input>
				<port id="0">
					<dim>24</dim>
					<dim>3</dim>
					<dim>3</dim>
					<dim>3</dim>
				</port>
				<port id="1">
					<dim>24</dim>
					<dim>1</dim>
					<dim>1</dim>
					<dim>1</dim>
				</port>
			</input>
			<output>
				<port id="2" precision="FP32">
					<dim>24</dim>
					<dim>3</dim>
					<dim>3</dim>
					<dim>3</dim>
				</port>
			</output>
		</layer>
		<layer id="123" name="Multiply_56702" type="Convolution" version="opset1">
			<data auto_pad="explicit" strides="2,2" dilations="1,1" pads_begin="1,1" pads_end="1,1"/>
			<rt_info>
				<attribute name="preprocessing" version="0"/>
			</rt_info>
			<input>
				<port id="0">
					<dim>1</dim>
					<dim>3</dim>
					<dim>320</dim>
					<dim>320</dim>
				</port>
				<port id="1">
					<dim>24</dim>
					<dim>3</dim>
					<dim>3</dim>
					<dim>3</dim>
				</port>
			</input>
			<output>
				<port id="2" precision="FP32">
					<dim>1</dim>
					<dim>24</dim>
					<dim>160</dim>
					<dim>160</dim>
				</port>
			</output>
		</layer>
		<layer id="124" name="Constant_56707189737828" type="Const" version="opset1">
			<data offset="2214" size="48" shape="1,24,1,1" element_type="f16"/>
			<output>
				<port id="0" precision="FP16">
					<dim>1</dim>
					<dim>24</dim>
					<dim>1</dim>
					<dim>1</dim>
				</port>
			</output>
		</layer>
		<layer id="125" name="Constant_56707189723367/restored_convert" type="Convert" version="opset1">
			<data destination_type="f32"/>
			<rt_info>
				<attribute name="decompression" version="0"/>
			</rt_info>
			<input>
				<port id="0">
					<dim>1</dim>
					<dim>24</dim>
					<dim>1</dim>
					<dim>1</dim>
				</port>
			</input>
			<output>
				<port id="1" precision="FP32">
					<dim>1</dim>
					<dim>24</dim>
					<dim>1</dim>
					<dim>1</dim>
				</port>
			</output>
		</layer>
		<layer id="126" name="391" type="Add" version="opset1">
			<data auto_broadcast="numpy"/>
			<input>
				<port id="0">
					<dim>1</dim>
					<dim>24</dim>
					<dim>160</dim>
					<dim>160</dim>
				</port>
				<port id="1">
					<dim>1</dim>
					<dim>24</dim>
					<dim>1</dim>
					<dim>1</dim>
				</port>
			</input>
			<output>
				<port id="2" precision="FP32" names="391">
					<dim>1</dim>
					<dim>24</dim>
					<dim>160</dim>
					<dim>160</dim>
				</port>
			</output>
		</layer>
		<layer id="127" name="392" type="ReLU" version="opset1">
			<input>
				<port id="0">
					<dim>1</dim>
					<dim>24</dim>
					<dim>160</dim>
					<dim>160</dim>
				</port>
			</input>
			<output>
				<port id="1" precision="FP32" names="392">
					<dim>1</dim>
					<dim>24</dim>
					<dim>160</dim>
					<dim>160</dim>
				</port>
			</output>
		</layer>
		<layer id="128" name="393/fq_input_0" type="FakeQuantize" version="opset1">
			<data levels="256" auto_broadcast="numpy"/>
			<input>
				<port id="0">
					<dim>1</dim>
					<dim>24</dim>
					<dim>160</dim>
					<dim>160</dim>
				</port>
				<port id="1"/>
				<port id="2"/>
				<port id="3"/>
				<port id="4"/>
			</input>
			<output>
				<port id="5" precision="FP32">
					<dim>1</dim>
					<dim>24</dim>
					<dim>160</dim>
					<dim>160</dim>
				</port>
			</output>
		</layer>
		<layer id="129" name="393" type="MaxPool" version="opset8">
			<data strides="2,2" kernel="3,3" pads_begin="0,0" pads_end="0,0" rounding_type="ceil" auto_pad="explicit" dilations="1,1" axis="0" index_element_type="i64"/>
			<input>
				<port id="0">
					<dim>1</dim>
					<dim>24</dim>
					<dim>160</dim>
					<dim>160</dim>
				</port>
			</input>
			<output>
				<port id="1" precision="FP32" names="393">
					<dim>1</dim>
					<dim>24</dim>
					<dim>80</dim>
					<dim>80</dim>
				</port>
				<port id="2" precision="FP32">
					<dim>1</dim>
					<dim>24</dim>
					<dim>80</dim>
					<dim>80</dim>
					<rt_info/>
				</port>
			</output>
		</layer>
		<layer id="130" name="Multiply_56723/fq_weights_1/scale2620638755" type="Const" version="opset1">
			<data offset="2262" size="232" shape="58,1,1,1" element_type="f32"/>
			<output>
				<port id="0" precision="FP32">
					<dim>58</dim>
					<dim>1</dim>
					<dim>1</dim>
					<dim>1</dim>
				</port>
			</output>
		</layer>
		<layer id="131" name="Multiply_57146191523372/restored_convert/quantized2619839241" type="Const" version="opset1">
			<data offset="2494" size="1392" shape="58,24,1,1" element_type="i8"/>
			<output>
				<port id="0" precision="I8">
					<dim>58</dim>
					<dim>24</dim>
					<dim>1</dim>
					<dim>1</dim>
				</port>
			</output>
		</layer>
		<layer id="132" name="Multiply_57146191523372/restored_convert/quantized/to_f32" type="Convert" version="opset1">
			<data destination_type="f32"/>
			<input>
				<port id="0">
					<dim>58</dim>
					<dim>24</dim>
					<dim>1</dim>
					<dim>1</dim>
				</port>
			</input>
			<output>
				<port id="1" precision="FP32">
					<dim>58</dim>
					<dim>24</dim>
					<dim>1</dim>
					<dim>1</dim>
				</port>
			</output>
		</layer>
		<layer id="133" name="Multiply_56723/fq_weights_1/mulpiply_by_scale" type="Multiply" version="opset1">
			<data auto_broadcast="numpy"/>
			<input>
				<port id="0">
					<dim>58</dim>
					<dim>24</dim>
					<dim>1</dim>
					<dim>1</dim>
				</port>
				<port id="1">
					<dim>58</dim>
					<dim>1</dim>
					<dim>1</dim>
					<dim>1</dim>
				</port>
			</input>
			<output>
				<port id="2" precision="FP32">
					<dim>58</dim>
					<dim>24</dim>
					<dim>1</dim>
					<dim>1</dim>
				</port>
			</output>
		</layer>
		<layer id="134" name="Multiply_56723" type="Convolution" version="opset1">
			<data auto_pad="explicit" strides="1,1" dilations="1,1" pads_begin="0,0" pads_end="0,0"/>
			<input>
				<port id="0">
					<dim>1</dim>
					<dim>24</dim>
					<dim>80</dim>
					<dim>80</dim>
				</port>
				<port id="1">
					<dim>58</dim>
					<dim>24</dim>
					<dim>1</dim>
					<dim>1</dim>
				</port>
			</input>
			<output>
				<port id="2" precision="FP32">
					<dim>1</dim>
					<dim>58</dim>
					<dim>80</dim>
					<dim>80</dim>
				</port>
			</output>
		</layer>
		<layer id="135" name="Constant_56728191837399" type="Const" version="opset1">
			<data offset="3886" size="116" shape="1,58,1,1" element_type="f16"/>
			<output>
				<port id="0" precision="FP16">
					<dim>1</dim>
					<dim>58</dim>
					<dim>1</dim>
					<dim>1</dim>
				</port>
			</output>
		</layer>
		<layer id="136" name="Constant_56728191823373/restored_convert" type="Convert" version="opset1">
			<data destination_type="f32"/>
			<rt_info>
				<attribute name="decompression" version="0"/>
			</rt_info>
			<input>
				<port id="0">
					<dim>1</dim>
					<dim>58</dim>
					<dim>1</dim>
					<dim>1</dim>
				</port>
			</input>
			<output>
				<port id="1" precision="FP32">
					<dim>1</dim>
					<dim>58</dim>
					<dim>1</dim>
					<dim>1</dim>
				</port>
			</output>
		</layer>
		<layer id="137" name="400" type="Add" version="opset1">
			<data auto_broadcast="numpy"/>
			<input>
				<port id="0">
					<dim>1</dim>
					<dim>58</dim>
					<dim>80</dim>
					<dim>80</dim>
				</port>
				<port id="1">
					<dim>1</dim>
					<dim>58</dim>
					<dim>1</dim>
					<dim>1</dim>
				</port>
			</input>
			<output>
				<port id="2" precision="FP32" names="400">
					<dim>1</dim>
					<dim>58</dim>
					<dim>80</dim>
					<dim>80</dim>
				</port>
			</output>
		</layer>
		<layer id="138" name="401" type="ReLU" version="opset1">
			<input>
				<port id="0">
					<dim>1</dim>
					<dim>58</dim>
					<dim>80</dim>
					<dim>80</dim>
				</port>
			</input>
			<output>
				<port id="1" precision="FP32" names="401">
					<dim>1</dim>
					<dim>58</dim>
					<dim>80</dim>
					<dim>80</dim>
				</port>
			</output>
		</layer>
		<layer id="139" name="Multiply_56730/fq_input_0" type="FakeQuantize" version="opset1">
			<data levels="256" auto_broadcast="numpy"/>
			<input>
				<port id="0">
					<dim>1</dim>
					<dim>58</dim>
					<dim>80</dim>
					<dim>80</dim>
				</port>
				<port id="1">
					<dim>1</dim>
					<dim>58</dim>
					<dim>1</dim>
					<dim>1</dim>
				</port>
				<port id="2">
					<dim>1</dim>
					<dim>58</dim>
					<dim>1</dim>
					<dim>1</dim>
				</port>
				<port id="3">
					<dim>1</dim>
					<dim>58</dim>
					<dim>1</dim>
					<dim>1</dim>
				</port>
				<port id="4">
					<dim>1</dim>
					<dim>58</dim>
					<dim>1</dim>
					<dim>1</dim>
				</port>
			</input>
			<output>
				<port id="5" precision="FP32">
					<dim>1</dim>
					<dim>58</dim>
					<dim>80</dim>
					<dim>80</dim>
				</port>
			</output>
		</layer>
		<layer id="140" name="Multiply_56730/fq_weights_1/scale2722636484" type="Const" version="opset1">
			<data offset="4002" size="232" shape="58,1,1,1" element_type="f32"/>
			<output>
				<port id="0" precision="FP32">
					<dim>58</dim>
					<dim>1</dim>
					<dim>1</dim>
					<dim>1</dim>
				</port>
			</output>
		</layer>
		<layer id="141" name="Multiply_57155192223374/restored_convert/quantized2721836535" type="Const" version="opset1">
			<data offset="4234" size="522" shape="58,1,3,3" element_type="i8"/>
			<output>
				<port id="0" precision="I8">
					<dim>58</dim>
					<dim>1</dim>
					<dim>3</dim>
					<dim>3</dim>
				</port>
			</output>
		</layer>
		<layer id="142" name="Multiply_57155192223374/restored_convert/quantized/to_f32" type="Convert" version="opset1">
			<data destination_type="f32"/>
			<input>
				<port id="0">
					<dim>58</dim>
					<dim>1</dim>
					<dim>3</dim>
					<dim>3</dim>
				</port>
			</input>
			<output>
				<port id="1" precision="FP32">
					<dim>58</dim>
					<dim>1</dim>
					<dim>3</dim>
					<dim>3</dim>
				</port>
			</output>
		</layer>
		<layer id="143" name="Multiply_56730/fq_weights_1/mulpiply_by_scale" type="Multiply" version="opset1">
			<data auto_broadcast="numpy"/>
			<input>
				<port id="0">
					<dim>58</dim>
					<dim>1</dim>
					<dim>3</dim>
					<dim>3</dim>
				</port>
				<port id="1">
					<dim>58</dim>
					<dim>1</dim>
					<dim>1</dim>
					<dim>1</dim>
				</port>
			</input>
			<output>
				<port id="2" precision="FP32">
					<dim>58</dim>
					<dim>1</dim>
					<dim>3</dim>
					<dim>3</dim>
				</port>
			</output>
		</layer>
		<layer id="144" name="Multiply_56730/GOI_weights_part3292540561" type="Const" version="opset1">
			<data offset="4756" size="24" shape="3" element_type="i64"/>
			<output>
				<port id="0" precision="I64">
					<dim>3</dim>
				</port>
			</output>
		</layer>
		<layer id="145" name="Multiply_56730/WeightsShape" type="ShapeOf" version="opset3">
			<data output_type="i64"/>
			<input>
				<port id="0">
					<dim>58</dim>
					<dim>1</dim>
					<dim>3</dim>
					<dim>3</dim>
				</port>
			</input>
			<output>
				<port id="1" precision="I64">
					<dim>4</dim>
				</port>
			</output>
		</layer>
		<layer id="146" name="Multiply_56730/XY_weights_part_input_port_1/value3292140048" type="Const" version="opset1">
			<data offset="8" size="16" shape="2" element_type="i64"/>
			<output>
				<port id="0" precision="I64">
					<dim>2</dim>
				</port>
			</output>
		</layer>
		<layer id="147" name="Multiply_56730/XY_weights_part_input_port_2/value3292340366" type="Const" version="opset1">
			<data offset="4780" size="8" shape="" element_type="i64"/>
			<output>
				<port id="0" precision="I64"/>
			</output>
		</layer>
		<layer id="148" name="Multiply_56730/XY_weights_part" type="Gather" version="opset8">
			<data batch_dims="0"/>
			<input>
				<port id="0">
					<dim>4</dim>
				</port>
				<port id="1">
					<dim>2</dim>
				</port>
				<port id="2"/>
			</input>
			<output>
				<port id="3" precision="I64">
					<dim>2</dim>
				</port>
			</output>
		</layer>
		<layer id="149" name="Multiply_56730/weights_shape" type="Concat" version="opset1">
			<data axis="0"/>
			<input>
				<port id="0">
					<dim>3</dim>
				</port>
				<port id="1">
					<dim>2</dim>
				</port>
			</input>
			<output>
				<port id="2" precision="I64">
					<dim>5</dim>
				</port>
			</output>
		</layer>
		<layer id="150" name="32927" type="Reshape" version="opset1">
			<data special_zero="true"/>
			<input>
				<port id="0">
					<dim>58</dim>
					<dim>1</dim>
					<dim>3</dim>
					<dim>3</dim>
				</port>
				<port id="1">
					<dim>5</dim>
				</port>
			</input>
			<output>
				<port id="2" precision="FP32">
					<dim>58</dim>
					<dim>1</dim>
					<dim>1</dim>
					<dim>3</dim>
					<dim>3</dim>
				</port>
			</output>
		</layer>
		<layer id="151" name="Multiply_56730" type="GroupConvolution" version="opset1">
			<data auto_pad="explicit" strides="2,2" dilations="1,1" pads_begin="1,1" pads_end="1,1"/>
			<input>
				<port id="0">
					<dim>1</dim>
					<dim>58</dim>
					<dim>80</dim>
					<dim>80</dim>
				</port>
				<port id="1">
					<dim>58</dim>
					<dim>1</dim>
					<dim>1</dim>
					<dim>3</dim>
					<dim>3</dim>
				</port>
			</input>
			<output>
				<port id="2" precision="FP32" names="402">
					<dim>1</dim>
					<dim>58</dim>
					<dim>40</dim>
					<dim>40</dim>
				</port>
			</output>
		</layer>
		<layer id="152" name="Constant_56735192537363" type="Const" version="opset1">
			<data offset="4788" size="116" shape="1,58,1,1" element_type="f16"/>
			<output>
				<port id="0" precision="FP16">
					<dim>1</dim>
					<dim>58</dim>
					<dim>1</dim>
					<dim>1</dim>
				</port>
			</output>
		</layer>
		<layer id="153" name="Constant_56735192523375/restored_convert" type="Convert" version="opset1">
			<data destination_type="f32"/>
			<rt_info>
				<attribute name="decompression" version="0"/>
			</rt_info>
			<input>
				<port id="0">
					<dim>1</dim>
					<dim>58</dim>
					<dim>1</dim>
					<dim>1</dim>
				</port>
			</input>
			<output>
				<port id="1" precision="FP32">
					<dim>1</dim>
					<dim>58</dim>
					<dim>1</dim>
					<dim>1</dim>
				</port>
			</output>
		</layer>
		<layer id="154" name="403" type="Add" version="opset1">
			<data auto_broadcast="numpy"/>
			<input>
				<port id="0">
					<dim>1</dim>
					<dim>58</dim>
					<dim>40</dim>
					<dim>40</dim>
				</port>
				<port id="1">
					<dim>1</dim>
					<dim>58</dim>
					<dim>1</dim>
					<dim>1</dim>
				</port>
			</input>
			<output>
				<port id="2" precision="FP32" names="403">
					<dim>1</dim>
					<dim>58</dim>
					<dim>40</dim>
					<dim>40</dim>
				</port>
			</output>
		</layer>
		<layer id="155" name="Multiply_56737/fq_input_0" type="FakeQuantize" version="opset1">
			<data levels="256" auto_broadcast="numpy"/>
			<input>
				<port id="0">
					<dim>1</dim>
					<dim>58</dim>
					<dim>40</dim>
					<dim>40</dim>
				</port>
				<port id="1"/>
				<port id="2"/>
				<port id="3"/>
				<port id="4"/>
			</input>
			<output>
				<port id="5" precision="FP32">
					<dim>1</dim>
					<dim>58</dim>
					<dim>40</dim>
					<dim>40</dim>
				</port>
			</output>
		</layer>
		<layer id="156" name="Multiply_56737/fq_weights_1/scale2698639415" type="Const" version="opset1">
			<data offset="4904" size="232" shape="58,1,1,1" element_type="f32"/>
			<output>
				<port id="0" precision="FP32">
					<dim>58</dim>
					<dim>1</dim>
					<dim>1</dim>
					<dim>1</dim>
				</port>
			</output>
		</layer>
		<layer id="157" name="Multiply_57163192823376/restored_convert/quantized2697839379" type="Const" version="opset1">
			<data offset="5136" size="3364" shape="58,58,1,1" element_type="i8"/>
			<output>
				<port id="0" precision="I8">
					<dim>58</dim>
					<dim>58</dim>
					<dim>1</dim>
					<dim>1</dim>
				</port>
			</output>
		</layer>
		<layer id="158" name="Multiply_57163192823376/restored_convert/quantized/to_f32" type="Convert" version="opset1">
			<data destination_type="f32"/>
			<input>
				<port id="0">
					<dim>58</dim>
					<dim>58</dim>
					<dim>1</dim>
					<dim>1</dim>
				</port>
			</input>
			<output>
				<port id="1" precision="FP32">
					<dim>58</dim>
					<dim>58</dim>
					<dim>1</dim>
					<dim>1</dim>
				</port>
			</output>
		</layer>
		<layer id="159" name="Multiply_56737/fq_weights_1/mulpiply_by_scale" type="Multiply" version="opset1">
			<data auto_broadcast="numpy"/>
			<input>
				<port id="0">
					<dim>58</dim>
					<dim>58</dim>
					<dim>1</dim>
					<dim>1</dim>
				</port>
				<port id="1">
					<dim>58</dim>
					<dim>1</dim>
					<dim>1</dim>
					<dim>1</dim>
				</port>
			</input>
			<output>
				<port id="2" precision="FP32">
					<dim>58</dim>
					<dim>58</dim>
					<dim>1</dim>
					<dim>1</dim>
				</port>
			</output>
		</layer>
		<layer id="160" name="Multiply_56737" type="Convolution" version="opset1">
			<data auto_pad="explicit" strides="1,1" dilations="1,1" pads_begin="0,0" pads_end="0,0"/>
			<input>
				<port id="0">
					<dim>1</dim>
					<dim>58</dim>
					<dim>40</dim>
					<dim>40</dim>
				</port>
				<port id="1">
					<dim>58</dim>
					<dim>58</dim>
					<dim>1</dim>
					<dim>1</dim>
				</port>
			</input>
			<output>
				<port id="2" precision="FP32">
					<dim>1</dim>
					<dim>58</dim>
					<dim>40</dim>
					<dim>40</dim>
				</port>
			</output>
		</layer>
		<layer id="161" name="Constant_56742193139190" type="Const" version="opset1">
			<data offset="8500" size="116" shape="1,58,1,1" element_type="f16"/>
			<output>
				<port id="0" precision="FP16">
					<dim>1</dim>
					<dim>58</dim>
					<dim>1</dim>
					<dim>1</dim>
				</port>
			</output>
		</layer>
		<layer id="162" name="Constant_56742193123377/restored_convert" type="Convert" version="opset1">
			<data destination_type="f32"/>
			<rt_info>
				<attribute name="decompression" version="0"/>
			</rt_info>
			<input>
				<port id="0">
					<dim>1</dim>
					<dim>58</dim>
					<dim>1</dim>
					<dim>1</dim>
				</port>
			</input>
			<output>
				<port id="1" precision="FP32">
					<dim>1</dim>
					<dim>58</dim>
					<dim>1</dim>
					<dim>1</dim>
				</port>
			</output>
		</layer>
		<layer id="163" name="405" type="Add" version="opset1">
			<data auto_broadcast="numpy"/>
			<input>
				<port id="0">
					<dim>1</dim>
					<dim>58</dim>
					<dim>40</dim>
					<dim>40</dim>
				</port>
				<port id="1">
					<dim>1</dim>
					<dim>58</dim>
					<dim>1</dim>
					<dim>1</dim>
				</port>
			</input>
			<output>
				<port id="2" precision="FP32" names="405">
					<dim>1</dim>
					<dim>58</dim>
					<dim>40</dim>
					<dim>40</dim>
				</port>
			</output>
		</layer>
		<layer id="164" name="406" type="ReLU" version="opset1">
			<input>
				<port id="0">
					<dim>1</dim>
					<dim>58</dim>
					<dim>40</dim>
					<dim>40</dim>
				</port>
			</input>
			<output>
				<port id="1" precision="FP32" names="406">
					<dim>1</dim>
					<dim>58</dim>
					<dim>40</dim>
					<dim>40</dim>
				</port>
			</output>
		</layer>
		<layer id="165" name="407/fq_input_1" type="FakeQuantize" version="opset1">
			<data levels="256" auto_broadcast="numpy"/>
			<input>
				<port id="0">
					<dim>1</dim>
					<dim>58</dim>
					<dim>40</dim>
					<dim>40</dim>
				</port>
				<port id="1"/>
				<port id="2"/>
				<port id="3"/>
				<port id="4"/>
			</input>
			<output>
				<port id="5" precision="FP32">
					<dim>1</dim>
					<dim>58</dim>
					<dim>40</dim>
					<dim>40</dim>
				</port>
			</output>
		</layer>
		<layer id="166" name="118971190136565" type="Const" version="opset1">
			<data offset="0" size="4" shape="" element_type="f32"/>
			<output>
				<port id="0" precision="FP32"/>
			</output>
		</layer>
		<layer id="167" name="118981190237465" type="Const" version="opset1">
			<data offset="8616" size="4" shape="" element_type="f32"/>
			<output>
				<port id="0" precision="FP32"/>
			</output>
		</layer>
		<layer id="168" name="118991190339157" type="Const" version="opset1">
			<data offset="0" size="4" shape="" element_type="f32"/>
			<output>
				<port id="0" precision="FP32"/>
			</output>
		</layer>
		<layer id="169" name="119001190436871" type="Const" version="opset1">
			<data offset="8616" size="4" shape="" element_type="f32"/>
			<output>
				<port id="0" precision="FP32"/>
			</output>
		</layer>
		<layer id="170" name="8268827240660" type="Const" version="opset1">
			<data offset="8620" size="4" shape="" element_type="f32"/>
			<output>
				<port id="0" precision="FP32"/>
			</output>
		</layer>
		<layer id="171" name="8269827339070" type="Const" version="opset1">
			<data offset="8624" size="4" shape="" element_type="f32"/>
			<output>
				<port id="0" precision="FP32"/>
			</output>
		</layer>
		<layer id="172" name="8270827439436" type="Const" version="opset1">
			<data offset="8620" size="4" shape="" element_type="f32"/>
			<output>
				<port id="0" precision="FP32"/>
			</output>
		</layer>
		<layer id="173" name="8271827536898" type="Const" version="opset1">
			<data offset="8624" size="4" shape="" element_type="f32"/>
			<output>
				<port id="0" precision="FP32"/>
			</output>
		</layer>
		<layer id="174" name="Multiply_56709/fq_weights_1/scale2785639634" type="Const" version="opset1">
			<data offset="8628" size="96" shape="24,1,1,1" element_type="f32"/>
			<output>
				<port id="0" precision="FP32">
					<dim>24</dim>
					<dim>1</dim>
					<dim>1</dim>
					<dim>1</dim>
				</port>
			</output>
		</layer>
		<layer id="175" name="Multiply_57129190223368/restored_convert/quantized2784839919" type="Const" version="opset1">
			<data offset="8724" size="216" shape="24,1,3,3" element_type="i8"/>
			<output>
				<port id="0" precision="I8">
					<dim>24</dim>
					<dim>1</dim>
					<dim>3</dim>
					<dim>3</dim>
				</port>
			</output>
		</layer>
		<layer id="176" name="Multiply_57129190223368/restored_convert/quantized/to_f32" type="Convert" version="opset1">
			<data destination_type="f32"/>
			<input>
				<port id="0">
					<dim>24</dim>
					<dim>1</dim>
					<dim>3</dim>
					<dim>3</dim>
				</port>
			</input>
			<output>
				<port id="1" precision="FP32">
					<dim>24</dim>
					<dim>1</dim>
					<dim>3</dim>
					<dim>3</dim>
				</port>
			</output>
		</layer>
		<layer id="177" name="Multiply_56709/fq_weights_1/mulpiply_by_scale" type="Multiply" version="opset1">
			<data auto_broadcast="numpy"/>
			<input>
				<port id="0">
					<dim>24</dim>
					<dim>1</dim>
					<dim>3</dim>
					<dim>3</dim>
				</port>
				<port id="1">
					<dim>24</dim>
					<dim>1</dim>
					<dim>1</dim>
					<dim>1</dim>
				</port>
			</input>
			<output>
				<port id="2" precision="FP32">
					<dim>24</dim>
					<dim>1</dim>
					<dim>3</dim>
					<dim>3</dim>
				</port>
			</output>
		</layer>
		<layer id="178" name="Multiply_56709/GOI_weights_part3291139382" type="Const" version="opset1">
			<data offset="8940" size="24" shape="3" element_type="i64"/>
			<output>
				<port id="0" precision="I64">
					<dim>3</dim>
				</port>
			</output>
		</layer>
		<layer id="179" name="Multiply_56709/WeightsShape" type="ShapeOf" version="opset3">
			<data output_type="i64"/>
			<input>
				<port id="0">
					<dim>24</dim>
					<dim>1</dim>
					<dim>3</dim>
					<dim>3</dim>
				</port>
			</input>
			<output>
				<port id="1" precision="I64">
					<dim>4</dim>
				</port>
			</output>
		</layer>
		<layer id="180" name="Multiply_56709/XY_weights_part_input_port_1/value3290736817" type="Const" version="opset1">
			<data offset="8" size="16" shape="2" element_type="i64"/>
			<output>
				<port id="0" precision="I64">
					<dim>2</dim>
				</port>
			</output>
		</layer>
		<layer id="181" name="Multiply_56709/XY_weights_part_input_port_2/value3290940162" type="Const" version="opset1">
			<data offset="4780" size="8" shape="" element_type="i64"/>
			<output>
				<port id="0" precision="I64"/>
			</output>
		</layer>
		<layer id="182" name="Multiply_56709/XY_weights_part" type="Gather" version="opset8">
			<data batch_dims="0"/>
			<input>
				<port id="0">
					<dim>4</dim>
				</port>
				<port id="1">
					<dim>2</dim>
				</port>
				<port id="2"/>
			</input>
			<output>
				<port id="3" precision="I64">
					<dim>2</dim>
				</port>
			</output>
		</layer>
		<layer id="183" name="Multiply_56709/weights_shape" type="Concat" version="opset1">
			<data axis="0"/>
			<input>
				<port id="0">
					<dim>3</dim>
				</port>
				<port id="1">
					<dim>2</dim>
				</port>
			</input>
			<output>
				<port id="2" precision="I64">
					<dim>5</dim>
				</port>
			</output>
		</layer>
		<layer id="184" name="32913" type="Reshape" version="opset1">
			<data special_zero="true"/>
			<input>
				<port id="0">
					<dim>24</dim>
					<dim>1</dim>
					<dim>3</dim>
					<dim>3</dim>
				</port>
				<port id="1">
					<dim>5</dim>
				</port>
			</input>
			<output>
				<port id="2" precision="FP32">
					<dim>24</dim>
					<dim>1</dim>
					<dim>1</dim>
					<dim>3</dim>
					<dim>3</dim>
				</port>
			</output>
		</layer>
		<layer id="185" name="Multiply_56709" type="GroupConvolution" version="opset1">
			<data auto_pad="explicit" strides="2,2" dilations="1,1" pads_begin="1,1" pads_end="1,1"/>
			<input>
				<port id="0">
					<dim>1</dim>
					<dim>24</dim>
					<dim>80</dim>
					<dim>80</dim>
				</port>
				<port id="1">
					<dim>24</dim>
					<dim>1</dim>
					<dim>1</dim>
					<dim>3</dim>
					<dim>3</dim>
				</port>
			</input>
			<output>
				<port id="2" precision="FP32" names="394">
					<dim>1</dim>
					<dim>24</dim>
					<dim>40</dim>
					<dim>40</dim>
				</port>
			</output>
		</layer>
		<layer id="186" name="Constant_56714190536388" type="Const" version="opset1">
			<data offset="8964" size="48" shape="1,24,1,1" element_type="f16"/>
			<output>
				<port id="0" precision="FP16">
					<dim>1</dim>
					<dim>24</dim>
					<dim>1</dim>
					<dim>1</dim>
				</port>
			</output>
		</layer>
		<layer id="187" name="Constant_56714190523369/restored_convert" type="Convert" version="opset1">
			<data destination_type="f32"/>
			<rt_info>
				<attribute name="decompression" version="0"/>
			</rt_info>
			<input>
				<port id="0">
					<dim>1</dim>
					<dim>24</dim>
					<dim>1</dim>
					<dim>1</dim>
				</port>
			</input>
			<output>
				<port id="1" precision="FP32">
					<dim>1</dim>
					<dim>24</dim>
					<dim>1</dim>
					<dim>1</dim>
				</port>
			</output>
		</layer>
		<layer id="188" name="395" type="Add" version="opset1">
			<data auto_broadcast="numpy"/>
			<input>
				<port id="0">
					<dim>1</dim>
					<dim>24</dim>
					<dim>40</dim>
					<dim>40</dim>
				</port>
				<port id="1">
					<dim>1</dim>
					<dim>24</dim>
					<dim>1</dim>
					<dim>1</dim>
				</port>
			</input>
			<output>
				<port id="2" precision="FP32" names="395">
					<dim>1</dim>
					<dim>24</dim>
					<dim>40</dim>
					<dim>40</dim>
				</port>
			</output>
		</layer>
		<layer id="189" name="Multiply_56716/fq_input_0" type="FakeQuantize" version="opset1">
			<data levels="256" auto_broadcast="numpy"/>
			<input>
				<port id="0">
					<dim>1</dim>
					<dim>24</dim>
					<dim>40</dim>
					<dim>40</dim>
				</port>
				<port id="1"/>
				<port id="2"/>
				<port id="3"/>
				<port id="4"/>
			</input>
			<output>
				<port id="5" precision="FP32">
					<dim>1</dim>
					<dim>24</dim>
					<dim>40</dim>
					<dim>40</dim>
				</port>
			</output>
		</layer>
		<layer id="190" name="Multiply_56716/fq_weights_1/scale2605637396" type="Const" version="opset1">
			<data offset="9012" size="232" shape="58,1,1,1" element_type="f32"/>
			<output>
				<port id="0" precision="FP32">
					<dim>58</dim>
					<dim>1</dim>
					<dim>1</dim>
					<dim>1</dim>
				</port>
			</output>
		</layer>
		<layer id="191" name="Multiply_57137190823370/restored_convert/quantized2604840444" type="Const" version="opset1">
			<data offset="9244" size="1392" shape="58,24,1,1" element_type="i8"/>
			<output>
				<port id="0" precision="I8">
					<dim>58</dim>
					<dim>24</dim>
					<dim>1</dim>
					<dim>1</dim>
				</port>
			</output>
		</layer>
		<layer id="192" name="Multiply_57137190823370/restored_convert/quantized/to_f32" type="Convert" version="opset1">
			<data destination_type="f32"/>
			<input>
				<port id="0">
					<dim>58</dim>
					<dim>24</dim>
					<dim>1</dim>
					<dim>1</dim>
				</port>
			</input>
			<output>
				<port id="1" precision="FP32">
					<dim>58</dim>
					<dim>24</dim>
					<dim>1</dim>
					<dim>1</dim>
				</port>
			</output>
		</layer>
		<layer id="193" name="Multiply_56716/fq_weights_1/mulpiply_by_scale" type="Multiply" version="opset1">
			<data auto_broadcast="numpy"/>
			<input>
				<port id="0">
					<dim>58</dim>
					<dim>24</dim>
					<dim>1</dim>
					<dim>1</dim>
				</port>
				<port id="1">
					<dim>58</dim>
					<dim>1</dim>
					<dim>1</dim>
					<dim>1</dim>
				</port>
			</input>
			<output>
				<port id="2" precision="FP32">
					<dim>58</dim>
					<dim>24</dim>
					<dim>1</dim>
					<dim>1</dim>
				</port>
			</output>
		</layer>
		<layer id="194" name="Multiply_56716" type="Convolution" version="opset1">
			<data auto_pad="explicit" strides="1,1" dilations="1,1" pads_begin="0,0" pads_end="0,0"/>
			<input>
				<port id="0">
					<dim>1</dim>
					<dim>24</dim>
					<dim>40</dim>
					<dim>40</dim>
				</port>
				<port id="1">
					<dim>58</dim>
					<dim>24</dim>
					<dim>1</dim>
					<dim>1</dim>
				</port>
			</input>
			<output>
				<port id="2" precision="FP32">
					<dim>1</dim>
					<dim>58</dim>
					<dim>40</dim>
					<dim>40</dim>
				</port>
			</output>
		</layer>
		<layer id="195" name="Constant_56721191136931" type="Const" version="opset1">
			<data offset="10636" size="116" shape="1,58,1,1" element_type="f16"/>
			<output>
				<port id="0" precision="FP16">
					<dim>1</dim>
					<dim>58</dim>
					<dim>1</dim>
					<dim>1</dim>
				</port>
			</output>
		</layer>
		<layer id="196" name="Constant_56721191123371/restored_convert" type="Convert" version="opset1">
			<data destination_type="f32"/>
			<rt_info>
				<attribute name="decompression" version="0"/>
			</rt_info>
			<input>
				<port id="0">
					<dim>1</dim>
					<dim>58</dim>
					<dim>1</dim>
					<dim>1</dim>
				</port>
			</input>
			<output>
				<port id="1" precision="FP32">
					<dim>1</dim>
					<dim>58</dim>
					<dim>1</dim>
					<dim>1</dim>
				</port>
			</output>
		</layer>
		<layer id="197" name="397" type="Add" version="opset1">
			<data auto_broadcast="numpy"/>
			<input>
				<port id="0">
					<dim>1</dim>
					<dim>58</dim>
					<dim>40</dim>
					<dim>40</dim>
				</port>
				<port id="1">
					<dim>1</dim>
					<dim>58</dim>
					<dim>1</dim>
					<dim>1</dim>
				</port>
			</input>
			<output>
				<port id="2" precision="FP32" names="397">
					<dim>1</dim>
					<dim>58</dim>
					<dim>40</dim>
					<dim>40</dim>
				</port>
			</output>
		</layer>
		<layer id="198" name="398" type="ReLU" version="opset1">
			<input>
				<port id="0">
					<dim>1</dim>
					<dim>58</dim>
					<dim>40</dim>
					<dim>40</dim>
				</port>
			</input>
			<output>
				<port id="1" precision="FP32" names="398">
					<dim>1</dim>
					<dim>58</dim>
					<dim>40</dim>
					<dim>40</dim>
				</port>
			</output>
		</layer>
		<layer id="199" name="407/fq_input_0" type="FakeQuantize" version="opset1">
			<data levels="256" auto_broadcast="numpy"/>
			<input>
				<port id="0">
					<dim>1</dim>
					<dim>58</dim>
					<dim>40</dim>
					<dim>40</dim>
				</port>
				<port id="1"/>
				<port id="2"/>
				<port id="3"/>
				<port id="4"/>
			</input>
			<output>
				<port id="5" precision="FP32">
					<dim>1</dim>
					<dim>58</dim>
					<dim>40</dim>
					<dim>40</dim>
				</port>
			</output>
		</layer>
		<layer id="200" name="407" type="Concat" version="opset1">
			<data axis="1"/>
			<input>
				<port id="0">
					<dim>1</dim>
					<dim>58</dim>
					<dim>40</dim>
					<dim>40</dim>
				</port>
				<port id="1">
					<dim>1</dim>
					<dim>58</dim>
					<dim>40</dim>
					<dim>40</dim>
				</port>
			</input>
			<output>
				<port id="2" precision="FP32" names="407">
					<dim>1</dim>
					<dim>116</dim>
					<dim>40</dim>
					<dim>40</dim>
				</port>
			</output>
		</layer>
		<layer id="201" name="Constant_42221193540060" type="Const" version="opset1">
			<data offset="4780" size="8" shape="1" element_type="i64"/>
			<output>
				<port id="0" precision="I64">
					<dim>1</dim>
				</port>
			</output>
		</layer>
		<layer id="202" name="424193640384" type="Const" version="opset1">
			<data offset="10752" size="8" shape="1" element_type="i64"/>
			<output>
				<port id="0" precision="I64" names="424">
					<dim>1</dim>
				</port>
			</output>
		</layer>
		<layer id="203" name="409" type="ShapeOf" version="opset3">
			<data output_type="i64"/>
			<input>
				<port id="0">
					<dim>1</dim>
					<dim>116</dim>
					<dim>40</dim>
					<dim>40</dim>
				</port>
			</input>
			<output>
				<port id="1" precision="I64" names="409,412,415,418,435">
					<dim>4</dim>
				</port>
			</output>
		</layer>
		<layer id="204" name="4111938" type="Const" version="opset1">
			<data offset="10760" size="4" shape="" element_type="i32"/>
			<output>
				<port id="0" precision="I32" names="411"/>
			</output>
		</layer>
		<layer id="205" name="Constant_5031939" type="Const" version="opset1">
			<data offset="4780" size="8" shape="" element_type="i64"/>
			<output>
				<port id="0" precision="I64"/>
			</output>
		</layer>
		<layer id="206" name="413" type="Gather" version="opset8">
			<data batch_dims="0"/>
			<input>
				<port id="0">
					<dim>4</dim>
				</port>
				<port id="1"/>
				<port id="2"/>
			</input>
			<output>
				<port id="3" precision="I64" names="413"/>
			</output>
		</layer>
		<layer id="207" name="420194136463" type="Const" version="opset1">
			<data offset="10752" size="8" shape="" element_type="i64"/>
			<output>
				<port id="0" precision="I64" names="420"/>
			</output>
		</layer>
		<layer id="208" name="421" type="Divide" version="opset1">
			<data auto_broadcast="numpy"/>
			<input>
				<port id="0"/>
				<port id="1"/>
			</input>
			<output>
				<port id="2" precision="I64" names="421"/>
			</output>
		</layer>
		<layer id="209" name="Constant_520194337546" type="Const" version="opset1">
			<data offset="4780" size="8" shape="1" element_type="i64"/>
			<output>
				<port id="0" precision="I64">
					<dim>1</dim>
				</port>
			</output>
		</layer>
		<layer id="210" name="425" type="Unsqueeze" version="opset1">
			<input>
				<port id="0"/>
				<port id="1">
					<dim>1</dim>
				</port>
			</input>
			<output>
				<port id="2" precision="I64" names="425">
					<dim>1</dim>
				</port>
			</output>
		</layer>
		<layer id="211" name="Constant_380851945" type="Const" version="opset1">
			<data offset="10764" size="8" shape="2" element_type="i32"/>
			<output>
				<port id="0" precision="I32">
					<dim>2</dim>
				</port>
			</output>
		</layer>
		<layer id="212" name="Constant_380861946" type="Const" version="opset1">
			<data offset="4780" size="8" shape="" element_type="i64"/>
			<output>
				<port id="0" precision="I64"/>
			</output>
		</layer>
		<layer id="213" name="Gather_38087" type="Gather" version="opset8">
			<data batch_dims="0"/>
			<input>
				<port id="0">
					<dim>4</dim>
				</port>
				<port id="1">
					<dim>2</dim>
				</port>
				<port id="2"/>
			</input>
			<output>
				<port id="3" precision="I64">
					<dim>2</dim>
				</port>
			</output>
		</layer>
		<layer id="214" name="428" type="Concat" version="opset1">
			<data axis="0"/>
			<input>
				<port id="0">
					<dim>1</dim>
				</port>
				<port id="1">
					<dim>1</dim>
				</port>
				<port id="2">
					<dim>1</dim>
				</port>
				<port id="3">
					<dim>2</dim>
				</port>
			</input>
			<output>
				<port id="4" precision="I64">
					<dim>5</dim>
				</port>
			</output>
		</layer>
		<layer id="215" name="429" type="Reshape" version="opset1">
			<data special_zero="true"/>
			<input>
				<port id="0">
					<dim>1</dim>
					<dim>116</dim>
					<dim>40</dim>
					<dim>40</dim>
				</port>
				<port id="1">
					<dim>5</dim>
				</port>
			</input>
			<output>
				<port id="2" precision="FP32" names="429">
					<dim>1</dim>
					<dim>2</dim>
					<dim>58</dim>
					<dim>40</dim>
					<dim>40</dim>
				</port>
			</output>
		</layer>
		<layer id="216" name="Constant_6371950" type="Const" version="opset1">
			<data offset="10772" size="40" shape="5" element_type="i64"/>
			<output>
				<port id="0" precision="I64">
					<dim>5</dim>
				</port>
			</output>
		</layer>
		<layer id="217" name="430" type="Transpose" version="opset1">
			<input>
				<port id="0">
					<dim>1</dim>
					<dim>2</dim>
					<dim>58</dim>
					<dim>40</dim>
					<dim>40</dim>
				</port>
				<port id="1">
					<dim>5</dim>
				</port>
			</input>
			<output>
				<port id="2" precision="FP32" names="430">
					<dim>1</dim>
					<dim>58</dim>
					<dim>2</dim>
					<dim>40</dim>
					<dim>40</dim>
				</port>
			</output>
		</layer>
		<layer id="218" name="436" type="Reshape" version="opset1">
			<data special_zero="true"/>
			<input>
				<port id="0">
					<dim>1</dim>
					<dim>58</dim>
					<dim>2</dim>
					<dim>40</dim>
					<dim>40</dim>
				</port>
				<port id="1">
					<dim>4</dim>
				</port>
			</input>
			<output>
				<port id="2" precision="FP32" names="436">
					<dim>1</dim>
					<dim>116</dim>
					<dim>40</dim>
					<dim>40</dim>
				</port>
			</output>
		</layer>
		<layer id="219" name="438" type="VariadicSplit" version="opset1">
			<input>
				<port id="0">
					<dim>1</dim>
					<dim>116</dim>
					<dim>40</dim>
					<dim>40</dim>
				</port>
				<port id="1"/>
				<port id="2">
					<dim>2</dim>
				</port>
			</input>
			<output>
				<port id="3" precision="FP32" names="437">
					<dim>1</dim>
					<dim>58</dim>
					<dim>40</dim>
					<dim>40</dim>
				</port>
				<port id="4" precision="FP32" names="438">
					<dim>1</dim>
					<dim>58</dim>
					<dim>40</dim>
					<dim>40</dim>
				</port>
			</output>
		</layer>
		<layer id="220" name="Multiply_56744/fq_weights_1/scale2731637618" type="Const" version="opset1">
			<data offset="10812" size="232" shape="58,1,1,1" element_type="f32"/>
			<output>
				<port id="0" precision="FP32">
					<dim>58</dim>
					<dim>1</dim>
					<dim>1</dim>
					<dim>1</dim>
				</port>
			</output>
		</layer>
		<layer id="221" name="Multiply_57172195823389/restored_convert/quantized2730840252" type="Const" version="opset1">
			<data offset="11044" size="3364" shape="58,58,1,1" element_type="i8"/>
			<output>
				<port id="0" precision="I8">
					<dim>58</dim>
					<dim>58</dim>
					<dim>1</dim>
					<dim>1</dim>
				</port>
			</output>
		</layer>
		<layer id="222" name="Multiply_57172195823389/restored_convert/quantized/to_f32" type="Convert" version="opset1">
			<data destination_type="f32"/>
			<input>
				<port id="0">
					<dim>58</dim>
					<dim>58</dim>
					<dim>1</dim>
					<dim>1</dim>
				</port>
			</input>
			<output>
				<port id="1" precision="FP32">
					<dim>58</dim>
					<dim>58</dim>
					<dim>1</dim>
					<dim>1</dim>
				</port>
			</output>
		</layer>
		<layer id="223" name="Multiply_56744/fq_weights_1/mulpiply_by_scale" type="Multiply" version="opset1">
			<data auto_broadcast="numpy"/>
			<input>
				<port id="0">
					<dim>58</dim>
					<dim>58</dim>
					<dim>1</dim>
					<dim>1</dim>
				</port>
				<port id="1">
					<dim>58</dim>
					<dim>1</dim>
					<dim>1</dim>
					<dim>1</dim>
				</port>
			</input>
			<output>
				<port id="2" precision="FP32">
					<dim>58</dim>
					<dim>58</dim>
					<dim>1</dim>
					<dim>1</dim>
				</port>
			</output>
		</layer>
		<layer id="224" name="Multiply_56744" type="Convolution" version="opset1">
			<data auto_pad="explicit" strides="1,1" dilations="1,1" pads_begin="0,0" pads_end="0,0"/>
			<input>
				<port id="0">
					<dim>1</dim>
					<dim>58</dim>
					<dim>40</dim>
					<dim>40</dim>
				</port>
				<port id="1">
					<dim>58</dim>
					<dim>58</dim>
					<dim>1</dim>
					<dim>1</dim>
				</port>
			</input>
			<output>
				<port id="2" precision="FP32">
					<dim>1</dim>
					<dim>58</dim>
					<dim>40</dim>
					<dim>40</dim>
				</port>
			</output>
		</layer>
		<layer id="225" name="Constant_56749196137069" type="Const" version="opset1">
			<data offset="14408" size="116" shape="1,58,1,1" element_type="f16"/>
			<output>
				<port id="0" precision="FP16">
					<dim>1</dim>
					<dim>58</dim>
					<dim>1</dim>
					<dim>1</dim>
				</port>
			</output>
		</layer>
		<layer id="226" name="Constant_56749196123390/restored_convert" type="Convert" version="opset1">
			<data destination_type="f32"/>
			<rt_info>
				<attribute name="decompression" version="0"/>
			</rt_info>
			<input>
				<port id="0">
					<dim>1</dim>
					<dim>58</dim>
					<dim>1</dim>
					<dim>1</dim>
				</port>
			</input>
			<output>
				<port id="1" precision="FP32">
					<dim>1</dim>
					<dim>58</dim>
					<dim>1</dim>
					<dim>1</dim>
				</port>
			</output>
		</layer>
		<layer id="227" name="440" type="Add" version="opset1">
			<data auto_broadcast="numpy"/>
			<input>
				<port id="0">
					<dim>1</dim>
					<dim>58</dim>
					<dim>40</dim>
					<dim>40</dim>
				</port>
				<port id="1">
					<dim>1</dim>
					<dim>58</dim>
					<dim>1</dim>
					<dim>1</dim>
				</port>
			</input>
			<output>
				<port id="2" precision="FP32" names="440">
					<dim>1</dim>
					<dim>58</dim>
					<dim>40</dim>
					<dim>40</dim>
				</port>
			</output>
		</layer>
		<layer id="228" name="441" type="ReLU" version="opset1">
			<input>
				<port id="0">
					<dim>1</dim>
					<dim>58</dim>
					<dim>40</dim>
					<dim>40</dim>
				</port>
			</input>
			<output>
				<port id="1" precision="FP32" names="441">
					<dim>1</dim>
					<dim>58</dim>
					<dim>40</dim>
					<dim>40</dim>
				</port>
			</output>
		</layer>
		<layer id="229" name="Multiply_56751/fq_input_0" type="FakeQuantize" version="opset1">
			<data levels="256" auto_broadcast="numpy"/>
			<input>
				<port id="0">
					<dim>1</dim>
					<dim>58</dim>
					<dim>40</dim>
					<dim>40</dim>
				</port>
				<port id="1">
					<dim>1</dim>
					<dim>58</dim>
					<dim>1</dim>
					<dim>1</dim>
				</port>
				<port id="2">
					<dim>1</dim>
					<dim>58</dim>
					<dim>1</dim>
					<dim>1</dim>
				</port>
				<port id="3">
					<dim>1</dim>
					<dim>58</dim>
					<dim>1</dim>
					<dim>1</dim>
				</port>
				<port id="4">
					<dim>1</dim>
					<dim>58</dim>
					<dim>1</dim>
					<dim>1</dim>
				</port>
			</input>
			<output>
				<port id="5" precision="FP32">
					<dim>1</dim>
					<dim>58</dim>
					<dim>40</dim>
					<dim>40</dim>
				</port>
			</output>
		</layer>
		<layer id="230" name="Multiply_56751/fq_weights_1/scale2653639358" type="Const" version="opset1">
			<data offset="14524" size="232" shape="58,1,1,1" element_type="f32"/>
			<output>
				<port id="0" precision="FP32">
					<dim>58</dim>
					<dim>1</dim>
					<dim>1</dim>
					<dim>1</dim>
				</port>
			</output>
		</layer>
		<layer id="231" name="Multiply_57181196523391/restored_convert/quantized2652837402" type="Const" version="opset1">
			<data offset="14756" size="522" shape="58,1,3,3" element_type="i8"/>
			<output>
				<port id="0" precision="I8">
					<dim>58</dim>
					<dim>1</dim>
					<dim>3</dim>
					<dim>3</dim>
				</port>
			</output>
		</layer>
		<layer id="232" name="Multiply_57181196523391/restored_convert/quantized/to_f32" type="Convert" version="opset1">
			<data destination_type="f32"/>
			<input>
				<port id="0">
					<dim>58</dim>
					<dim>1</dim>
					<dim>3</dim>
					<dim>3</dim>
				</port>
			</input>
			<output>
				<port id="1" precision="FP32">
					<dim>58</dim>
					<dim>1</dim>
					<dim>3</dim>
					<dim>3</dim>
				</port>
			</output>
		</layer>
		<layer id="233" name="Multiply_56751/fq_weights_1/mulpiply_by_scale" type="Multiply" version="opset1">
			<data auto_broadcast="numpy"/>
			<input>
				<port id="0">
					<dim>58</dim>
					<dim>1</dim>
					<dim>3</dim>
					<dim>3</dim>
				</port>
				<port id="1">
					<dim>58</dim>
					<dim>1</dim>
					<dim>1</dim>
					<dim>1</dim>
				</port>
			</input>
			<output>
				<port id="2" precision="FP32">
					<dim>58</dim>
					<dim>1</dim>
					<dim>3</dim>
					<dim>3</dim>
				</port>
			</output>
		</layer>
		<layer id="234" name="Multiply_56751/GOI_weights_part3293938704" type="Const" version="opset1">
			<data offset="4756" size="24" shape="3" element_type="i64"/>
			<output>
				<port id="0" precision="I64">
					<dim>3</dim>
				</port>
			</output>
		</layer>
		<layer id="235" name="Multiply_56751/WeightsShape" type="ShapeOf" version="opset3">
			<data output_type="i64"/>
			<input>
				<port id="0">
					<dim>58</dim>
					<dim>1</dim>
					<dim>3</dim>
					<dim>3</dim>
				</port>
			</input>
			<output>
				<port id="1" precision="I64">
					<dim>4</dim>
				</port>
			</output>
		</layer>
		<layer id="236" name="Multiply_56751/XY_weights_part_input_port_1/value3293539160" type="Const" version="opset1">
			<data offset="8" size="16" shape="2" element_type="i64"/>
			<output>
				<port id="0" precision="I64">
					<dim>2</dim>
				</port>
			</output>
		</layer>
		<layer id="237" name="Multiply_56751/XY_weights_part_input_port_2/value3293736316" type="Const" version="opset1">
			<data offset="4780" size="8" shape="" element_type="i64"/>
			<output>
				<port id="0" precision="I64"/>
			</output>
		</layer>
		<layer id="238" name="Multiply_56751/XY_weights_part" type="Gather" version="opset8">
			<data batch_dims="0"/>
			<input>
				<port id="0">
					<dim>4</dim>
				</port>
				<port id="1">
					<dim>2</dim>
				</port>
				<port id="2"/>
			</input>
			<output>
				<port id="3" precision="I64">
					<dim>2</dim>
				</port>
			</output>
		</layer>
		<layer id="239" name="Multiply_56751/weights_shape" type="Concat" version="opset1">
			<data axis="0"/>
			<input>
				<port id="0">
					<dim>3</dim>
				</port>
				<port id="1">
					<dim>2</dim>
				</port>
			</input>
			<output>
				<port id="2" precision="I64">
					<dim>5</dim>
				</port>
			</output>
		</layer>
		<layer id="240" name="32941" type="Reshape" version="opset1">
			<data special_zero="true"/>
			<input>
				<port id="0">
					<dim>58</dim>
					<dim>1</dim>
					<dim>3</dim>
					<dim>3</dim>
				</port>
				<port id="1">
					<dim>5</dim>
				</port>
			</input>
			<output>
				<port id="2" precision="FP32">
					<dim>58</dim>
					<dim>1</dim>
					<dim>1</dim>
					<dim>3</dim>
					<dim>3</dim>
				</port>
			</output>
		</layer>
		<layer id="241" name="Multiply_56751" type="GroupConvolution" version="opset1">
			<data auto_pad="explicit" strides="1,1" dilations="1,1" pads_begin="1,1" pads_end="1,1"/>
			<input>
				<port id="0">
					<dim>1</dim>
					<dim>58</dim>
					<dim>40</dim>
					<dim>40</dim>
				</port>
				<port id="1">
					<dim>58</dim>
					<dim>1</dim>
					<dim>1</dim>
					<dim>3</dim>
					<dim>3</dim>
				</port>
			</input>
			<output>
				<port id="2" precision="FP32" names="442">
					<dim>1</dim>
					<dim>58</dim>
					<dim>40</dim>
					<dim>40</dim>
				</port>
			</output>
		</layer>
		<layer id="242" name="Constant_56756196837345" type="Const" version="opset1">
			<data offset="15278" size="116" shape="1,58,1,1" element_type="f16"/>
			<output>
				<port id="0" precision="FP16">
					<dim>1</dim>
					<dim>58</dim>
					<dim>1</dim>
					<dim>1</dim>
				</port>
			</output>
		</layer>
		<layer id="243" name="Constant_56756196823392/restored_convert" type="Convert" version="opset1">
			<data destination_type="f32"/>
			<rt_info>
				<attribute name="decompression" version="0"/>
			</rt_info>
			<input>
				<port id="0">
					<dim>1</dim>
					<dim>58</dim>
					<dim>1</dim>
					<dim>1</dim>
				</port>
			</input>
			<output>
				<port id="1" precision="FP32">
					<dim>1</dim>
					<dim>58</dim>
					<dim>1</dim>
					<dim>1</dim>
				</port>
			</output>
		</layer>
		<layer id="244" name="443" type="Add" version="opset1">
			<data auto_broadcast="numpy"/>
			<input>
				<port id="0">
					<dim>1</dim>
					<dim>58</dim>
					<dim>40</dim>
					<dim>40</dim>
				</port>
				<port id="1">
					<dim>1</dim>
					<dim>58</dim>
					<dim>1</dim>
					<dim>1</dim>
				</port>
			</input>
			<output>
				<port id="2" precision="FP32" names="443">
					<dim>1</dim>
					<dim>58</dim>
					<dim>40</dim>
					<dim>40</dim>
				</port>
			</output>
		</layer>
		<layer id="245" name="Multiply_56758/fq_input_0" type="FakeQuantize" version="opset1">
			<data levels="256" auto_broadcast="numpy"/>
			<input>
				<port id="0">
					<dim>1</dim>
					<dim>58</dim>
					<dim>40</dim>
					<dim>40</dim>
				</port>
				<port id="1"/>
				<port id="2"/>
				<port id="3"/>
				<port id="4"/>
			</input>
			<output>
				<port id="5" precision="FP32">
					<dim>1</dim>
					<dim>58</dim>
					<dim>40</dim>
					<dim>40</dim>
				</port>
			</output>
		</layer>
		<layer id="246" name="Multiply_56758/fq_weights_1/scale2758638419" type="Const" version="opset1">
			<data offset="15394" size="232" shape="58,1,1,1" element_type="f32"/>
			<output>
				<port id="0" precision="FP32">
					<dim>58</dim>
					<dim>1</dim>
					<dim>1</dim>
					<dim>1</dim>
				</port>
			</output>
		</layer>
		<layer id="247" name="Multiply_57189197123393/restored_convert/quantized2757836982" type="Const" version="opset1">
			<data offset="15626" size="3364" shape="58,58,1,1" element_type="i8"/>
			<output>
				<port id="0" precision="I8">
					<dim>58</dim>
					<dim>58</dim>
					<dim>1</dim>
					<dim>1</dim>
				</port>
			</output>
		</layer>
		<layer id="248" name="Multiply_57189197123393/restored_convert/quantized/to_f32" type="Convert" version="opset1">
			<data destination_type="f32"/>
			<input>
				<port id="0">
					<dim>58</dim>
					<dim>58</dim>
					<dim>1</dim>
					<dim>1</dim>
				</port>
			</input>
			<output>
				<port id="1" precision="FP32">
					<dim>58</dim>
					<dim>58</dim>
					<dim>1</dim>
					<dim>1</dim>
				</port>
			</output>
		</layer>
		<layer id="249" name="Multiply_56758/fq_weights_1/mulpiply_by_scale" type="Multiply" version="opset1">
			<data auto_broadcast="numpy"/>
			<input>
				<port id="0">
					<dim>58</dim>
					<dim>58</dim>
					<dim>1</dim>
					<dim>1</dim>
				</port>
				<port id="1">
					<dim>58</dim>
					<dim>1</dim>
					<dim>1</dim>
					<dim>1</dim>
				</port>
			</input>
			<output>
				<port id="2" precision="FP32">
					<dim>58</dim>
					<dim>58</dim>
					<dim>1</dim>
					<dim>1</dim>
				</port>
			</output>
		</layer>
		<layer id="250" name="Multiply_56758" type="Convolution" version="opset1">
			<data auto_pad="explicit" strides="1,1" dilations="1,1" pads_begin="0,0" pads_end="0,0"/>
			<input>
				<port id="0">
					<dim>1</dim>
					<dim>58</dim>
					<dim>40</dim>
					<dim>40</dim>
				</port>
				<port id="1">
					<dim>58</dim>
					<dim>58</dim>
					<dim>1</dim>
					<dim>1</dim>
				</port>
			</input>
			<output>
				<port id="2" precision="FP32">
					<dim>1</dim>
					<dim>58</dim>
					<dim>40</dim>
					<dim>40</dim>
				</port>
			</output>
		</layer>
		<layer id="251" name="Constant_56763197438674" type="Const" version="opset1">
			<data offset="18990" size="116" shape="1,58,1,1" element_type="f16"/>
			<output>
				<port id="0" precision="FP16">
					<dim>1</dim>
					<dim>58</dim>
					<dim>1</dim>
					<dim>1</dim>
				</port>
			</output>
		</layer>
		<layer id="252" name="Constant_56763197423394/restored_convert" type="Convert" version="opset1">
			<data destination_type="f32"/>
			<rt_info>
				<attribute name="decompression" version="0"/>
			</rt_info>
			<input>
				<port id="0">
					<dim>1</dim>
					<dim>58</dim>
					<dim>1</dim>
					<dim>1</dim>
				</port>
			</input>
			<output>
				<port id="1" precision="FP32">
					<dim>1</dim>
					<dim>58</dim>
					<dim>1</dim>
					<dim>1</dim>
				</port>
			</output>
		</layer>
		<layer id="253" name="445" type="Add" version="opset1">
			<data auto_broadcast="numpy"/>
			<input>
				<port id="0">
					<dim>1</dim>
					<dim>58</dim>
					<dim>40</dim>
					<dim>40</dim>
				</port>
				<port id="1">
					<dim>1</dim>
					<dim>58</dim>
					<dim>1</dim>
					<dim>1</dim>
				</port>
			</input>
			<output>
				<port id="2" precision="FP32" names="445">
					<dim>1</dim>
					<dim>58</dim>
					<dim>40</dim>
					<dim>40</dim>
				</port>
			</output>
		</layer>
		<layer id="254" name="446" type="ReLU" version="opset1">
			<input>
				<port id="0">
					<dim>1</dim>
					<dim>58</dim>
					<dim>40</dim>
					<dim>40</dim>
				</port>
			</input>
			<output>
				<port id="1" precision="FP32" names="446">
					<dim>1</dim>
					<dim>58</dim>
					<dim>40</dim>
					<dim>40</dim>
				</port>
			</output>
		</layer>
		<layer id="255" name="447/fq_input_1" type="FakeQuantize" version="opset1">
			<data levels="256" auto_broadcast="numpy"/>
			<input>
				<port id="0">
					<dim>1</dim>
					<dim>58</dim>
					<dim>40</dim>
					<dim>40</dim>
				</port>
				<port id="1"/>
				<port id="2"/>
				<port id="3"/>
				<port id="4"/>
			</input>
			<output>
				<port id="5" precision="FP32">
					<dim>1</dim>
					<dim>58</dim>
					<dim>40</dim>
					<dim>40</dim>
				</port>
			</output>
		</layer>
		<layer id="256" name="447" type="Concat" version="opset1">
			<data axis="1"/>
			<input>
				<port id="0">
					<dim>1</dim>
					<dim>58</dim>
					<dim>40</dim>
					<dim>40</dim>
				</port>
				<port id="1">
					<dim>1</dim>
					<dim>58</dim>
					<dim>40</dim>
					<dim>40</dim>
				</port>
			</input>
			<output>
				<port id="2" precision="FP32" names="447">
					<dim>1</dim>
					<dim>116</dim>
					<dim>40</dim>
					<dim>40</dim>
				</port>
			</output>
		</layer>
		<layer id="257" name="Constant_42323197840189" type="Const" version="opset1">
			<data offset="4780" size="8" shape="1" element_type="i64"/>
			<output>
				<port id="0" precision="I64">
					<dim>1</dim>
				</port>
			</output>
		</layer>
		<layer id="258" name="464197936337" type="Const" version="opset1">
			<data offset="10752" size="8" shape="1" element_type="i64"/>
			<output>
				<port id="0" precision="I64" names="464">
					<dim>1</dim>
				</port>
			</output>
		</layer>
		<layer id="259" name="449" type="ShapeOf" version="opset3">
			<data output_type="i64"/>
			<input>
				<port id="0">
					<dim>1</dim>
					<dim>116</dim>
					<dim>40</dim>
					<dim>40</dim>
				</port>
			</input>
			<output>
				<port id="1" precision="I64" names="449,452,455,458,475">
					<dim>4</dim>
				</port>
			</output>
		</layer>
		<layer id="260" name="4511981" type="Const" version="opset1">
			<data offset="10760" size="4" shape="" element_type="i32"/>
			<output>
				<port id="0" precision="I32" names="451"/>
			</output>
		</layer>
		<layer id="261" name="Constant_8201982" type="Const" version="opset1">
			<data offset="4780" size="8" shape="" element_type="i64"/>
			<output>
				<port id="0" precision="I64"/>
			</output>
		</layer>
		<layer id="262" name="453" type="Gather" version="opset8">
			<data batch_dims="0"/>
			<input>
				<port id="0">
					<dim>4</dim>
				</port>
				<port id="1"/>
				<port id="2"/>
			</input>
			<output>
				<port id="3" precision="I64" names="453"/>
			</output>
		</layer>
		<layer id="263" name="460198440336" type="Const" version="opset1">
			<data offset="10752" size="8" shape="" element_type="i64"/>
			<output>
				<port id="0" precision="I64" names="460"/>
			</output>
		</layer>
		<layer id="264" name="461" type="Divide" version="opset1">
			<data auto_broadcast="numpy"/>
			<input>
				<port id="0"/>
				<port id="1"/>
			</input>
			<output>
				<port id="2" precision="I64" names="461"/>
			</output>
		</layer>
		<layer id="265" name="Constant_837198638275" type="Const" version="opset1">
			<data offset="4780" size="8" shape="1" element_type="i64"/>
			<output>
				<port id="0" precision="I64">
					<dim>1</dim>
				</port>
			</output>
		</layer>
		<layer id="266" name="465" type="Unsqueeze" version="opset1">
			<input>
				<port id="0"/>
				<port id="1">
					<dim>1</dim>
				</port>
			</input>
			<output>
				<port id="2" precision="I64" names="465">
					<dim>1</dim>
				</port>
			</output>
		</layer>
		<layer id="267" name="Constant_381021988" type="Const" version="opset1">
			<data offset="10764" size="8" shape="2" element_type="i32"/>
			<output>
				<port id="0" precision="I32">
					<dim>2</dim>
				</port>
			</output>
		</layer>
		<layer id="268" name="Constant_381031989" type="Const" version="opset1">
			<data offset="4780" size="8" shape="" element_type="i64"/>
			<output>
				<port id="0" precision="I64"/>
			</output>
		</layer>
		<layer id="269" name="Gather_38104" type="Gather" version="opset8">
			<data batch_dims="0"/>
			<input>
				<port id="0">
					<dim>4</dim>
				</port>
				<port id="1">
					<dim>2</dim>
				</port>
				<port id="2"/>
			</input>
			<output>
				<port id="3" precision="I64">
					<dim>2</dim>
				</port>
			</output>
		</layer>
		<layer id="270" name="468" type="Concat" version="opset1">
			<data axis="0"/>
			<input>
				<port id="0">
					<dim>1</dim>
				</port>
				<port id="1">
					<dim>1</dim>
				</port>
				<port id="2">
					<dim>1</dim>
				</port>
				<port id="3">
					<dim>2</dim>
				</port>
			</input>
			<output>
				<port id="4" precision="I64">
					<dim>5</dim>
				</port>
			</output>
		</layer>
		<layer id="271" name="469" type="Reshape" version="opset1">
			<data special_zero="true"/>
			<input>
				<port id="0">
					<dim>1</dim>
					<dim>116</dim>
					<dim>40</dim>
					<dim>40</dim>
				</port>
				<port id="1">
					<dim>5</dim>
				</port>
			</input>
			<output>
				<port id="2" precision="FP32" names="469">
					<dim>1</dim>
					<dim>2</dim>
					<dim>58</dim>
					<dim>40</dim>
					<dim>40</dim>
				</port>
			</output>
		</layer>
		<layer id="272" name="Constant_9541993" type="Const" version="opset1">
			<data offset="10772" size="40" shape="5" element_type="i64"/>
			<output>
				<port id="0" precision="I64">
					<dim>5</dim>
				</port>
			</output>
		</layer>
		<layer id="273" name="470" type="Transpose" version="opset1">
			<input>
				<port id="0">
					<dim>1</dim>
					<dim>2</dim>
					<dim>58</dim>
					<dim>40</dim>
					<dim>40</dim>
				</port>
				<port id="1">
					<dim>5</dim>
				</port>
			</input>
			<output>
				<port id="2" precision="FP32" names="470">
					<dim>1</dim>
					<dim>58</dim>
					<dim>2</dim>
					<dim>40</dim>
					<dim>40</dim>
				</port>
			</output>
		</layer>
		<layer id="274" name="476" type="Reshape" version="opset1">
			<data special_zero="true"/>
			<input>
				<port id="0">
					<dim>1</dim>
					<dim>58</dim>
					<dim>2</dim>
					<dim>40</dim>
					<dim>40</dim>
				</port>
				<port id="1">
					<dim>4</dim>
				</port>
			</input>
			<output>
				<port id="2" precision="FP32" names="476">
					<dim>1</dim>
					<dim>116</dim>
					<dim>40</dim>
					<dim>40</dim>
				</port>
			</output>
		</layer>
		<layer id="275" name="478" type="VariadicSplit" version="opset1">
			<input>
				<port id="0">
					<dim>1</dim>
					<dim>116</dim>
					<dim>40</dim>
					<dim>40</dim>
				</port>
				<port id="1"/>
				<port id="2">
					<dim>2</dim>
				</port>
			</input>
			<output>
				<port id="3" precision="FP32" names="477">
					<dim>1</dim>
					<dim>58</dim>
					<dim>40</dim>
					<dim>40</dim>
				</port>
				<port id="4" precision="FP32" names="478">
					<dim>1</dim>
					<dim>58</dim>
					<dim>40</dim>
					<dim>40</dim>
				</port>
			</output>
		</layer>
		<layer id="276" name="Multiply_56765/fq_weights_1/scale2683637576" type="Const" version="opset1">
			<data offset="19106" size="232" shape="58,1,1,1" element_type="f32"/>
			<output>
				<port id="0" precision="FP32">
					<dim>58</dim>
					<dim>1</dim>
					<dim>1</dim>
					<dim>1</dim>
				</port>
			</output>
		</layer>
		<layer id="277" name="Multiply_57198200123406/restored_convert/quantized2682838293" type="Const" version="opset1">
			<data offset="19338" size="3364" shape="58,58,1,1" element_type="i8"/>
			<output>
				<port id="0" precision="I8">
					<dim>58</dim>
					<dim>58</dim>
					<dim>1</dim>
					<dim>1</dim>
				</port>
			</output>
		</layer>
		<layer id="278" name="Multiply_57198200123406/restored_convert/quantized/to_f32" type="Convert" version="opset1">
			<data destination_type="f32"/>
			<input>
				<port id="0">
					<dim>58</dim>
					<dim>58</dim>
					<dim>1</dim>
					<dim>1</dim>
				</port>
			</input>
			<output>
				<port id="1" precision="FP32">
					<dim>58</dim>
					<dim>58</dim>
					<dim>1</dim>
					<dim>1</dim>
				</port>
			</output>
		</layer>
		<layer id="279" name="Multiply_56765/fq_weights_1/mulpiply_by_scale" type="Multiply" version="opset1">
			<data auto_broadcast="numpy"/>
			<input>
				<port id="0">
					<dim>58</dim>
					<dim>58</dim>
					<dim>1</dim>
					<dim>1</dim>
				</port>
				<port id="1">
					<dim>58</dim>
					<dim>1</dim>
					<dim>1</dim>
					<dim>1</dim>
				</port>
			</input>
			<output>
				<port id="2" precision="FP32">
					<dim>58</dim>
					<dim>58</dim>
					<dim>1</dim>
					<dim>1</dim>
				</port>
			</output>
		</layer>
		<layer id="280" name="Multiply_56765" type="Convolution" version="opset1">
			<data auto_pad="explicit" strides="1,1" dilations="1,1" pads_begin="0,0" pads_end="0,0"/>
			<input>
				<port id="0">
					<dim>1</dim>
					<dim>58</dim>
					<dim>40</dim>
					<dim>40</dim>
				</port>
				<port id="1">
					<dim>58</dim>
					<dim>58</dim>
					<dim>1</dim>
					<dim>1</dim>
				</port>
			</input>
			<output>
				<port id="2" precision="FP32">
					<dim>1</dim>
					<dim>58</dim>
					<dim>40</dim>
					<dim>40</dim>
				</port>
			</output>
		</layer>
		<layer id="281" name="Constant_56770200439670" type="Const" version="opset1">
			<data offset="22702" size="116" shape="1,58,1,1" element_type="f16"/>
			<output>
				<port id="0" precision="FP16">
					<dim>1</dim>
					<dim>58</dim>
					<dim>1</dim>
					<dim>1</dim>
				</port>
			</output>
		</layer>
		<layer id="282" name="Constant_56770200423407/restored_convert" type="Convert" version="opset1">
			<data destination_type="f32"/>
			<rt_info>
				<attribute name="decompression" version="0"/>
			</rt_info>
			<input>
				<port id="0">
					<dim>1</dim>
					<dim>58</dim>
					<dim>1</dim>
					<dim>1</dim>
				</port>
			</input>
			<output>
				<port id="1" precision="FP32">
					<dim>1</dim>
					<dim>58</dim>
					<dim>1</dim>
					<dim>1</dim>
				</port>
			</output>
		</layer>
		<layer id="283" name="480" type="Add" version="opset1">
			<data auto_broadcast="numpy"/>
			<input>
				<port id="0">
					<dim>1</dim>
					<dim>58</dim>
					<dim>40</dim>
					<dim>40</dim>
				</port>
				<port id="1">
					<dim>1</dim>
					<dim>58</dim>
					<dim>1</dim>
					<dim>1</dim>
				</port>
			</input>
			<output>
				<port id="2" precision="FP32" names="480">
					<dim>1</dim>
					<dim>58</dim>
					<dim>40</dim>
					<dim>40</dim>
				</port>
			</output>
		</layer>
		<layer id="284" name="481" type="ReLU" version="opset1">
			<input>
				<port id="0">
					<dim>1</dim>
					<dim>58</dim>
					<dim>40</dim>
					<dim>40</dim>
				</port>
			</input>
			<output>
				<port id="1" precision="FP32" names="481">
					<dim>1</dim>
					<dim>58</dim>
					<dim>40</dim>
					<dim>40</dim>
				</port>
			</output>
		</layer>
		<layer id="285" name="Multiply_56772/fq_input_0" type="FakeQuantize" version="opset1">
			<data levels="256" auto_broadcast="numpy"/>
			<input>
				<port id="0">
					<dim>1</dim>
					<dim>58</dim>
					<dim>40</dim>
					<dim>40</dim>
				</port>
				<port id="1">
					<dim>1</dim>
					<dim>58</dim>
					<dim>1</dim>
					<dim>1</dim>
				</port>
				<port id="2">
					<dim>1</dim>
					<dim>58</dim>
					<dim>1</dim>
					<dim>1</dim>
				</port>
				<port id="3">
					<dim>1</dim>
					<dim>58</dim>
					<dim>1</dim>
					<dim>1</dim>
				</port>
				<port id="4">
					<dim>1</dim>
					<dim>58</dim>
					<dim>1</dim>
					<dim>1</dim>
				</port>
			</input>
			<output>
				<port id="5" precision="FP32">
					<dim>1</dim>
					<dim>58</dim>
					<dim>40</dim>
					<dim>40</dim>
				</port>
			</output>
		</layer>
		<layer id="286" name="Multiply_56772/fq_weights_1/scale2614639049" type="Const" version="opset1">
			<data offset="22818" size="232" shape="58,1,1,1" element_type="f32"/>
			<output>
				<port id="0" precision="FP32">
					<dim>58</dim>
					<dim>1</dim>
					<dim>1</dim>
					<dim>1</dim>
				</port>
			</output>
		</layer>
		<layer id="287" name="Multiply_57207200823408/restored_convert/quantized2613839199" type="Const" version="opset1">
			<data offset="23050" size="522" shape="58,1,3,3" element_type="i8"/>
			<output>
				<port id="0" precision="I8">
					<dim>58</dim>
					<dim>1</dim>
					<dim>3</dim>
					<dim>3</dim>
				</port>
			</output>
		</layer>
		<layer id="288" name="Multiply_57207200823408/restored_convert/quantized/to_f32" type="Convert" version="opset1">
			<data destination_type="f32"/>
			<input>
				<port id="0">
					<dim>58</dim>
					<dim>1</dim>
					<dim>3</dim>
					<dim>3</dim>
				</port>
			</input>
			<output>
				<port id="1" precision="FP32">
					<dim>58</dim>
					<dim>1</dim>
					<dim>3</dim>
					<dim>3</dim>
				</port>
			</output>
		</layer>
		<layer id="289" name="Multiply_56772/fq_weights_1/mulpiply_by_scale" type="Multiply" version="opset1">
			<data auto_broadcast="numpy"/>
			<input>
				<port id="0">
					<dim>58</dim>
					<dim>1</dim>
					<dim>3</dim>
					<dim>3</dim>
				</port>
				<port id="1">
					<dim>58</dim>
					<dim>1</dim>
					<dim>1</dim>
					<dim>1</dim>
				</port>
			</input>
			<output>
				<port id="2" precision="FP32">
					<dim>58</dim>
					<dim>1</dim>
					<dim>3</dim>
					<dim>3</dim>
				</port>
			</output>
		</layer>
		<layer id="290" name="Multiply_56772/GOI_weights_part3295337939" type="Const" version="opset1">
			<data offset="4756" size="24" shape="3" element_type="i64"/>
			<output>
				<port id="0" precision="I64">
					<dim>3</dim>
				</port>
			</output>
		</layer>
		<layer id="291" name="Multiply_56772/WeightsShape" type="ShapeOf" version="opset3">
			<data output_type="i64"/>
			<input>
				<port id="0">
					<dim>58</dim>
					<dim>1</dim>
					<dim>3</dim>
					<dim>3</dim>
				</port>
			</input>
			<output>
				<port id="1" precision="I64">
					<dim>4</dim>
				</port>
			</output>
		</layer>
		<layer id="292" name="Multiply_56772/XY_weights_part_input_port_1/value3294936838" type="Const" version="opset1">
			<data offset="8" size="16" shape="2" element_type="i64"/>
			<output>
				<port id="0" precision="I64">
					<dim>2</dim>
				</port>
			</output>
		</layer>
		<layer id="293" name="Multiply_56772/XY_weights_part_input_port_2/value3295138956" type="Const" version="opset1">
			<data offset="4780" size="8" shape="" element_type="i64"/>
			<output>
				<port id="0" precision="I64"/>
			</output>
		</layer>
		<layer id="294" name="Multiply_56772/XY_weights_part" type="Gather" version="opset8">
			<data batch_dims="0"/>
			<input>
				<port id="0">
					<dim>4</dim>
				</port>
				<port id="1">
					<dim>2</dim>
				</port>
				<port id="2"/>
			</input>
			<output>
				<port id="3" precision="I64">
					<dim>2</dim>
				</port>
			</output>
		</layer>
		<layer id="295" name="Multiply_56772/weights_shape" type="Concat" version="opset1">
			<data axis="0"/>
			<input>
				<port id="0">
					<dim>3</dim>
				</port>
				<port id="1">
					<dim>2</dim>
				</port>
			</input>
			<output>
				<port id="2" precision="I64">
					<dim>5</dim>
				</port>
			</output>
		</layer>
		<layer id="296" name="32955" type="Reshape" version="opset1">
			<data special_zero="true"/>
			<input>
				<port id="0">
					<dim>58</dim>
					<dim>1</dim>
					<dim>3</dim>
					<dim>3</dim>
				</port>
				<port id="1">
					<dim>5</dim>
				</port>
			</input>
			<output>
				<port id="2" precision="FP32">
					<dim>58</dim>
					<dim>1</dim>
					<dim>1</dim>
					<dim>3</dim>
					<dim>3</dim>
				</port>
			</output>
		</layer>
		<layer id="297" name="Multiply_56772" type="GroupConvolution" version="opset1">
			<data auto_pad="explicit" strides="1,1" dilations="1,1" pads_begin="1,1" pads_end="1,1"/>
			<input>
				<port id="0">
					<dim>1</dim>
					<dim>58</dim>
					<dim>40</dim>
					<dim>40</dim>
				</port>
				<port id="1">
					<dim>58</dim>
					<dim>1</dim>
					<dim>1</dim>
					<dim>3</dim>
					<dim>3</dim>
				</port>
			</input>
			<output>
				<port id="2" precision="FP32" names="482">
					<dim>1</dim>
					<dim>58</dim>
					<dim>40</dim>
					<dim>40</dim>
				</port>
			</output>
		</layer>
		<layer id="298" name="Constant_56777201136277" type="Const" version="opset1">
			<data offset="23572" size="116" shape="1,58,1,1" element_type="f16"/>
			<output>
				<port id="0" precision="FP16">
					<dim>1</dim>
					<dim>58</dim>
					<dim>1</dim>
					<dim>1</dim>
				</port>
			</output>
		</layer>
		<layer id="299" name="Constant_56777201123409/restored_convert" type="Convert" version="opset1">
			<data destination_type="f32"/>
			<rt_info>
				<attribute name="decompression" version="0"/>
			</rt_info>
			<input>
				<port id="0">
					<dim>1</dim>
					<dim>58</dim>
					<dim>1</dim>
					<dim>1</dim>
				</port>
			</input>
			<output>
				<port id="1" precision="FP32">
					<dim>1</dim>
					<dim>58</dim>
					<dim>1</dim>
					<dim>1</dim>
				</port>
			</output>
		</layer>
		<layer id="300" name="483" type="Add" version="opset1">
			<data auto_broadcast="numpy"/>
			<input>
				<port id="0">
					<dim>1</dim>
					<dim>58</dim>
					<dim>40</dim>
					<dim>40</dim>
				</port>
				<port id="1">
					<dim>1</dim>
					<dim>58</dim>
					<dim>1</dim>
					<dim>1</dim>
				</port>
			</input>
			<output>
				<port id="2" precision="FP32" names="483">
					<dim>1</dim>
					<dim>58</dim>
					<dim>40</dim>
					<dim>40</dim>
				</port>
			</output>
		</layer>
		<layer id="301" name="Multiply_56779/fq_input_0" type="FakeQuantize" version="opset1">
			<data levels="256" auto_broadcast="numpy"/>
			<input>
				<port id="0">
					<dim>1</dim>
					<dim>58</dim>
					<dim>40</dim>
					<dim>40</dim>
				</port>
				<port id="1"/>
				<port id="2"/>
				<port id="3"/>
				<port id="4"/>
			</input>
			<output>
				<port id="5" precision="FP32">
					<dim>1</dim>
					<dim>58</dim>
					<dim>40</dim>
					<dim>40</dim>
				</port>
			</output>
		</layer>
		<layer id="302" name="Multiply_56779/fq_weights_1/scale2611639754" type="Const" version="opset1">
			<data offset="23688" size="232" shape="58,1,1,1" element_type="f32"/>
			<output>
				<port id="0" precision="FP32">
					<dim>58</dim>
					<dim>1</dim>
					<dim>1</dim>
					<dim>1</dim>
				</port>
			</output>
		</layer>
		<layer id="303" name="Multiply_57215201423410/restored_convert/quantized2610837417" type="Const" version="opset1">
			<data offset="23920" size="3364" shape="58,58,1,1" element_type="i8"/>
			<output>
				<port id="0" precision="I8">
					<dim>58</dim>
					<dim>58</dim>
					<dim>1</dim>
					<dim>1</dim>
				</port>
			</output>
		</layer>
		<layer id="304" name="Multiply_57215201423410/restored_convert/quantized/to_f32" type="Convert" version="opset1">
			<data destination_type="f32"/>
			<input>
				<port id="0">
					<dim>58</dim>
					<dim>58</dim>
					<dim>1</dim>
					<dim>1</dim>
				</port>
			</input>
			<output>
				<port id="1" precision="FP32">
					<dim>58</dim>
					<dim>58</dim>
					<dim>1</dim>
					<dim>1</dim>
				</port>
			</output>
		</layer>
		<layer id="305" name="Multiply_56779/fq_weights_1/mulpiply_by_scale" type="Multiply" version="opset1">
			<data auto_broadcast="numpy"/>
			<input>
				<port id="0">
					<dim>58</dim>
					<dim>58</dim>
					<dim>1</dim>
					<dim>1</dim>
				</port>
				<port id="1">
					<dim>58</dim>
					<dim>1</dim>
					<dim>1</dim>
					<dim>1</dim>
				</port>
			</input>
			<output>
				<port id="2" precision="FP32">
					<dim>58</dim>
					<dim>58</dim>
					<dim>1</dim>
					<dim>1</dim>
				</port>
			</output>
		</layer>
		<layer id="306" name="Multiply_56779" type="Convolution" version="opset1">
			<data auto_pad="explicit" strides="1,1" dilations="1,1" pads_begin="0,0" pads_end="0,0"/>
			<input>
				<port id="0">
					<dim>1</dim>
					<dim>58</dim>
					<dim>40</dim>
					<dim>40</dim>
				</port>
				<port id="1">
					<dim>58</dim>
					<dim>58</dim>
					<dim>1</dim>
					<dim>1</dim>
				</port>
			</input>
			<output>
				<port id="2" precision="FP32">
					<dim>1</dim>
					<dim>58</dim>
					<dim>40</dim>
					<dim>40</dim>
				</port>
			</output>
		</layer>
		<layer id="307" name="Constant_56784201737570" type="Const" version="opset1">
			<data offset="27284" size="116" shape="1,58,1,1" element_type="f16"/>
			<output>
				<port id="0" precision="FP16">
					<dim>1</dim>
					<dim>58</dim>
					<dim>1</dim>
					<dim>1</dim>
				</port>
			</output>
		</layer>
		<layer id="308" name="Constant_56784201723411/restored_convert" type="Convert" version="opset1">
			<data destination_type="f32"/>
			<rt_info>
				<attribute name="decompression" version="0"/>
			</rt_info>
			<input>
				<port id="0">
					<dim>1</dim>
					<dim>58</dim>
					<dim>1</dim>
					<dim>1</dim>
				</port>
			</input>
			<output>
				<port id="1" precision="FP32">
					<dim>1</dim>
					<dim>58</dim>
					<dim>1</dim>
					<dim>1</dim>
				</port>
			</output>
		</layer>
		<layer id="309" name="485" type="Add" version="opset1">
			<data auto_broadcast="numpy"/>
			<input>
				<port id="0">
					<dim>1</dim>
					<dim>58</dim>
					<dim>40</dim>
					<dim>40</dim>
				</port>
				<port id="1">
					<dim>1</dim>
					<dim>58</dim>
					<dim>1</dim>
					<dim>1</dim>
				</port>
			</input>
			<output>
				<port id="2" precision="FP32" names="485">
					<dim>1</dim>
					<dim>58</dim>
					<dim>40</dim>
					<dim>40</dim>
				</port>
			</output>
		</layer>
		<layer id="310" name="486" type="ReLU" version="opset1">
			<input>
				<port id="0">
					<dim>1</dim>
					<dim>58</dim>
					<dim>40</dim>
					<dim>40</dim>
				</port>
			</input>
			<output>
				<port id="1" precision="FP32" names="486">
					<dim>1</dim>
					<dim>58</dim>
					<dim>40</dim>
					<dim>40</dim>
				</port>
			</output>
		</layer>
		<layer id="311" name="487/fq_input_1" type="FakeQuantize" version="opset1">
			<data levels="256" auto_broadcast="numpy"/>
			<input>
				<port id="0">
					<dim>1</dim>
					<dim>58</dim>
					<dim>40</dim>
					<dim>40</dim>
				</port>
				<port id="1"/>
				<port id="2"/>
				<port id="3"/>
				<port id="4"/>
			</input>
			<output>
				<port id="5" precision="FP32">
					<dim>1</dim>
					<dim>58</dim>
					<dim>40</dim>
					<dim>40</dim>
				</port>
			</output>
		</layer>
		<layer id="312" name="487" type="Concat" version="opset1">
			<data axis="1"/>
			<input>
				<port id="0">
					<dim>1</dim>
					<dim>58</dim>
					<dim>40</dim>
					<dim>40</dim>
				</port>
				<port id="1">
					<dim>1</dim>
					<dim>58</dim>
					<dim>40</dim>
					<dim>40</dim>
				</port>
			</input>
			<output>
				<port id="2" precision="FP32" names="487">
					<dim>1</dim>
					<dim>116</dim>
					<dim>40</dim>
					<dim>40</dim>
				</port>
			</output>
		</layer>
		<layer id="313" name="Constant_42425202139121" type="Const" version="opset1">
			<data offset="4780" size="8" shape="1" element_type="i64"/>
			<output>
				<port id="0" precision="I64">
					<dim>1</dim>
				</port>
			</output>
		</layer>
		<layer id="314" name="504202238098" type="Const" version="opset1">
			<data offset="10752" size="8" shape="1" element_type="i64"/>
			<output>
				<port id="0" precision="I64" names="504">
					<dim>1</dim>
				</port>
			</output>
		</layer>
		<layer id="315" name="489" type="ShapeOf" version="opset3">
			<data output_type="i64"/>
			<input>
				<port id="0">
					<dim>1</dim>
					<dim>116</dim>
					<dim>40</dim>
					<dim>40</dim>
				</port>
			</input>
			<output>
				<port id="1" precision="I64" names="489,492,495,498,515">
					<dim>4</dim>
				</port>
			</output>
		</layer>
		<layer id="316" name="4912024" type="Const" version="opset1">
			<data offset="10760" size="4" shape="" element_type="i32"/>
			<output>
				<port id="0" precision="I32" names="491"/>
			</output>
		</layer>
		<layer id="317" name="Constant_11372025" type="Const" version="opset1">
			<data offset="4780" size="8" shape="" element_type="i64"/>
			<output>
				<port id="0" precision="I64"/>
			</output>
		</layer>
		<layer id="318" name="493" type="Gather" version="opset8">
			<data batch_dims="0"/>
			<input>
				<port id="0">
					<dim>4</dim>
				</port>
				<port id="1"/>
				<port id="2"/>
			</input>
			<output>
				<port id="3" precision="I64" names="493"/>
			</output>
		</layer>
		<layer id="319" name="500202737789" type="Const" version="opset1">
			<data offset="10752" size="8" shape="" element_type="i64"/>
			<output>
				<port id="0" precision="I64" names="500"/>
			</output>
		</layer>
		<layer id="320" name="501" type="Divide" version="opset1">
			<data auto_broadcast="numpy"/>
			<input>
				<port id="0"/>
				<port id="1"/>
			</input>
			<output>
				<port id="2" precision="I64" names="501"/>
			</output>
		</layer>
		<layer id="321" name="Constant_1154202937804" type="Const" version="opset1">
			<data offset="4780" size="8" shape="1" element_type="i64"/>
			<output>
				<port id="0" precision="I64">
					<dim>1</dim>
				</port>
			</output>
		</layer>
		<layer id="322" name="505" type="Unsqueeze" version="opset1">
			<input>
				<port id="0"/>
				<port id="1">
					<dim>1</dim>
				</port>
			</input>
			<output>
				<port id="2" precision="I64" names="505">
					<dim>1</dim>
				</port>
			</output>
		</layer>
		<layer id="323" name="Constant_381192031" type="Const" version="opset1">
			<data offset="10764" size="8" shape="2" element_type="i32"/>
			<output>
				<port id="0" precision="I32">
					<dim>2</dim>
				</port>
			</output>
		</layer>
		<layer id="324" name="Constant_381202032" type="Const" version="opset1">
			<data offset="4780" size="8" shape="" element_type="i64"/>
			<output>
				<port id="0" precision="I64"/>
			</output>
		</layer>
		<layer id="325" name="Gather_38121" type="Gather" version="opset8">
			<data batch_dims="0"/>
			<input>
				<port id="0">
					<dim>4</dim>
				</port>
				<port id="1">
					<dim>2</dim>
				</port>
				<port id="2"/>
			</input>
			<output>
				<port id="3" precision="I64">
					<dim>2</dim>
				</port>
			</output>
		</layer>
		<layer id="326" name="508" type="Concat" version="opset1">
			<data axis="0"/>
			<input>
				<port id="0">
					<dim>1</dim>
				</port>
				<port id="1">
					<dim>1</dim>
				</port>
				<port id="2">
					<dim>1</dim>
				</port>
				<port id="3">
					<dim>2</dim>
				</port>
			</input>
			<output>
				<port id="4" precision="I64">
					<dim>5</dim>
				</port>
			</output>
		</layer>
		<layer id="327" name="509" type="Reshape" version="opset1">
			<data special_zero="true"/>
			<input>
				<port id="0">
					<dim>1</dim>
					<dim>116</dim>
					<dim>40</dim>
					<dim>40</dim>
				</port>
				<port id="1">
					<dim>5</dim>
				</port>
			</input>
			<output>
				<port id="2" precision="FP32" names="509">
					<dim>1</dim>
					<dim>2</dim>
					<dim>58</dim>
					<dim>40</dim>
					<dim>40</dim>
				</port>
			</output>
		</layer>
		<layer id="328" name="Constant_12712036" type="Const" version="opset1">
			<data offset="10772" size="40" shape="5" element_type="i64"/>
			<output>
				<port id="0" precision="I64">
					<dim>5</dim>
				</port>
			</output>
		</layer>
		<layer id="329" name="510" type="Transpose" version="opset1">
			<input>
				<port id="0">
					<dim>1</dim>
					<dim>2</dim>
					<dim>58</dim>
					<dim>40</dim>
					<dim>40</dim>
				</port>
				<port id="1">
					<dim>5</dim>
				</port>
			</input>
			<output>
				<port id="2" precision="FP32" names="510">
					<dim>1</dim>
					<dim>58</dim>
					<dim>2</dim>
					<dim>40</dim>
					<dim>40</dim>
				</port>
			</output>
		</layer>
		<layer id="330" name="516" type="Reshape" version="opset1">
			<data special_zero="true"/>
			<input>
				<port id="0">
					<dim>1</dim>
					<dim>58</dim>
					<dim>2</dim>
					<dim>40</dim>
					<dim>40</dim>
				</port>
				<port id="1">
					<dim>4</dim>
				</port>
			</input>
			<output>
				<port id="2" precision="FP32" names="516">
					<dim>1</dim>
					<dim>116</dim>
					<dim>40</dim>
					<dim>40</dim>
				</port>
			</output>
		</layer>
		<layer id="331" name="518" type="VariadicSplit" version="opset1">
			<input>
				<port id="0">
					<dim>1</dim>
					<dim>116</dim>
					<dim>40</dim>
					<dim>40</dim>
				</port>
				<port id="1"/>
				<port id="2">
					<dim>2</dim>
				</port>
			</input>
			<output>
				<port id="3" precision="FP32" names="517">
					<dim>1</dim>
					<dim>58</dim>
					<dim>40</dim>
					<dim>40</dim>
				</port>
				<port id="4" precision="FP32" names="518">
					<dim>1</dim>
					<dim>58</dim>
					<dim>40</dim>
					<dim>40</dim>
				</port>
			</output>
		</layer>
		<layer id="332" name="Multiply_56786/fq_weights_1/scale2635639946" type="Const" version="opset1">
			<data offset="27400" size="232" shape="58,1,1,1" element_type="f32"/>
			<output>
				<port id="0" precision="FP32">
					<dim>58</dim>
					<dim>1</dim>
					<dim>1</dim>
					<dim>1</dim>
				</port>
			</output>
		</layer>
		<layer id="333" name="Multiply_57224204423423/restored_convert/quantized2634838317" type="Const" version="opset1">
			<data offset="27632" size="3364" shape="58,58,1,1" element_type="i8"/>
			<output>
				<port id="0" precision="I8">
					<dim>58</dim>
					<dim>58</dim>
					<dim>1</dim>
					<dim>1</dim>
				</port>
			</output>
		</layer>
		<layer id="334" name="Multiply_57224204423423/restored_convert/quantized/to_f32" type="Convert" version="opset1">
			<data destination_type="f32"/>
			<input>
				<port id="0">
					<dim>58</dim>
					<dim>58</dim>
					<dim>1</dim>
					<dim>1</dim>
				</port>
			</input>
			<output>
				<port id="1" precision="FP32">
					<dim>58</dim>
					<dim>58</dim>
					<dim>1</dim>
					<dim>1</dim>
				</port>
			</output>
		</layer>
		<layer id="335" name="Multiply_56786/fq_weights_1/mulpiply_by_scale" type="Multiply" version="opset1">
			<data auto_broadcast="numpy"/>
			<input>
				<port id="0">
					<dim>58</dim>
					<dim>58</dim>
					<dim>1</dim>
					<dim>1</dim>
				</port>
				<port id="1">
					<dim>58</dim>
					<dim>1</dim>
					<dim>1</dim>
					<dim>1</dim>
				</port>
			</input>
			<output>
				<port id="2" precision="FP32">
					<dim>58</dim>
					<dim>58</dim>
					<dim>1</dim>
					<dim>1</dim>
				</port>
			</output>
		</layer>
		<layer id="336" name="Multiply_56786" type="Convolution" version="opset1">
			<data auto_pad="explicit" strides="1,1" dilations="1,1" pads_begin="0,0" pads_end="0,0"/>
			<input>
				<port id="0">
					<dim>1</dim>
					<dim>58</dim>
					<dim>40</dim>
					<dim>40</dim>
				</port>
				<port id="1">
					<dim>58</dim>
					<dim>58</dim>
					<dim>1</dim>
					<dim>1</dim>
				</port>
			</input>
			<output>
				<port id="2" precision="FP32">
					<dim>1</dim>
					<dim>58</dim>
					<dim>40</dim>
					<dim>40</dim>
				</port>
			</output>
		</layer>
		<layer id="337" name="Constant_56791204740318" type="Const" version="opset1">
			<data offset="30996" size="116" shape="1,58,1,1" element_type="f16"/>
			<output>
				<port id="0" precision="FP16">
					<dim>1</dim>
					<dim>58</dim>
					<dim>1</dim>
					<dim>1</dim>
				</port>
			</output>
		</layer>
		<layer id="338" name="Constant_56791204723424/restored_convert" type="Convert" version="opset1">
			<data destination_type="f32"/>
			<rt_info>
				<attribute name="decompression" version="0"/>
			</rt_info>
			<input>
				<port id="0">
					<dim>1</dim>
					<dim>58</dim>
					<dim>1</dim>
					<dim>1</dim>
				</port>
			</input>
			<output>
				<port id="1" precision="FP32">
					<dim>1</dim>
					<dim>58</dim>
					<dim>1</dim>
					<dim>1</dim>
				</port>
			</output>
		</layer>
		<layer id="339" name="520" type="Add" version="opset1">
			<data auto_broadcast="numpy"/>
			<input>
				<port id="0">
					<dim>1</dim>
					<dim>58</dim>
					<dim>40</dim>
					<dim>40</dim>
				</port>
				<port id="1">
					<dim>1</dim>
					<dim>58</dim>
					<dim>1</dim>
					<dim>1</dim>
				</port>
			</input>
			<output>
				<port id="2" precision="FP32" names="520">
					<dim>1</dim>
					<dim>58</dim>
					<dim>40</dim>
					<dim>40</dim>
				</port>
			</output>
		</layer>
		<layer id="340" name="521" type="ReLU" version="opset1">
			<input>
				<port id="0">
					<dim>1</dim>
					<dim>58</dim>
					<dim>40</dim>
					<dim>40</dim>
				</port>
			</input>
			<output>
				<port id="1" precision="FP32" names="521">
					<dim>1</dim>
					<dim>58</dim>
					<dim>40</dim>
					<dim>40</dim>
				</port>
			</output>
		</layer>
		<layer id="341" name="Multiply_56793/fq_input_0" type="FakeQuantize" version="opset1">
			<data levels="256" auto_broadcast="numpy"/>
			<input>
				<port id="0">
					<dim>1</dim>
					<dim>58</dim>
					<dim>40</dim>
					<dim>40</dim>
				</port>
				<port id="1">
					<dim>1</dim>
					<dim>58</dim>
					<dim>1</dim>
					<dim>1</dim>
				</port>
				<port id="2">
					<dim>1</dim>
					<dim>58</dim>
					<dim>1</dim>
					<dim>1</dim>
				</port>
				<port id="3">
					<dim>1</dim>
					<dim>58</dim>
					<dim>1</dim>
					<dim>1</dim>
				</port>
				<port id="4">
					<dim>1</dim>
					<dim>58</dim>
					<dim>1</dim>
					<dim>1</dim>
				</port>
			</input>
			<output>
				<port id="5" precision="FP32">
					<dim>1</dim>
					<dim>58</dim>
					<dim>40</dim>
					<dim>40</dim>
				</port>
			</output>
		</layer>
		<layer id="342" name="Multiply_56793/fq_weights_1/scale2593637366" type="Const" version="opset1">
			<data offset="31112" size="232" shape="58,1,1,1" element_type="f32"/>
			<output>
				<port id="0" precision="FP32">
					<dim>58</dim>
					<dim>1</dim>
					<dim>1</dim>
					<dim>1</dim>
				</port>
			</output>
		</layer>
		<layer id="343" name="Multiply_57233205123425/restored_convert/quantized2592838950" type="Const" version="opset1">
			<data offset="31344" size="522" shape="58,1,3,3" element_type="i8"/>
			<output>
				<port id="0" precision="I8">
					<dim>58</dim>
					<dim>1</dim>
					<dim>3</dim>
					<dim>3</dim>
				</port>
			</output>
		</layer>
		<layer id="344" name="Multiply_57233205123425/restored_convert/quantized/to_f32" type="Convert" version="opset1">
			<data destination_type="f32"/>
			<input>
				<port id="0">
					<dim>58</dim>
					<dim>1</dim>
					<dim>3</dim>
					<dim>3</dim>
				</port>
			</input>
			<output>
				<port id="1" precision="FP32">
					<dim>58</dim>
					<dim>1</dim>
					<dim>3</dim>
					<dim>3</dim>
				</port>
			</output>
		</layer>
		<layer id="345" name="Multiply_56793/fq_weights_1/mulpiply_by_scale" type="Multiply" version="opset1">
			<data auto_broadcast="numpy"/>
			<input>
				<port id="0">
					<dim>58</dim>
					<dim>1</dim>
					<dim>3</dim>
					<dim>3</dim>
				</port>
				<port id="1">
					<dim>58</dim>
					<dim>1</dim>
					<dim>1</dim>
					<dim>1</dim>
				</port>
			</input>
			<output>
				<port id="2" precision="FP32">
					<dim>58</dim>
					<dim>1</dim>
					<dim>3</dim>
					<dim>3</dim>
				</port>
			</output>
		</layer>
		<layer id="346" name="Multiply_56793/GOI_weights_part3296737204" type="Const" version="opset1">
			<data offset="4756" size="24" shape="3" element_type="i64"/>
			<output>
				<port id="0" precision="I64">
					<dim>3</dim>
				</port>
			</output>
		</layer>
		<layer id="347" name="Multiply_56793/WeightsShape" type="ShapeOf" version="opset3">
			<data output_type="i64"/>
			<input>
				<port id="0">
					<dim>58</dim>
					<dim>1</dim>
					<dim>3</dim>
					<dim>3</dim>
				</port>
			</input>
			<output>
				<port id="1" precision="I64">
					<dim>4</dim>
				</port>
			</output>
		</layer>
		<layer id="348" name="Multiply_56793/XY_weights_part_input_port_1/value3296338386" type="Const" version="opset1">
			<data offset="8" size="16" shape="2" element_type="i64"/>
			<output>
				<port id="0" precision="I64">
					<dim>2</dim>
				</port>
			</output>
		</layer>
		<layer id="349" name="Multiply_56793/XY_weights_part_input_port_2/value3296540369" type="Const" version="opset1">
			<data offset="4780" size="8" shape="" element_type="i64"/>
			<output>
				<port id="0" precision="I64"/>
			</output>
		</layer>
		<layer id="350" name="Multiply_56793/XY_weights_part" type="Gather" version="opset8">
			<data batch_dims="0"/>
			<input>
				<port id="0">
					<dim>4</dim>
				</port>
				<port id="1">
					<dim>2</dim>
				</port>
				<port id="2"/>
			</input>
			<output>
				<port id="3" precision="I64">
					<dim>2</dim>
				</port>
			</output>
		</layer>
		<layer id="351" name="Multiply_56793/weights_shape" type="Concat" version="opset1">
			<data axis="0"/>
			<input>
				<port id="0">
					<dim>3</dim>
				</port>
				<port id="1">
					<dim>2</dim>
				</port>
			</input>
			<output>
				<port id="2" precision="I64">
					<dim>5</dim>
				</port>
			</output>
		</layer>
		<layer id="352" name="32969" type="Reshape" version="opset1">
			<data special_zero="true"/>
			<input>
				<port id="0">
					<dim>58</dim>
					<dim>1</dim>
					<dim>3</dim>
					<dim>3</dim>
				</port>
				<port id="1">
					<dim>5</dim>
				</port>
			</input>
			<output>
				<port id="2" precision="FP32">
					<dim>58</dim>
					<dim>1</dim>
					<dim>1</dim>
					<dim>3</dim>
					<dim>3</dim>
				</port>
			</output>
		</layer>
		<layer id="353" name="Multiply_56793" type="GroupConvolution" version="opset1">
			<data auto_pad="explicit" strides="1,1" dilations="1,1" pads_begin="1,1" pads_end="1,1"/>
			<input>
				<port id="0">
					<dim>1</dim>
					<dim>58</dim>
					<dim>40</dim>
					<dim>40</dim>
				</port>
				<port id="1">
					<dim>58</dim>
					<dim>1</dim>
					<dim>1</dim>
					<dim>3</dim>
					<dim>3</dim>
				</port>
			</input>
			<output>
				<port id="2" precision="FP32" names="522">
					<dim>1</dim>
					<dim>58</dim>
					<dim>40</dim>
					<dim>40</dim>
				</port>
			</output>
		</layer>
		<layer id="354" name="Constant_56798205437942" type="Const" version="opset1">
			<data offset="31866" size="116" shape="1,58,1,1" element_type="f16"/>
			<output>
				<port id="0" precision="FP16">
					<dim>1</dim>
					<dim>58</dim>
					<dim>1</dim>
					<dim>1</dim>
				</port>
			</output>
		</layer>
		<layer id="355" name="Constant_56798205423426/restored_convert" type="Convert" version="opset1">
			<data destination_type="f32"/>
			<rt_info>
				<attribute name="decompression" version="0"/>
			</rt_info>
			<input>
				<port id="0">
					<dim>1</dim>
					<dim>58</dim>
					<dim>1</dim>
					<dim>1</dim>
				</port>
			</input>
			<output>
				<port id="1" precision="FP32">
					<dim>1</dim>
					<dim>58</dim>
					<dim>1</dim>
					<dim>1</dim>
				</port>
			</output>
		</layer>
		<layer id="356" name="523" type="Add" version="opset1">
			<data auto_broadcast="numpy"/>
			<input>
				<port id="0">
					<dim>1</dim>
					<dim>58</dim>
					<dim>40</dim>
					<dim>40</dim>
				</port>
				<port id="1">
					<dim>1</dim>
					<dim>58</dim>
					<dim>1</dim>
					<dim>1</dim>
				</port>
			</input>
			<output>
				<port id="2" precision="FP32" names="523">
					<dim>1</dim>
					<dim>58</dim>
					<dim>40</dim>
					<dim>40</dim>
				</port>
			</output>
		</layer>
		<layer id="357" name="Multiply_56800/fq_input_0" type="FakeQuantize" version="opset1">
			<data levels="256" auto_broadcast="numpy"/>
			<input>
				<port id="0">
					<dim>1</dim>
					<dim>58</dim>
					<dim>40</dim>
					<dim>40</dim>
				</port>
				<port id="1"/>
				<port id="2"/>
				<port id="3"/>
				<port id="4"/>
			</input>
			<output>
				<port id="5" precision="FP32">
					<dim>1</dim>
					<dim>58</dim>
					<dim>40</dim>
					<dim>40</dim>
				</port>
			</output>
		</layer>
		<layer id="358" name="Multiply_56800/fq_weights_1/scale2644638263" type="Const" version="opset1">
			<data offset="31982" size="232" shape="58,1,1,1" element_type="f32"/>
			<output>
				<port id="0" precision="FP32">
					<dim>58</dim>
					<dim>1</dim>
					<dim>1</dim>
					<dim>1</dim>
				</port>
			</output>
		</layer>
		<layer id="359" name="Multiply_57241205723427/restored_convert/quantized2643838713" type="Const" version="opset1">
			<data offset="32214" size="3364" shape="58,58,1,1" element_type="i8"/>
			<output>
				<port id="0" precision="I8">
					<dim>58</dim>
					<dim>58</dim>
					<dim>1</dim>
					<dim>1</dim>
				</port>
			</output>
		</layer>
		<layer id="360" name="Multiply_57241205723427/restored_convert/quantized/to_f32" type="Convert" version="opset1">
			<data destination_type="f32"/>
			<input>
				<port id="0">
					<dim>58</dim>
					<dim>58</dim>
					<dim>1</dim>
					<dim>1</dim>
				</port>
			</input>
			<output>
				<port id="1" precision="FP32">
					<dim>58</dim>
					<dim>58</dim>
					<dim>1</dim>
					<dim>1</dim>
				</port>
			</output>
		</layer>
		<layer id="361" name="Multiply_56800/fq_weights_1/mulpiply_by_scale" type="Multiply" version="opset1">
			<data auto_broadcast="numpy"/>
			<input>
				<port id="0">
					<dim>58</dim>
					<dim>58</dim>
					<dim>1</dim>
					<dim>1</dim>
				</port>
				<port id="1">
					<dim>58</dim>
					<dim>1</dim>
					<dim>1</dim>
					<dim>1</dim>
				</port>
			</input>
			<output>
				<port id="2" precision="FP32">
					<dim>58</dim>
					<dim>58</dim>
					<dim>1</dim>
					<dim>1</dim>
				</port>
			</output>
		</layer>
		<layer id="362" name="Multiply_56800" type="Convolution" version="opset1">
			<data auto_pad="explicit" strides="1,1" dilations="1,1" pads_begin="0,0" pads_end="0,0"/>
			<input>
				<port id="0">
					<dim>1</dim>
					<dim>58</dim>
					<dim>40</dim>
					<dim>40</dim>
				</port>
				<port id="1">
					<dim>58</dim>
					<dim>58</dim>
					<dim>1</dim>
					<dim>1</dim>
				</port>
			</input>
			<output>
				<port id="2" precision="FP32">
					<dim>1</dim>
					<dim>58</dim>
					<dim>40</dim>
					<dim>40</dim>
				</port>
			</output>
		</layer>
		<layer id="363" name="Constant_56805206038059" type="Const" version="opset1">
			<data offset="35578" size="116" shape="1,58,1,1" element_type="f16"/>
			<output>
				<port id="0" precision="FP16">
					<dim>1</dim>
					<dim>58</dim>
					<dim>1</dim>
					<dim>1</dim>
				</port>
			</output>
		</layer>
		<layer id="364" name="Constant_56805206023428/restored_convert" type="Convert" version="opset1">
			<data destination_type="f32"/>
			<rt_info>
				<attribute name="decompression" version="0"/>
			</rt_info>
			<input>
				<port id="0">
					<dim>1</dim>
					<dim>58</dim>
					<dim>1</dim>
					<dim>1</dim>
				</port>
			</input>
			<output>
				<port id="1" precision="FP32">
					<dim>1</dim>
					<dim>58</dim>
					<dim>1</dim>
					<dim>1</dim>
				</port>
			</output>
		</layer>
		<layer id="365" name="525" type="Add" version="opset1">
			<data auto_broadcast="numpy"/>
			<input>
				<port id="0">
					<dim>1</dim>
					<dim>58</dim>
					<dim>40</dim>
					<dim>40</dim>
				</port>
				<port id="1">
					<dim>1</dim>
					<dim>58</dim>
					<dim>1</dim>
					<dim>1</dim>
				</port>
			</input>
			<output>
				<port id="2" precision="FP32" names="525">
					<dim>1</dim>
					<dim>58</dim>
					<dim>40</dim>
					<dim>40</dim>
				</port>
			</output>
		</layer>
		<layer id="366" name="526" type="ReLU" version="opset1">
			<input>
				<port id="0">
					<dim>1</dim>
					<dim>58</dim>
					<dim>40</dim>
					<dim>40</dim>
				</port>
			</input>
			<output>
				<port id="1" precision="FP32" names="526">
					<dim>1</dim>
					<dim>58</dim>
					<dim>40</dim>
					<dim>40</dim>
				</port>
			</output>
		</layer>
		<layer id="367" name="527/fq_input_1" type="FakeQuantize" version="opset1">
			<data levels="256" auto_broadcast="numpy"/>
			<input>
				<port id="0">
					<dim>1</dim>
					<dim>58</dim>
					<dim>40</dim>
					<dim>40</dim>
				</port>
				<port id="1"/>
				<port id="2"/>
				<port id="3"/>
				<port id="4"/>
			</input>
			<output>
				<port id="5" precision="FP32">
					<dim>1</dim>
					<dim>58</dim>
					<dim>40</dim>
					<dim>40</dim>
				</port>
			</output>
		</layer>
		<layer id="368" name="527" type="Concat" version="opset1">
			<data axis="1"/>
			<input>
				<port id="0">
					<dim>1</dim>
					<dim>58</dim>
					<dim>40</dim>
					<dim>40</dim>
				</port>
				<port id="1">
					<dim>1</dim>
					<dim>58</dim>
					<dim>40</dim>
					<dim>40</dim>
				</port>
			</input>
			<output>
				<port id="2" precision="FP32" names="527">
					<dim>1</dim>
					<dim>116</dim>
					<dim>40</dim>
					<dim>40</dim>
				</port>
			</output>
		</layer>
		<layer id="369" name="Constant_42527206436715" type="Const" version="opset1">
			<data offset="4780" size="8" shape="1" element_type="i64"/>
			<output>
				<port id="0" precision="I64">
					<dim>1</dim>
				</port>
			</output>
		</layer>
		<layer id="370" name="544206536322" type="Const" version="opset1">
			<data offset="10752" size="8" shape="1" element_type="i64"/>
			<output>
				<port id="0" precision="I64" names="544">
					<dim>1</dim>
				</port>
			</output>
		</layer>
		<layer id="371" name="529" type="ShapeOf" version="opset3">
			<data output_type="i64"/>
			<input>
				<port id="0">
					<dim>1</dim>
					<dim>116</dim>
					<dim>40</dim>
					<dim>40</dim>
				</port>
			</input>
			<output>
				<port id="1" precision="I64" names="529,532,535,538,555">
					<dim>4</dim>
				</port>
			</output>
		</layer>
		<layer id="372" name="5312067" type="Const" version="opset1">
			<data offset="10760" size="4" shape="" element_type="i32"/>
			<output>
				<port id="0" precision="I32" names="531"/>
			</output>
		</layer>
		<layer id="373" name="Constant_14542068" type="Const" version="opset1">
			<data offset="4780" size="8" shape="" element_type="i64"/>
			<output>
				<port id="0" precision="I64"/>
			</output>
		</layer>
		<layer id="374" name="533" type="Gather" version="opset8">
			<data batch_dims="0"/>
			<input>
				<port id="0">
					<dim>4</dim>
				</port>
				<port id="1"/>
				<port id="2"/>
			</input>
			<output>
				<port id="3" precision="I64" names="533"/>
			</output>
		</layer>
		<layer id="375" name="540207037438" type="Const" version="opset1">
			<data offset="10752" size="8" shape="" element_type="i64"/>
			<output>
				<port id="0" precision="I64" names="540"/>
			</output>
		</layer>
		<layer id="376" name="541" type="Divide" version="opset1">
			<data auto_broadcast="numpy"/>
			<input>
				<port id="0"/>
				<port id="1"/>
			</input>
			<output>
				<port id="2" precision="I64" names="541"/>
			</output>
		</layer>
		<layer id="377" name="Constant_1471207239658" type="Const" version="opset1">
			<data offset="4780" size="8" shape="1" element_type="i64"/>
			<output>
				<port id="0" precision="I64">
					<dim>1</dim>
				</port>
			</output>
		</layer>
		<layer id="378" name="545" type="Unsqueeze" version="opset1">
			<input>
				<port id="0"/>
				<port id="1">
					<dim>1</dim>
				</port>
			</input>
			<output>
				<port id="2" precision="I64" names="545">
					<dim>1</dim>
				</port>
			</output>
		</layer>
		<layer id="379" name="Constant_381362074" type="Const" version="opset1">
			<data offset="10764" size="8" shape="2" element_type="i32"/>
			<output>
				<port id="0" precision="I32">
					<dim>2</dim>
				</port>
			</output>
		</layer>
		<layer id="380" name="Constant_381372075" type="Const" version="opset1">
			<data offset="4780" size="8" shape="" element_type="i64"/>
			<output>
				<port id="0" precision="I64"/>
			</output>
		</layer>
		<layer id="381" name="Gather_38138" type="Gather" version="opset8">
			<data batch_dims="0"/>
			<input>
				<port id="0">
					<dim>4</dim>
				</port>
				<port id="1">
					<dim>2</dim>
				</port>
				<port id="2"/>
			</input>
			<output>
				<port id="3" precision="I64">
					<dim>2</dim>
				</port>
			</output>
		</layer>
		<layer id="382" name="548" type="Concat" version="opset1">
			<data axis="0"/>
			<input>
				<port id="0">
					<dim>1</dim>
				</port>
				<port id="1">
					<dim>1</dim>
				</port>
				<port id="2">
					<dim>1</dim>
				</port>
				<port id="3">
					<dim>2</dim>
				</port>
			</input>
			<output>
				<port id="4" precision="I64">
					<dim>5</dim>
				</port>
			</output>
		</layer>
		<layer id="383" name="549" type="Reshape" version="opset1">
			<data special_zero="true"/>
			<input>
				<port id="0">
					<dim>1</dim>
					<dim>116</dim>
					<dim>40</dim>
					<dim>40</dim>
				</port>
				<port id="1">
					<dim>5</dim>
				</port>
			</input>
			<output>
				<port id="2" precision="FP32" names="549">
					<dim>1</dim>
					<dim>2</dim>
					<dim>58</dim>
					<dim>40</dim>
					<dim>40</dim>
				</port>
			</output>
		</layer>
		<layer id="384" name="Constant_15882079" type="Const" version="opset1">
			<data offset="10772" size="40" shape="5" element_type="i64"/>
			<output>
				<port id="0" precision="I64">
					<dim>5</dim>
				</port>
			</output>
		</layer>
		<layer id="385" name="550" type="Transpose" version="opset1">
			<input>
				<port id="0">
					<dim>1</dim>
					<dim>2</dim>
					<dim>58</dim>
					<dim>40</dim>
					<dim>40</dim>
				</port>
				<port id="1">
					<dim>5</dim>
				</port>
			</input>
			<output>
				<port id="2" precision="FP32" names="550">
					<dim>1</dim>
					<dim>58</dim>
					<dim>2</dim>
					<dim>40</dim>
					<dim>40</dim>
				</port>
			</output>
		</layer>
		<layer id="386" name="556" type="Reshape" version="opset1">
			<data special_zero="true"/>
			<input>
				<port id="0">
					<dim>1</dim>
					<dim>58</dim>
					<dim>2</dim>
					<dim>40</dim>
					<dim>40</dim>
				</port>
				<port id="1">
					<dim>4</dim>
				</port>
			</input>
			<output>
				<port id="2" precision="FP32" names="556">
					<dim>1</dim>
					<dim>116</dim>
					<dim>40</dim>
					<dim>40</dim>
				</port>
			</output>
		</layer>
		<layer id="387" name="1043/WithoutBiases/fq_weights_1/scale2557636685" type="Const" version="opset1">
			<data offset="35694" size="192" shape="48,1,1,1" element_type="f32"/>
			<output>
				<port id="0" precision="FP32">
					<dim>48</dim>
					<dim>1</dim>
					<dim>1</dim>
					<dim>1</dim>
				</port>
			</output>
		</layer>
		<layer id="388" name="neck.lateral_convs.0.conv.weight208323438/restored_convert/quantized2556837795" type="Const" version="opset1">
			<data offset="35886" size="5568" shape="48,116,1,1" element_type="i8"/>
			<output>
				<port id="0" precision="I8">
					<dim>48</dim>
					<dim>116</dim>
					<dim>1</dim>
					<dim>1</dim>
				</port>
			</output>
		</layer>
		<layer id="389" name="neck.lateral_convs.0.conv.weight208323438/restored_convert/quantized/to_f32" type="Convert" version="opset1">
			<data destination_type="f32"/>
			<input>
				<port id="0">
					<dim>48</dim>
					<dim>116</dim>
					<dim>1</dim>
					<dim>1</dim>
				</port>
			</input>
			<output>
				<port id="1" precision="FP32">
					<dim>48</dim>
					<dim>116</dim>
					<dim>1</dim>
					<dim>1</dim>
				</port>
			</output>
		</layer>
		<layer id="390" name="1043/WithoutBiases/fq_weights_1/mulpiply_by_scale" type="Multiply" version="opset1">
			<data auto_broadcast="numpy"/>
			<input>
				<port id="0">
					<dim>48</dim>
					<dim>116</dim>
					<dim>1</dim>
					<dim>1</dim>
				</port>
				<port id="1">
					<dim>48</dim>
					<dim>1</dim>
					<dim>1</dim>
					<dim>1</dim>
				</port>
			</input>
			<output>
				<port id="2" precision="FP32">
					<dim>48</dim>
					<dim>116</dim>
					<dim>1</dim>
					<dim>1</dim>
				</port>
			</output>
		</layer>
		<layer id="391" name="1043/WithoutBiases" type="Convolution" version="opset1">
			<data auto_pad="explicit" strides="1,1" dilations="1,1" pads_begin="0,0" pads_end="0,0"/>
			<input>
				<port id="0">
					<dim>1</dim>
					<dim>116</dim>
					<dim>40</dim>
					<dim>40</dim>
				</port>
				<port id="1">
					<dim>48</dim>
					<dim>116</dim>
					<dim>1</dim>
					<dim>1</dim>
				</port>
			</input>
			<output>
				<port id="2" precision="FP32">
					<dim>1</dim>
					<dim>48</dim>
					<dim>40</dim>
					<dim>40</dim>
				</port>
			</output>
		</layer>
		<layer id="392" name="Reshape_5655208637468" type="Const" version="opset1">
			<data offset="41454" size="96" shape="1,48,1,1" element_type="f16"/>
			<output>
				<port id="0" precision="FP16">
					<dim>1</dim>
					<dim>48</dim>
					<dim>1</dim>
					<dim>1</dim>
				</port>
			</output>
		</layer>
		<layer id="393" name="Reshape_5655208623439/restored_convert" type="Convert" version="opset1">
			<data destination_type="f32"/>
			<rt_info>
				<attribute name="decompression" version="0"/>
			</rt_info>
			<input>
				<port id="0">
					<dim>1</dim>
					<dim>48</dim>
					<dim>1</dim>
					<dim>1</dim>
				</port>
			</input>
			<output>
				<port id="1" precision="FP32">
					<dim>1</dim>
					<dim>48</dim>
					<dim>1</dim>
					<dim>1</dim>
				</port>
			</output>
		</layer>
		<layer id="394" name="1043" type="Add" version="opset1">
			<data auto_broadcast="numpy"/>
			<input>
				<port id="0">
					<dim>1</dim>
					<dim>48</dim>
					<dim>40</dim>
					<dim>40</dim>
				</port>
				<port id="1">
					<dim>1</dim>
					<dim>48</dim>
					<dim>1</dim>
					<dim>1</dim>
				</port>
			</input>
			<output>
				<port id="2" precision="FP32" names="1043">
					<dim>1</dim>
					<dim>48</dim>
					<dim>40</dim>
					<dim>40</dim>
				</port>
			</output>
		</layer>
		<layer id="395" name="1103/fq_input_0" type="FakeQuantize" version="opset1">
			<data levels="256" auto_broadcast="numpy"/>
			<input>
				<port id="0">
					<dim>1</dim>
					<dim>48</dim>
					<dim>40</dim>
					<dim>40</dim>
				</port>
				<port id="1"/>
				<port id="2"/>
				<port id="3"/>
				<port id="4"/>
			</input>
			<output>
				<port id="5" precision="FP32">
					<dim>1</dim>
					<dim>48</dim>
					<dim>40</dim>
					<dim>40</dim>
				</port>
			</output>
		</layer>
		<layer id="396" name="7268727239349" type="Const" version="opset1">
			<data offset="41550" size="4" shape="" element_type="f32"/>
			<output>
				<port id="0" precision="FP32"/>
			</output>
		</layer>
		<layer id="397" name="7269727337981" type="Const" version="opset1">
			<data offset="41554" size="4" shape="" element_type="f32"/>
			<output>
				<port id="0" precision="FP32"/>
			</output>
		</layer>
		<layer id="398" name="7270727438563" type="Const" version="opset1">
			<data offset="41550" size="4" shape="" element_type="f32"/>
			<output>
				<port id="0" precision="FP32"/>
			</output>
		</layer>
		<layer id="399" name="7271727538299" type="Const" version="opset1">
			<data offset="41554" size="4" shape="" element_type="f32"/>
			<output>
				<port id="0" precision="FP32"/>
			</output>
		</layer>
		<layer id="400" name="1092266936712" type="Const" version="opset1">
			<data offset="41558" size="8" shape="2" element_type="f32"/>
			<output>
				<port id="0" precision="FP32" names="1092">
					<dim>2</dim>
				</port>
			</output>
		</layer>
		<layer id="401" name="8518852239319" type="Const" version="opset1">
			<data offset="41566" size="4" shape="" element_type="f32"/>
			<output>
				<port id="0" precision="FP32"/>
			</output>
		</layer>
		<layer id="402" name="8519852337321" type="Const" version="opset1">
			<data offset="41570" size="4" shape="" element_type="f32"/>
			<output>
				<port id="0" precision="FP32"/>
			</output>
		</layer>
		<layer id="403" name="8520852437945" type="Const" version="opset1">
			<data offset="41566" size="4" shape="" element_type="f32"/>
			<output>
				<port id="0" precision="FP32"/>
			</output>
		</layer>
		<layer id="404" name="8521852536262" type="Const" version="opset1">
			<data offset="41570" size="4" shape="" element_type="f32"/>
			<output>
				<port id="0" precision="FP32"/>
			</output>
		</layer>
		<layer id="405" name="119571196137813" type="Const" version="opset1">
			<data offset="0" size="4" shape="" element_type="f32"/>
			<output>
				<port id="0" precision="FP32"/>
			</output>
		</layer>
		<layer id="406" name="119581196240549" type="Const" version="opset1">
			<data offset="41574" size="4" shape="" element_type="f32"/>
			<output>
				<port id="0" precision="FP32"/>
			</output>
		</layer>
		<layer id="407" name="119591196336949" type="Const" version="opset1">
			<data offset="0" size="4" shape="" element_type="f32"/>
			<output>
				<port id="0" precision="FP32"/>
			</output>
		</layer>
		<layer id="408" name="119601196437660" type="Const" version="opset1">
			<data offset="41574" size="4" shape="" element_type="f32"/>
			<output>
				<port id="0" precision="FP32"/>
			</output>
		</layer>
		<layer id="409" name="9728973237588" type="Const" version="opset1">
			<data offset="41578" size="4" shape="" element_type="f32"/>
			<output>
				<port id="0" precision="FP32"/>
			</output>
		</layer>
		<layer id="410" name="9729973339838" type="Const" version="opset1">
			<data offset="41582" size="4" shape="" element_type="f32"/>
			<output>
				<port id="0" precision="FP32"/>
			</output>
		</layer>
		<layer id="411" name="9730973437336" type="Const" version="opset1">
			<data offset="41578" size="4" shape="" element_type="f32"/>
			<output>
				<port id="0" precision="FP32"/>
			</output>
		</layer>
		<layer id="412" name="9731973537015" type="Const" version="opset1">
			<data offset="41582" size="4" shape="" element_type="f32"/>
			<output>
				<port id="0" precision="FP32"/>
			</output>
		</layer>
		<layer id="413" name="8668867237051" type="Const" version="opset1">
			<data offset="41586" size="464" shape="1,116,1,1" element_type="f32"/>
			<output>
				<port id="0" precision="FP32">
					<dim>1</dim>
					<dim>116</dim>
					<dim>1</dim>
					<dim>1</dim>
				</port>
			</output>
		</layer>
		<layer id="414" name="8669867336265" type="Const" version="opset1">
			<data offset="42050" size="464" shape="1,116,1,1" element_type="f32"/>
			<output>
				<port id="0" precision="FP32">
					<dim>1</dim>
					<dim>116</dim>
					<dim>1</dim>
					<dim>1</dim>
				</port>
			</output>
		</layer>
		<layer id="415" name="8670867439862" type="Const" version="opset1">
			<data offset="41586" size="464" shape="1,116,1,1" element_type="f32"/>
			<output>
				<port id="0" precision="FP32">
					<dim>1</dim>
					<dim>116</dim>
					<dim>1</dim>
					<dim>1</dim>
				</port>
			</output>
		</layer>
		<layer id="416" name="8671867538341" type="Const" version="opset1">
			<data offset="42050" size="464" shape="1,116,1,1" element_type="f32"/>
			<output>
				<port id="0" precision="FP32">
					<dim>1</dim>
					<dim>116</dim>
					<dim>1</dim>
					<dim>1</dim>
				</port>
			</output>
		</layer>
		<layer id="417" name="Constant_3973239837819" type="Const" version="opset1">
			<data offset="696" size="8" shape="" element_type="i64"/>
			<output>
				<port id="0" precision="I64"/>
			</output>
		</layer>
		<layer id="418" name="Constant_3974239939370" type="Const" version="opset1">
			<data offset="42514" size="16" shape="2" element_type="i64"/>
			<output>
				<port id="0" precision="I64">
					<dim>2</dim>
				</port>
			</output>
		</layer>
		<layer id="419" name="120171202139286" type="Const" version="opset1">
			<data offset="0" size="4" shape="" element_type="f32"/>
			<output>
				<port id="0" precision="FP32"/>
			</output>
		</layer>
		<layer id="420" name="120181202240231" type="Const" version="opset1">
			<data offset="42530" size="4" shape="" element_type="f32"/>
			<output>
				<port id="0" precision="FP32"/>
			</output>
		</layer>
		<layer id="421" name="120191202337621" type="Const" version="opset1">
			<data offset="0" size="4" shape="" element_type="f32"/>
			<output>
				<port id="0" precision="FP32"/>
			</output>
		</layer>
		<layer id="422" name="120201202436526" type="Const" version="opset1">
			<data offset="42530" size="4" shape="" element_type="f32"/>
			<output>
				<port id="0" precision="FP32"/>
			</output>
		</layer>
		<layer id="423" name="8238824240102" type="Const" version="opset1">
			<data offset="42534" size="4" shape="" element_type="f32"/>
			<output>
				<port id="0" precision="FP32"/>
			</output>
		</layer>
		<layer id="424" name="8239824339133" type="Const" version="opset1">
			<data offset="42538" size="4" shape="" element_type="f32"/>
			<output>
				<port id="0" precision="FP32"/>
			</output>
		</layer>
		<layer id="425" name="8240824438650" type="Const" version="opset1">
			<data offset="42534" size="4" shape="" element_type="f32"/>
			<output>
				<port id="0" precision="FP32"/>
			</output>
		</layer>
		<layer id="426" name="8241824540510" type="Const" version="opset1">
			<data offset="42538" size="4" shape="" element_type="f32"/>
			<output>
				<port id="0" precision="FP32"/>
			</output>
		</layer>
		<layer id="427" name="9748975239445" type="Const" version="opset1">
			<data offset="41586" size="464" shape="1,116,1,1" element_type="f32"/>
			<output>
				<port id="0" precision="FP32">
					<dim>1</dim>
					<dim>116</dim>
					<dim>1</dim>
					<dim>1</dim>
				</port>
			</output>
		</layer>
		<layer id="428" name="9749975336886" type="Const" version="opset1">
			<data offset="42542" size="464" shape="1,116,1,1" element_type="f32"/>
			<output>
				<port id="0" precision="FP32">
					<dim>1</dim>
					<dim>116</dim>
					<dim>1</dim>
					<dim>1</dim>
				</port>
			</output>
		</layer>
		<layer id="429" name="9750975436226" type="Const" version="opset1">
			<data offset="41586" size="464" shape="1,116,1,1" element_type="f32"/>
			<output>
				<port id="0" precision="FP32">
					<dim>1</dim>
					<dim>116</dim>
					<dim>1</dim>
					<dim>1</dim>
				</port>
			</output>
		</layer>
		<layer id="430" name="9751975538281" type="Const" version="opset1">
			<data offset="42542" size="464" shape="1,116,1,1" element_type="f32"/>
			<output>
				<port id="0" precision="FP32">
					<dim>1</dim>
					<dim>116</dim>
					<dim>1</dim>
					<dim>1</dim>
				</port>
			</output>
		</layer>
		<layer id="431" name="Constant_3656235537777" type="Const" version="opset1">
			<data offset="696" size="8" shape="" element_type="i64"/>
			<output>
				<port id="0" precision="I64"/>
			</output>
		</layer>
		<layer id="432" name="Constant_3657235640144" type="Const" version="opset1">
			<data offset="42514" size="16" shape="2" element_type="i64"/>
			<output>
				<port id="0" precision="I64">
					<dim>2</dim>
				</port>
			</output>
		</layer>
		<layer id="433" name="120771208136472" type="Const" version="opset1">
			<data offset="0" size="4" shape="" element_type="f32"/>
			<output>
				<port id="0" precision="FP32"/>
			</output>
		</layer>
		<layer id="434" name="120781208239535" type="Const" version="opset1">
			<data offset="43006" size="4" shape="" element_type="f32"/>
			<output>
				<port id="0" precision="FP32"/>
			</output>
		</layer>
		<layer id="435" name="120791208336763" type="Const" version="opset1">
			<data offset="0" size="4" shape="" element_type="f32"/>
			<output>
				<port id="0" precision="FP32"/>
			</output>
		</layer>
		<layer id="436" name="120801208438422" type="Const" version="opset1">
			<data offset="43006" size="4" shape="" element_type="f32"/>
			<output>
				<port id="0" precision="FP32"/>
			</output>
		</layer>
		<layer id="437" name="9268927237849" type="Const" version="opset1">
			<data offset="43010" size="4" shape="" element_type="f32"/>
			<output>
				<port id="0" precision="FP32"/>
			</output>
		</layer>
		<layer id="438" name="9269927336790" type="Const" version="opset1">
			<data offset="43014" size="4" shape="" element_type="f32"/>
			<output>
				<port id="0" precision="FP32"/>
			</output>
		</layer>
		<layer id="439" name="9270927436919" type="Const" version="opset1">
			<data offset="43010" size="4" shape="" element_type="f32"/>
			<output>
				<port id="0" precision="FP32"/>
			</output>
		</layer>
		<layer id="440" name="9271927538803" type="Const" version="opset1">
			<data offset="43014" size="4" shape="" element_type="f32"/>
			<output>
				<port id="0" precision="FP32"/>
			</output>
		</layer>
		<layer id="441" name="7848785237711" type="Const" version="opset1">
			<data offset="41586" size="464" shape="1,116,1,1" element_type="f32"/>
			<output>
				<port id="0" precision="FP32">
					<dim>1</dim>
					<dim>116</dim>
					<dim>1</dim>
					<dim>1</dim>
				</port>
			</output>
		</layer>
		<layer id="442" name="7849785338863" type="Const" version="opset1">
			<data offset="43018" size="464" shape="1,116,1,1" element_type="f32"/>
			<output>
				<port id="0" precision="FP32">
					<dim>1</dim>
					<dim>116</dim>
					<dim>1</dim>
					<dim>1</dim>
				</port>
			</output>
		</layer>
		<layer id="443" name="7850785439487" type="Const" version="opset1">
			<data offset="41586" size="464" shape="1,116,1,1" element_type="f32"/>
			<output>
				<port id="0" precision="FP32">
					<dim>1</dim>
					<dim>116</dim>
					<dim>1</dim>
					<dim>1</dim>
				</port>
			</output>
		</layer>
		<layer id="444" name="7851785538968" type="Const" version="opset1">
			<data offset="43018" size="464" shape="1,116,1,1" element_type="f32"/>
			<output>
				<port id="0" precision="FP32">
					<dim>1</dim>
					<dim>116</dim>
					<dim>1</dim>
					<dim>1</dim>
				</port>
			</output>
		</layer>
		<layer id="445" name="Constant_3339231236367" type="Const" version="opset1">
			<data offset="696" size="8" shape="" element_type="i64"/>
			<output>
				<port id="0" precision="I64"/>
			</output>
		</layer>
		<layer id="446" name="Constant_3340231338899" type="Const" version="opset1">
			<data offset="42514" size="16" shape="2" element_type="i64"/>
			<output>
				<port id="0" precision="I64">
					<dim>2</dim>
				</port>
			</output>
		</layer>
		<layer id="447" name="121371214137771" type="Const" version="opset1">
			<data offset="0" size="4" shape="" element_type="f32"/>
			<output>
				<port id="0" precision="FP32"/>
			</output>
		</layer>
		<layer id="448" name="121381214238473" type="Const" version="opset1">
			<data offset="43482" size="4" shape="" element_type="f32"/>
			<output>
				<port id="0" precision="FP32"/>
			</output>
		</layer>
		<layer id="449" name="121391214338902" type="Const" version="opset1">
			<data offset="0" size="4" shape="" element_type="f32"/>
			<output>
				<port id="0" precision="FP32"/>
			</output>
		</layer>
		<layer id="450" name="121401214438935" type="Const" version="opset1">
			<data offset="43482" size="4" shape="" element_type="f32"/>
			<output>
				<port id="0" precision="FP32"/>
			</output>
		</layer>
		<layer id="451" name="7638764236853" type="Const" version="opset1">
			<data offset="43486" size="4" shape="" element_type="f32"/>
			<output>
				<port id="0" precision="FP32"/>
			</output>
		</layer>
		<layer id="452" name="7639764337231" type="Const" version="opset1">
			<data offset="43490" size="4" shape="" element_type="f32"/>
			<output>
				<port id="0" precision="FP32"/>
			</output>
		</layer>
		<layer id="453" name="7640764439172" type="Const" version="opset1">
			<data offset="43486" size="4" shape="" element_type="f32"/>
			<output>
				<port id="0" precision="FP32"/>
			</output>
		</layer>
		<layer id="454" name="7641764536850" type="Const" version="opset1">
			<data offset="43490" size="4" shape="" element_type="f32"/>
			<output>
				<port id="0" precision="FP32"/>
			</output>
		</layer>
		<layer id="455" name="8018802236835" type="Const" version="opset1">
			<data offset="41586" size="464" shape="1,116,1,1" element_type="f32"/>
			<output>
				<port id="0" precision="FP32">
					<dim>1</dim>
					<dim>116</dim>
					<dim>1</dim>
					<dim>1</dim>
				</port>
			</output>
		</layer>
		<layer id="456" name="8019802337384" type="Const" version="opset1">
			<data offset="43494" size="464" shape="1,116,1,1" element_type="f32"/>
			<output>
				<port id="0" precision="FP32">
					<dim>1</dim>
					<dim>116</dim>
					<dim>1</dim>
					<dim>1</dim>
				</port>
			</output>
		</layer>
		<layer id="457" name="8020802436523" type="Const" version="opset1">
			<data offset="41586" size="464" shape="1,116,1,1" element_type="f32"/>
			<output>
				<port id="0" precision="FP32">
					<dim>1</dim>
					<dim>116</dim>
					<dim>1</dim>
					<dim>1</dim>
				</port>
			</output>
		</layer>
		<layer id="458" name="8021802537657" type="Const" version="opset1">
			<data offset="43494" size="464" shape="1,116,1,1" element_type="f32"/>
			<output>
				<port id="0" precision="FP32">
					<dim>1</dim>
					<dim>116</dim>
					<dim>1</dim>
					<dim>1</dim>
				</port>
			</output>
		</layer>
		<layer id="459" name="Constant_3022226939553" type="Const" version="opset1">
			<data offset="696" size="8" shape="" element_type="i64"/>
			<output>
				<port id="0" precision="I64"/>
			</output>
		</layer>
		<layer id="460" name="Constant_3023227036550" type="Const" version="opset1">
			<data offset="42514" size="16" shape="2" element_type="i64"/>
			<output>
				<port id="0" precision="I64">
					<dim>2</dim>
				</port>
			</output>
		</layer>
		<layer id="461" name="121971220138173" type="Const" version="opset1">
			<data offset="0" size="4" shape="" element_type="f32"/>
			<output>
…
		<edge from-layer="2458" from-port="3" to-layer="2459" to-port="1"/>
		<edge from-layer="2459" from-port="2" to-layer="2460" to-port="0"/>
		<edge from-layer="2460" from-port="1" to-layer="2462" to-port="0"/>
		<edge from-layer="2461" from-port="0" to-layer="2462" to-port="1"/>
		<edge from-layer="2432" from-port="2" to-layer="2463" to-port="0"/>
		<edge from-layer="2442" from-port="2" to-layer="2463" to-port="1"/>
		<edge from-layer="2452" from-port="2" to-layer="2463" to-port="2"/>
		<edge from-layer="2462" from-port="2" to-layer="2463" to-port="3"/>
		<edge from-layer="2464" from-port="0" to-layer="2465" to-port="0"/>
		<edge from-layer="1834" from-port="3" to-layer="2466" to-port="0"/>
		<edge from-layer="2465" from-port="1" to-layer="2468" to-port="0"/>
		<edge from-layer="2466" from-port="1" to-layer="2468" to-port="1"/>
		<edge from-layer="2467" from-port="0" to-layer="2468" to-port="2"/>
		<edge from-layer="2468" from-port="3" to-layer="2471" to-port="0"/>
		<edge from-layer="2469" from-port="0" to-layer="2471" to-port="1"/>
		<edge from-layer="2470" from-port="0" to-layer="2471" to-port="2"/>
		<edge from-layer="1738" from-port="5" to-layer="2512" to-port="0"/>
		<edge from-layer="2193" from-port="2" to-layer="2512" to-port="1"/>
		<edge from-layer="2512" from-port="2" to-layer="2513" to-port="0"/>
		<edge from-layer="2511" from-port="0" to-layer="2513" to-port="1"/>
		<edge from-layer="2513" from-port="2" to-layer="2514" to-port="0"/>
		<edge from-layer="2507" from-port="0" to-layer="2514" to-port="1"/>
		<edge from-layer="2508" from-port="0" to-layer="2514" to-port="2"/>
		<edge from-layer="2509" from-port="0" to-layer="2514" to-port="3"/>
		<edge from-layer="2510" from-port="0" to-layer="2514" to-port="4"/>
		<edge from-layer="2514" from-port="5" to-layer="2515" to-port="0"/>
		<edge from-layer="2506" from-port="0" to-layer="2515" to-port="1"/>
		<edge from-layer="2516" from-port="0" to-layer="2517" to-port="0"/>
		<edge from-layer="2515" from-port="2" to-layer="2518" to-port="0"/>
		<edge from-layer="2517" from-port="1" to-layer="2518" to-port="1"/>
		<edge from-layer="2519" from-port="0" to-layer="2520" to-port="0"/>
		<edge from-layer="2518" from-port="2" to-layer="2521" to-port="0"/>
		<edge from-layer="2520" from-port="1" to-layer="2521" to-port="1"/>
		<edge from-layer="2521" from-port="2" to-layer="2522" to-port="0"/>
		<edge from-layer="2522" from-port="1" to-layer="2523" to-port="0"/>
		<edge from-layer="2502" from-port="0" to-layer="2523" to-port="1"/>
		<edge from-layer="2503" from-port="0" to-layer="2523" to-port="2"/>
		<edge from-layer="2504" from-port="0" to-layer="2523" to-port="3"/>
		<edge from-layer="2505" from-port="0" to-layer="2523" to-port="4"/>
		<edge from-layer="2523" from-port="5" to-layer="2524" to-port="0"/>
		<edge from-layer="2209" from-port="2" to-layer="2524" to-port="1"/>
		<edge from-layer="2524" from-port="2" to-layer="2525" to-port="0"/>
		<edge from-layer="2501" from-port="0" to-layer="2525" to-port="1"/>
		<edge from-layer="2525" from-port="2" to-layer="2526" to-port="0"/>
		<edge from-layer="2497" from-port="0" to-layer="2526" to-port="1"/>
		<edge from-layer="2498" from-port="0" to-layer="2526" to-port="2"/>
		<edge from-layer="2499" from-port="0" to-layer="2526" to-port="3"/>
		<edge from-layer="2500" from-port="0" to-layer="2526" to-port="4"/>
		<edge from-layer="2526" from-port="5" to-layer="2527" to-port="0"/>
		<edge from-layer="2496" from-port="0" to-layer="2527" to-port="1"/>
		<edge from-layer="2528" from-port="0" to-layer="2529" to-port="0"/>
		<edge from-layer="2527" from-port="2" to-layer="2530" to-port="0"/>
		<edge from-layer="2529" from-port="1" to-layer="2530" to-port="1"/>
		<edge from-layer="2531" from-port="0" to-layer="2532" to-port="0"/>
		<edge from-layer="2530" from-port="2" to-layer="2533" to-port="0"/>
		<edge from-layer="2532" from-port="1" to-layer="2533" to-port="1"/>
		<edge from-layer="2533" from-port="2" to-layer="2534" to-port="0"/>
		<edge from-layer="2534" from-port="1" to-layer="2535" to-port="0"/>
		<edge from-layer="2492" from-port="0" to-layer="2535" to-port="1"/>
		<edge from-layer="2493" from-port="0" to-layer="2535" to-port="2"/>
		<edge from-layer="2494" from-port="0" to-layer="2535" to-port="3"/>
		<edge from-layer="2495" from-port="0" to-layer="2535" to-port="4"/>
		<edge from-layer="2535" from-port="5" to-layer="2536" to-port="0"/>
		<edge from-layer="2225" from-port="2" to-layer="2536" to-port="1"/>
		<edge from-layer="2536" from-port="2" to-layer="2537" to-port="0"/>
		<edge from-layer="2491" from-port="0" to-layer="2537" to-port="1"/>
		<edge from-layer="2537" from-port="2" to-layer="2538" to-port="0"/>
		<edge from-layer="2487" from-port="0" to-layer="2538" to-port="1"/>
		<edge from-layer="2488" from-port="0" to-layer="2538" to-port="2"/>
		<edge from-layer="2489" from-port="0" to-layer="2538" to-port="3"/>
		<edge from-layer="2490" from-port="0" to-layer="2538" to-port="4"/>
		<edge from-layer="2538" from-port="5" to-layer="2539" to-port="0"/>
		<edge from-layer="2486" from-port="0" to-layer="2539" to-port="1"/>
		<edge from-layer="2540" from-port="0" to-layer="2541" to-port="0"/>
		<edge from-layer="2539" from-port="2" to-layer="2542" to-port="0"/>
		<edge from-layer="2541" from-port="1" to-layer="2542" to-port="1"/>
		<edge from-layer="2543" from-port="0" to-layer="2544" to-port="0"/>
		<edge from-layer="2542" from-port="2" to-layer="2545" to-port="0"/>
		<edge from-layer="2544" from-port="1" to-layer="2545" to-port="1"/>
		<edge from-layer="2545" from-port="2" to-layer="2546" to-port="0"/>
		<edge from-layer="2546" from-port="1" to-layer="2547" to-port="0"/>
		<edge from-layer="2482" from-port="0" to-layer="2547" to-port="1"/>
		<edge from-layer="2483" from-port="0" to-layer="2547" to-port="2"/>
		<edge from-layer="2484" from-port="0" to-layer="2547" to-port="3"/>
		<edge from-layer="2485" from-port="0" to-layer="2547" to-port="4"/>
		<edge from-layer="2547" from-port="5" to-layer="2548" to-port="0"/>
		<edge from-layer="2241" from-port="2" to-layer="2548" to-port="1"/>
		<edge from-layer="2548" from-port="2" to-layer="2549" to-port="0"/>
		<edge from-layer="2481" from-port="0" to-layer="2549" to-port="1"/>
		<edge from-layer="2549" from-port="2" to-layer="2550" to-port="0"/>
		<edge from-layer="2477" from-port="0" to-layer="2550" to-port="1"/>
		<edge from-layer="2478" from-port="0" to-layer="2550" to-port="2"/>
		<edge from-layer="2479" from-port="0" to-layer="2550" to-port="3"/>
		<edge from-layer="2480" from-port="0" to-layer="2550" to-port="4"/>
		<edge from-layer="2550" from-port="5" to-layer="2551" to-port="0"/>
		<edge from-layer="2476" from-port="0" to-layer="2551" to-port="1"/>
		<edge from-layer="2552" from-port="0" to-layer="2553" to-port="0"/>
		<edge from-layer="2551" from-port="2" to-layer="2554" to-port="0"/>
		<edge from-layer="2553" from-port="1" to-layer="2554" to-port="1"/>
		<edge from-layer="2555" from-port="0" to-layer="2556" to-port="0"/>
		<edge from-layer="2554" from-port="2" to-layer="2557" to-port="0"/>
		<edge from-layer="2556" from-port="1" to-layer="2557" to-port="1"/>
		<edge from-layer="2557" from-port="2" to-layer="2558" to-port="0"/>
		<edge from-layer="2558" from-port="1" to-layer="2559" to-port="0"/>
		<edge from-layer="2472" from-port="0" to-layer="2559" to-port="1"/>
		<edge from-layer="2473" from-port="0" to-layer="2559" to-port="2"/>
		<edge from-layer="2474" from-port="0" to-layer="2559" to-port="3"/>
		<edge from-layer="2475" from-port="0" to-layer="2559" to-port="4"/>
		<edge from-layer="2561" from-port="0" to-layer="2562" to-port="0"/>
		<edge from-layer="2562" from-port="1" to-layer="2563" to-port="0"/>
		<edge from-layer="2560" from-port="0" to-layer="2563" to-port="1"/>
		<edge from-layer="2559" from-port="5" to-layer="2564" to-port="0"/>
		<edge from-layer="2563" from-port="2" to-layer="2564" to-port="1"/>
		<edge from-layer="2565" from-port="0" to-layer="2566" to-port="0"/>
		<edge from-layer="2564" from-port="2" to-layer="2567" to-port="0"/>
		<edge from-layer="2566" from-port="1" to-layer="2567" to-port="1"/>
		<edge from-layer="2567" from-port="2" to-layer="2568" to-port="0"/>
		<edge from-layer="2568" from-port="1" to-layer="2571" to-port="0"/>
		<edge from-layer="2569" from-port="0" to-layer="2571" to-port="1"/>
		<edge from-layer="2570" from-port="0" to-layer="2571" to-port="2"/>
		<edge from-layer="2571" from-port="3" to-layer="2573" to-port="0"/>
		<edge from-layer="2572" from-port="0" to-layer="2573" to-port="1"/>
		<edge from-layer="2573" from-port="2" to-layer="2575" to-port="0"/>
		<edge from-layer="2574" from-port="0" to-layer="2575" to-port="1"/>
		<edge from-layer="1834" from-port="3" to-layer="2576" to-port="0"/>
		<edge from-layer="2575" from-port="2" to-layer="2578" to-port="0"/>
		<edge from-layer="2576" from-port="1" to-layer="2578" to-port="1"/>
		<edge from-layer="2577" from-port="0" to-layer="2578" to-port="2"/>
		<edge from-layer="2578" from-port="3" to-layer="2581" to-port="0"/>
		<edge from-layer="2579" from-port="0" to-layer="2581" to-port="1"/>
		<edge from-layer="2580" from-port="0" to-layer="2581" to-port="2"/>
		<edge from-layer="2471" from-port="3" to-layer="2582" to-port="0"/>
		<edge from-layer="2581" from-port="3" to-layer="2582" to-port="1"/>
		<edge from-layer="2582" from-port="2" to-layer="2583" to-port="0"/>
		<edge from-layer="2583" from-port="1" to-layer="2585" to-port="0"/>
		<edge from-layer="2584" from-port="0" to-layer="2585" to-port="1"/>
		<edge from-layer="2468" from-port="3" to-layer="2588" to-port="0"/>
		<edge from-layer="2586" from-port="0" to-layer="2588" to-port="1"/>
		<edge from-layer="2587" from-port="0" to-layer="2588" to-port="2"/>
		<edge from-layer="2578" from-port="3" to-layer="2591" to-port="0"/>
		<edge from-layer="2589" from-port="0" to-layer="2591" to-port="1"/>
		<edge from-layer="2590" from-port="0" to-layer="2591" to-port="2"/>
		<edge from-layer="2588" from-port="3" to-layer="2592" to-port="0"/>
		<edge from-layer="2591" from-port="3" to-layer="2592" to-port="1"/>
		<edge from-layer="2592" from-port="2" to-layer="2593" to-port="0"/>
		<edge from-layer="2593" from-port="1" to-layer="2595" to-port="0"/>
		<edge from-layer="2594" from-port="0" to-layer="2595" to-port="1"/>
		<edge from-layer="2468" from-port="3" to-layer="2598" to-port="0"/>
		<edge from-layer="2596" from-port="0" to-layer="2598" to-port="1"/>
		<edge from-layer="2597" from-port="0" to-layer="2598" to-port="2"/>
		<edge from-layer="2578" from-port="3" to-layer="2601" to-port="0"/>
		<edge from-layer="2599" from-port="0" to-layer="2601" to-port="1"/>
		<edge from-layer="2600" from-port="0" to-layer="2601" to-port="2"/>
		<edge from-layer="2598" from-port="3" to-layer="2602" to-port="0"/>
		<edge from-layer="2601" from-port="3" to-layer="2602" to-port="1"/>
		<edge from-layer="2602" from-port="2" to-layer="2603" to-port="0"/>
		<edge from-layer="2603" from-port="1" to-layer="2605" to-port="0"/>
		<edge from-layer="2604" from-port="0" to-layer="2605" to-port="1"/>
		<edge from-layer="2468" from-port="3" to-layer="2608" to-port="0"/>
		<edge from-layer="2606" from-port="0" to-layer="2608" to-port="1"/>
		<edge from-layer="2607" from-port="0" to-layer="2608" to-port="2"/>
		<edge from-layer="2578" from-port="3" to-layer="2611" to-port="0"/>
		<edge from-layer="2609" from-port="0" to-layer="2611" to-port="1"/>
		<edge from-layer="2610" from-port="0" to-layer="2611" to-port="2"/>
		<edge from-layer="2608" from-port="3" to-layer="2612" to-port="0"/>
		<edge from-layer="2611" from-port="3" to-layer="2612" to-port="1"/>
		<edge from-layer="2612" from-port="2" to-layer="2613" to-port="0"/>
		<edge from-layer="2613" from-port="1" to-layer="2615" to-port="0"/>
		<edge from-layer="2614" from-port="0" to-layer="2615" to-port="1"/>
		<edge from-layer="2585" from-port="2" to-layer="2616" to-port="0"/>
		<edge from-layer="2595" from-port="2" to-layer="2616" to-port="1"/>
		<edge from-layer="2605" from-port="2" to-layer="2616" to-port="2"/>
		<edge from-layer="2615" from-port="2" to-layer="2616" to-port="3"/>
		<edge from-layer="2617" from-port="0" to-layer="2618" to-port="0"/>
		<edge from-layer="1984" from-port="3" to-layer="2619" to-port="0"/>
		<edge from-layer="2618" from-port="1" to-layer="2621" to-port="0"/>
		<edge from-layer="2619" from-port="1" to-layer="2621" to-port="1"/>
		<edge from-layer="2620" from-port="0" to-layer="2621" to-port="2"/>
		<edge from-layer="2621" from-port="3" to-layer="2624" to-port="0"/>
		<edge from-layer="2622" from-port="0" to-layer="2624" to-port="1"/>
		<edge from-layer="2623" from-port="0" to-layer="2624" to-port="2"/>
		<edge from-layer="1888" from-port="5" to-layer="2665" to-port="0"/>
		<edge from-layer="2193" from-port="2" to-layer="2665" to-port="1"/>
		<edge from-layer="2665" from-port="2" to-layer="2666" to-port="0"/>
		<edge from-layer="2664" from-port="0" to-layer="2666" to-port="1"/>
		<edge from-layer="2666" from-port="2" to-layer="2667" to-port="0"/>
		<edge from-layer="2660" from-port="0" to-layer="2667" to-port="1"/>
		<edge from-layer="2661" from-port="0" to-layer="2667" to-port="2"/>
		<edge from-layer="2662" from-port="0" to-layer="2667" to-port="3"/>
		<edge from-layer="2663" from-port="0" to-layer="2667" to-port="4"/>
		<edge from-layer="2667" from-port="5" to-layer="2668" to-port="0"/>
		<edge from-layer="2659" from-port="0" to-layer="2668" to-port="1"/>
		<edge from-layer="2669" from-port="0" to-layer="2670" to-port="0"/>
		<edge from-layer="2668" from-port="2" to-layer="2671" to-port="0"/>
		<edge from-layer="2670" from-port="1" to-layer="2671" to-port="1"/>
		<edge from-layer="2672" from-port="0" to-layer="2673" to-port="0"/>
		<edge from-layer="2671" from-port="2" to-layer="2674" to-port="0"/>
		<edge from-layer="2673" from-port="1" to-layer="2674" to-port="1"/>
		<edge from-layer="2674" from-port="2" to-layer="2675" to-port="0"/>
		<edge from-layer="2675" from-port="1" to-layer="2676" to-port="0"/>
		<edge from-layer="2655" from-port="0" to-layer="2676" to-port="1"/>
		<edge from-layer="2656" from-port="0" to-layer="2676" to-port="2"/>
		<edge from-layer="2657" from-port="0" to-layer="2676" to-port="3"/>
		<edge from-layer="2658" from-port="0" to-layer="2676" to-port="4"/>
		<edge from-layer="2676" from-port="5" to-layer="2677" to-port="0"/>
		<edge from-layer="2209" from-port="2" to-layer="2677" to-port="1"/>
		<edge from-layer="2677" from-port="2" to-layer="2678" to-port="0"/>
		<edge from-layer="2654" from-port="0" to-layer="2678" to-port="1"/>
		<edge from-layer="2678" from-port="2" to-layer="2679" to-port="0"/>
		<edge from-layer="2650" from-port="0" to-layer="2679" to-port="1"/>
		<edge from-layer="2651" from-port="0" to-layer="2679" to-port="2"/>
		<edge from-layer="2652" from-port="0" to-layer="2679" to-port="3"/>
		<edge from-layer="2653" from-port="0" to-layer="2679" to-port="4"/>
		<edge from-layer="2679" from-port="5" to-layer="2680" to-port="0"/>
		<edge from-layer="2649" from-port="0" to-layer="2680" to-port="1"/>
		<edge from-layer="2681" from-port="0" to-layer="2682" to-port="0"/>
		<edge from-layer="2680" from-port="2" to-layer="2683" to-port="0"/>
		<edge from-layer="2682" from-port="1" to-layer="2683" to-port="1"/>
		<edge from-layer="2684" from-port="0" to-layer="2685" to-port="0"/>
		<edge from-layer="2683" from-port="2" to-layer="2686" to-port="0"/>
		<edge from-layer="2685" from-port="1" to-layer="2686" to-port="1"/>
		<edge from-layer="2686" from-port="2" to-layer="2687" to-port="0"/>
		<edge from-layer="2687" from-port="1" to-layer="2688" to-port="0"/>
		<edge from-layer="2645" from-port="0" to-layer="2688" to-port="1"/>
		<edge from-layer="2646" from-port="0" to-layer="2688" to-port="2"/>
		<edge from-layer="2647" from-port="0" to-layer="2688" to-port="3"/>
		<edge from-layer="2648" from-port="0" to-layer="2688" to-port="4"/>
		<edge from-layer="2688" from-port="5" to-layer="2689" to-port="0"/>
		<edge from-layer="2225" from-port="2" to-layer="2689" to-port="1"/>
		<edge from-layer="2689" from-port="2" to-layer="2690" to-port="0"/>
		<edge from-layer="2644" from-port="0" to-layer="2690" to-port="1"/>
		<edge from-layer="2690" from-port="2" to-layer="2691" to-port="0"/>
		<edge from-layer="2640" from-port="0" to-layer="2691" to-port="1"/>
		<edge from-layer="2641" from-port="0" to-layer="2691" to-port="2"/>
		<edge from-layer="2642" from-port="0" to-layer="2691" to-port="3"/>
		<edge from-layer="2643" from-port="0" to-layer="2691" to-port="4"/>
		<edge from-layer="2691" from-port="5" to-layer="2692" to-port="0"/>
		<edge from-layer="2639" from-port="0" to-layer="2692" to-port="1"/>
		<edge from-layer="2693" from-port="0" to-layer="2694" to-port="0"/>
		<edge from-layer="2692" from-port="2" to-layer="2695" to-port="0"/>
		<edge from-layer="2694" from-port="1" to-layer="2695" to-port="1"/>
		<edge from-layer="2696" from-port="0" to-layer="2697" to-port="0"/>
		<edge from-layer="2695" from-port="2" to-layer="2698" to-port="0"/>
		<edge from-layer="2697" from-port="1" to-layer="2698" to-port="1"/>
		<edge from-layer="2698" from-port="2" to-layer="2699" to-port="0"/>
		<edge from-layer="2699" from-port="1" to-layer="2700" to-port="0"/>
		<edge from-layer="2635" from-port="0" to-layer="2700" to-port="1"/>
		<edge from-layer="2636" from-port="0" to-layer="2700" to-port="2"/>
		<edge from-layer="2637" from-port="0" to-layer="2700" to-port="3"/>
		<edge from-layer="2638" from-port="0" to-layer="2700" to-port="4"/>
		<edge from-layer="2700" from-port="5" to-layer="2701" to-port="0"/>
		<edge from-layer="2241" from-port="2" to-layer="2701" to-port="1"/>
		<edge from-layer="2701" from-port="2" to-layer="2702" to-port="0"/>
		<edge from-layer="2634" from-port="0" to-layer="2702" to-port="1"/>
		<edge from-layer="2702" from-port="2" to-layer="2703" to-port="0"/>
		<edge from-layer="2630" from-port="0" to-layer="2703" to-port="1"/>
		<edge from-layer="2631" from-port="0" to-layer="2703" to-port="2"/>
		<edge from-layer="2632" from-port="0" to-layer="2703" to-port="3"/>
		<edge from-layer="2633" from-port="0" to-layer="2703" to-port="4"/>
		<edge from-layer="2703" from-port="5" to-layer="2704" to-port="0"/>
		<edge from-layer="2629" from-port="0" to-layer="2704" to-port="1"/>
		<edge from-layer="2705" from-port="0" to-layer="2706" to-port="0"/>
		<edge from-layer="2704" from-port="2" to-layer="2707" to-port="0"/>
		<edge from-layer="2706" from-port="1" to-layer="2707" to-port="1"/>
		<edge from-layer="2708" from-port="0" to-layer="2709" to-port="0"/>
		<edge from-layer="2707" from-port="2" to-layer="2710" to-port="0"/>
		<edge from-layer="2709" from-port="1" to-layer="2710" to-port="1"/>
		<edge from-layer="2710" from-port="2" to-layer="2711" to-port="0"/>
		<edge from-layer="2711" from-port="1" to-layer="2712" to-port="0"/>
		<edge from-layer="2625" from-port="0" to-layer="2712" to-port="1"/>
		<edge from-layer="2626" from-port="0" to-layer="2712" to-port="2"/>
		<edge from-layer="2627" from-port="0" to-layer="2712" to-port="3"/>
		<edge from-layer="2628" from-port="0" to-layer="2712" to-port="4"/>
		<edge from-layer="2714" from-port="0" to-layer="2715" to-port="0"/>
		<edge from-layer="2715" from-port="1" to-layer="2716" to-port="0"/>
		<edge from-layer="2713" from-port="0" to-layer="2716" to-port="1"/>
		<edge from-layer="2712" from-port="5" to-layer="2717" to-port="0"/>
		<edge from-layer="2716" from-port="2" to-layer="2717" to-port="1"/>
		<edge from-layer="2718" from-port="0" to-layer="2719" to-port="0"/>
		<edge from-layer="2717" from-port="2" to-layer="2720" to-port="0"/>
		<edge from-layer="2719" from-port="1" to-layer="2720" to-port="1"/>
		<edge from-layer="2720" from-port="2" to-layer="2721" to-port="0"/>
		<edge from-layer="2721" from-port="1" to-layer="2724" to-port="0"/>
		<edge from-layer="2722" from-port="0" to-layer="2724" to-port="1"/>
		<edge from-layer="2723" from-port="0" to-layer="2724" to-port="2"/>
		<edge from-layer="2724" from-port="3" to-layer="2726" to-port="0"/>
		<edge from-layer="2725" from-port="0" to-layer="2726" to-port="1"/>
		<edge from-layer="2726" from-port="2" to-layer="2728" to-port="0"/>
		<edge from-layer="2727" from-port="0" to-layer="2728" to-port="1"/>
		<edge from-layer="1984" from-port="3" to-layer="2729" to-port="0"/>
		<edge from-layer="2728" from-port="2" to-layer="2731" to-port="0"/>
		<edge from-layer="2729" from-port="1" to-layer="2731" to-port="1"/>
		<edge from-layer="2730" from-port="0" to-layer="2731" to-port="2"/>
		<edge from-layer="2731" from-port="3" to-layer="2734" to-port="0"/>
		<edge from-layer="2732" from-port="0" to-layer="2734" to-port="1"/>
		<edge from-layer="2733" from-port="0" to-layer="2734" to-port="2"/>
		<edge from-layer="2624" from-port="3" to-layer="2735" to-port="0"/>
		<edge from-layer="2734" from-port="3" to-layer="2735" to-port="1"/>
		<edge from-layer="2735" from-port="2" to-layer="2736" to-port="0"/>
		<edge from-layer="2736" from-port="1" to-layer="2738" to-port="0"/>
		<edge from-layer="2737" from-port="0" to-layer="2738" to-port="1"/>
		<edge from-layer="2621" from-port="3" to-layer="2741" to-port="0"/>
		<edge from-layer="2739" from-port="0" to-layer="2741" to-port="1"/>
		<edge from-layer="2740" from-port="0" to-layer="2741" to-port="2"/>
		<edge from-layer="2731" from-port="3" to-layer="2744" to-port="0"/>
		<edge from-layer="2742" from-port="0" to-layer="2744" to-port="1"/>
		<edge from-layer="2743" from-port="0" to-layer="2744" to-port="2"/>
		<edge from-layer="2741" from-port="3" to-layer="2745" to-port="0"/>
		<edge from-layer="2744" from-port="3" to-layer="2745" to-port="1"/>
		<edge from-layer="2745" from-port="2" to-layer="2746" to-port="0"/>
		<edge from-layer="2746" from-port="1" to-layer="2748" to-port="0"/>
		<edge from-layer="2747" from-port="0" to-layer="2748" to-port="1"/>
		<edge from-layer="2621" from-port="3" to-layer="2751" to-port="0"/>
		<edge from-layer="2749" from-port="0" to-layer="2751" to-port="1"/>
		<edge from-layer="2750" from-port="0" to-layer="2751" to-port="2"/>
		<edge from-layer="2731" from-port="3" to-layer="2754" to-port="0"/>
		<edge from-layer="2752" from-port="0" to-layer="2754" to-port="1"/>
		<edge from-layer="2753" from-port="0" to-layer="2754" to-port="2"/>
		<edge from-layer="2751" from-port="3" to-layer="2755" to-port="0"/>
		<edge from-layer="2754" from-port="3" to-layer="2755" to-port="1"/>
		<edge from-layer="2755" from-port="2" to-layer="2756" to-port="0"/>
		<edge from-layer="2756" from-port="1" to-layer="2758" to-port="0"/>
		<edge from-layer="2757" from-port="0" to-layer="2758" to-port="1"/>
		<edge from-layer="2621" from-port="3" to-layer="2761" to-port="0"/>
		<edge from-layer="2759" from-port="0" to-layer="2761" to-port="1"/>
		<edge from-layer="2760" from-port="0" to-layer="2761" to-port="2"/>
		<edge from-layer="2731" from-port="3" to-layer="2764" to-port="0"/>
		<edge from-layer="2762" from-port="0" to-layer="2764" to-port="1"/>
		<edge from-layer="2763" from-port="0" to-layer="2764" to-port="2"/>
		<edge from-layer="2761" from-port="3" to-layer="2765" to-port="0"/>
		<edge from-layer="2764" from-port="3" to-layer="2765" to-port="1"/>
		<edge from-layer="2765" from-port="2" to-layer="2766" to-port="0"/>
		<edge from-layer="2766" from-port="1" to-layer="2768" to-port="0"/>
		<edge from-layer="2767" from-port="0" to-layer="2768" to-port="1"/>
		<edge from-layer="2738" from-port="2" to-layer="2769" to-port="0"/>
		<edge from-layer="2748" from-port="2" to-layer="2769" to-port="1"/>
		<edge from-layer="2758" from-port="2" to-layer="2769" to-port="2"/>
		<edge from-layer="2768" from-port="2" to-layer="2769" to-port="3"/>
		<edge from-layer="2770" from-port="0" to-layer="2771" to-port="0"/>
		<edge from-layer="2140" from-port="3" to-layer="2772" to-port="0"/>
		<edge from-layer="2771" from-port="1" to-layer="2774" to-port="0"/>
		<edge from-layer="2772" from-port="1" to-layer="2774" to-port="1"/>
		<edge from-layer="2773" from-port="0" to-layer="2774" to-port="2"/>
		<edge from-layer="2774" from-port="3" to-layer="2777" to-port="0"/>
		<edge from-layer="2775" from-port="0" to-layer="2777" to-port="1"/>
		<edge from-layer="2776" from-port="0" to-layer="2777" to-port="2"/>
		<edge from-layer="2044" from-port="5" to-layer="2818" to-port="0"/>
		<edge from-layer="2193" from-port="2" to-layer="2818" to-port="1"/>
		<edge from-layer="2818" from-port="2" to-layer="2819" to-port="0"/>
		<edge from-layer="2817" from-port="0" to-layer="2819" to-port="1"/>
		<edge from-layer="2819" from-port="2" to-layer="2820" to-port="0"/>
		<edge from-layer="2813" from-port="0" to-layer="2820" to-port="1"/>
		<edge from-layer="2814" from-port="0" to-layer="2820" to-port="2"/>
		<edge from-layer="2815" from-port="0" to-layer="2820" to-port="3"/>
		<edge from-layer="2816" from-port="0" to-layer="2820" to-port="4"/>
		<edge from-layer="2820" from-port="5" to-layer="2821" to-port="0"/>
		<edge from-layer="2812" from-port="0" to-layer="2821" to-port="1"/>
		<edge from-layer="2822" from-port="0" to-layer="2823" to-port="0"/>
		<edge from-layer="2821" from-port="2" to-layer="2824" to-port="0"/>
		<edge from-layer="2823" from-port="1" to-layer="2824" to-port="1"/>
		<edge from-layer="2825" from-port="0" to-layer="2826" to-port="0"/>
		<edge from-layer="2824" from-port="2" to-layer="2827" to-port="0"/>
		<edge from-layer="2826" from-port="1" to-layer="2827" to-port="1"/>
		<edge from-layer="2827" from-port="2" to-layer="2828" to-port="0"/>
		<edge from-layer="2828" from-port="1" to-layer="2829" to-port="0"/>
		<edge from-layer="2808" from-port="0" to-layer="2829" to-port="1"/>
		<edge from-layer="2809" from-port="0" to-layer="2829" to-port="2"/>
		<edge from-layer="2810" from-port="0" to-layer="2829" to-port="3"/>
		<edge from-layer="2811" from-port="0" to-layer="2829" to-port="4"/>
		<edge from-layer="2829" from-port="5" to-layer="2830" to-port="0"/>
		<edge from-layer="2209" from-port="2" to-layer="2830" to-port="1"/>
		<edge from-layer="2830" from-port="2" to-layer="2831" to-port="0"/>
		<edge from-layer="2807" from-port="0" to-layer="2831" to-port="1"/>
		<edge from-layer="2831" from-port="2" to-layer="2832" to-port="0"/>
		<edge from-layer="2803" from-port="0" to-layer="2832" to-port="1"/>
		<edge from-layer="2804" from-port="0" to-layer="2832" to-port="2"/>
		<edge from-layer="2805" from-port="0" to-layer="2832" to-port="3"/>
		<edge from-layer="2806" from-port="0" to-layer="2832" to-port="4"/>
		<edge from-layer="2832" from-port="5" to-layer="2833" to-port="0"/>
		<edge from-layer="2802" from-port="0" to-layer="2833" to-port="1"/>
		<edge from-layer="2834" from-port="0" to-layer="2835" to-port="0"/>
		<edge from-layer="2833" from-port="2" to-layer="2836" to-port="0"/>
		<edge from-layer="2835" from-port="1" to-layer="2836" to-port="1"/>
		<edge from-layer="2837" from-port="0" to-layer="2838" to-port="0"/>
		<edge from-layer="2836" from-port="2" to-layer="2839" to-port="0"/>
		<edge from-layer="2838" from-port="1" to-layer="2839" to-port="1"/>
		<edge from-layer="2839" from-port="2" to-layer="2840" to-port="0"/>
		<edge from-layer="2840" from-port="1" to-layer="2841" to-port="0"/>
		<edge from-layer="2798" from-port="0" to-layer="2841" to-port="1"/>
		<edge from-layer="2799" from-port="0" to-layer="2841" to-port="2"/>
		<edge from-layer="2800" from-port="0" to-layer="2841" to-port="3"/>
		<edge from-layer="2801" from-port="0" to-layer="2841" to-port="4"/>
		<edge from-layer="2841" from-port="5" to-layer="2842" to-port="0"/>
		<edge from-layer="2225" from-port="2" to-layer="2842" to-port="1"/>
		<edge from-layer="2842" from-port="2" to-layer="2843" to-port="0"/>
		<edge from-layer="2797" from-port="0" to-layer="2843" to-port="1"/>
		<edge from-layer="2843" from-port="2" to-layer="2844" to-port="0"/>
		<edge from-layer="2793" from-port="0" to-layer="2844" to-port="1"/>
		<edge from-layer="2794" from-port="0" to-layer="2844" to-port="2"/>
		<edge from-layer="2795" from-port="0" to-layer="2844" to-port="3"/>
		<edge from-layer="2796" from-port="0" to-layer="2844" to-port="4"/>
		<edge from-layer="2844" from-port="5" to-layer="2845" to-port="0"/>
		<edge from-layer="2792" from-port="0" to-layer="2845" to-port="1"/>
		<edge from-layer="2846" from-port="0" to-layer="2847" to-port="0"/>
		<edge from-layer="2845" from-port="2" to-layer="2848" to-port="0"/>
		<edge from-layer="2847" from-port="1" to-layer="2848" to-port="1"/>
		<edge from-layer="2849" from-port="0" to-layer="2850" to-port="0"/>
		<edge from-layer="2848" from-port="2" to-layer="2851" to-port="0"/>
		<edge from-layer="2850" from-port="1" to-layer="2851" to-port="1"/>
		<edge from-layer="2851" from-port="2" to-layer="2852" to-port="0"/>
		<edge from-layer="2852" from-port="1" to-layer="2853" to-port="0"/>
		<edge from-layer="2788" from-port="0" to-layer="2853" to-port="1"/>
		<edge from-layer="2789" from-port="0" to-layer="2853" to-port="2"/>
		<edge from-layer="2790" from-port="0" to-layer="2853" to-port="3"/>
		<edge from-layer="2791" from-port="0" to-layer="2853" to-port="4"/>
		<edge from-layer="2853" from-port="5" to-layer="2854" to-port="0"/>
		<edge from-layer="2241" from-port="2" to-layer="2854" to-port="1"/>
		<edge from-layer="2854" from-port="2" to-layer="2855" to-port="0"/>
		<edge from-layer="2787" from-port="0" to-layer="2855" to-port="1"/>
		<edge from-layer="2855" from-port="2" to-layer="2856" to-port="0"/>
		<edge from-layer="2783" from-port="0" to-layer="2856" to-port="1"/>
		<edge from-layer="2784" from-port="0" to-layer="2856" to-port="2"/>
		<edge from-layer="2785" from-port="0" to-layer="2856" to-port="3"/>
		<edge from-layer="2786" from-port="0" to-layer="2856" to-port="4"/>
		<edge from-layer="2856" from-port="5" to-layer="2857" to-port="0"/>
		<edge from-layer="2782" from-port="0" to-layer="2857" to-port="1"/>
		<edge from-layer="2858" from-port="0" to-layer="2859" to-port="0"/>
		<edge from-layer="2857" from-port="2" to-layer="2860" to-port="0"/>
		<edge from-layer="2859" from-port="1" to-layer="2860" to-port="1"/>
		<edge from-layer="2861" from-port="0" to-layer="2862" to-port="0"/>
		<edge from-layer="2860" from-port="2" to-layer="2863" to-port="0"/>
		<edge from-layer="2862" from-port="1" to-layer="2863" to-port="1"/>
		<edge from-layer="2863" from-port="2" to-layer="2864" to-port="0"/>
		<edge from-layer="2864" from-port="1" to-layer="2865" to-port="0"/>
		<edge from-layer="2778" from-port="0" to-layer="2865" to-port="1"/>
		<edge from-layer="2779" from-port="0" to-layer="2865" to-port="2"/>
		<edge from-layer="2780" from-port="0" to-layer="2865" to-port="3"/>
		<edge from-layer="2781" from-port="0" to-layer="2865" to-port="4"/>
		<edge from-layer="2867" from-port="0" to-layer="2868" to-port="0"/>
		<edge from-layer="2868" from-port="1" to-layer="2869" to-port="0"/>
		<edge from-layer="2866" from-port="0" to-layer="2869" to-port="1"/>
		<edge from-layer="2865" from-port="5" to-layer="2870" to-port="0"/>
		<edge from-layer="2869" from-port="2" to-layer="2870" to-port="1"/>
		<edge from-layer="2871" from-port="0" to-layer="2872" to-port="0"/>
		<edge from-layer="2870" from-port="2" to-layer="2873" to-port="0"/>
		<edge from-layer="2872" from-port="1" to-layer="2873" to-port="1"/>
		<edge from-layer="2873" from-port="2" to-layer="2874" to-port="0"/>
		<edge from-layer="2874" from-port="1" to-layer="2877" to-port="0"/>
		<edge from-layer="2875" from-port="0" to-layer="2877" to-port="1"/>
		<edge from-layer="2876" from-port="0" to-layer="2877" to-port="2"/>
		<edge from-layer="2877" from-port="3" to-layer="2879" to-port="0"/>
		<edge from-layer="2878" from-port="0" to-layer="2879" to-port="1"/>
		<edge from-layer="2879" from-port="2" to-layer="2881" to-port="0"/>
		<edge from-layer="2880" from-port="0" to-layer="2881" to-port="1"/>
		<edge from-layer="2140" from-port="3" to-layer="2882" to-port="0"/>
		<edge from-layer="2881" from-port="2" to-layer="2884" to-port="0"/>
		<edge from-layer="2882" from-port="1" to-layer="2884" to-port="1"/>
		<edge from-layer="2883" from-port="0" to-layer="2884" to-port="2"/>
		<edge from-layer="2884" from-port="3" to-layer="2887" to-port="0"/>
		<edge from-layer="2885" from-port="0" to-layer="2887" to-port="1"/>
		<edge from-layer="2886" from-port="0" to-layer="2887" to-port="2"/>
		<edge from-layer="2777" from-port="3" to-layer="2888" to-port="0"/>
		<edge from-layer="2887" from-port="3" to-layer="2888" to-port="1"/>
		<edge from-layer="2888" from-port="2" to-layer="2889" to-port="0"/>
		<edge from-layer="2889" from-port="1" to-layer="2891" to-port="0"/>
		<edge from-layer="2890" from-port="0" to-layer="2891" to-port="1"/>
		<edge from-layer="2774" from-port="3" to-layer="2894" to-port="0"/>
		<edge from-layer="2892" from-port="0" to-layer="2894" to-port="1"/>
		<edge from-layer="2893" from-port="0" to-layer="2894" to-port="2"/>
		<edge from-layer="2884" from-port="3" to-layer="2897" to-port="0"/>
		<edge from-layer="2895" from-port="0" to-layer="2897" to-port="1"/>
		<edge from-layer="2896" from-port="0" to-layer="2897" to-port="2"/>
		<edge from-layer="2894" from-port="3" to-layer="2898" to-port="0"/>
		<edge from-layer="2897" from-port="3" to-layer="2898" to-port="1"/>
		<edge from-layer="2898" from-port="2" to-layer="2899" to-port="0"/>
		<edge from-layer="2899" from-port="1" to-layer="2901" to-port="0"/>
		<edge from-layer="2900" from-port="0" to-layer="2901" to-port="1"/>
		<edge from-layer="2774" from-port="3" to-layer="2904" to-port="0"/>
		<edge from-layer="2902" from-port="0" to-layer="2904" to-port="1"/>
		<edge from-layer="2903" from-port="0" to-layer="2904" to-port="2"/>
		<edge from-layer="2884" from-port="3" to-layer="2907" to-port="0"/>
		<edge from-layer="2905" from-port="0" to-layer="2907" to-port="1"/>
		<edge from-layer="2906" from-port="0" to-layer="2907" to-port="2"/>
		<edge from-layer="2904" from-port="3" to-layer="2908" to-port="0"/>
		<edge from-layer="2907" from-port="3" to-layer="2908" to-port="1"/>
		<edge from-layer="2908" from-port="2" to-layer="2909" to-port="0"/>
		<edge from-layer="2909" from-port="1" to-layer="2911" to-port="0"/>
		<edge from-layer="2910" from-port="0" to-layer="2911" to-port="1"/>
		<edge from-layer="2774" from-port="3" to-layer="2914" to-port="0"/>
		<edge from-layer="2912" from-port="0" to-layer="2914" to-port="1"/>
		<edge from-layer="2913" from-port="0" to-layer="2914" to-port="2"/>
		<edge from-layer="2884" from-port="3" to-layer="2917" to-port="0"/>
		<edge from-layer="2915" from-port="0" to-layer="2917" to-port="1"/>
		<edge from-layer="2916" from-port="0" to-layer="2917" to-port="2"/>
		<edge from-layer="2914" from-port="3" to-layer="2918" to-port="0"/>
		<edge from-layer="2917" from-port="3" to-layer="2918" to-port="1"/>
		<edge from-layer="2918" from-port="2" to-layer="2919" to-port="0"/>
		<edge from-layer="2919" from-port="1" to-layer="2921" to-port="0"/>
		<edge from-layer="2920" from-port="0" to-layer="2921" to-port="1"/>
		<edge from-layer="2891" from-port="2" to-layer="2922" to-port="0"/>
		<edge from-layer="2901" from-port="2" to-layer="2922" to-port="1"/>
		<edge from-layer="2911" from-port="2" to-layer="2922" to-port="2"/>
		<edge from-layer="2921" from-port="2" to-layer="2922" to-port="3"/>
		<edge from-layer="2310" from-port="4" to-layer="2923" to-port="0"/>
		<edge from-layer="2463" from-port="4" to-layer="2923" to-port="1"/>
		<edge from-layer="2616" from-port="4" to-layer="2923" to-port="2"/>
		<edge from-layer="2769" from-port="4" to-layer="2923" to-port="3"/>
		<edge from-layer="2922" from-port="4" to-layer="2923" to-port="4"/>
		<edge from-layer="2923" from-port="5" to-layer="2925" to-port="0"/>
		<edge from-layer="2924" from-port="0" to-layer="2925" to-port="1"/>
		<edge from-layer="2925" from-port="2" to-layer="2927" to-port="0"/>
		<edge from-layer="2926" from-port="0" to-layer="2927" to-port="1"/>
		<edge from-layer="1534" from-port="3" to-layer="2928" to-port="0"/>
		<edge from-layer="1497" from-port="1" to-layer="2930" to-port="0"/>
		<edge from-layer="2928" from-port="1" to-layer="2930" to-port="1"/>
		<edge from-layer="2929" from-port="0" to-layer="2930" to-port="2"/>
		<edge from-layer="1684" from-port="3" to-layer="2931" to-port="0"/>
		<edge from-layer="1651" from-port="1" to-layer="2933" to-port="0"/>
		<edge from-layer="2931" from-port="1" to-layer="2933" to-port="1"/>
		<edge from-layer="2932" from-port="0" to-layer="2933" to-port="2"/>
		<edge from-layer="1834" from-port="3" to-layer="2934" to-port="0"/>
		<edge from-layer="1801" from-port="1" to-layer="2936" to-port="0"/>
		<edge from-layer="2934" from-port="1" to-layer="2936" to-port="1"/>
		<edge from-layer="2935" from-port="0" to-layer="2936" to-port="2"/>
		<edge from-layer="1984" from-port="3" to-layer="2937" to-port="0"/>
		<edge from-layer="1951" from-port="1" to-layer="2939" to-port="0"/>
		<edge from-layer="2937" from-port="1" to-layer="2939" to-port="1"/>
		<edge from-layer="2938" from-port="0" to-layer="2939" to-port="2"/>
		<edge from-layer="2140" from-port="3" to-layer="2940" to-port="0"/>
		<edge from-layer="2107" from-port="1" to-layer="2942" to-port="0"/>
		<edge from-layer="2940" from-port="1" to-layer="2942" to-port="1"/>
		<edge from-layer="2941" from-port="0" to-layer="2942" to-port="2"/>
		<edge from-layer="2930" from-port="3" to-layer="2943" to-port="0"/>
		<edge from-layer="2933" from-port="3" to-layer="2943" to-port="1"/>
		<edge from-layer="2936" from-port="3" to-layer="2943" to-port="2"/>
		<edge from-layer="2939" from-port="3" to-layer="2943" to-port="3"/>
		<edge from-layer="2942" from-port="3" to-layer="2943" to-port="4"/>
		<edge from-layer="1534" from-port="3" to-layer="2944" to-port="0"/>
		<edge from-layer="1516" from-port="1" to-layer="2946" to-port="0"/>
		<edge from-layer="2944" from-port="1" to-layer="2946" to-port="1"/>
		<edge from-layer="2945" from-port="0" to-layer="2946" to-port="2"/>
		<edge from-layer="1684" from-port="3" to-layer="2947" to-port="0"/>
		<edge from-layer="1666" from-port="1" to-layer="2949" to-port="0"/>
		<edge from-layer="2947" from-port="1" to-layer="2949" to-port="1"/>
		<edge from-layer="2948" from-port="0" to-layer="2949" to-port="2"/>
		<edge from-layer="1834" from-port="3" to-layer="2950" to-port="0"/>
		<edge from-layer="1816" from-port="1" to-layer="2952" to-port="0"/>
		<edge from-layer="2950" from-port="1" to-layer="2952" to-port="1"/>
		<edge from-layer="2951" from-port="0" to-layer="2952" to-port="2"/>
		<edge from-layer="1984" from-port="3" to-layer="2953" to-port="0"/>
		<edge from-layer="1966" from-port="1" to-layer="2955" to-port="0"/>
		<edge from-layer="2953" from-port="1" to-layer="2955" to-port="1"/>
		<edge from-layer="2954" from-port="0" to-layer="2955" to-port="2"/>
		<edge from-layer="2140" from-port="3" to-layer="2956" to-port="0"/>
		<edge from-layer="2122" from-port="1" to-layer="2958" to-port="0"/>
		<edge from-layer="2956" from-port="1" to-layer="2958" to-port="1"/>
		<edge from-layer="2957" from-port="0" to-layer="2958" to-port="2"/>
		<edge from-layer="2946" from-port="3" to-layer="2959" to-port="0"/>
		<edge from-layer="2949" from-port="3" to-layer="2959" to-port="1"/>
		<edge from-layer="2952" from-port="3" to-layer="2959" to-port="2"/>
		<edge from-layer="2955" from-port="3" to-layer="2959" to-port="3"/>
		<edge from-layer="2958" from-port="3" to-layer="2959" to-port="4"/>
		<edge from-layer="2959" from-port="5" to-layer="2960" to-port="0"/>
		<edge from-layer="2960" from-port="1" to-layer="2962" to-port="0"/>
		<edge from-layer="2961" from-port="0" to-layer="2962" to-port="1"/>
		<edge from-layer="2959" from-port="5" to-layer="2963" to-port="0"/>
		<edge from-layer="2962" from-port="2" to-layer="2963" to-port="1"/>
		<edge from-layer="2943" from-port="5" to-layer="2964" to-port="0"/>
		<edge from-layer="2963" from-port="2" to-layer="2964" to-port="1"/>
		<edge from-layer="2964" from-port="2" to-layer="2966" to-port="0"/>
		<edge from-layer="2965" from-port="0" to-layer="2966" to-port="1"/>
		<edge from-layer="2966" from-port="2" to-layer="2968" to-port="0"/>
		<edge from-layer="2967" from-port="0" to-layer="2968" to-port="1"/>
		<edge from-layer="2969" from-port="0" to-layer="2970" to-port="0"/>
		<edge from-layer="2971" from-port="0" to-layer="2972" to-port="0"/>
		<edge from-layer="2927" from-port="2" to-layer="2974" to-port="0"/>
		<edge from-layer="2968" from-port="2" to-layer="2974" to-port="1"/>
		<edge from-layer="2973" from-port="0" to-layer="2974" to-port="2"/>
		<edge from-layer="2970" from-port="1" to-layer="2974" to-port="3"/>
		<edge from-layer="2972" from-port="1" to-layer="2974" to-port="4"/>
		<edge from-layer="2927" from-port="2" to-layer="2978" to-port="0"/>
		<edge from-layer="2977" from-port="0" to-layer="2978" to-port="1"/>
		<edge from-layer="2974" from-port="5" to-layer="2982" to-port="0"/>
		<edge from-layer="2979" from-port="0" to-layer="2982" to-port="1"/>
		<edge from-layer="2980" from-port="0" to-layer="2982" to-port="2"/>
		<edge from-layer="2981" from-port="0" to-layer="2982" to-port="3"/>
		<edge from-layer="2927" from-port="2" to-layer="2983" to-port="0"/>
		<edge from-layer="2983" from-port="1" to-layer="2987" to-port="0"/>
		<edge from-layer="2984" from-port="0" to-layer="2987" to-port="1"/>
		<edge from-layer="2985" from-port="0" to-layer="2987" to-port="2"/>
		<edge from-layer="2986" from-port="0" to-layer="2987" to-port="3"/>
		<edge from-layer="2982" from-port="4" to-layer="2988" to-port="0"/>
		<edge from-layer="2987" from-port="4" to-layer="2988" to-port="1"/>
		<edge from-layer="2974" from-port="5" to-layer="2992" to-port="0"/>
		<edge from-layer="2989" from-port="0" to-layer="2992" to-port="1"/>
		<edge from-layer="2990" from-port="0" to-layer="2992" to-port="2"/>
		<edge from-layer="2991" from-port="0" to-layer="2992" to-port="3"/>
		<edge from-layer="2988" from-port="2" to-layer="2993" to-port="0"/>
		<edge from-layer="2992" from-port="4" to-layer="2993" to-port="1"/>
		<edge from-layer="2993" from-port="2" to-layer="2994" to-port="0"/>
		<edge from-layer="2978" from-port="2" to-layer="2996" to-port="0"/>
		<edge from-layer="2994" from-port="1" to-layer="2996" to-port="1"/>
		<edge from-layer="2995" from-port="0" to-layer="2996" to-port="2"/>
		<edge from-layer="2996" from-port="3" to-layer="2998" to-port="0"/>
		<edge from-layer="2997" from-port="0" to-layer="2998" to-port="1"/>
		<edge from-layer="2968" from-port="2" to-layer="3000" to-port="0"/>
		<edge from-layer="2999" from-port="0" to-layer="3000" to-port="1"/>
		<edge from-layer="2993" from-port="2" to-layer="3001" to-port="0"/>
		<edge from-layer="3000" from-port="2" to-layer="3003" to-port="0"/>
		<edge from-layer="3001" from-port="1" to-layer="3003" to-port="1"/>
		<edge from-layer="3002" from-port="0" to-layer="3003" to-port="2"/>
		<edge from-layer="3003" from-port="3" to-layer="3005" to-port="0"/>
		<edge from-layer="3004" from-port="0" to-layer="3005" to-port="1"/>
		<edge from-layer="2982" from-port="4" to-layer="3006" to-port="0"/>
		<edge from-layer="3006" from-port="1" to-layer="3008" to-port="0"/>
		<edge from-layer="3007" from-port="0" to-layer="3008" to-port="1"/>
		<edge from-layer="2998" from-port="2" to-layer="3009" to-port="0"/>
		<edge from-layer="3005" from-port="2" to-layer="3009" to-port="1"/>
		<edge from-layer="3008" from-port="2" to-layer="3009" to-port="2"/>
		<edge from-layer="3009" from-port="3" to-layer="3012" to-port="0"/>
		<edge from-layer="3010" from-port="0" to-layer="3012" to-port="1"/>
		<edge from-layer="3011" from-port="0" to-layer="3012" to-port="2"/>
		<edge from-layer="3012" from-port="3" to-layer="3014" to-port="0"/>
		<edge from-layer="3013" from-port="0" to-layer="3014" to-port="1"/>
		<edge from-layer="3014" from-port="2" to-layer="3016" to-port="0"/>
		<edge from-layer="3015" from-port="0" to-layer="3017" to-port="0"/>
		<edge from-layer="3016" from-port="1" to-layer="3017" to-port="1"/>
		<edge from-layer="3017" from-port="2" to-layer="3018" to-port="0"/>
		<edge from-layer="3018" from-port="1" to-layer="3020" to-port="0"/>
		<edge from-layer="3019" from-port="0" to-layer="3020" to-port="1"/>
		<edge from-layer="3020" from-port="2" to-layer="3021" to-port="0"/>
		<edge from-layer="3021" from-port="1" to-layer="3023" to-port="0"/>
		<edge from-layer="3022" from-port="0" to-layer="3023" to-port="1"/>
		<edge from-layer="3023" from-port="2" to-layer="3025" to-port="0"/>
		<edge from-layer="3024" from-port="0" to-layer="3025" to-port="1"/>
		<edge from-layer="3025" from-port="2" to-layer="3026" to-port="0"/>
		<edge from-layer="3014" from-port="2" to-layer="3027" to-port="0"/>
		<edge from-layer="3026" from-port="1" to-layer="3027" to-port="1"/>
		<edge from-layer="3027" from-port="3" to-layer="3030" to-port="0"/>
		<edge from-layer="3009" from-port="3" to-layer="3032" to-port="0"/>
		<edge from-layer="3030" from-port="1" to-layer="3032" to-port="1"/>
		<edge from-layer="3031" from-port="0" to-layer="3032" to-port="2"/>
		<edge from-layer="3032" from-port="3" to-layer="3036" to-port="0"/>
		<edge from-layer="3033" from-port="0" to-layer="3036" to-port="1"/>
		<edge from-layer="3034" from-port="0" to-layer="3036" to-port="2"/>
		<edge from-layer="3035" from-port="0" to-layer="3036" to-port="3"/>
		<edge from-layer="3036" from-port="4" to-layer="3037" to-port="0"/>
	</edges>
	<meta_data>
		<MO_version value="custom_HEAD_0e242b324458ed332f0907ac6d88fc24b610d9b9"/>
		<Runtime_version value="2022.3.0-000-0e242b32445-HEAD"/>
		<legacy_path value="True"/>
		<cli_parameters>
			<caffe_parser_path value="DIR"/>
			<data_type value="FP16"/>
			<disable_nhwc_to_nchw value="False"/>
			<disable_omitting_optional value="False"/>
			<disable_resnet_optimization value="False"/>
			<disable_weights_compression value="False"/>
			<enable_concat_optimization value="False"/>
			<enable_flattening_nested_params value="False"/>
			<enable_ssd_gluoncv value="False"/>
			<extensions value="['/opt/home/sys_k8sworker/workspace/DL-Benchmark/try/convert']"/>
			<framework value="onnx"/>
			<input value="image"/>
			<input_model value="DIR/person-detection-asl-0001.onnx"/>
			<input_model_is_text value="False"/>
			<input_shape value="[1,3,320,320]"/>
			<k value="DIR/CustomLayersMapping.xml"/>
			<layout value="image(nchw)"/>
			<legacy_mxnet_model value="False"/>
			<log_level value="ERROR"/>
			<mean_values value="image[123.675,116.28,103.53]"/>
			<model_name value="person-detection-asl-0001"/>
			<output value="boxes"/>
			<output_dir value="DIR"/>
			<progress value="False"/>
			<remove_memory value="False"/>
			<remove_output_softmax value="False"/>
			<reverse_input_channels value="True"/>
			<save_params_from_nd value="False"/>
			<scale_values value="image[58.395,57.12,57.375]"/>
			<silent value="True"/>
			<source_layout value="()"/>
			<static_shape value="False"/>
			<stream_output value="False"/>
			<target_layout value="()"/>
			<transform value=""/>
			<use_legacy_frontend value="False"/>
			<use_new_frontend value="False"/>
			<unset unset_cli_parameters="batch, counts, disable_fusing, finegrain_fusing, freeze_placeholder_with_value, input_checkpoint, input_meta_graph, input_proto, input_symbol, mean_file, mean_file_offsets, nd_prefix_name, pretrained_model_name, saved_model_dir, saved_model_tags, scale, tensorboard_logdir, tensorflow_custom_layer_libraries, tensorflow_custom_operations_config_update, tensorflow_object_detection_api_pipeline_config, tensorflow_use_custom_operations_config, transformations_config"/>
		</cli_parameters>
	</meta_data>
	<quantization_parameters>
		<config>{
		'compression': {
			'algorithms': [
				{
					'name': 'DefaultQuantization',
					'params': {
						'num_samples_for_tuning': 2000,
						'preset': 'performance',
						'stat_subset_size': 300,
						'use_fast_bias': false,
						'use_layerwise_tuning': false
					}
				}
			],
			'dump_intermediate_model': true,
			'target_device': 'ANY'
		},
		'engine': {
			'models': [
				{
					'name': 'person-detection-asl-0001',
					'launchers': [
						{
							'framework': 'openvino',
							'adapter': {
								'type': 'class_agnostic_detection',
								'scale': 0.003125
							},
							'device': 'cpu'
						}
					],
					'datasets': [
						{
							'name': 'mscoco_person_detection',
							'data_source': 'PATH',
							'annotation_conversion': {
								'converter': 'mscoco_detection',
								'annotation_file': 'PATH',
								'has_background': true,
								'sort_annotations': true,
								'use_full_label_map': true
							},
							'annotation': 'PATH',
							'dataset_meta': 'PATH',
							'preprocessing': [
								{
									'type': 'resize',
									'size': 320
								}
							],
							'postprocessing': [
								{
									'type': 'resize_prediction_boxes'
								},
								{
									'type': 'filter',
									'apply_to': 'annotation',
									'height_range': 100,
									'aspect_ratio': '0.666, 5',
									'is_empty': true,
									'min_visibility': 'partially occluded'
								},
								{
									'type': 'filter',
									'apply_to': 'prediction',
									'height_range': 100,
									'is_empty': true,
									'aspect_ratio': '0.666, 5'
								}
							],
							'metrics': [
								{
									'type': 'map',
									'ignore_difficult': true,
									'include_boundaries': true,
									'allow_multiple_matches_per_ignored': false,
									'distinct_conf': false,
									'reference': 0.7935
								}
							],
							'_command_line_mapping': {
								'annotation_file': 'PATH'
							}
						}
					]
				}
			],
			'stat_requests_number': null,
			'eval_requests_number': null,
			'type': 'accuracy_checker'
		}
	}</config>
		<version value="invalid version"/>
		<cli_params value="{'quantize': None, 'preset': None, 'model': None, 'weights': None, 'name': None, 'engine': None, 'ac_config': None, 'max_drop': None, 'evaluate': False, 'output_dir': 'PATH', 'direct_dump': True, 'log_level': 'INFO', 'pbar': False, 'stream_output': False, 'keep_uncompressed_weights': False, 'data_source': None}"/>
	</quantization_parameters>
</net>
